models_version2/2UAVs_75207/a_t0.pt (torch_old, 16240 bytes, 14 tensors)

weight f4 [50, 34]
000000 5a 8f cd 3d 26 0a 41 3f 3d d2 0f be 7a 0e 6f be
       0.10037108 0.7540611 -0.14045043 -0.23345366
000010 5a 66 71 bd d9 13 23 3e 27 6e f6 bd ba 61 fe 3c
       -0.0589355 0.1592554 -0.12032729 0.031052459
000020 f9 34 8e 3d 58 ab 95 bd 3a 90 10 3e 44 b3 8a bd
       0.069436975 -0.07308072 0.14117518 -0.067724735
000030 84 fc 44 3e 9d e6 69 3d af 71 e4 bd a6 3a e2 3d
       0.19236952 0.057104696 -0.11154496 0.110463426
000040 00 36 4d bd b2 6f 7d 3c 4b 59 b6 3d 8d 8d d4 3d
       -0.050100327 0.015468525 0.0890375 0.10378561
000050 cf 1e 32 be 30 a6 80 3d 58 52 13 bd 93 5e 13 3d
       -0.17394565 0.06281698 -0.0359672 0.035978865
000060 3a ac 36 3d eb d2 39 bc 61 b7 6d 3e ee 74 a0 bd
       0.04459784 -0.011341791 0.23214485 -0.078348026
000070 0a 1b 42 3d b9 9e 65 3e 29 97 1c be df 63 b2 3d
       0.047389068 0.22423829 -0.15292038 0.08710455
000080 05 81 20 bd 15 76 bf bd 1d 56 27 bf 75 bd 3b be
       -0.039185543 -0.09348694 -0.65365773 -0.18333991
000090 97 74 13 3e 2b f4 e4 bd c3 37 d6 3d 60 79 37 3e
       0.14399944 -0.11179384 0.104598545 0.17917395
0000a0 f2 47 26 3d 8d f6 02 3e f4 e1 7a bd fc 75 87 3d
       0.040595956 0.12789364 -0.061250642 0.066143006
0000b0 56 ef 67 3d 38 23 31 3e b0 a7 03 be c8 66 0f be
       0.056624733 0.17298591 -0.12856936 -0.14004052
0000c0 4e be 58 3d eb 52 00 be 19 1f bf 3d 0a 5a 07 bb
       0.052915864 -0.1253163 0.09332103 -0.0020653033
0000d0 38 f5 32 bc 8d 5f 2f 3e bf 2b ab bd 76 f9 89 bc
       -0.0109227225 0.17126293 -0.08357953 -0.016842585
0000e0 7a 5b cc bd e5 51 e7 3d 48 40 98 bd 8a e2 e1 3d
       -0.09978385 0.11294917 -0.07434136 0.11029537
0000f0 65 b8 41 be 33 cd 20 3e 1f 28 c7 3d c6 21 d5 3c
       -0.18917997 0.15703277 0.09724449 0.026017081
000100 fc d7 eb bd a6 c9 f9 bc 8e 6b 79 bd d8 bf bb bd
       -0.11515805 -0.030491661 -0.060893588 -0.09167451
000110 1e e2 23 bf f8 5a f0 be 80 c7 fd 3d 76 0d 32 3d
       -0.640169 -0.46944404 0.12391567 0.04346987
000120 5e 08 39 bd 50 a1 d6 3d e2 0a e1 bd f1 07 13 be
       -0.045173995 0.10479987 -0.10988404 -0.14358498
000130 86 d8 81 bd 30 a3 ec 3d 88 51 e2 bc 6a 49 80 3a
       -0.06340127 0.11554563 -0.027626768 0.0009787504
000140 c5 92 0f 3d c8 93 c0 bc 33 a3 db 3d e1 f0 5a 3d
       0.03505208 -0.023507968 0.10724487 0.053452376
000150 42 34 09 3e db 73 2b 3e b3 56 13 3e 7d eb 63 3e
       0.13398841 0.16743414 0.14388542 0.222578
000160 36 9e c2 3d 3a e4 a5 3c 9a 38 6e 3c e4 51 8a 3c
       0.095028326 0.020250428 0.014539862 0.016884752
000170 69 ee dd bd fd fa 19 3e 31 63 04 be 57 89 1d be
       -0.10836489 0.1503715 -0.12928464 -0.15384422
000180 12 11 bf 3d cb 77 af 3d 2e c2 e0 bd 6b 0c 03 bd
       0.09329428 0.085677706 -0.10974537 -0.031994265
000190 24 bd 37 3d 22 e9 ac 3d b3 dd bc be 56 f3 06 3f
       0.044858113 0.08442904 -0.36887893 0.5271505
0001a0 76 08 1c 3e 94 ed 0e be bf 3c e5 3d cb ad 8b 3d
       0.15237603 -0.13957816 0.11193227 0.06820258
0001b0 60 ff b5 3d eb b6 2b 3e 6d 53 a4 bc 80 a1 8d 3d
       0.088865995 0.16768996 -0.020059312 0.06915569
0001c0 4a 8a cb bd 0e 9d 56 3e 14 5e 30 3e ac d5 46 be
       -0.09938486 0.20958349 0.17223388 -0.19417447
0001d0 b5 72 0b be 87 46 4f 3c 40 3b a0 bd 2e c8 12 3d
       -0.13617976 0.012651092 -0.07823801 0.035835437
0001e0 a3 88 63 be 7f e6 59 3b d5 23 b3 bd a1 00 96 bd
       -0.22220092 0.0033248959 -0.08747069 -0.07324339
0001f0 3c 24 8a bc 82 0e de 3b a0 36 5d bc 98 a5 b3 3d
       -0.016862981 0.006776632 -0.013501793 0.08771819
000200 34 23 34 be 89 a2 a9 3d 96 b5 87 3d db ff 1e 3e
       -0.17591554 0.08282954 0.06626432 0.15527289
000210 a3 a6 95 be 54 3c 29 3e 89 b0 17 be 8b bb 5e bd
       -0.29228696 0.1652692 -0.14813437 -0.054378074
000220 c2 44 0f 3f 3c 7f 25 be a6 bc 17 bd 72 a1 d9 3c
       0.5596429 -0.16161817 -0.037045144 0.026566241
000230 ed f7 8c bd 44 28 c1 3c 65 b7 54 3d 7e 3f 09 be
       -0.068832256 0.02357877 0.05193271 -0.13403127
000240 8b 31 19 3e a6 37 c6 3d 42 41 84 3d 3b d5 ca bd
       0.14960305 0.09678583 0.064577594 -0.09903952
000250 65 43 01 3e 22 df 68 3e 32 6b fb 3d a2 02 19 3d
       0.12623365 0.22741368 0.12276305 0.037356026
000260 3e 58 0c 3e 76 cb 0c 3e ca ee fc bd 46 7e bb bc
       0.13705537 0.13749489 -0.12350233 -0.02288736
000270 19 c5 b7 3a 2f 16 49 3d e8 46 91 bd f9 c6 a6 bd
       0.0014020532 0.04909342 -0.070936024 -0.0814342
000280 47 c5 10 3c 38 20 0b 3d 15 1f 16 3d 1e 5d c7 3d
       0.008836097 0.033966273 0.036650736 0.097345576
000290 7e 59 1e be 75 d2 18 3e e7 36 e9 3c 08 52 08 3e
       -0.15463826 0.14924033 0.028468562 0.13312542
0002a0 7d 81 0b be 74 57 7f 3d 6f 78 93 3e 26 c7 2d bf
       -0.13623615 0.06233926 0.2880282 -0.67882
0002b0 d1 93 30 3e 99 a8 61 3d e4 c2 30 3e eb 71 63 bd
       0.17243887 0.055092428 0.17261845 -0.055528563
0002c0 ec 1b 13 be 55 c7 7b bd 1b 55 64 bd 0e 48 25 bd
       -0.1436612 -0.061469395 -0.055745225 -0.04035192
0002d0 3f 0b 6e bd a6 28 4b 3e 9e 3f 97 3d 9e 7a 47 3d
       -0.058116194 0.19839725 0.07385181 0.04870092
0002e0 94 de b1 bc cb 62 97 bd 2b f8 c8 bd ea 5c 16 be
       -0.021712579 -0.0739189 -0.09812959 -0.14683881
0002f0 b6 d9 09 be 7d e9 11 bc fa 7f 0d 3d d2 76 6e 3e
       -0.13461956 -0.008905766 0.034545876 0.23287514
000300 af d6 4f 3d fb 21 3e be f9 c9 35 3e 1c d2 3b 3e
       0.050741848 -0.1856765 0.17752828 0.18341869
000310 a2 59 bd bd 10 f6 e1 3d 4c fd 30 3e 7c 2b ae bd
       -0.09245612 0.11033261 0.17284125 -0.08504388
000320 c2 d2 d3 3d 1e e7 c4 ba 09 ca be bd 0e 8d 1c 3e
       0.10342933 -0.0015022492 -0.09315879 0.15288183
000330 9b f1 c2 be 2f ad 21 bf 25 21 b5 3d e7 06 c5 3d
       -0.38074955 -0.6315488 0.088442124 0.09620457
000340 96 8c c8 3d 2a 14 96 bd 9b 6a f6 3d 4a 70 0a 3e
       0.0979244 -0.07328065 0.12032052 0.13519397
000350 e1 6a cf bc f9 21 1b 3d 81 77 81 3d 36 f3 dc 3c
       -0.025319519 0.037874196 0.06321622 0.02697144
000360 af ae bc bd 3f 9c ca bd b0 02 57 3d 7f a3 05 be
       -0.09213006 -0.09893083 0.052492797 -0.1305065
000370 fa bb 4e 3e 7c 69 05 bd 1d 24 15 3e dd 51 3f bd
       0.20188895 -0.0325713 0.14564557 -0.04670893
000380 63 27 29 3d 06 47 83 3b 83 5b 85 bd b4 6b 86 3c
       0.041297328 0.0040062694 -0.06511595 0.016408779
000390 3f c8 9c 3d c4 76 f7 3d 09 19 1e be ac ae 97 3d
       0.076553814 0.120831996 -0.15439238 0.07406363
0003a0 60 0d df 3d d8 1b ae 3c b3 f7 5a bc d6 63 53 3d
       0.10891223 0.021253511 -0.01336472 0.051608883
0003b0 e6 11 26 be ea 1e c1 3d c6 4e c4 be 56 70 fa be
       -0.16217765 0.094297245 -0.3834135 -0.4891383
0003c0 1d ba da 3d 15 19 a4 bc 23 4c b7 bd c9 41 8a 3d
       0.106800295 -0.020031491 -0.08950069 0.06750829
0003d0 8d cf 04 3d 9d 23 d7 3d eb ff da 3d e5 7f 7c 3d
       0.0324245 0.105048396 0.10693344 0.061645407
0003e0 0d 14 80 3c f4 48 27 3e 7a 53 00 bc 98 0d 71 3c
       0.015634561 0.16336423 -0.007832402 0.014712714
0003f0 10 0a a9 3d 87 18 09 3d 97 ce a8 3d 71 2c 4f 3c
       0.082538724 0.033470657 0.08242529 0.012644873

bias f4 [50]
000000 61 94 1a 3e 6f 48 89 3d de cd ba 3d 21 c2 8c 3d
       0.15095665 0.06703269 0.09121297 0.06872965
000010 58 a4 0d be 3a 8c 4b 3e 16 24 7c 39 be e3 d0 3d
       -0.13832223 0.19877711 0.00024046036 0.101996884
000020 04 53 fd bd e0 86 29 3e 54 e8 e1 bd 3e f2 50 3d
       -0.123693496 0.16555357 -0.11030641 0.05101227
000030 d1 b5 29 3e 89 8f f5 3b 6e 9b 30 3d 75 bf a1 bd
       0.16573264 0.0074939174 0.04311698 -0.07897846
000040 2c d9 b6 bd 50 eb 18 bd 6c 45 40 3e c6 0a cc bc
       -0.08928141 -0.037333786 0.18776482 -0.02490748
000050 f6 83 80 bd 6e b9 ee bd 15 76 79 bc 33 a7 86 bb
       -0.062751696 -0.11656462 -0.015225907 -0.004109287
000060 fd 79 24 be 52 8a 71 bd d5 77 4b bd 28 e8 fe 3d
       -0.1606216 -0.058969803 -0.049674828 0.12446624
000070 b3 03 9d 3d be 86 e5 3d 18 b3 05 3e e5 d9 b1 3d
       0.07666721 0.11207341 0.130566 0.08684138
000080 6c fb e0 3d 9a d0 5d bd 32 51 5c 3e 2f fd 57 3e
       0.10985455 -0.054154016 0.21515349 0.21092676
000090 a2 3f c6 bd ea 8e 42 bd 5b fd 7b 3e ca 69 0d be
       -0.09680106 -0.047499575 0.24608366 -0.13809887
0000a0 17 3f 22 3e d5 91 6a 3d e1 de 0f be bc b3 4b 3d
       0.1584438 0.057267983 -0.14049865 0.049731955
0000b0 88 2f 5e 3c df f2 9f bc fa e0 29 bc f7 e6 fc bd
       0.013561137 -0.01952499 -0.01036858 -0.123487405
0000c0 83 8b 8a 3d b3 52 bb bb
       0.06764891 -0.0057166456

weight f4 [50]
000000 00 00 80 3f 00 00 80 3f 00 00 80 3f 00 00 80 3f
       1.0 1.0 1.0 1.0
000010 00 00 80 3f 00 00 80 3f 00 00 80 3f 00 00 80 3f
       1.0 1.0 1.0 1.0
000020 00 00 80 3f 00 00 80 3f 00 00 80 3f 00 00 80 3f
       1.0 1.0 1.0 1.0
000030 00 00 80 3f 00 00 80 3f 00 00 80 3f 00 00 80 3f
       1.0 1.0 1.0 1.0
000040 00 00 80 3f 00 00 80 3f 00 00 80 3f 00 00 80 3f
       1.0 1.0 1.0 1.0
000050 00 00 80 3f 00 00 80 3f 00 00 80 3f 00 00 80 3f
       1.0 1.0 1.0 1.0
000060 00 00 80 3f 00 00 80 3f 00 00 80 3f 00 00 80 3f
       1.0 1.0 1.0 1.0
000070 00 00 80 3f 00 00 80 3f 00 00 80 3f 00 00 80 3f
       1.0 1.0 1.0 1.0
000080 00 00 80 3f 00 00 80 3f 00 00 80 3f 00 00 80 3f
       1.0 1.0 1.0 1.0
000090 00 00 80 3f 00 00 80 3f 00 00 80 3f 00 00 80 3f
       1.0 1.0 1.0 1.0
0000a0 00 00 80 3f 00 00 80 3f 00 00 80 3f 00 00 80 3f
       1.0 1.0 1.0 1.0
0000b0 00 00 80 3f 00 00 80 3f 00 00 80 3f 00 00 80 3f
       1.0 1.0 1.0 1.0
0000c0 00 00 80 3f 00 00 80 3f
       1.0 1.0

bias f4 [50]
000000 00 00 00 00 00 00 00 00 00 00 00 00 00 00 00 00
       0.0 0.0 0.0 0.0
000010 00 00 00 00 00 00 00 00 00 00 00 00 00 00 00 00
       0.0 0.0 0.0 0.0
000020 00 00 00 00 00 00 00 00 00 00 00 00 00 00 00 00
       0.0 0.0 0.0 0.0
000030 00 00 00 00 00 00 00 00 00 00 00 00 00 00 00 00
       0.0 0.0 0.0 0.0
000040 00 00 00 00 00 00 00 00 00 00 00 00 00 00 00 00
       0.0 0.0 0.0 0.0
000050 00 00 00 00 00 00 00 00 00 00 00 00 00 00 00 00
       0.0 0.0 0.0 0.0
000060 00 00 00 00 00 00 00 00 00 00 00 00 00 00 00 00
       0.0 0.0 0.0 0.0
000070 00 00 00 00 00 00 00 00 00 00 00 00 00 00 00 00
       0.0 0.0 0.0 0.0
000080 00 00 00 00 00 00 00 00 00 00 00 00 00 00 00 00
       0.0 0.0 0.0 0.0
000090 00 00 00 00 00 00 00 00 00 00 00 00 00 00 00 00
       0.0 0.0 0.0 0.0
0000a0 00 00 00 00 00 00 00 00 00 00 00 00 00 00 00 00
       0.0 0.0 0.0 0.0
0000b0 00 00 00 00 00 00 00 00 00 00 00 00 00 00 00 00
       0.0 0.0 0.0 0.0
0000c0 00 00 00 00 00 00 00 00
       0.0 0.0

running_mean f4 [50]
000000 00 00 00 00 00 00 00 00 00 00 00 00 00 00 00 00
       0.0 0.0 0.0 0.0
000010 00 00 00 00 00 00 00 00 00 00 00 00 00 00 00 00
       0.0 0.0 0.0 0.0
000020 00 00 00 00 00 00 00 00 00 00 00 00 00 00 00 00
       0.0 0.0 0.0 0.0
000030 00 00 00 00 00 00 00 00 00 00 00 00 00 00 00 00
       0.0 0.0 0.0 0.0
000040 00 00 00 00 00 00 00 00 00 00 00 00 00 00 00 00
       0.0 0.0 0.0 0.0
000050 00 00 00 00 00 00 00 00 00 00 00 00 00 00 00 00
       0.0 0.0 0.0 0.0
000060 00 00 00 00 00 00 00 00 00 00 00 00 00 00 00 00
       0.0 0.0 0.0 0.0
000070 00 00 00 00 00 00 00 00 00 00 00 00 00 00 00 00
       0.0 0.0 0.0 0.0
000080 00 00 00 00 00 00 00 00 00 00 00 00 00 00 00 00
       0.0 0.0 0.0 0.0
000090 00 00 00 00 00 00 00 00 00 00 00 00 00 00 00 00
       0.0 0.0 0.0 0.0
0000a0 00 00 00 00 00 00 00 00 00 00 00 00 00 00 00 00
       0.0 0.0 0.0 0.0
0000b0 00 00 00 00 00 00 00 00 00 00 00 00 00 00 00 00
       0.0 0.0 0.0 0.0
0000c0 00 00 00 00 00 00 00 00
       0.0 0.0

running_var f4 [50]
000000 00 00 80 3f 00 00 80 3f 00 00 80 3f 00 00 80 3f
       1.0 1.0 1.0 1.0
000010 00 00 80 3f 00 00 80 3f 00 00 80 3f 00 00 80 3f
       1.0 1.0 1.0 1.0
000020 00 00 80 3f 00 00 80 3f 00 00 80 3f 00 00 80 3f
       1.0 1.0 1.0 1.0
000030 00 00 80 3f 00 00 80 3f 00 00 80 3f 00 00 80 3f
       1.0 1.0 1.0 1.0
000040 00 00 80 3f 00 00 80 3f 00 00 80 3f 00 00 80 3f
       1.0 1.0 1.0 1.0
000050 00 00 80 3f 00 00 80 3f 00 00 80 3f 00 00 80 3f
       1.0 1.0 1.0 1.0
000060 00 00 80 3f 00 00 80 3f 00 00 80 3f 00 00 80 3f
       1.0 1.0 1.0 1.0
000070 00 00 80 3f 00 00 80 3f 00 00 80 3f 00 00 80 3f
       1.0 1.0 1.0 1.0
000080 00 00 80 3f 00 00 80 3f 00 00 80 3f 00 00 80 3f
       1.0 1.0 1.0 1.0
000090 00 00 80 3f 00 00 80 3f 00 00 80 3f 00 00 80 3f
       1.0 1.0 1.0 1.0
0000a0 00 00 80 3f 00 00 80 3f 00 00 80 3f 00 00 80 3f
       1.0 1.0 1.0 1.0
0000b0 00 00 80 3f 00 00 80 3f 00 00 80 3f 00 00 80 3f
       1.0 1.0 1.0 1.0
0000c0 00 00 80 3f 00 00 80 3f
       1.0 1.0

weight f4 [20, 50]
000000 b4 84 40 be 10 29 2a 3e 93 f2 ba 3e 0c 76 18 be
       -0.18800622 0.16617227 0.36513194 -0.14888781
000010 d4 ae 9f bd 7d 4b af 3d bd 96 b4 3e 17 d3 71 3e
       -0.07797018 0.0855932 0.35271254 0.2361568
000020 f1 27 66 bd d5 4f 03 3e 59 d7 c5 3d a3 16 9f bd
       -0.056190435 0.12823422 0.09660215 -0.077679895
000030 c8 3a 83 3d 9e d1 08 be 57 ef 0b 3e fa 5a 87 3e
       0.06407696 -0.13361213 0.1366552 0.26436597
000040 72 c6 0e 3e a5 3d 4d 3e 41 87 0c be 73 8c db bd
       0.13942888 0.20043047 -0.1372347 -0.10720148
000050 3e 33 7f 3d 3f 5c 81 3d 9d 5f 71 3e a2 9f dd 3d
       0.062304728 0.06316423 0.2357163 0.10821463
000060 fa 3d a6 be 76 b6 b2 be a4 14 9f be 72 be 1c be
       -0.3246916 -0.34904832 -0.31070435 -0.15307024
000070 6c c3 da bd 7d 0b f7 3d f6 99 29 bc 9d 96 2e 3d
       -0.10681805 0.12062738 -0.010351649 0.042624105
000080 18 5d 20 3d 77 a9 2a be ae 0a 1a bd 25 26 c5 3d
       0.03915128 -0.16666208 -0.03760784 0.09626416
000090 80 e9 3e 3e 16 b8 04 3e ee 17 b6 3c 5d 73 6d bb
       0.1864376 0.12960848 0.022228207 -0.0036232092
0000a0 61 d3 bc bd 56 4f ec 3c b3 45 83 3d 3c d6 da bd
       -0.09220005 0.028846424 0.064097784 -0.10685393
0000b0 5f e3 9c 3e 9b dc a9 3c 4c b7 a0 bd 08 02 5f 3e
       0.3064222 0.020735076 -0.07847461 0.21778119
0000c0 af 15 2b be de 4f 06 3e 69 92 06 3e 36 79 0d be
       -0.1670749 0.13116404 0.13141789 -0.1381577
0000d0 f0 3b b9 bd 79 f5 33 3e c8 5d 90 3c bc 0e 12 be
       -0.09044635 0.17574109 0.017622843 -0.14263433
0000e0 5e c4 8a be 84 7c f8 bd f2 84 ad 3d 83 59 4c be
       -0.2710294 -0.121331245 0.08472623 -0.19956021
0000f0 b4 a0 ec bc 94 dd 7f 3e 70 7c 1d 3e b7 cf 80 3d
       -0.028885223 0.24986869 0.153795 0.062896185
000100 10 9b a0 3c d8 83 19 3d 0b ca 4a ba 03 0b d4 3d
       0.01960519 0.03747925 -0.0007735795 0.10353663
000110 f2 36 15 3e ef d5 4f 3e a0 5e c6 bc b4 1d 5c 3e
       0.14571741 0.20296453 -0.024215043 0.21495706
000120 49 80 26 be 34 bc 33 be e6 f3 1e 3e 17 3c c9 3d
       -0.16259874 -0.17552263 0.15522727 0.09825914
000130 7c db 61 3e e3 a1 29 bd 10 a7 f1 3c 45 5e 8c bd
       0.22056383 -0.041414153 0.029498607 -0.06853918
000140 91 4e 34 bc 18 80 f7 bd 3b 49 2d 3d bb f6 20 3e
       -0.01100506 -0.12084979 0.042306166 0.1571912
000150 a7 38 24 3e a8 25 e0 bc 67 b7 d1 bd e2 e8 7f be
       0.16037236 -0.027361706 -0.10240059 -0.24991181
000160 7d 35 ac 3c c1 c5 b0 bd a7 56 b7 3d 6c e8 67 bd
       0.021021599 -0.086314686 0.089520745 -0.05661814
000170 f4 96 0f 3d 31 cd 8c 3d 59 38 5d be a4 e0 da 3b
       0.03505607 0.06875075 -0.21603526 0.0066796113
000180 f3 0b f0 3d 7a df 1a 3c 69 13 53 3e 52 1d 50 bc
       0.11721029 0.009452695 0.20612873 -0.012702303
000190 bd 53 04 3e ad 2c aa bb 30 d9 7e be 1d 43 05 3e
       0.12922569 -0.005193314 -0.24887538 0.13013883
0001a0 4e a7 0b 3e 22 91 3b be e4 ea 40 be d7 e4 c7 bd
       0.1363804 -0.18317083 -0.18839604 -0.097604446
0001b0 46 d6 55 3e 96 d6 91 be 64 0f 66 be b2 d8 a4 3e
       0.2088252 -0.2848403 -0.22466809 0.32196575
0001c0 d1 78 dd 3d 62 b2 c8 3d cf e4 1a be 4c 8e 6c be
       0.108140595 0.09799649 -0.15126346 -0.23101157
0001d0 e8 d8 7a be 39 47 78 be d2 7b 91 3d f5 b4 4e 3e
       -0.24496806 -0.2424592 0.07103695 0.20186217
0001e0 ca 30 06 3e 5c c9 4b 3e 48 4b 46 bd 4e 8c 2e be
       0.13104549 0.19901031 -0.048411638 -0.1704571
0001f0 b1 19 3e 3e f3 a9 93 3e 31 f7 6f 3e ed f3 f9 3d
       0.18564488 0.28840598 0.2343414 0.12204728
000200 e2 a3 b8 3e cc 60 ee bd ee 40 48 3e 9c 44 52 3d
       0.36062533 -0.11639556 0.19556019 0.051334962
000210 e7 20 c7 3d dd 36 80 3e e7 4e b0 3c bf 2f ca bd
       0.097230725 0.25041857 0.021521999 -0.09872388
000220 79 9f 17 be 16 29 86 be b1 e6 be 3d 0e 66 f0 3c
       -0.14806928 -0.2620322 0.09321345 0.029345538
000230 57 05 3f 3e 59 c5 90 3e b8 e8 a5 bc 8c bd 5f bc
       0.1865438 0.28275564 -0.02025257 -0.013656031
000240 38 5e 4e be ae e2 90 3e df 0a 5d 3d d2 80 29 be
       -0.20153129 0.28297943 0.053965446 -0.16553047
000250 4e b2 5b 3e 59 60 58 bd ce e8 70 3e 4d da 43 3e
       0.21454737 -0.05282626 0.23526308 0.19126244
000260 3c a4 94 3d 14 ad 05 3f ad e4 23 be 9c d2 b8 be
       0.07257888 0.5221722 -0.16005202 -0.36098182
000270 0c ed 13 be 4e f1 08 3d 0c 2f 33 3e 59 de cc bd
       -0.14445895 0.03343325 0.17498416 -0.10003347
000280 26 13 a0 be 0a 12 e6 bc 01 56 da 3e a0 b1 81 3d
       -0.3126461 -0.028084774 0.4264374 0.063327074
000290 5d 9f 6b 3e 89 36 be be 1a e8 a7 be 63 78 9f be
       0.23010011 -0.37150982 -0.32794267 -0.31146535
0002a0 5f 4b a4 3e 7c 46 9b 3e 38 24 ad 3e 35 25 0f 3e
       0.32088754 0.30327213 0.33816695 0.13979037
0002b0 1e 4a ad 3e b4 e5 98 be d6 ec c5 bd 20 3b dc bd
       0.3384561 -0.2986275 -0.096643135 -0.10753465
0002c0 6d b8 a4 3d 75 33 91 3e 43 8f 92 3e 18 23 9c 3d
       0.08042989 0.2835957 0.28624925 0.07623881
0002d0 86 f3 98 3e 84 a9 26 be 91 18 09 be c6 68 41 39
       0.29873294 -0.16275603 -0.13388278 0.00018444945
0002e0 59 5e 19 3e d0 20 7f be 95 f6 8a be 34 8b e3 bd
       0.14977397 -0.2491486 -0.27141252 -0.11110535
0002f0 1c 01 46 3e 30 f9 e3 3d 5f de 88 3e 91 90 56 3e
       0.1933636 0.11131513 0.26732156 0.20953585
000300 e0 63 93 3c ee 2c e4 3c 60 c3 80 bd f2 ed 62 3e
       0.01799196 0.027853455 -0.06287265 0.22161081
000310 b8 35 4b 3e 92 ae 06 be 71 85 40 3e b3 b3 26 be
       0.19844711 -0.13152531 0.18800904 -0.16279487
000320 e0 e9 a1 be b0 15 0b bb 98 71 53 3e ca 73 8c be
       -0.31623745 -0.0021222644 0.20648801 -0.2743209
000330 b4 78 7c 3e a4 4b 9f 3e 91 12 6b 3e 17 b7 70 3e
       0.2465542 0.31112397 0.22956301 0.23507343
000340 46 63 80 be 5e 56 79 3d 5d 08 a5 3e e7 a8 1a 3e
       -0.2507574 0.06087338 0.32232943 0.15103494
000350 c9 38 c0 bd 8d 53 31 bd 63 10 b9 bd c3 7a ac 3e
       -0.09385831 -0.04329257 -0.09036329 0.3368741
000360 32 69 96 3e 6a 88 9f 3e 90 18 8c be 89 52 cb bd
       0.29377133 0.31158763 -0.2736249 -0.09927852
000370 2e 13 68 be c4 7b fc 3d 08 4b 21 bd b2 83 43 3e
       -0.22663566 0.12328294 -0.039378196 0.19093207
000380 0a f3 3d 3e b5 f8 28 3d 75 c1 64 be d1 ab a1 bd
       0.18549743 0.04125281 -0.22339423 -0.078940995
000390 71 65 73 be 2f 9e 7c 3d cf 8a ba be 1c 73 ce 3d
       -0.23769166 0.061674293 -0.36434028 0.10080549
0003a0 30 66 40 bd d4 c7 01 be d9 df 32 be b4 e0 b3 3e
       -0.046972454 -0.12673885 -0.17468204 0.35132372
0003b0 83 7c c7 3e 39 91 0d 3e e6 78 ae 3c 1d 4d 2a bd
       0.38962182 0.1382493 0.021297883 -0.041577447
0003c0 76 b0 99 be 85 c4 c8 be 7f fc c7 bd 8a 87 13 3e
       -0.30017442 -0.39212433 -0.09764957 0.14407173
0003d0 64 89 83 3e 6d fe 00 be 52 c0 25 be 1b 33 27 3e
       0.25690758 -0.12597056 -0.16186646 0.16328089
0003e0 ec 38 cd bd e8 f5 9a 3e 44 b5 d2 bd e6 d1 06 3d
       -0.100206226 0.30265737 -0.1028848 0.03291502
0003f0 e3 de d6 3d fb a9 da 3d 62 76 04 3d e7 49 8c bb
       0.10491731 0.106769525 0.03233946 -0.004281271

bias f4 [20]
000000 ad 5b aa bb d3 55 dc 3d d9 89 c6 bd a8 bb 50 3d
       -0.005198917 0.10758557 -0.09694261 0.050960213
000010 b7 a5 0e 3e 7b c7 53 3d 70 7e 3b 3e f0 8d e5 3d
       0.13930403 0.05170391 0.18309951 0.11208713
000020 0f 05 b3 3c 9e 3d a2 3c 6b 2c da 3d 96 f0 e9 bd
       0.021852998 0.019804772 0.10653003 -0.11422841
000030 6e 5a 97 3d e6 37 12 3e 78 ef 93 3d ec c8 ab 3b
       0.07390295 0.14279136 0.072234094 0.0052424576
000040 ba 99 b2 3d 1e 9b cf bd 36 39 c1 3d 9f 64 33 bd
       0.08720727 -0.10137008 0.0943474 -0.04379713

weight f4 [20]
000000 00 00 80 3f 00 00 80 3f 00 00 80 3f 00 00 80 3f
       1.0 1.0 1.0 1.0
000010 00 00 80 3f 00 00 80 3f 00 00 80 3f 00 00 80 3f
       1.0 1.0 1.0 1.0
000020 00 00 80 3f 00 00 80 3f 00 00 80 3f 00 00 80 3f
       1.0 1.0 1.0 1.0
000030 00 00 80 3f 00 00 80 3f 00 00 80 3f 00 00 80 3f
       1.0 1.0 1.0 1.0
000040 00 00 80 3f 00 00 80 3f 00 00 80 3f 00 00 80 3f
       1.0 1.0 1.0 1.0

bias f4 [20]
000000 00 00 00 00 00 00 00 00 00 00 00 00 00 00 00 00
       0.0 0.0 0.0 0.0
000010 00 00 00 00 00 00 00 00 00 00 00 00 00 00 00 00
       0.0 0.0 0.0 0.0
000020 00 00 00 00 00 00 00 00 00 00 00 00 00 00 00 00
       0.0 0.0 0.0 0.0
000030 00 00 00 00 00 00 00 00 00 00 00 00 00 00 00 00
       0.0 0.0 0.0 0.0
000040 00 00 00 00 00 00 00 00 00 00 00 00 00 00 00 00
       0.0 0.0 0.0 0.0

running_mean f4 [20]
000000 00 00 00 00 00 00 00 00 00 00 00 00 00 00 00 00
       0.0 0.0 0.0 0.0
000010 00 00 00 00 00 00 00 00 00 00 00 00 00 00 00 00
       0.0 0.0 0.0 0.0
000020 00 00 00 00 00 00 00 00 00 00 00 00 00 00 00 00
       0.0 0.0 0.0 0.0
000030 00 00 00 00 00 00 00 00 00 00 00 00 00 00 00 00
       0.0 0.0 0.0 0.0
000040 00 00 00 00 00 00 00 00 00 00 00 00 00 00 00 00
       0.0 0.0 0.0 0.0

running_var f4 [20]
000000 00 00 80 3f 00 00 80 3f 00 00 80 3f 00 00 80 3f
       1.0 1.0 1.0 1.0
000010 00 00 80 3f 00 00 80 3f 00 00 80 3f 00 00 80 3f
       1.0 1.0 1.0 1.0
000020 00 00 80 3f 00 00 80 3f 00 00 80 3f 00 00 80 3f
       1.0 1.0 1.0 1.0
000030 00 00 80 3f 00 00 80 3f 00 00 80 3f 00 00 80 3f
       1.0 1.0 1.0 1.0
000040 00 00 80 3f 00 00 80 3f 00 00 80 3f 00 00 80 3f
       1.0 1.0 1.0 1.0

weight f4 [2, 20]
000000 06 a9 07 3e 1f 07 f3 bd 6c d5 d4 bc 3c 25 ee 3e
       0.13248071 -0.118665926 -0.025980674 0.46512783
000010 52 12 89 be 7d 35 63 be 41 41 13 3f 3c 0c 9c bb
       -0.2677179 -0.22188373 0.57521445 -0.0047622006
000020 a5 ad e3 be 6e e6 a1 3e 0d 2b fe 3d d6 88 fa 3c
       -0.44468418 0.31621116 0.12410555 0.030582827
000030 e2 82 ef be cb b6 2f 3f c4 1e 4e be a5 24 e5 be
       -0.46779543 0.68638295 -0.20128924 -0.4475452
000040 4f 58 44 3e a8 86 de 3d ac 12 1d 3f da 1b 82 be
       0.19174312 0.108655274 0.61356616 -0.25411874
000050 06 47 e8 3e 14 cd a8 be 1b dc 1d bf 2c d0 c4 be
       0.45366687 -0.32968962 -0.6166398 -0.38440073
000060 f3 5b f5 3e 19 16 3d 3e 32 a5 f9 be 12 dc da be
       0.47921714 0.18465461 -0.48758847 -0.42746025
000070 9b 82 89 3e 51 e1 ef 3e d8 d0 9a b9 15 44 a4 be
       0.26857457 0.4685159 -0.0002952877 -0.32083192
000080 79 a9 96 be 41 94 37 be e8 0d 24 3d 4e da dc 3e
       -0.29426172 -0.17927648 0.040052325 0.43135303
000090 53 69 08 3e 17 43 d0 3d 50 db da be 46 52 ce be
       0.13321428 0.10169046 -0.42745447 -0.40297145

bias f4 [2]
000000 c7 62 81 3d d4 17 a6 bb
       0.063176684 -0.0050687585
