models_version2/2UAVs_75207/c_t0.pt (torch_old, 28013 bytes, 15 tensors)

weight f4 [50, 68]
000000 62 d3 07 3f 1a 96 a5 bd 94 b1 32 3c 82 f1 b9 3c
       0.5305692 -0.0808527 0.010906596 0.022698168
000010 ae 60 13 3d fd 2e da 3d 93 9f 66 3e e0 d4 f9 3d
       0.035980873 0.106534936 0.2252181 0.12198806
000020 53 b5 8e 3c 92 36 ea 3d 15 37 b0 3c 95 bb ff 3d
       0.017420447 0.1143619 0.02151064 0.1248695
000030 3a d4 c6 3d 4f 5a d0 3d 53 e4 f3 3d 17 ab 05 bd
       0.09708448 0.10173475 0.11908784 -0.032633867
000040 b7 a5 57 3d ad b8 11 3c 88 1d b7 bd dd bc 39 bd
       0.052648272 0.008894128 -0.089411795 -0.04534613
000050 c0 cf 3f bb 9a ad 3f bd 17 20 70 bd 37 a3 37 3d
       -0.0029268116 -0.04679642 -0.058624353 0.04483339
000060 8f ed 97 bd 3f 07 e0 3d 43 10 7c 3d 27 4f 28 bd
       -0.074183576 0.10938882 0.061538946 -0.04109111
000070 b6 02 97 bd 32 01 aa 3d 22 68 b7 bb 8f 5f e4 3d
       -0.07373564 0.08301009 -0.0055971304 0.11151039
000080 ce 00 71 bd 72 c2 aa bd 49 ea d1 3e bc fc 86 bd
       -0.058838658 -0.08337869 0.40999058 -0.06591174
000090 aa 1c 1d 3d a2 e5 ae bd 27 59 00 3e 50 a8 ca 3d
       0.038357414 -0.08539893 0.12534009 0.09895384
0000a0 b6 9c 86 3d ab 71 0c 3d 2e b0 f0 bd 20 0a e4 bc
       0.06572859 0.03428809 -0.117523536 -0.02783686
0000b0 5b f9 19 3d ad ec a6 bd d9 bb 25 3e 8f 7b eb 3d
       0.03759132 -0.08150611 0.1618494 0.11498176
0000c0 27 d0 3d 3e f6 1f bb 3d d5 ca 0a 3d 88 c6 55 bd
       0.18536435 0.091369554 0.033884842 -0.052191287
0000d0 70 5b 0f bd 06 8c af bd 88 8a 5b bd 92 a2 81 bd
       -0.03499931 -0.08571629 -0.05359891 -0.06329836
0000e0 13 e1 83 3c 57 da 44 bc cf 43 98 3d c5 1e 46 bc
       0.016098535 -0.012014947 0.074348085 -0.012092297
0000f0 cc bd 92 3d e0 f4 6a bd b8 7f f0 bc cd b6 ec 3d
       0.07165107 -0.057362437 -0.029357776 0.11558304
000100 e8 53 a9 3c 20 ba 21 bd 6e 16 78 bd c7 c2 86 3d
       0.020669892 -0.039484143 -0.060568266 0.065801196
000110 f9 02 fa be bd 0f 08 bf 52 29 01 3e 33 a7 ad 3d
       -0.48830393 -0.53149015 0.12613419 0.08479156
000120 85 0c 16 3d f4 14 a9 bd 05 0b 90 3e b9 ab 46 bb
       0.036633033 -0.082559496 0.28133407 -0.0030314757
000130 1c 23 62 bd 41 67 90 3d 7b e1 6e 3d ca fb 22 bd
       -0.055209264 0.07050944 0.058320504 -0.039790906
000140 6c e4 88 3d 01 7c a8 3d a6 74 79 3d a3 1b bd 3d
       0.06684193 0.08226777 0.06090226 0.09233787
000150 4e 6b 05 3e f1 96 97 3d 33 79 cc 3d 9e c4 dd 3d
       0.13029215 0.07401837 0.099840544 0.108285174
000160 a2 c9 20 bd 81 92 93 3c ac 35 8f bd b4 96 89 3c
       -0.039254792 0.018014194 -0.06992659 0.016795494
000170 42 df 3d 3c 2c eb 40 3c 3e 32 59 bd 3f 60 50 3d
       0.011588873 0.011774819 -0.05302643 0.050873037
000180 52 c6 c8 bd b4 ae 03 3e e2 8d 94 bd 29 dc 05 be
       -0.098034516 0.12859613 -0.072536245 -0.13072266
000190 d9 7e 1e bd 30 46 9d 3d 4a 5e ae be 35 19 fd be
       -0.03869519 0.07679403 -0.34056312 -0.49433294
0001a0 6d 89 6b bc 4c 19 67 3d da c7 32 3d 16 0f c2 bc
       -0.014376027 0.05642061 0.043647625 -0.023688834
0001b0 26 ae 07 3e f7 31 a8 bc 2f 1b 8e bb ec f0 db 3d
       0.13250026 -0.020531638 -0.0043367366 0.107393116
0001c0 bd 91 cd 3d 02 4d f2 3d 30 d8 e3 3d 25 ad 23 bb
       0.10037563 0.11831094 0.11125219 -0.0024975028
0001d0 4a 43 7b 3d fc 98 d1 3d 47 87 29 3e 7c 30 66 bc
       0.06134347 0.102342576 0.1655551 -0.0140496455
0001e0 31 c4 a7 bd ef 31 45 3d 2c 18 8b bd ea f0 ab 3d
       -0.081917174 0.048143324 -0.0679172 0.0839556
0001f0 39 84 30 3d bc 3e b5 bc fe 29 64 3d 03 b6 d1 3d
       0.043094847 -0.02212464 0.05570411 0.10239794
000200 25 32 d2 bd bd 2c 94 3c 44 b2 a1 3d c9 56 ca 3c
       -0.102634706 0.01808774 0.078953296 0.024699586
000210 01 e0 af 3d d7 0b e2 bd 9f 1c 8a 3d d1 8e 98 bd
       0.08587647 -0.110374145 0.0674374 -0.07449115
000220 3e 21 53 3d c0 e8 19 3e d5 44 0d 3e 67 93 a1 ba
       0.051545374 0.15030193 0.13795789 -0.0012327255
000230 13 41 71 bd cb c1 da 3c e4 e5 5c 3e 50 fe 63 bc
       -0.05889995 0.026703736 0.21572071 -0.013915613
000240 85 fb 08 3e 52 1c 37 3d 5b ca a8 3c 70 53 9f 3d
       0.13377197 0.044704743 0.020604303 0.07779586
000250 99 5e 07 3d 8e 10 a9 bd cc b0 ab 3d 29 3a db bc
       0.0330492 -0.08255111 0.08383331 -0.026761131
000260 d2 85 96 bb ca c2 24 3d d8 8b 88 bd e4 a6 85 3d
       -0.0045935893 0.040224828 -0.06667298 0.065259725
000270 7c ee ff bc 6b 36 c4 3d 0b 26 96 3d ea eb b2 3c
       -0.031241648 0.09580692 0.07331475 0.021841008
000280 e1 ed 5f 3d 5d 98 fc 3c f8 7e c2 bd 9d 0b 06 3e
       0.05467022 0.030834371 -0.094968736 0.13090368
000290 37 27 1b bd e9 98 59 bd 7a f3 d3 bd c0 e0 b9 3d
       -0.037879195 -0.053124342 -0.10349174 0.09076071
0002a0 54 68 01 bd 9b 0a 0b be f4 f8 8f 3d e9 cd 48 3e
       -0.031593636 -0.13578264 0.07029906 0.19609798
0002b0 7b 16 bb 3c ba 9c 58 3c 0a 94 cc bd 47 f3 a3 bb
       0.022837868 0.01322096 -0.09989174 -0.005003366
0002c0 f2 0f e0 3d 7f f2 c0 bd a1 e3 98 bd 31 9f e0 bb
       0.10940541 -0.094212525 -0.07465292 -0.0068549146
0002d0 50 01 f1 3d 78 46 a7 3c 9c 25 a9 bd a1 ba dd ba
       0.117678285 0.020419344 -0.082591265 -0.0016916582
0002e0 63 8c 42 3e f5 0b 0e be d8 0e 3c 3e c2 fe 35 bd
       0.18998866 -0.13871749 0.18365037 -0.04443241
0002f0 fc 8c 93 3d 70 cd 6d 3d cd 2b 2e 3d ad c9 4a 3d
       0.07204625 0.05805725 0.04252224 0.04950874
000300 f3 ab 28 ba 7f c4 26 3e 7e 72 5c bd fe f0 a6 3d
       -0.0006434314 0.16285895 -0.053820126 0.08151434
000310 68 4f dd 3c dc aa a0 bb 0e dc ff bc 04 5d 3b 3d
       0.027015403 -0.0049031805 -0.03123286 0.045743003
000320 7e bd 9c 3d e0 91 a0 bc 17 fa 89 bd 6e c5 01 3d
       0.0765333 -0.019600809 -0.06737154 0.031682424
000330 9b 56 a3 be 7e 16 e3 be 54 b0 c7 3d 6a 4d 72 3d
       -0.31902012 -0.44353098 0.09750429 0.05915586
000340 f7 d4 82 3c c6 73 43 3d be aa 82 bd 32 98 fa 3d
       0.01597069 0.047717832 -0.06380223 0.1223606
000350 0a 91 71 bc 1d 56 93 bd fa 24 9f 3d b1 37 0e bd
       -0.014744053 -0.07194159 0.077707246 -0.03472108
000360 6a 50 16 bd 6f e7 0d bd e0 05 8e bd 6b d6 33 bd
       -0.036697783 -0.03464454 -0.06934714 -0.043905657
000370 4e f2 c4 bd 66 1c 61 bd 88 0f ee bc 60 0f 92 bd
       -0.096165285 -0.054958723 -0.02906014 -0.07131839
000380 59 06 51 bd 74 a3 3d 3c b9 33 a7 3d 41 7f f2 3d
       -0.051031444 0.011574615 0.08164162 0.11840678
000390 e8 1e 25 3e cd 1b 7f 3d d4 2a df 3b cb 65 bd 3d
       0.16125071 0.062282372 0.0068105254 0.09247931
0003a0 4e b8 8f 3d 14 5f 3a bd b2 99 69 bc 1f 7b b9 bd
       0.07017575 -0.04550083 -0.014257835 -0.090566866
0003b0 c7 1d 1d bc 18 5a 00 3d 41 79 01 bf e5 72 8e be
       -0.009589619 0.03133592 -0.50575644 -0.27822033
0003c0 ed 89 ac bc f4 8a 9f 3d 3f da 79 bd 78 5f 17 3d
       -0.021061862 0.07790175 -0.06099915 0.03695628
0003d0 94 4b 87 3d 72 20 f8 b9 f9 0f 06 3e 9e 2e 14 bd
       0.06606212 -0.0004732642 0.1309203 -0.03617727
0003e0 fa 0f 55 3d 76 e0 7c bd c2 07 86 3b f7 ac 5a bd
       0.05201719 -0.0617375 0.0040902803 -0.05338761
0003f0 e5 3d 6d bd f0 d5 5d 3d 2d 72 8e bd 99 b7 74 3d
       -0.057920355 0.054159105 -0.06955371 0.059745405

bias f4 [50]
000000 77 a4 8f 3c 19 96 07 3e 00 2c 54 3e 0f 58 7c 3c
       0.017534478 0.13240851 0.2071991 0.015401854
000010 6a 3d e6 bc 0e 3c 69 3b 85 1b 2f 3d 44 cc 1c bd
       -0.028105456 0.0035588774 0.042750854 -0.03828074
000020 60 ea 95 3d 00 53 67 3e 53 de c4 3d fe 8d ef 3b
       0.07320094 0.22590256 0.096127175 0.007310628
000030 ad d7 68 3e fa cb 3d 3e fd 1d 75 3e 8f cc 18 3e
       0.22738524 0.18534842 0.23937221 0.14921783
000040 98 4f f5 3d 59 71 e0 bd e3 84 9c 3d 0f b0 7d 3e
       0.11978072 -0.10959119 0.07642534 0.24774192
000050 e2 73 f8 3c 09 72 f5 3c 91 83 9c 3e 22 01 72 3c
       0.030328695 0.029961603 0.30569127 0.014770778
000060 a4 5c 4e be 98 12 17 3e 3d 8b c5 3d 30 e2 3b 3e
       -0.20152527 0.14753187 0.09645698 0.18348002
000070 c8 34 aa 3d 75 e3 e2 bd 96 c1 08 3e 31 54 9f 3e
       0.083108485 -0.1107854 0.13355097 0.3111892
000080 77 28 50 3e ed 73 6d 3e 2d e7 f4 bc f1 47 49 3e
       0.20327936 0.23188753 -0.02989539 0.1965635
000090 8a cd 85 3d b0 08 42 3e fd cf 06 bd 86 2f 38 3e
       0.06533344 0.18948627 -0.032913197 0.17986879
0000a0 2f a0 08 3e 82 27 21 bd ed 26 e1 bd e3 77 40 3e
       0.13342355 -0.03934432 -0.10993753 0.18795733
0000b0 bc 49 4b 3e 50 51 95 3d 06 71 25 3e 31 cd 82 3c
       0.19852346 0.072909 0.16156396 0.015966984
0000c0 9a 61 34 3e 5a 16 94 3e
       0.17615357 0.28923303

weight f4 [50, 4]
000000 89 28 7c bb 37 7f e5 bd 88 2f c5 3e 41 94 05 3f
       -0.003847631 -0.11205905 0.38512826 0.5217934
000010 d6 bb 09 3f f1 0c 21 bf 4e 6d 33 3e 48 99 bb 3d
       0.5380224 -0.6291037 0.17522165 0.091600955
000020 f6 55 04 3f 7d 2c ad 3d e1 66 b7 be 02 a2 cc bc
       0.51693666 0.08455751 -0.35820678 -0.024979595
000030 64 8f dd be 94 56 88 be e8 08 ff bd 5d e4 44 3e
       -0.4327346 -0.26628554 -0.124528706 0.19227739
000040 ee f2 aa be 20 6a 06 bf 8c e9 45 3e 11 50 87 be
       -0.33388466 -0.52505684 0.19327372 -0.26428273
000050 10 1c 1a bf f8 52 d1 3d 5a 8d a1 3e 4e d2 f6 be
       -0.6019907 0.10220903 0.31553155 -0.48207325
000060 ad b2 80 bd 49 67 d1 be af 7e a9 be db 62 8f bd
       -0.0628408 -0.40899113 -0.33104464 -0.07001277
000070 25 7b 07 bf c7 51 f4 3e f2 73 8a 3e e5 59 fa 3e
       -0.5292228 0.4771864 0.27041584 0.4889671
000080 42 fe 9f 3d c1 25 b0 3d da 8c b9 3e 59 94 98 be
       0.07812168 0.08600951 0.36240274 -0.2980068
000090 82 1b d1 3e 49 10 13 3f 83 60 67 3c a4 73 b4 be
       0.408413 0.57446724 0.014122131 -0.35244477
0000a0 7b 75 d3 be 58 6e 9c be f9 12 3d be 2e 24 27 bc
       -0.41300568 -0.30552936 -0.18464269 -0.010201497
0000b0 b9 ae 09 bf 55 49 e9 bd 7a b9 bf be 59 84 d7 be
       -0.5378223 -0.1139094 -0.37446195 -0.4209316
0000c0 df 42 e5 3e b4 4a ee be b6 81 e6 3d 34 a9 48 3d
       0.4477758 -0.4654137 0.11255209 0.04898949
0000d0 3c f9 81 3e f8 d9 18 3e 4b f3 ea bd ef ce a2 be
       0.25385463 0.14926898 -0.11472186 -0.31798503
0000e0 f1 88 88 3e a8 f4 e9 3e a5 1b b0 bd e6 58 57 be
       0.26666978 0.4569447 -0.08599023 -0.21030006
0000f0 6d cf c0 be 5f ce 0a bf 4c 8a 42 be 18 cc 8c 3e
       -0.37658253 -0.5422115 -0.18998069 0.2749946
000100 54 60 73 3e 0c 32 b5 3e 18 9e ed 3e 18 c3 6b 3e
       0.23767215 0.35389745 0.46409678 0.23023641
000110 c8 2a 0a 3d 2c fd 20 3e c2 8c ab 3e e4 41 a6 be
       0.033732206 0.15721577 0.33505827 -0.32472146
000120 ce 71 4f 3e 50 dc 1d bf db 66 af 3d 74 0f c7 3e
       0.20258257 -0.61664295 0.0856454 0.38878977
000130 64 8d b2 bd 48 2b 1d 3f 0e fd 7e 3e 96 3b 6d bc
       -0.08718374 0.61394167 0.2490122 -0.014479538
000140 77 c0 08 3e 78 e2 1d 3e 84 c2 b3 be 5e 02 99 3e
       0.1335467 0.15418422 -0.3510934 0.2988462
000150 07 77 1b 3e f1 02 0a bf c0 ea 25 be bc 26 52 be
       0.15182124 -0.5391074 -0.16202831 -0.20522588
000160 91 71 09 3f c0 a9 88 be 8c 50 a4 3e 0d 05 e7 be
       0.53688914 -0.2669201 0.32092702 -0.4512104
000170 3b 29 48 3e f5 ea 2c bc ae 0b de 3e 09 b0 c1 3e
       0.19546978 -0.010554065 0.43368286 0.37829617
000180 ff de 87 be da 0c ef be e4 c1 e5 3d 04 37 b7 bb
       -0.2653732 -0.46689492 0.11218622 -0.005591275
000190 14 bb 2b 3e 42 6d 9f be ee 3c 27 be d8 aa 94 be
       0.16770583 -0.31138045 -0.16331837 -0.29036593
0001a0 a4 01 ae be 2c 54 74 3d e0 77 0b bf 58 b5 e8 be
       -0.33985627 0.059650585 -0.5447979 -0.45450854
0001b0 fa bf 12 3f c9 e1 4d 3e 8a 41 e9 be a9 b9 15 3e
       0.57324183 0.20105661 -0.45557815 0.14621605
0001c0 40 d1 0a bf 13 8a 27 bf e3 05 1b 3e 02 d1 b5 be
       -0.5422554 -0.6544506 0.15138964 -0.35511023
0001d0 cb cc a6 3e f3 ad 16 bf 4b 1d ab be c0 69 8a 3e
       0.3257812 -0.58859175 -0.33420786 0.27033806
0001e0 ee d7 12 bf 6a f2 e7 bd 0c 40 63 bb da 4e 36 3e
       -0.5736073 -0.11325534 -0.0034675626 0.17803517
0001f0 7d 7e 27 bf 9b 24 29 3d 32 2b 1f 3d b5 e1 d2 bd
       -0.6542738 0.041294675 0.038859554 -0.102969564
000200 0d 0a 6a 3d 16 2a 17 bf 08 03 7a be d5 85 63 3d
       0.05713849 -0.59048593 -0.24415219 0.055547554
000210 a8 a0 b6 be df 03 81 3e 09 b5 b1 3e 45 a9 c6 bd
       -0.35669446 0.25198266 0.3470843 -0.09700254
000220 26 9c a1 3e 30 01 bb 3e 20 b7 32 3e 1d cb c4 3e
       0.31564444 0.36524343 0.17452669 0.38436213
000230 f5 34 e4 be 15 ab c4 bd 5f 74 50 3e f4 8a 38 3e
       -0.44571653 -0.09602944 0.20356892 0.18021756
000240 f1 84 f8 bd 12 61 26 bf 02 a7 93 3e 16 9b 10 be
       -0.121347316 -0.6499187 0.28838354 -0.1412166
000250 ae 51 24 3f 2a 98 28 3e 91 4c aa 3e 71 a3 b9 3e
       0.64187133 0.16464296 0.3326154 0.36257508
000260 6c 8c 7f 3e 46 5b 73 be aa b6 d3 be 6f 5c bd 3e
       0.2495591 -0.23765287 -0.413503 0.36984584
000270 59 d2 28 be 3b c0 03 bf 92 5b 22 bd bb 81 60 be
       -0.16486491 -0.51465195 -0.03963811 -0.21924488
000280 0f 81 2b bf 6d 90 fa 3e 72 63 29 be 12 8c 86 be
       -0.669938 0.48938313 -0.16541842 -0.2627874
000290 75 63 2c bf fb af d2 3e d0 86 f8 3d 0f 87 98 3e
       -0.6733926 0.41149887 0.121350884 0.29790542
0002a0 2e 5e 56 3e a1 ba 22 3e 7b 69 21 3e 8c 63 fc be
       0.20934364 0.15891506 0.15762894 -0.49294698
0002b0 6a a9 14 3e 8b 7e b2 3e 2e 89 67 3e 2e bc e0 3e
       0.14517751 0.3486217 0.22610924 0.4389357
0002c0 97 59 11 bf ad 3a e2 3e 85 c5 bb be 9f c9 e5 3e
       -0.5677733 0.4418539 -0.36674133 0.44880387
0002d0 6e e2 d3 3e d0 d0 9f be 4e 53 6b 3e 59 72 e7 3e
       0.4138369 -0.31214 0.22980997 0.45204428
0002e0 52 72 c8 be f6 77 f2 be a7 79 ec 3e 65 61 84 be
       -0.3914972 -0.47357148 0.46186563 -0.25855556
0002f0 7b 85 13 3d f2 93 05 bf 8b 1b 46 be 66 31 e9 3d
       0.03601597 -0.5217887 -0.19346444 0.11386375
000300 4a f3 80 be 51 a7 dc be 03 f4 a9 be 07 d1 63 3e
       -0.25185615 -0.43096402 -0.3319398 0.22247706
000310 07 6f 80 bb 26 0c ad 3d c0 f2 cd 3e 3c 37 8d 3e
       -0.0039194855 0.08449583 0.40224266 0.27581203

bias f4 [50]
000000 cc 57 da be c9 2b 98 3d fb 8d 11 3f 6c 68 57 3e
       -0.4264511 0.07430226 0.5685727 0.21035928
000010 d7 10 29 3f 64 c4 93 be 4f e0 86 bd d2 ea de 3e
       0.6604132 -0.28860772 -0.06585752 0.4353853
000020 a3 3b 0f 3e 25 54 d3 be be 34 a2 3b 83 64 e6 3d
       0.13987593 -0.41275135 0.004950135 0.1124964
000030 ba 19 a0 3d 4d ad d4 3e 5a 1a 82 3e f4 9b f1 bb
       0.07817407 0.41538468 0.2541073 -0.0073733274
000040 43 60 6b be 2f 15 9f 3e af 3d 08 3e bd 44 85 3e
       -0.2298594 0.3107085 0.1330478 0.26029006
000050 50 68 b6 3d 9d 85 60 be f2 4d a5 be 01 de cf be
       0.08906615 -0.2192597 -0.3228603 -0.40599063
000060 15 8b 9e 3e eb b3 da bd 80 40 4b be 2a a5 3c 3d
       0.30965486 -0.10678848 -0.19848824 0.04605595
000070 6c 03 4e be 7b 01 0a 3f 05 15 6c 3e ff 12 67 3e
       -0.20118493 0.5390851 0.23054893 0.2256584
000080 3e ab 0f 3e 45 d3 42 be b5 e1 ad 3e af 85 86 bd
       0.14030167 -0.19025905 0.33961263 -0.06568467
000090 87 e3 6c be 2c db 16 3e c3 3f db 3d 63 43 56 3e
       -0.2313367 0.14732045 0.10705521 0.20924143
0000a0 71 68 92 3e bf 72 23 3f 2c 07 9d be 71 bf 8b 3d
       0.28595307 0.63846964 -0.30669534 0.06823624
0000b0 48 7f 7a 3e 7a a9 38 be 09 b1 9f be c7 57 02 be
       0.24462616 -0.180334 -0.31189755 -0.12728797
0000c0 2a d1 6a 3e db b3 92 3e
       0.22931352 0.28652844

weight f4 [50]
000000 00 00 80 3f 00 00 80 3f 00 00 80 3f 00 00 80 3f
       1.0 1.0 1.0 1.0
000010 00 00 80 3f 00 00 80 3f 00 00 80 3f 00 00 80 3f
       1.0 1.0 1.0 1.0
000020 00 00 80 3f 00 00 80 3f 00 00 80 3f 00 00 80 3f
       1.0 1.0 1.0 1.0
000030 00 00 80 3f 00 00 80 3f 00 00 80 3f 00 00 80 3f
       1.0 1.0 1.0 1.0
000040 00 00 80 3f 00 00 80 3f 00 00 80 3f 00 00 80 3f
       1.0 1.0 1.0 1.0
000050 00 00 80 3f 00 00 80 3f 00 00 80 3f 00 00 80 3f
       1.0 1.0 1.0 1.0
000060 00 00 80 3f 00 00 80 3f 00 00 80 3f 00 00 80 3f
       1.0 1.0 1.0 1.0
000070 00 00 80 3f 00 00 80 3f 00 00 80 3f 00 00 80 3f
       1.0 1.0 1.0 1.0
000080 00 00 80 3f 00 00 80 3f 00 00 80 3f 00 00 80 3f
       1.0 1.0 1.0 1.0
000090 00 00 80 3f 00 00 80 3f 00 00 80 3f 00 00 80 3f
       1.0 1.0 1.0 1.0
0000a0 00 00 80 3f 00 00 80 3f 00 00 80 3f 00 00 80 3f
       1.0 1.0 1.0 1.0
0000b0 00 00 80 3f 00 00 80 3f 00 00 80 3f 00 00 80 3f
       1.0 1.0 1.0 1.0
0000c0 00 00 80 3f 00 00 80 3f
       1.0 1.0

bias f4 [50]
000000 00 00 00 00 00 00 00 00 00 00 00 00 00 00 00 00
       0.0 0.0 0.0 0.0
000010 00 00 00 00 00 00 00 00 00 00 00 00 00 00 00 00
       0.0 0.0 0.0 0.0
000020 00 00 00 00 00 00 00 00 00 00 00 00 00 00 00 00
       0.0 0.0 0.0 0.0
000030 00 00 00 00 00 00 00 00 00 00 00 00 00 00 00 00
       0.0 0.0 0.0 0.0
000040 00 00 00 00 00 00 00 00 00 00 00 00 00 00 00 00
       0.0 0.0 0.0 0.0
000050 00 00 00 00 00 00 00 00 00 00 00 00 00 00 00 00
       0.0 0.0 0.0 0.0
000060 00 00 00 00 00 00 00 00 00 00 00 00 00 00 00 00
       0.0 0.0 0.0 0.0
000070 00 00 00 00 00 00 00 00 00 00 00 00 00 00 00 00
       0.0 0.0 0.0 0.0
000080 00 00 00 00 00 00 00 00 00 00 00 00 00 00 00 00
       0.0 0.0 0.0 0.0
000090 00 00 00 00 00 00 00 00 00 00 00 00 00 00 00 00
       0.0 0.0 0.0 0.0
0000a0 00 00 00 00 00 00 00 00 00 00 00 00 00 00 00 00
       0.0 0.0 0.0 0.0
0000b0 00 00 00 00 00 00 00 00 00 00 00 00 00 00 00 00
       0.0 0.0 0.0 0.0
0000c0 00 00 00 00 00 00 00 00
       0.0 0.0

running_mean f4 [50]
000000 00 00 00 00 00 00 00 00 00 00 00 00 00 00 00 00
       0.0 0.0 0.0 0.0
000010 00 00 00 00 00 00 00 00 00 00 00 00 00 00 00 00
       0.0 0.0 0.0 0.0
000020 00 00 00 00 00 00 00 00 00 00 00 00 00 00 00 00
       0.0 0.0 0.0 0.0
000030 00 00 00 00 00 00 00 00 00 00 00 00 00 00 00 00
       0.0 0.0 0.0 0.0
000040 00 00 00 00 00 00 00 00 00 00 00 00 00 00 00 00
       0.0 0.0 0.0 0.0
000050 00 00 00 00 00 00 00 00 00 00 00 00 00 00 00 00
       0.0 0.0 0.0 0.0
000060 00 00 00 00 00 00 00 00 00 00 00 00 00 00 00 00
       0.0 0.0 0.0 0.0
000070 00 00 00 00 00 00 00 00 00 00 00 00 00 00 00 00
       0.0 0.0 0.0 0.0
000080 00 00 00 00 00 00 00 00 00 00 00 00 00 00 00 00
       0.0 0.0 0.0 0.0
000090 00 00 00 00 00 00 00 00 00 00 00 00 00 00 00 00
       0.0 0.0 0.0 0.0
0000a0 00 00 00 00 00 00 00 00 00 00 00 00 00 00 00 00
       0.0 0.0 0.0 0.0
0000b0 00 00 00 00 00 00 00 00 00 00 00 00 00 00 00 00
       0.0 0.0 0.0 0.0
0000c0 00 00 00 00 00 00 00 00
       0.0 0.0

running_var f4 [50]
000000 00 00 80 3f 00 00 80 3f 00 00 80 3f 00 00 80 3f
       1.0 1.0 1.0 1.0
000010 00 00 80 3f 00 00 80 3f 00 00 80 3f 00 00 80 3f
       1.0 1.0 1.0 1.0
000020 00 00 80 3f 00 00 80 3f 00 00 80 3f 00 00 80 3f
       1.0 1.0 1.0 1.0
000030 00 00 80 3f 00 00 80 3f 00 00 80 3f 00 00 80 3f
       1.0 1.0 1.0 1.0
000040 00 00 80 3f 00 00 80 3f 00 00 80 3f 00 00 80 3f
       1.0 1.0 1.0 1.0
000050 00 00 80 3f 00 00 80 3f 00 00 80 3f 00 00 80 3f
       1.0 1.0 1.0 1.0
000060 00 00 80 3f 00 00 80 3f 00 00 80 3f 00 00 80 3f
       1.0 1.0 1.0 1.0
000070 00 00 80 3f 00 00 80 3f 00 00 80 3f 00 00 80 3f
       1.0 1.0 1.0 1.0
000080 00 00 80 3f 00 00 80 3f 00 00 80 3f 00 00 80 3f
       1.0 1.0 1.0 1.0
000090 00 00 80 3f 00 00 80 3f 00 00 80 3f 00 00 80 3f
       1.0 1.0 1.0 1.0
0000a0 00 00 80 3f 00 00 80 3f 00 00 80 3f 00 00 80 3f
       1.0 1.0 1.0 1.0
0000b0 00 00 80 3f 00 00 80 3f 00 00 80 3f 00 00 80 3f
       1.0 1.0 1.0 1.0
0000c0 00 00 80 3f 00 00 80 3f
       1.0 1.0

weight f4 [20, 100]
000000 8f 8e d9 3c 83 dc 19 3e 50 53 f3 bd fb 3c ab 3e
       0.026557235 0.15025525 -0.11881125 0.33444962
000010 3d dd c1 3e 7a 8e 99 be a2 f3 91 be 1a 03 7c 3c
       0.37864104 -0.29991513 -0.2850619 0.015381599
000020 95 83 1b bc 8e 62 06 3e d6 13 6e be 5d 93 d5 be
       -0.009491821 0.13123533 -0.23249754 -0.41713992
000030 03 b5 b3 3d 6a f2 9c bd e8 7a fb 3d 3d a8 91 be
       0.087747596 -0.07663424 0.12279302 -0.28448668
000040 64 24 8e be 6b b6 9f bd 5a 05 dd bc 5d 60 f3 bd
       -0.2776214 -0.07798465 -0.02698009 -0.11883614
000050 f8 ee 61 3e 0e 7d 2c be 41 4c ab bc f0 7d 25 be
       0.22063816 -0.1684458 -0.020910384 -0.16161323
000060 40 ec 0f be b6 4c 22 be 21 90 98 be f4 fd 10 3e
       -0.14054966 -0.15849575 -0.29797462 0.14159375
000070 5f f7 c9 bc 43 00 a7 3d 4f 75 41 3e 5b 56 16 3b
       -0.024654089 0.08154347 0.18892406 0.0022939655
000080 25 19 08 be f2 dc 11 3e b9 ba b9 3d 49 36 3f 3e
       -0.13290842 0.1424444 0.09068818 0.18673052
000090 42 51 b5 bc 87 76 9c bd 29 03 99 3e 18 2b 45 be
       -0.022133473 -0.07639795 0.29885224 -0.1925472
0000a0 dd 7d 59 bd cd 68 8e be c7 a1 01 ba 73 2c 2b bd
       -0.05309855 -0.27814332 -0.0004945066 -0.041790437
0000b0 ba 1a d2 bd 8e d2 64 3e 47 2b 76 3d 47 f7 b3 bc
       -0.10259004 0.22345945 0.060099866 -0.021968497
0000c0 35 9b 96 3d 1d f8 4a bd 22 ae 12 3d 78 72 6d 3e
       0.07353822 -0.049553026 0.035810597 0.23188198
0000d0 d0 46 8f 3b fe 65 f6 3d 73 bc be 3d 6f 6e 45 3b
       0.004372455 0.12031172 0.093132876 0.0030125638
0000e0 04 8b 3d 3e 3e d1 69 bd c5 40 f9 bc 72 14 06 be
       0.18510062 -0.057084315 -0.030426392 -0.13093737
0000f0 29 29 3a 3e f1 9e 11 3e ae 33 58 3e 30 88 0d be
       0.18179764 0.14220788 0.21113464 -0.13821483
000100 c4 dd 77 be af 30 72 3e 8a 11 07 3d c6 b9 4e bd
       -0.2420569 0.23651384 0.03297571 -0.050470136
000110 84 6b 7f 3e 94 ba 21 be 70 f6 ad bd 01 45 88 3e
       0.24943358 -0.1579383 -0.0849427 0.26615146
000120 30 96 27 3e 55 84 13 3e 87 46 f9 3d 24 b7 0f 3e
       0.16365886 0.1440595 0.12171655 0.14034706
000130 a9 24 84 bd 46 73 e0 3b 5f 39 e9 3d 91 52 4c 3d
       -0.06452305 0.006849679 0.11387896 0.04988343
000140 3b 81 e5 3d dd eb 37 bd 2c eb 4a 3e 97 9a 00 be
       0.112062894 -0.04490267 0.19816273 -0.12558971
000150 36 d3 dc bd a3 bf 53 3d fb be 41 3e 93 ed 6f bd
       -0.10782473 0.05169643 0.1892051 -0.058576178
000160 85 b3 10 3d ce 08 30 3e 34 51 98 bd 87 dd 2b be
       0.035327453 0.17190859 -0.07437363 -0.16783725
000170 14 c0 cd bc 82 62 ff bd 05 35 65 be 62 4d 42 3d
       -0.025116004 -0.12469961 -0.22383507 0.04743708
000180 d8 a9 e4 3d 71 f3 20 3e 9a be 1a 3d 1b 40 86 3c
       0.111652076 0.15717866 0.037779428 0.01638799
000190 3b 59 53 be 1b ef eb bc 2f 56 b8 bc 95 92 76 3e
       -0.20639507 -0.028800538 -0.022502033 0.24079354
0001a0 e4 aa 32 3d fe 0a 87 3e 45 d0 09 3e 49 5e 8e 3d
       0.043620005 0.26375574 0.13458355 0.06951577
0001b0 e7 e2 b3 3e 30 4b 4d be 5b 34 5f 3d e3 71 57 3e
       0.3513405 -0.20048213 0.05449329 0.21039538
0001c0 29 08 1f 3d 0d 6f ee bd dd 68 f2 bc 08 46 e2 be
       0.03882614 -0.11642275 -0.029591018 -0.44194055
0001d0 5e 47 24 3e 89 6e c2 3d fd d2 9d 3d aa 39 1d 3e
       0.1604285 0.09493739 0.077062584 0.15354028
0001e0 24 ac b4 3d a8 e4 89 bd 5a 10 f5 3a 88 30 4a bd
       0.08821896 -0.06733066 0.001869689 -0.04936269
0001f0 ed df 71 be 5c 18 3b 3e e0 9a 5d be ea 83 a1 be
       -0.23620577 0.18271011 -0.21641111 -0.31545955
000200 f0 bc 6b 3c 32 3f 0c 3d e0 7e 55 be d6 77 90 3c
       0.014388308 0.034239955 -0.2084918 0.017635267
000210 03 85 15 3e c3 69 ca bd d9 0e a0 3d 4a 97 4f 3d
       0.14601521 -0.09883454 0.07815332 0.05068139
000220 49 80 a3 bd f9 25 f5 bd 73 03 de be 33 c3 4a 3e
       -0.07983453 -0.11970133 -0.43362007 0.19801025
000230 13 83 89 3e 52 6c 82 bc 25 ef 7e 3b 72 ea 03 be
       0.26857814 -0.015920792 0.0038899865 -0.12882403
000240 00 8c 1c be 49 d3 97 be 63 50 87 3d 82 a2 7a be
       -0.15287781 -0.29653385 0.066071294 -0.24476054
000250 35 19 03 3d 37 ef 37 3e de e2 11 3c 8c df 49 be
       0.03200646 0.17962347 0.008904187 -0.19714183
000260 1f 99 37 be 6e f1 37 3e 0c 34 b0 bc ff 7a f4 3d
       -0.17929505 0.17963192 -0.021509193 0.11937522
000270 8d e9 71 3d 9c 8e 2b 3e 14 d0 16 bc ff 78 0b 3e
       0.059060622 0.1675362 -0.009204883 0.13620375
000280 f7 9d 0f 3e f9 bc f8 3d fe 51 b1 be f8 70 7e bd
       0.14025103 0.12145419 -0.34632868 -0.062119454
000290 6c 57 b7 3d 8a 83 e5 3d 71 3a 32 3d 90 02 8b 3d
       0.08952221 0.1120673 0.043512765 0.06787598
0002a0 35 80 eb bd 43 4b c3 3d 58 22 ea 3d af ac 44 be
       -0.11499063 0.095358394 0.11432332 -0.19206499
0002b0 5b 9a 01 be 33 b5 ad bc fc 14 28 3d 85 a3 6f be
       -0.12656538 -0.021204567 0.041035637 -0.23402222
0002c0 f2 6b 57 3e a2 d4 e0 bc df 6d df bc b7 94 4a be
       0.21037272 -0.027445141 -0.02727407 -0.19783293
0002d0 02 e7 59 3e 1d 0a 10 3e e2 cc 40 bd b3 7a 92 3e
       0.21279529 0.14066358 -0.04707039 0.28609237
0002e0 b8 1d 60 3d 54 15 d9 3d 56 46 c4 bd 69 9b cf bd
       0.054715842 0.10599771 -0.09583728 -0.10137064
0002f0 23 83 46 bd ca 09 b0 3c f8 37 8e 3e 4e 34 42 3e
       -0.048464905 0.021489043 0.27777076 0.18965265
000300 94 70 12 3e c6 2b 0c 3d 23 22 26 3e 3b 48 ca bd
       0.14300758 0.034221433 0.1622396 -0.09877058
000310 a3 fd 0c 3e 7a 76 fb bd e5 d5 08 bd 11 08 39 3c
       0.1376863 -0.12278457 -0.03340711 0.011293427
000320 f9 6c 1c 3e ff bb e3 ba c7 65 11 3d bf 56 64 be
       0.15275945 -0.0017374753 0.035497453 -0.22298716
000330 e1 46 5d 3d 9d f2 da 3c 9c cd 94 bb 4c da 0d bd
       0.054022674 0.026727015 -0.004541112 -0.034632012
000340 dc fe ae 3d f7 e1 26 3e 54 19 e6 3d 4d c9 e5 3d
       0.08544704 0.16297136 0.112353 0.11220036
000350 22 1f 04 3e 5f db 11 3e de 86 4b 3d 36 7f 45 3e
       0.12902501 0.1424384 0.049689166 0.19286808
000360 ca 09 a6 3d 70 bd 66 bd cd 5a 07 3d 29 b8 5e 3d
       0.08107336 -0.056333005 0.03304558 0.054374848
000370 1b 3c 08 3e 03 2b 27 3d 48 47 d3 3d ac 69 e0 3d
       0.13304178 0.040812504 0.1031633 0.10957655
000380 e0 83 e9 bd 21 47 fc 3d 0b 02 9b 3d 05 9a 43 3e
       -0.11402106 0.12318254 0.07568749 0.19101723
000390 8a 6c 15 bd 9b b3 82 3d df e9 10 3e 42 58 d8 3d
       -0.036480464 0.06381913 0.14151715 0.10563709
0003a0 61 b1 48 3e a4 71 c4 3c b2 8c b3 bb 7d b1 cd 3d
       0.19598915 0.02397997 -0.0054794187 0.10043619
0003b0 05 97 cd bc c3 00 0e bd 68 42 1d bd 99 cd f3 bc
       -0.025096426 -0.034668695 -0.038393408 -0.029761123
0003c0 1b 37 b8 3d f2 6b b7 3d 74 37 55 bd 45 26 06 3e
       0.089948855 0.08956136 -0.052054837 0.13100536
0003d0 22 d3 8e 3d 63 ad 88 3c 42 fb da 3d d9 7a ff 3c
       0.06973864 0.01668424 0.10692455 0.031186508
0003e0 07 3d 30 3d e2 ce 61 3d e0 8a 01 be 5d ff c4 3d
       0.04302695 0.05512894 -0.12650633 0.09619019
0003f0 a1 68 aa 3c 97 3d a8 3d b8 09 dd 3d b9 9f 0e be
       0.020801844 0.08214872 0.10792869 -0.13928117

bias f4 [20]
000000 7d df 91 3d 38 e2 76 3d 13 39 78 3e f1 a0 41 3c
       0.07122705 0.060274333 0.24240522 0.011818157
000010 b2 e0 ff bd 44 ad 84 3e 97 07 0d 3e 98 41 83 bd
       -0.12494029 0.2591344 0.13772427 -0.064089954
000020 89 43 9c 3d 01 41 29 3e 65 74 de 3b c9 4f fe bd
       0.07630069 0.16528703 0.0067887777 -0.124175616
000030 db 67 7e bd e8 10 7e 3e da 38 23 3e ee d3 58 3c
       -0.062110763 0.24811137 0.15939656 0.013234122
000040 d3 d1 8d 3e 53 ab 56 3b b5 8d 06 be 5c 35 2a bd
       0.27699146 0.0032755926 -0.13139994 -0.041554794

weight f4 [20]
000000 00 00 80 3f 00 00 80 3f 00 00 80 3f 00 00 80 3f
       1.0 1.0 1.0 1.0
000010 00 00 80 3f 00 00 80 3f 00 00 80 3f 00 00 80 3f
       1.0 1.0 1.0 1.0
000020 00 00 80 3f 00 00 80 3f 00 00 80 3f 00 00 80 3f
       1.0 1.0 1.0 1.0
000030 00 00 80 3f 00 00 80 3f 00 00 80 3f 00 00 80 3f
       1.0 1.0 1.0 1.0
000040 00 00 80 3f 00 00 80 3f 00 00 80 3f 00 00 80 3f
       1.0 1.0 1.0 1.0

bias f4 [20]
000000 00 00 00 00 00 00 00 00 00 00 00 00 00 00 00 00
       0.0 0.0 0.0 0.0
000010 00 00 00 00 00 00 00 00 00 00 00 00 00 00 00 00
       0.0 0.0 0.0 0.0
000020 00 00 00 00 00 00 00 00 00 00 00 00 00 00 00 00
       0.0 0.0 0.0 0.0
000030 00 00 00 00 00 00 00 00 00 00 00 00 00 00 00 00
       0.0 0.0 0.0 0.0
000040 00 00 00 00 00 00 00 00 00 00 00 00 00 00 00 00
       0.0 0.0 0.0 0.0

running_mean f4 [20]
000000 00 00 00 00 00 00 00 00 00 00 00 00 00 00 00 00
       0.0 0.0 0.0 0.0
000010 00 00 00 00 00 00 00 00 00 00 00 00 00 00 00 00
       0.0 0.0 0.0 0.0
000020 00 00 00 00 00 00 00 00 00 00 00 00 00 00 00 00
       0.0 0.0 0.0 0.0
000030 00 00 00 00 00 00 00 00 00 00 00 00 00 00 00 00
       0.0 0.0 0.0 0.0
000040 00 00 00 00 00 00 00 00 00 00 00 00 00 00 00 00
       0.0 0.0 0.0 0.0

running_var f4 [20]
000000 00 00 80 3f 00 00 80 3f 00 00 80 3f 00 00 80 3f
       1.0 1.0 1.0 1.0
000010 00 00 80 3f 00 00 80 3f 00 00 80 3f 00 00 80 3f
       1.0 1.0 1.0 1.0
000020 00 00 80 3f 00 00 80 3f 00 00 80 3f 00 00 80 3f
       1.0 1.0 1.0 1.0
000030 00 00 80 3f 00 00 80 3f 00 00 80 3f 00 00 80 3f
       1.0 1.0 1.0 1.0
000040 00 00 80 3f 00 00 80 3f 00 00 80 3f 00 00 80 3f
       1.0 1.0 1.0 1.0

weight f4 [1, 20]
000000 25 eb 64 bf c2 15 0a bf 94 3b 23 3e 49 c7 4b bf
       -0.894213 -0.5393945 0.15940696 -0.7960096
000010 a4 7a 43 bf 44 94 49 3e 19 e8 8f 3e 84 e5 60 bf
       -0.7635901 0.19685465 0.28106764 -0.87850213
000020 91 0c 49 bf 9f e0 60 3e 3e 73 26 bf b9 cf e3 be
       -0.785348 0.21960686 -0.65019596 -0.44494417
000030 71 b0 43 bf 9c 2e 7d 3e 88 a0 8a 3e 53 f3 25 bf
       -0.76441103 0.24724811 0.270756 -0.6482441
000040 a1 30 9d 3e 60 4e 21 be 5c 3c 36 be 28 15 28 bf
       0.30701163 -0.15752554 -0.17796463 -0.6565728
