models_version3/2UAVs_69489/a_c0.pt (torch_old, 16251 bytes, 14 tensors)

weight f4 [50, 34]
0	0xbefab58f	-0.48966643
1	0x3d85c84d	0.06532345
2	0xbc243cf3	-0.010024297
3	0x3df8af76	0.121428415
4	0x3e1ba655	0.1520017
5	0x3da1b5f0	0.0789603
6	0x3e1379c4	0.14401919
7	0xbc9a2d51	-0.018820437
8	0xbd8cb172	-0.068697825
9	0x3d6640ab	0.056214016
10	0xbd6acb7c	-0.057322964
11	0x3d04effe	0.032455437
12	0xbc38e20a	-0.011284361
13	0xbc559681	-0.013036371
14	0x3d82a464	0.06379011
15	0xbdfb7052	-0.12277283
16	0xbd3a77e3	-0.04552449
17	0xbe080bda	-0.13285771
18	0xbe16a8c7	-0.14712821
19	0x3e2a9f39	0.16662301
20	0xbbadc0eb	-0.0053025386
21	0x3d74a061	0.05972326
22	0x3d87275d	0.06599305
23	0x3d92af3c	0.071623296
24	0x3d960fc5	0.073272265
25	0xbcad58f6	-0.021160584
26	0x3d92889a	0.07154961
27	0xbb17455e	-0.0023082118
28	0x3e0a7f6f	0.13525175
29	0x3db4f24f	0.08835279
30	0xbd449276	-0.04799124
31	0x3e67d098	0.22638166
32	0x3c211edc	0.009834018
33	0x3db1b9be	0.08678006
34	0x3b11cb99	0.0022246598
35	0xbe0bf7df	-0.13668774
36	0xbcba4ea5	-0.022742579
37	0x3c28ec7e	0.01031029
38	0x3e2bf82c	0.16793889
39	0x3e2afab5	0.166972
40	0x3e3217fd	0.17391963
41	0xbe011acb	-0.12607877
42	0x3d6a9a52	0.057276078
43	0x3c91ef14	0.017814197
44	0x3e323842	0.17404273
45	0xbddb615e	-0.10711931
46	0x3c1780b1	0.009246991
47	0x3d546d9a	0.051862337
48	0xbdc7ed2d	-0.097620346
49	0xbdd942b2	-0.10608424
50	0xbd0da7dd	-0.034583915
51	0xbdadd294	-0.0848743
52	0x3e53d70d	0.20687504
53	0x3e3b9ac0	0.18320751
54	0x3de6953c	0.11258933
55	0xbda84b0a	-0.082174376
56	0x3ddd8047	0.108154826
57	0xbcba12c7	-0.022714032
58	0xbba1392b	-0.004920145
59	0xbdebe8a2	-0.115189806
60	0x3d9e4768	0.077284634
61	0xbd22d3b8	-0.039752692
62	0x3d93e69b	0.07221719
63	0xbdd57b28	-0.10423881
64	0x3dba9ab1	0.09111536
65	0xbc3d0400	-0.011536598
66	0xbddfed51	-0.109339364
67	0xbded06ef	-0.11573588
68	0x3e9985e7	0.29984972
69	0x3e0a4a1f	0.13504837
70	0x3e57a598	0.21059263
71	0xbbbd6d54	-0.005780855
72	0x3d0fe340	0.035128832
73	0x3dbf6b93	0.0934669
74	0xbc664fa9	-0.014057078
75	0x3e25cafa	0.1619071
76	0x3da7c5d9	0.08192033
77	0xbcc7e7c7	-0.024402512
78	0xbd83920b	-0.0642434
79	0xbd8738fa	-0.06602664
80	0xbc1dabcb	-0.009623478
81	0x3e060490	0.13087678
82	0xbe04d009	-0.12969984
83	0xbe1182ae	-0.14210007
84	0xbdae35d0	-0.08506358
85	0x3d1b0a77	0.037851777
86	0x3e0a7841	0.13522436
87	0x3d879111	0.06619466
88	0x3df32d84	0.11873916
89	0xba127891	-0.0005587424
90	0x3e3d37ec	0.18478364
91	0x3e204c47	0.15654097
92	0xbe1beca7	-0.15226994
93	0x3d20b58e	0.039235644
94	0xbda4f4a8	-0.08054477
95	0xbe7722ca	-0.24134365
96	0x3e08eaf0	0.13370872
97	0x3e00a2bb	0.12562077
98	0xbe07e814	-0.13272125
99	0x3c5b3895	0.013380189
100	0xbd366a14	-0.044534758
101	0x3d26ff7c	0.040770993
102	0xbda523ae	-0.08063446
103	0xbcae1feb	-0.021255454
104	0x3d99c8e5	0.07509021
105	0xbc1c2ef1	-0.009532676
106	0x3e57ac30	0.21061778
107	0xbe10a462	-0.14125207
108	0xbd725ea7	-0.0591723
109	0xbd254e3b	-0.04035781
110	0x3e52be27	0.2058035
111	0xbd99579b	-0.074874125
112	0x3de18b9f	0.11012959
113	0xbd27b019	-0.040939424
114	0x3e4805de	0.19533488
115	0xbd34a160	-0.04409921
116	0x3e62d1eb	0.2215039
117	0x3e40c8fd	0.18826671
118	0xbdcab0c7	-0.09896999
119	0xbd90c3bb	-0.070685826
120	0x3df4a55b	0.119456016
121	0xbd89a8ef	-0.06721675
122	0x3e3d5b17	0.1849178
123	0x3e10df3a	0.14147654
124	0x3cada2a3	0.021195715
125	0x3da7c1cb	0.0819126
126	0x3d702f8a	0.058639087
127	0x3d991d60	0.07476306
128	0x3e5d8ea3	0.21636443
129	0x3e0e7b05	0.13914116
130	0x3e4f8b0e	0.20267889
131	0xbc74aefb	-0.014934297
132	0x3cba4dde	0.022742208
133	0xbd16af3c	-0.03678821
134	0x3e480319	0.19532432
135	0xbde798a3	-0.1130841
136	0xbeb25f70	-0.34838438
137	0x3e04cd77	0.12969004
138	0x3e28792a	0.1645247
139	0xbb80bb28	-0.0039285608
140	0x3d794ae4	0.060862437
141	0xbe4e3ccf	-0.20140384
142	0x3e825e4e	0.25462574
143	0x3d6423f6	0.055698358
144	0xbbbdcf9d	-0.0057925717
145	0x3e0b0ea2	0.135798
146	0x3e6018e5	0.21884497
147	0x3cad7bdb	0.021177223
148	0xbde13141	-0.109957226
149	0x3d20f5a5	0.039296765
150	0xbcdfa105	-0.02729846
151	0x3ca11816	0.019664805
152	0x3e00bf61	0.12573005
153	0xbdb43aec	-0.08800301
154	0x3e0562a9	0.13025917
155	0x3e214ec1	0.15752698
156	0xbe4385de	-0.19094035
157	0xbd5791a8	-0.052629143
158	0xbe11181d	-0.14169355
159	0xbd0de483	-0.034641754
160	0xbd237576	-0.03990694
161	0x3e0b6f79	0.13616742
162	0x3e2070fb	0.15668099
163	0xbc58dfb5	-0.01323693
164	0xbe0c0351	-0.1367314
165	0x3dfc12b7	0.12308257
166	0x3e41115b	0.18854277
167	0x3e08cae4	0.13358647
168	0xbe6bd49f	-0.23030327
169	0xbdc769b8	-0.09736961
170	0xbe56d928	-0.20981276
171	0x3c3422e9	0.010994651
172	0x3bd6175b	0.006533546
173	0xbe0f180d	-0.13974018
174	0xbd2ddec0	-0.04244876
175	0xbdee8240	-0.11645937
176	0x3cc5a176	0.024124842
177	0x3d95bbf7	0.07311242
178	0xbde0d259	-0.10977621
179	0x3e2d855b	0.16945402
180	0xbd82882e	-0.063736305
181	0x3dea63f0	0.11444843
182	0x3dbfcd8c	0.09365377
183	0xbe117ce4	-0.14207798
184	0x3d688bbc	0.056773886
185	0x3d86cef3	0.06582441
186	0x3e526494	0.2054618
187	0x3d167aab	0.03673808
188	0x3da5e3c2	0.08100082
189	0xbb0957eb	-0.0020956944
190	0x3dc50296	0.09619634
191	0x3cc0470e	0.023471382
192	0xbdaa93bb	-0.083289586
193	0xbc9356ed	-0.017985785
194	0x3dbb6374	0.091498286
195	0x3de4840f	0.11158001
196	0xbd386ea6	-0.045027398
197	0x3d9d1a63	0.076710485
198	0x3e3edf90	0.1863997
199	0x3d650789	0.05591539
200	0x3e19bf78	0.15014446
201	0x3e8b4a08	0.2720492
202	0xbba54c33	-0.005044484
203	0x3d89fc9e	0.06737636
204	0x3e84ab73	0.25912055
205	0xbe52463b	-0.20534603
206	0x3e0bbac6	0.13645467
207	0x3c859a2d	0.016308868
208	0x3e1090bd	0.14117713
209	0x3dbb3f83	0.09142973
210	0x3d85762a	0.06516679
211	0x3d8baf61	0.0682056
212	0x3dd1385f	0.1021583
213	0x3d3614d7	0.04445347
214	0x3e15add3	0.1461709
215	0xbc9ed5f9	-0.01938914
216	0xbdcce006	-0.100036666
217	0x3c8baf9e	0.017051514
218	0x3d1cb35b	0.038256984
219	0xbe30470d	-0.17214604
220	0xbdbdb6d0	-0.09263384
221	0xbe44f70b	-0.19234864
222	0xbcc45025	-0.023963997
223	0xbd3c3a13	-0.04595382
224	0x3ccb314d	0.024803782
225	0xbb5bb831	-0.0033526535
226	0xbd4c4456	-0.049869858
227	0xbe219c72	-0.15782335
228	0x3de0e757	0.109816246
229	0xbe0a7811	-0.13522364
230	0xbda34c3d	-0.07973526
231	0x3d528a31	0.05140132
232	0x3db437f8	0.08799738
233	0x3d76e5b6	0.060277663
234	0x3da4cacb	0.08046492
235	0x3ca156ed	0.01969477
236	0x3cbb38d4	0.022854246
237	0x3e3e668e	0.18593809
238	0x3e17af9b	0.14813082
239	0x3e129e4d	0.143182
240	0xbd3f8f56	-0.046767555
241	0xbccd82c0	-0.02508676
242	0x3c66e850	0.014093474
243	0xbd6d4ac6	-0.057932638
244	0xbd8bab3c	-0.0681977
245	0x3dce2a72	0.100666896
246	0x3e1bd059	0.15216197
247	0xbda22bc7	-0.07918506
248	0x3aef5300	0.0018258989
249	0xbe155639	-0.14583673
250	0xbc99fdb0	-0.018797725
251	0xbcc69ea8	-0.024245575
252	0xbddb4646	-0.10706763
253	0x3d193038	0.0373995
254	0xbe0cfd53	-0.1376851
255	0xbd2dda78	-0.042444676

bias f4 [50]
0	0x3d9fdc76	0.078057215
1	0x3e22ba0e	0.15891287
2	0xbc8708c8	-0.01648368
3	0xbcfebbae	-0.031095352
4	0x3e1a70ed	0.1508214
5	0xbdbbf103	-0.09176829
6	0x3d388825	0.045051713
7	0xbdee18e6	-0.11625843
8	0x3dd5ec42	0.10445453
9	0x3bc78b2d	0.006089589
10	0xbd6ba7de	-0.057533138
11	0xbcac24e3	-0.021013683
12	0x3d85d6f9	0.065351434
13	0x3e174880	0.1477375
14	0x3db2e960	0.08735919
15	0xbbc9efa0	-0.0061625987
16	0xbd2a9871	-0.041649286
17	0xbd0d770b	-0.034537356
18	0x3b9975c7	0.0046832296
19	0xbe0701f7	-0.13184343
20	0xbd0a6782	-0.03379012
21	0xbb4c8c8b	-0.00312117
22	0x3dd13e98	0.10217017
23	0xbd8d7f69	-0.06909067
24	0x3e36287f	0.17788886
25	0x3e3a49ce	0.18192217
26	0xbd081151	-0.03321964
27	0xbdf5d2f0	-0.12003124
28	0xbd71b8a4	-0.059013978
29	0x3dc88ae6	0.09792118
30	0xbc21b342	-0.009869399
31	0xbe02450c	-0.12721652
32	0xbd996e63	-0.07491758
33	0x3e3d63fc	0.18495172
34	0xbd588da5	-0.052869458
35	0xbce90377	-0.028444035
36	0xbe241e05	-0.16027077
37	0x3e2eb4a4	0.17061096
38	0xbda3c26f	-0.0799607
39	0xbdf94f96	-0.12173383
40	0xbcb06b68	-0.02153559
41	0xbab5f997	-0.0013883588
42	0xbd4d4868	-0.05011788
43	0xbe08b809	-0.13351454
44	0x3e08bced	0.1335332
45	0xbd510af7	-0.051035848
46	0xbe0c6abb	-0.1371259
47	0xbc23edfb	-0.010005469
48	0xbbce432f	-0.00629463
49	0x3b935875	0.004496629

weight f4 [50]
0	0x3f800000	1.0
1	0x3f800000	1.0
2	0x3f800000	1.0
3	0x3f800000	1.0
4	0x3f800000	1.0
5	0x3f800000	1.0
6	0x3f800000	1.0
7	0x3f800000	1.0
8	0x3f800000	1.0
9	0x3f800000	1.0
10	0x3f800000	1.0
11	0x3f800000	1.0
12	0x3f800000	1.0
13	0x3f800000	1.0
14	0x3f800000	1.0
15	0x3f800000	1.0
16	0x3f800000	1.0
17	0x3f800000	1.0
18	0x3f800000	1.0
19	0x3f800000	1.0
20	0x3f800000	1.0
21	0x3f800000	1.0
22	0x3f800000	1.0
23	0x3f800000	1.0
24	0x3f800000	1.0
25	0x3f800000	1.0
26	0x3f800000	1.0
27	0x3f800000	1.0
28	0x3f800000	1.0
29	0x3f800000	1.0
30	0x3f800000	1.0
31	0x3f800000	1.0
32	0x3f800000	1.0
33	0x3f800000	1.0
34	0x3f800000	1.0
35	0x3f800000	1.0
36	0x3f800000	1.0
37	0x3f800000	1.0
38	0x3f800000	1.0
39	0x3f800000	1.0
40	0x3f800000	1.0
41	0x3f800000	1.0
42	0x3f800000	1.0
43	0x3f800000	1.0
44	0x3f800000	1.0
45	0x3f800000	1.0
46	0x3f800000	1.0
47	0x3f800000	1.0
48	0x3f800000	1.0
49	0x3f800000	1.0

bias f4 [50]
0	0x00000000	0.0
1	0x00000000	0.0
2	0x00000000	0.0
3	0x00000000	0.0
4	0x00000000	0.0
5	0x00000000	0.0
6	0x00000000	0.0
7	0x00000000	0.0
8	0x00000000	0.0
9	0x00000000	0.0
10	0x00000000	0.0
11	0x00000000	0.0
12	0x00000000	0.0
13	0x00000000	0.0
14	0x00000000	0.0
15	0x00000000	0.0
16	0x00000000	0.0
17	0x00000000	0.0
18	0x00000000	0.0
19	0x00000000	0.0
20	0x00000000	0.0
21	0x00000000	0.0
22	0x00000000	0.0
23	0x00000000	0.0
24	0x00000000	0.0
25	0x00000000	0.0
26	0x00000000	0.0
27	0x00000000	0.0
28	0x00000000	0.0
29	0x00000000	0.0
30	0x00000000	0.0
31	0x00000000	0.0
32	0x00000000	0.0
33	0x00000000	0.0
34	0x00000000	0.0
35	0x00000000	0.0
36	0x00000000	0.0
37	0x00000000	0.0
38	0x00000000	0.0
39	0x00000000	0.0
40	0x00000000	0.0
41	0x00000000	0.0
42	0x00000000	0.0
43	0x00000000	0.0
44	0x00000000	0.0
45	0x00000000	0.0
46	0x00000000	0.0
47	0x00000000	0.0
48	0x00000000	0.0
49	0x00000000	0.0

running_mean f4 [50]
0	0x00000000	0.0
1	0x00000000	0.0
2	0x00000000	0.0
3	0x00000000	0.0
4	0x00000000	0.0
5	0x00000000	0.0
6	0x00000000	0.0
7	0x00000000	0.0
8	0x00000000	0.0
9	0x00000000	0.0
10	0x00000000	0.0
11	0x00000000	0.0
12	0x00000000	0.0
13	0x00000000	0.0
14	0x00000000	0.0
15	0x00000000	0.0
16	0x00000000	0.0
17	0x00000000	0.0
18	0x00000000	0.0
19	0x00000000	0.0
20	0x00000000	0.0
21	0x00000000	0.0
22	0x00000000	0.0
23	0x00000000	0.0
24	0x00000000	0.0
25	0x00000000	0.0
26	0x00000000	0.0
27	0x00000000	0.0
28	0x00000000	0.0
29	0x00000000	0.0
30	0x00000000	0.0
31	0x00000000	0.0
32	0x00000000	0.0
33	0x00000000	0.0
34	0x00000000	0.0
35	0x00000000	0.0
36	0x00000000	0.0
37	0x00000000	0.0
38	0x00000000	0.0
39	0x00000000	0.0
40	0x00000000	0.0
41	0x00000000	0.0
42	0x00000000	0.0
43	0x00000000	0.0
44	0x00000000	0.0
45	0x00000000	0.0
46	0x00000000	0.0
47	0x00000000	0.0
48	0x00000000	0.0
49	0x00000000	0.0

running_var f4 [50]
0	0x3f800000	1.0
1	0x3f800000	1.0
2	0x3f800000	1.0
3	0x3f800000	1.0
4	0x3f800000	1.0
5	0x3f800000	1.0
6	0x3f800000	1.0
7	0x3f800000	1.0
8	0x3f800000	1.0
9	0x3f800000	1.0
10	0x3f800000	1.0
11	0x3f800000	1.0
12	0x3f800000	1.0
13	0x3f800000	1.0
14	0x3f800000	1.0
15	0x3f800000	1.0
16	0x3f800000	1.0
17	0x3f800000	1.0
18	0x3f800000	1.0
19	0x3f800000	1.0
20	0x3f800000	1.0
21	0x3f800000	1.0
22	0x3f800000	1.0
23	0x3f800000	1.0
24	0x3f800000	1.0
25	0x3f800000	1.0
26	0x3f800000	1.0
27	0x3f800000	1.0
28	0x3f800000	1.0
29	0x3f800000	1.0
30	0x3f800000	1.0
31	0x3f800000	1.0
32	0x3f800000	1.0
33	0x3f800000	1.0
34	0x3f800000	1.0
35	0x3f800000	1.0
36	0x3f800000	1.0
37	0x3f800000	1.0
38	0x3f800000	1.0
39	0x3f800000	1.0
40	0x3f800000	1.0
41	0x3f800000	1.0
42	0x3f800000	1.0
43	0x3f800000	1.0
44	0x3f800000	1.0
45	0x3f800000	1.0
46	0x3f800000	1.0
47	0x3f800000	1.0
48	0x3f800000	1.0
49	0x3f800000	1.0

weight f4 [20, 50]
0	0xbd85bd43	-0.065302394
1	0xbd1f7f52	-0.03893978
2	0x3e0308db	0.12796347
3	0x3df24b9e	0.11830829
4	0xbe107f09	-0.1411096
5	0xbd25789c	-0.040398225
6	0x3dc9b7c4	0.09849504
7	0x3dd73b0c	0.10509309
8	0xbe0f155a	-0.13972989
9	0x3d9a7a0a	0.07542808
10	0xbd3f178e	-0.046653323
11	0xbd126d9c	-0.035749063
12	0x3df83b92	0.12120737
13	0xbe073c8f	-0.13206695
14	0xbdc5b7ef	-0.09654223
15	0xbdcbd8f2	-0.099534884
16	0x3e04f54f	0.12984203
17	0xbc56e070	-0.0131150335
18	0xbdf5f7d1	-0.12010158
19	0x3d984034	0.07434121
20	0xbd35b392	-0.044360705
21	0xbc7608d0	-0.0150167495
22	0xbd0b0bd8	-0.033946842
23	0xbd5ecaa2	-0.054392464
24	0xbe0b8ae6	-0.13627204
25	0xbc3c5d50	-0.011496857
26	0xbd417486	-0.047230266
27	0xbc377990	-0.011198416
28	0xbdf1e632	-0.118114844
29	0xbd1b603a	-0.037933566
30	0x3d8b2d66	0.067957684
31	0xbdf38301	-0.118902214
32	0xbd8d6325	-0.06903676
33	0xbdeeff9c	-0.11669847
34	0x3d5eb508	0.054371864
35	0x3d106ed0	0.03526193
36	0xbc669390	-0.014073268
37	0x3c9e73b8	0.019342288
38	0xbcb13590	-0.021631986
39	0xbd17d6e2	-0.037070163
40	0x3c5532f0	0.013012633
41	0xbda3a6be	-0.07990788
42	0xbcf09da0	-0.029372036
43	0xbd70a230	-0.058748424
44	0x3c8279c8	0.01592721
45	0x3cf428e0	0.029804647
46	0x3dae24c4	0.08503106
47	0xbdba5607	-0.0909844
48	0xbcbc77fc	-0.023006432
49	0xbd836267	-0.06415253
50	0x3dcf0183	0.1010771
51	0xbcb18f8e	-0.021674898
52	0x3deee781	0.116652496
53	0x3dd29244	0.10281804
54	0xbcdfb537	-0.02730809
55	0x3da94996	0.082659885
56	0x3d740ae9	0.059580717
57	0xbd57beea	-0.052672304
58	0xbe4bff32	-0.19921568
59	0xbe6c4f74	-0.23077184
60	0xbe68bb54	-0.2272771
61	0xbcd8e980	-0.026478529
62	0xbcb86df1	-0.022513362
63	0x3d12cc1f	0.035839196
64	0x3de0703f	0.10958909
65	0xbd952916	-0.07283227
66	0x3e0cd1bd	0.13751884
67	0xbdf63277	-0.12021344
68	0x3d99d5df	0.07511496
69	0xbdfe96c7	-0.12431102
70	0xbe5dce29	-0.21660675
71	0x3e37ffd3	0.17968683
72	0x3e0d1735	0.13778384
73	0x3e1050b7	0.1409329
74	0x3c53a168	0.0129169
75	0xbe014d9c	-0.12627262
76	0xbb651ded	-0.0034960464
77	0xbd101a0e	-0.035181098
78	0x3e011d0c	0.12608737
79	0x3e390c2b	0.18071048
80	0xbe4b4d28	-0.19853652
81	0x3d9747c9	0.07386739
82	0xbdb84dde	-0.08999227
83	0xbdaed7b8	-0.08537239
84	0xbe26ec45	-0.16301067
85	0x3d990f42	0.07473613
86	0x3d510251	0.0510276
87	0xbe628642	-0.22121528
88	0x3deceff3	0.11569204
89	0x3eaacd7a	0.3335989
90	0x3e1a6fe0	0.1508174
91	0xbe6c4c5d	-0.23076005
92	0x3e90cb4e	0.2828011
93	0xbdd93c6e	-0.10607229
94	0x3d87ddd3	0.066341065
95	0xbe8487b6	-0.2588479
96	0xbdbe1030	-0.09280431
97	0x3e323e03	0.17406468
98	0x3e066909	0.13126005
99	0x3ea8abfa	0.32943708
100	0xbe816819	-0.25274733
101	0x3e1d5935	0.15366061
102	0x3e05ce74	0.13067037
103	0xbd4be00b	-0.04977421
104	0xbc452c3b	-0.012034471
105	0x3dbb6568	0.09150201
106	0x3e1364d9	0.14393939
107	0x3b9eaae0	0.004842147
108	0x3e753a0f	0.23947929
109	0x3e734615	0.23757203
110	0x3e100038	0.14062583
111	0xbea35d22	-0.31906992
112	0x3e0acbcc	0.13554305
113	0x3d15f0b7	0.036606517
114	0x3e40761d	0.18795057
115	0xbdaa7c2c	-0.08324465
116	0xbd89fc3d	-0.06737564
117	0x3dc35b3b	0.09538885
118	0x3d618df5	0.05506702
119	0x3dff8786	0.12477021
120	0x39ec1302	0.0004502759
121	0xbe090c1e	-0.13383529
122	0x3e692813	0.22769193
123	0xbe261418	-0.16218603
124	0xbe162559	-0.14662685
125	0x3e4c5cee	0.19957325
126	0x3d1ac4aa	0.03778521
127	0x3e2a7ec3	0.16649918
128	0x3d05a95a	0.03263221
129	0xbd5bc545	-0.053654928
130	0xbda5ad03	-0.0808964
131	0xbea80582	-0.32816702
132	0x3d859638	0.065227926
133	0x3e2245f8	0.15847003
134	0x3c4a7731	0.012357519
135	0xbeb4e78b	-0.35332903
136	0x3d634de6	0.05549421
137	0x3df82235	0.121158995
138	0xbe2f24c9	-0.17103876
139	0xbe9ed4d2	-0.31021744
140	0xbe98341c	-0.29727256
141	0x3e03e769	0.12881245
142	0x3d46cd78	0.048535794
143	0x3e041884	0.12899977
144	0xbda9de64	-0.08294371
145	0x3e9d3dd9	0.3071125
146	0xbc5cf3ed	-0.013485891
147	0xbc1534d7	-0.009106836
148	0x3be1c7fb	0.0068902946
149	0xbe83e493	-0.25760326
150	0x3da5d036	0.08096354
151	0xbc52d294	-0.012867589
152	0x3d2a945a	0.041645385
153	0x3e155e15	0.1458667
154	0xbd49831c	-0.0491973
155	0x3e163549	0.14668764
156	0x3df687c0	0.12037611
157	0xbc28faa0	-0.01031366
158	0x3e208a33	0.15677719
159	0xbd437a00	-0.04772377
160	0x3e00d4dc	0.125812
161	0xbc72ee07	-0.014827258
162	0xbc2227c8	-0.00989718
163	0xbd9a28a5	-0.075272836
164	0xbda4a3ad	-0.08039031
165	0xbe085f28	-0.13317549
166	0x3c049bca	0.008093784
167	0x3d094edb	0.033522468
168	0x3d9a1d99	0.075251766
169	0x3dc25a92	0.09489931
170	0xbc9aa931	-0.018879505
171	0x3e05b427	0.13057004
172	0x3dad8ec8	0.08474499
173	0xbcb15061	-0.021644773
174	0x3b5a228c	0.0033284752
175	0x3cc5c3ef	0.02414128
176	0x3cd801d0	0.026368052
177	0xbdef38f9	-0.116807885
178	0x3c291449	0.010319778
179	0x3dfca2c3	0.12335732
180	0x3d622c94	0.055218294
181	0x3d65f75e	0.05614411
182	0x3db29ed7	0.087217025
183	0x3d1c7818	0.038200468
184	0x3e1a9cf5	0.15098937
185	0x3d9494eb	0.07254966
186	0xbda7d240	-0.08194399
187	0x3c946afb	0.018117419
188	0x3e2f9e18	0.17150152
189	0xbd84b631	-0.06480063
190	0xbd1e49d0	-0.03864461
191	0xbe05a0c5	-0.1304961
192	0x3cd563f5	0.02604864
193	0x3d9b37ad	0.07578979
194	0x3d15c8ca	0.03656844
195	0x3d521eb6	0.05129882
196	0x3e1213f7	0.14265428
197	0x3d5fd9a0	0.054650903
198	0xbdde1103	-0.108430885
199	0x3b271b5c	0.0025498485
200	0xbe4dc446	-0.20094404
201	0x3d5dc32f	0.05414122
202	0x3e4206b3	0.18947868
203	0x3d096d21	0.03355134
204	0xbde8a3b6	-0.113593504
205	0xbd9035c6	-0.070415065
206	0xbdabf609	-0.08396537
207	0x3de86e26	0.11349134
208	0xbd87e455	-0.06635348
209	0xbe139222	-0.14411214
210	0xbd7ef3fc	-0.0622444
211	0x3dac180b	0.08403023
212	0xbe0521c4	-0.13001162
213	0x3da8de27	0.08245497
214	0xbd860851	-0.06544555
215	0xbd2c98b8	-0.04213783
216	0x3dfa2516	0.12214105
217	0xbe13e52c	-0.14442891
218	0xbcd11932	-0.02552471
219	0xbd7917e2	-0.060813792
220	0xbe0a3f78	-0.13500774
221	0x3cd9bbc7	0.026578797
222	0x3e8a253b	0.2698153
223	0x3e079148	0.13239014
224	0x3d46723e	0.048448794
225	0x3da31405	0.07962803
226	0x3e00b3b6	0.12568554
227	0x3d94e2fc	0.07269856
228	0x3d673507	0.056447055
229	0x3dd2fca6	0.10302095
230	0xbe935bae	-0.28780884
231	0x3e491c03	0.19639592
232	0x3e80ccce	0.25156254
233	0xbd0448bd	-0.03229593
234	0xbe248abd	-0.1606855
235	0x3e667912	0.22507122
236	0x3e197795	0.14987023
237	0xbeb2baef	-0.34908244
238	0xbc9c5890	-0.019085199
239	0x3e3b02c3	0.18262772
240	0x3e53a2f9	0.20667638
241	0xbea51b94	-0.32247603
242	0x3ea39876	0.31952256
243	0xbe533bfe	-0.20628354
244	0xbe2dce16	-0.16973147
245	0xbe9323c6	-0.2873823
246	0xbe490885	-0.19632156
247	0x3e5d4dbd	0.21611686
248	0xbda179ca	-0.078845575
249	0x3e4e8d7e	0.20171162
250	0x3e0e2ec5	0.13885029
251	0xbb867802	-0.0041036615
252	0xbcb0a208	-0.021561638
253	0x3de77d64	0.11303213
254	0x3e39ac25	0.18132074
255	0x3de0d6c6	0.10978465

bias f4 [20]
0	0xbc809508	-0.015696064
1	0x3dc28e33	0.094997786
2	0x3db55d66	0.08855705
3	0x3c8072b8	0.015679702
4	0x3e0da62f	0.13832925
5	0x3dab8a8b	0.08376034
6	0x3d3aa14d	0.045563985
7	0x3dec9050	0.11550963
8	0x3e1035b3	0.14082985
9	0xbdc66f43	-0.0968919
10	0x3c67f266	0.014156913
11	0x3d511a57	0.05105051
12	0x3df289fe	0.11842726
13	0xbd221cab	-0.03957812
14	0xbdc34f76	-0.0953664
15	0x3e4b2f91	0.19842364
16	0xbde42a89	-0.111409254
17	0x3cb605c8	0.022219554
18	0x3debe94a	0.11519106
19	0x3d49fc00	0.04931259

weight f4 [20]
0	0x3f800000	1.0
1	0x3f800000	1.0
2	0x3f800000	1.0
3	0x3f800000	1.0
4	0x3f800000	1.0
5	0x3f800000	1.0
6	0x3f800000	1.0
7	0x3f800000	1.0
8	0x3f800000	1.0
9	0x3f800000	1.0
10	0x3f800000	1.0
11	0x3f800000	1.0
12	0x3f800000	1.0
13	0x3f800000	1.0
14	0x3f800000	1.0
15	0x3f800000	1.0
16	0x3f800000	1.0
17	0x3f800000	1.0
18	0x3f800000	1.0
19	0x3f800000	1.0

bias f4 [20]
0	0x00000000	0.0
1	0x00000000	0.0
2	0x00000000	0.0
3	0x00000000	0.0
4	0x00000000	0.0
5	0x00000000	0.0
6	0x00000000	0.0
7	0x00000000	0.0
8	0x00000000	0.0
9	0x00000000	0.0
10	0x00000000	0.0
11	0x00000000	0.0
12	0x00000000	0.0
13	0x00000000	0.0
14	0x00000000	0.0
15	0x00000000	0.0
16	0x00000000	0.0
17	0x00000000	0.0
18	0x00000000	0.0
19	0x00000000	0.0

running_mean f4 [20]
0	0x00000000	0.0
1	0x00000000	0.0
2	0x00000000	0.0
3	0x00000000	0.0
4	0x00000000	0.0
5	0x00000000	0.0
6	0x00000000	0.0
7	0x00000000	0.0
8	0x00000000	0.0
9	0x00000000	0.0
10	0x00000000	0.0
11	0x00000000	0.0
12	0x00000000	0.0
13	0x00000000	0.0
14	0x00000000	0.0
15	0x00000000	0.0
16	0x00000000	0.0
17	0x00000000	0.0
18	0x00000000	0.0
19	0x00000000	0.0

running_var f4 [20]
0	0x3f800000	1.0
1	0x3f800000	1.0
2	0x3f800000	1.0
3	0x3f800000	1.0
4	0x3f800000	1.0
5	0x3f800000	1.0
6	0x3f800000	1.0
7	0x3f800000	1.0
8	0x3f800000	1.0
9	0x3f800000	1.0
10	0x3f800000	1.0
11	0x3f800000	1.0
12	0x3f800000	1.0
13	0x3f800000	1.0
14	0x3f800000	1.0
15	0x3f800000	1.0
16	0x3f800000	1.0
17	0x3f800000	1.0
18	0x3f800000	1.0
19	0x3f800000	1.0

weight f4 [2, 20]
0	0xbc8e2308	-0.017350689
1	0xbcd598e1	-0.026073875
2	0xbe904d62	-0.28184038
3	0x3e6fa651	0.23403288
4	0xbe2b4d4e	-0.16728708
5	0x3eb26270	0.34840727
6	0xbebc94c3	-0.36832246
7	0x3dff15d2	0.12455334
8	0xbca266d3	-0.019824421
9	0x3ecdf12a	0.40223056
10	0x3e4653a0	0.19367838
11	0x3e179014	0.14801055
12	0x3d6c38cb	0.05767135
13	0xbea5e55a	-0.32401544
14	0x3d83b028	0.064300835
15	0x3e25c60b	0.16188829
16	0xbe255324	-0.16144997
17	0xbea42a45	-0.320635
18	0x3e36ccf9	0.17851628
19	0x3eb3a72c	0.3508848
20	0x3e35d640	0.17757511
21	0xbecd2661	-0.40068343
22	0x3eb28422	0.34866434
23	0xbde54b59	-0.11196012
24	0xbebb4282	-0.3657418
25	0xbe84d530	-0.259439
26	0xbcfe0bed	-0.031011546
27	0xbd1ce869	-0.03830758
28	0xbec97438	-0.3934648
29	0xbdfb9985	-0.12285141
30	0x3eb8e3ec	0.3611139
31	0xbda0a4c6	-0.07843928
32	0x3f0ccf46	0.55003774
33	0x3e5a2d9c	0.21306461
34	0x3dc083b1	0.09400118
35	0x3ed1085a	0.40826684
36	0xbeb3bfff	-0.3510742
37	0x3e91e36c	0.28493822
38	0xbeefce9d	-0.4683732
39	0xbec0daef	-0.37667033

bias f4 [2]
0	0x3de09e9b	0.109677516
1	0xbe0f9ec2	-0.14025405
