models_version4/2UAVs_99483/c_t0.pt (torch_old, 28024 bytes, 15 tensors)

weight f4 [50, 68]
0	0x3d8734af	0.066018455
1	0x3edf4bdb	0.4361256
2	0x3d26d55e	0.040730827
3	0xbb3e817b	-0.0029068876
4	0xbd579eb6	-0.052641593
5	0x3dbe7ce5	0.093011655
6	0x3da3d276	0.079991266
7	0xbd19ff21	-0.037596826
8	0x3b154b7a	0.0022780583
9	0x3d340663	0.043951403
10	0xbc8a0476	-0.01684783
11	0x3d82581d	0.063644625
12	0x3ddc0d93	0.107447766
13	0xbd22ccf3	-0.039746236
14	0xbceb6433	-0.028734302
15	0xbd342187	-0.043977287
16	0x3dacb410	0.08432782
17	0xbe57793b	-0.2104234
18	0xbe697854	-0.22799808
19	0xbbf8f808	-0.007597927
20	0xbd04c4b2	-0.032414146
21	0x3df821ee	0.121158466
22	0xbbc83d17	-0.006110798
23	0x3957991e	0.00020561038
24	0x3d05c8d9	0.032662246
25	0x3d11289d	0.035439122
26	0x3de1b872	0.11021508
27	0x3d2066b9	0.039160464
28	0x3dd24e36	0.10268824
29	0xbd3af680	-0.045645237
30	0x3aafbd27	0.0013407812
31	0x3dd9d9ed	0.10637269
32	0xbddbfcda	-0.10741587
33	0xbdae0998	-0.084979236
34	0x3e2e1b04	0.17002493
35	0x3e8f3681	0.2797127
36	0xbcd098ca	-0.02546348
37	0x3d4fac7c	0.050701603
38	0xbda60a20	-0.081074
39	0xbdecbea9	-0.11559803
40	0x3dc2948e	0.09500991
41	0x3dec8e44	0.115505725
42	0x3c6cf3c6	0.014462417
43	0xbdaf13cd	-0.085486986
44	0xbd030967	-0.03199139
45	0x3db7822e	0.08960377
46	0x3d95c24b	0.07312449
47	0x3cef0e44	0.029181607
48	0xbcd7d521	-0.026346745
49	0x3dff29e8	0.12459165
50	0xbd863266	-0.065525815
51	0xbd595319	-0.053057764
52	0xbe251f44	-0.16125208
53	0x3c7cb97c	0.015425082
54	0xbd0c57ae	-0.034263305
55	0x3d476de6	0.04868879
56	0x3d862fa3	0.06552055
57	0x3d2d5f04	0.042326942
58	0xbcc96243	-0.024582988
59	0x3c3f59f0	0.011679158
60	0xbd79a6ca	-0.060950078
61	0xb9c720e0	-0.00037980732
62	0x3dc59a49	0.09648568
63	0x3dd4a512	0.10383047
64	0x3d7e77c0	0.06212592
65	0x3d6dacbc	0.05802606
66	0xbd34d9bd	-0.044152964
67	0x3d0c8677	0.034307923
68	0xbe00d8f2	-0.12582758
69	0xbea08dd4	-0.31358206
70	0x3e00688d	0.12539883
71	0x3dadeff8	0.08493036
72	0xbd6bb1ea	-0.05754272
73	0xbd8fff02	-0.07031061
74	0xbda34539	-0.079721875
75	0x3d9e2a1e	0.07722877
76	0x3d86e554	0.065867096
77	0x3d371554	0.044698074
78	0xbd5e3a4c	-0.054254815
79	0x3d7d3f7f	0.061828133
80	0xbd9ab2f4	-0.07553664
81	0xbc7fc972	-0.015611993
82	0xbdaafb2b	-0.08348688
83	0x3cb4b430	0.022058576
84	0x3df382a2	0.118901506
85	0x3ded9508	0.11600691
86	0xbcfdf756	-0.031001728
87	0x3bcc7735	0.0062397965
88	0xbd87bdaf	-0.06627976
89	0xbdf65966	-0.1202877
90	0xbe0d2d3a	-0.13786784
91	0x3d0d9c3b	0.03457282
92	0x3cfb1c6a	0.030653197
93	0x3d0b3693	0.033987593
94	0x3d193db4	0.03741236
95	0xbbe1047d	-0.00686699
96	0x3e03495a	0.1282095
97	0x3e39086d	0.1806962
98	0x3d91b2fb	0.07114216
99	0x3d350b73	0.044200372
100	0x3da20b75	0.079123415
101	0x3dd795d9	0.10526628
102	0x3b23d627	0.002499947
103	0xbe94e871	-0.2908359
104	0x3d5eb234	0.054369166
105	0x3e1233f0	0.14277625
106	0x3ddd1147	0.10794311
107	0x3dabc19b	0.08386537
108	0x3ce479fc	0.027890198
109	0xbc04067f	-0.008058189
110	0x3dc3b301	0.09555627
111	0x3b8f7a5b	0.0043785996
112	0x3d90af13	0.07064643
113	0x3c110e75	0.0088535445
114	0xbd2f4d58	-0.04279837
115	0x3d301524	0.04298891
116	0x3ddcbdc8	0.107783854
117	0xbe08f822	-0.13375905
118	0x3cb574e9	0.022150474
119	0xbdc3b131	-0.09555281
120	0xba829664	-0.0009963033
121	0x3d1b542f	0.03792208
122	0xbdf9a0eb	-0.12188896
123	0xbc9597d9	-0.018260883
124	0xbd097fc9	-0.03356913
125	0x3e10aa3b	0.14127438
126	0x3d560e88	0.05225995
127	0x3c2957c6	0.010335868
128	0xbd620230	-0.055177867
129	0xbd1c48da	-0.038155414
130	0x3d12a9d6	0.0358065
131	0x3e3fff65	0.18749769
132	0xbd06030b	-0.032717746
133	0xbc5c5ba2	-0.013449581
134	0x3c0a45fb	0.008439536
135	0x3d03f2f8	0.032214135
136	0x3ea339e6	0.3188011
137	0xbeda15bc	-0.42594707
138	0xbe36f445	-0.17866619
139	0xbda52368	-0.08063394
140	0x3bb5ebdd	0.0055517987
141	0xbdaf0b6f	-0.08547103
142	0xbcfe8fde	-0.03107446
143	0x3d58fbb2	0.05297441
144	0xbc3280db	-0.010894979
145	0x3d0eaae6	0.03483095
146	0xbcd83be3	-0.026395744
147	0x3c4cb5c4	0.012494508
148	0xbdc2b27f	-0.09506702
149	0x3d8c4cce	0.06850587
150	0xbd47ac63	-0.048748385
151	0x3ddea151	0.108706124
152	0x3d743684	0.059622303
153	0x3dbd47e0	0.09242225
154	0x3e1af12a	0.1513106
155	0x3d5a33f8	0.053272218
156	0x3e1af1e9	0.15131344
157	0xbdb6da8b	-0.089284025
158	0x3dd779fe	0.10521315
159	0x3d8ef783	0.06980803
160	0xbd42da61	-0.047571544
161	0x3d5fce1e	0.054639928
162	0xbd96e1fe	-0.07367323
163	0x3ca29ae0	0.01984924
164	0x3cac8a26	0.021061968
165	0x3e10dd4b	0.14146917
166	0x3ddbc73d	0.10731361
167	0xbdab37fe	-0.08360289
168	0x3c97068b	0.018435737
169	0xbd037453	-0.032093357
170	0x3e3586ba	0.17727175
171	0xbee41fc9	-0.445555
172	0xbd7a3bae	-0.06109207
173	0xbd64abd0	-0.055827916
174	0x3cfbdec8	0.030745879
175	0x3e0bcb4d	0.13651772
176	0x3d760616	0.060064398
177	0x3d6ee274	0.05832143
178	0xbd174e14	-0.036939695
179	0xbdb1c9e7	-0.08681088
180	0xbd73b076	-0.05949446
181	0x3dda23ed	0.106513835
182	0x3c20e006	0.009819036
183	0xbda8f96b	-0.08250698
184	0x3cf982cf	0.030457882
185	0xbda635ba	-0.08115716
186	0xbdbee2bc	-0.0932059
187	0x3e3c29e6	0.18375358
188	0x3e1df9f0	0.15427375
189	0x3c21aadb	0.009867395
190	0x3dc4e651	0.09614242
191	0xbccd9bb5	-0.025098661
192	0x3b4f5932	0.0031638858
193	0xbc9ccd86	-0.01914097
194	0xbda63eef	-0.081174724
195	0xbd5e3fe2	-0.054260142
196	0x3d9363d8	0.07196778
197	0x3cbf25db	0.02333348
198	0xbd896f89	-0.06710727
199	0x3dc03918	0.0938589
200	0x3b6bf290	0.0036002733
201	0xbc21f1ae	-0.009884281
202	0xbd07d3a2	-0.033160813
203	0x3de03223	0.10947063
204	0xbe04798b	-0.1293699
205	0xbeca0379	-0.39455774
206	0xbc85ee72	-0.016349051
207	0xbdbf12bc	-0.09329745
208	0xbb5b00b4	-0.0033417167
209	0x3d14b0d3	0.036301445
210	0x3e1748fc	0.14773935
211	0xbd3d378d	-0.046195555
212	0x3d1e9e42	0.038725145
213	0xbd78e42a	-0.06076447
214	0x3d94ffab	0.07275327
215	0xbd734540	-0.059392214
216	0x3cae554c	0.021280907
217	0x3c8b619a	0.017014313
218	0xbd2cc21f	-0.042177316
219	0x3daa8662	0.08326413
220	0xbdaae928	-0.08345252
221	0x3d035985	0.032067794
222	0x3d1c8484	0.038212314
223	0xbd0caf58	-0.03434691
224	0x3dc8bb1a	0.09801312
225	0xbd485898	-0.048912615
226	0x3d0597bd	0.032615412
227	0x3da27327	0.0793212
228	0xbd62a8a7	-0.05533662
229	0xbd7648b2	-0.06012792
230	0x3dd5fe9b	0.10448953
231	0xbd07906e	-0.033096723
232	0x3d91f11f	0.07126068
233	0x3bfd142b	0.0077233515
234	0x3dbe8bdb	0.09304019
235	0xbd9b8510	-0.07593739
236	0x3c73905f	0.014865964
237	0xbd691de7	-0.056913283
238	0xbd1bfd7c	-0.03808354
239	0xbea7b857	-0.32757828
240	0x3d2cdf3e	0.042205088
241	0xbd9b757c	-0.07590768
242	0x3cd53acf	0.026029019
243	0x3d60a3a4	0.05484356
244	0x3dacadcc	0.084315866
245	0x3d5aa4df	0.05337989
246	0x3d55b9f1	0.05217928
247	0x3d6c2ed2	0.05766184
248	0xbd868c4b	-0.065697275
249	0xbcc39172	-0.023873065
250	0x3d33986e	0.04384654
251	0xbc777d04	-0.01510549
252	0x3df19da7	0.11797648
253	0x3ceaed4b	0.028677603
254	0x3d30064a	0.042974748
255	0x3c8398d3	0.016064083

bias f4 [50]
0	0xbd81d611	-0.06339658
1	0x3e5a808a	0.21338096
2	0x3ce9624e	0.028489258
3	0x3e3f32b0	0.1867168
4	0x3e6187cf	0.22024463
5	0xbd0e1c0e	-0.034694724
6	0x3c5b06df	0.013368337
7	0x3de4c81c	0.1117098
8	0x3e46d3cf	0.19416736
9	0x3cbacbe3	0.022802299
10	0xbe2be462	-0.1678634
11	0x3e649554	0.22322589
12	0x3ccf5e11	0.025313409
13	0x3bc4f4f2	0.006010645
14	0x3e0bd434	0.13655168
15	0x3e43db78	0.1912669
16	0x3e3364cb	0.17518918
17	0x3df05837	0.11735576
18	0xbdb3c8cb	-0.087785326
19	0x3da3a336	0.079901144
20	0x3d623e67	0.055235293
21	0x3e3bb932	0.18332365
22	0x3e19b32f	0.1500976
23	0x3c4a9e36	0.012366822
24	0xbde171a7	-0.110080056
25	0xbdcfe945	-0.101519145
26	0x3d73193f	0.05935025
27	0x3e6c71b7	0.23090254
28	0x3e4cc277	0.19996057
29	0x3de13c68	0.1099785
30	0x3d86cd88	0.06582171
31	0x3d27c301	0.040957455
32	0x3e024a82	0.12723735
33	0x3e5487ab	0.20754878
34	0x3e170a04	0.14749914
35	0xbd834ac7	-0.06410747
36	0x3e423746	0.18966398
37	0x3e000058	0.12500131
38	0x3de8c4a2	0.1136563
39	0x3d011fbf	0.031524416
40	0xbe0d2a3c	-0.13785642
41	0xbd09f0a1	-0.033676747
42	0x3d058a01	0.032602314
43	0x3c40956a	0.011754373
44	0x3dc69a1f	0.09697365
45	0xbe1b7761	-0.15182258
46	0xbe088a9e	-0.13334128
47	0x3dbf67e2	0.09345986
48	0xbde3586b	-0.11100849
49	0xbddbeb3b	-0.10738226

weight f4 [50, 4]
0	0x3e49063c	0.19631284
1	0xbdc3a0c4	-0.09552148
2	0xbdf1b3d3	-0.11801877
3	0xbec7b56c	-0.390056
4	0x3c5381a4	0.012909327
5	0xbeff974a	-0.49920112
6	0xbe773328	-0.24140608
7	0x3e42f215	0.1903766
8	0x3de3731d	0.111059405
9	0xbef787ac	-0.48345697
10	0x3d2b1106	0.04176428
11	0xbec2f9e8	-0.38081288
12	0xbe95f99b	-0.29291996
13	0x3e94ef12	0.29088646
14	0xbe3cc684	-0.18435103
15	0x3d9b4d78	0.07583135
16	0xbe027977	-0.12741648
17	0xbe7df5e9	-0.24800839
18	0x3e709adc	0.23496574
19	0xbbc5b79e	-0.0060338518
20	0x3e62a9c8	0.22135079
21	0xbee05a4d	-0.43818894
22	0x3e4f9b4f	0.2027409
23	0xbedc776b	-0.4305986
24	0xbe8ee45c	-0.279086
25	0xbf09b894	-0.5379727
26	0x3eb95cd5	0.36203638
27	0x3efb38c4	0.49066746
28	0x3ea9c356	0.33156842
29	0xbefc884f	-0.49322745
30	0x3e666730	0.225003
31	0x3bc131af	0.0058958153
32	0xbe0cd9fc	-0.1375503
33	0x3e9f20e3	0.31079778
34	0x3da22482	0.079171196
35	0x3d858548	0.06519562
36	0x3bb4ee4f	0.0055215727
37	0xbe41c1b8	-0.18921554
38	0x3e822262	0.25416857
39	0xbe0ff85a	-0.14059582
40	0x3ebbb211	0.3665929
41	0xbf094493	-0.5362026
42	0xbd8d8073	-0.06909265
43	0x3c4bfeec	0.012450915
44	0x3ebd6c41	0.36996654
45	0xbedf4f0c	-0.43614995
46	0xbe06e893	-0.13174658
47	0xbe924385	-0.28567138
48	0x3e2c8559	0.16847743
49	0x3e3ad7d7	0.18246399
50	0xbe8f193e	-0.27948946
51	0xbe9f8f7c	-0.31164157
52	0xbf190d14	-0.5978558
53	0x3f1286f6	0.57237184
54	0xbe4ac0b2	-0.1980007
55	0x3e386297	0.18006359
56	0x3ea17601	0.31535342
57	0xbef3a91c	-0.47589958
58	0xbd2a6d87	-0.04160836
59	0x3e695e4e	0.2278988
60	0x3ed4fce0	0.41599178
61	0xbdfe6a5a	-0.12422629
62	0x3e029aac	0.12754315
63	0x3e3837a9	0.17989983
64	0x3e7fefb8	0.24993789
65	0x3ec6fbcf	0.3886399
66	0x3edbbc96	0.42917317
67	0x3d912826	0.07087736
68	0xbcd00a81	-0.025395634
69	0xb97b48e7	-0.00023964384
70	0xbe6a5a80	-0.22886086
71	0x3e4231c2	0.18964294
72	0xbcf48355	-0.02984778
73	0xbec8b30b	-0.391991
74	0xbec041f1	-0.3755031
75	0xbd518c51	-0.051159207
76	0x3ea3ca76	0.31990403
77	0xbeb63ad8	-0.3559177
78	0x3e4d8ce2	0.20073274
79	0x3e5a9aab	0.21348064
80	0xbe68745c	-0.22700638
81	0x3ee0fd86	0.43943423
82	0xbd010b49	-0.031504903
83	0x3eb56c0d	0.35434
84	0xbecf34fa	-0.40470105
85	0xbe52b3a0	-0.20576334
86	0x3ea73c25	0.32663074
87	0x3de7a44d	0.11310635
88	0xbefdf0a6	-0.49597663
89	0x3efee414	0.49783385
90	0xbdea0b2f	-0.11427914
91	0xbebfd20e	-0.37464947
92	0x3de55d33	0.11199417
93	0x3e8312e8	0.25600362
94	0x3c8cfd1f	0.017210541
95	0xbe44c9b5	-0.1921757
96	0x3e55fe4b	0.20897786
97	0xbe5a490f	-0.21316932
98	0xbeaade12	-0.3337255
99	0xbeb3b913	-0.35102138
100	0x3d058f66	0.03260746
101	0x3e84682a	0.2586072
102	0x3eb3ef4d	0.3514351
103	0xbd0df69b	-0.03465901
104	0x3e2c0c21	0.16801502
105	0xbed49038	-0.4151628
106	0xbf049ac9	-0.51798683
107	0x3c683d62	0.014174791
108	0x3e0d935e	0.13825747
109	0xbe3fa266	-0.18714294
110	0xbeadc9f6	-0.33943146
111	0xbe801856	-0.25018567
112	0xbe01a15d	-0.12659211
113	0xbef38748	-0.4756415
114	0xbe566f0b	-0.20940797
115	0xbc986699	-0.01860361
116	0x3efae0f1	0.48999742
117	0x3e486036	0.19567952
118	0xbdea66c6	-0.11445384
119	0x3e9408f8	0.28913093
120	0x3df0365a	0.11729117
121	0xbee6f793	-0.4511076
122	0x3e4f8a58	0.20267618
123	0xbe87e9e0	-0.2654562
124	0xbead2da2	-0.33823878
125	0xbee80eb4	-0.45323718
126	0xbef21141	-0.4727879
127	0x3e8b88f0	0.27252913
128	0xbed757c0	-0.42059135
129	0xbe9a3fa3	-0.30126676
130	0xbccf03f1	-0.025270434
131	0xbeb97c3d	-0.362276
132	0xbed55f89	-0.4167445
133	0x3e198e91	0.14995791
134	0x3efaa7d1	0.4895616
135	0x3eb6e2c2	0.35719877
136	0x3e2bad86	0.16765413
137	0xbee07905	-0.4384233
138	0x3e80feb6	0.2519433
139	0xbd71b84e	-0.059013657
140	0x3e210ba7	0.15727101
141	0x3e9dd722	0.30828196
142	0xbe9531d2	-0.29139572
143	0xbe98d83f	-0.29852483
144	0xbeb7c869	-0.35895088
145	0x3e84546d	0.25845662
146	0x3dcef8b2	0.101060286
147	0x3e891c76	0.26779526
148	0x3ee127ec	0.4397577
149	0xbf05db6b	-0.5228793
150	0x3e5a7639	0.21334161
151	0x3e32f2cd	0.17475434
152	0x3ebe24b1	0.37137368
153	0x3ee5d3c6	0.44888133
154	0xbe4f1041	-0.20221044
155	0xbdc72c22	-0.097252145
156	0xbe3ead73	-0.18620853
157	0xbefdaab0	-0.49544287
158	0xbe32167c	-0.1739139
159	0xbbb1d8fd	-0.0054274783
160	0xbe87b381	-0.26504138
161	0x3e8d7368	0.2762711
162	0x3ec7f56b	0.39054427
163	0x3efe538b	0.49673113
164	0xbf15e6a5	-0.5855506
165	0x3e1b945b	0.15193312
166	0x3e0450b6	0.12921414
167	0x3d94be76	0.0726289
168	0xbd7ef333	-0.06224365
169	0x3e535653	0.20638399
170	0x3e5a86f9	0.2134055
171	0x3e98e08d	0.2985882
172	0x3ed656c3	0.4186307
173	0xbeeaaa90	-0.45833254
174	0xbe499ba7	-0.19688283
175	0x3d1d51f5	0.03840824
176	0x3e741d75	0.23839362
177	0x3f047e81	0.5175553
178	0x3ec4e348	0.38454652
179	0x3dee17a5	0.116256036
180	0x3efd17ed	0.49432316
181	0x3df78212	0.12085356
182	0xbc91bd85	-0.017790565
183	0xbd8f6d4c	-0.070032686
184	0x3c58aa83	0.013224247
185	0x3e834172	0.25635868
186	0xbe58220e	-0.21106741
187	0x3eef1394	0.46694624
188	0xbe7fac54	-0.24968082
189	0xbe9ed552	-0.31022125
190	0xbe53af20	-0.20672274
191	0xbe306081	-0.17224313
192	0xbee92a5b	-0.45540127
193	0x3d6329ad	0.055459667
194	0x3e485619	0.19564094
195	0xbd3b3fda	-0.04571519
196	0x3ed271f9	0.4110258
197	0xbe89b925	-0.26899067
198	0x3e297bb3	0.16551094
199	0x3d810f76	0.06301777

bias f4 [50]
0	0xbe6a9a5a	-0.22910443
1	0xbe5f714b	-0.21820562
2	0x3e916525	0.2839748
3	0x3f154009	0.58300835
4	0xbeb02206	-0.34400958
5	0x3ecf3cf5	0.40476194
6	0xbee96d27	-0.4559109
7	0x3e31e620	0.17372942
8	0x3edbc509	0.42923763
9	0x3f030488	0.5117879
10	0x3eec8a77	0.4619939
11	0xbe76d9c4	-0.24106508
12	0xbd8f2b6e	-0.069907054
13	0x3e855990	0.26044893
14	0x3e943883	0.28949365
15	0x3d93b930	0.07213056
16	0x3d841d47	0.06450897
17	0x3ed8411c	0.42237175
18	0xbe8186db	-0.252982
19	0x3ef2177a	0.47283536
20	0xbe42b5b9	-0.19014634
21	0x3e83ded6	0.25755948
22	0xbe26bbb6	-0.16282544
23	0x3e8e8deb	0.2784265
24	0xbed5a272	-0.41725498
25	0x3e635ed2	0.2220414
26	0x3c828576	0.01593278
27	0xbe963397	-0.29336235
28	0xbe9894ac	-0.29800928
29	0x3eeb20f6	0.45923585
30	0xbf174911	-0.59095865
31	0x3eb5567a	0.3541754
32	0xbe0bfb2d	-0.13670035
33	0xbe0454dc	-0.12922996
34	0xbdb475b2	-0.08811511
35	0x3e696116	0.22790942
36	0x3e5cff10	0.21581674
37	0xbb7cb859	-0.0038562028
38	0xbf0597f1	-0.5218497
39	0x3ea361df	0.31910607
40	0x3efc497a	0.49274808
41	0x3e39a1df	0.18128155
42	0x3e8c0af6	0.27352113
43	0x3e31dda1	0.17369701
44	0xbee18835	-0.4404923
45	0x3e74177a	0.2383708
46	0x3da4e5d8	0.08051652
47	0x3f0207e4	0.5079329
48	0x3f167a67	0.5878052
49	0xbecfccc1	-0.40585902

weight f4 [50]
0	0x3f800000	1.0
1	0x3f800000	1.0
2	0x3f800000	1.0
3	0x3f800000	1.0
4	0x3f800000	1.0
5	0x3f800000	1.0
6	0x3f800000	1.0
7	0x3f800000	1.0
8	0x3f800000	1.0
9	0x3f800000	1.0
10	0x3f800000	1.0
11	0x3f800000	1.0
12	0x3f800000	1.0
13	0x3f800000	1.0
14	0x3f800000	1.0
15	0x3f800000	1.0
16	0x3f800000	1.0
17	0x3f800000	1.0
18	0x3f800000	1.0
19	0x3f800000	1.0
20	0x3f800000	1.0
21	0x3f800000	1.0
22	0x3f800000	1.0
23	0x3f800000	1.0
24	0x3f800000	1.0
25	0x3f800000	1.0
26	0x3f800000	1.0
27	0x3f800000	1.0
28	0x3f800000	1.0
29	0x3f800000	1.0
30	0x3f800000	1.0
31	0x3f800000	1.0
32	0x3f800000	1.0
33	0x3f800000	1.0
34	0x3f800000	1.0
35	0x3f800000	1.0
36	0x3f800000	1.0
37	0x3f800000	1.0
38	0x3f800000	1.0
39	0x3f800000	1.0
40	0x3f800000	1.0
41	0x3f800000	1.0
42	0x3f800000	1.0
43	0x3f800000	1.0
44	0x3f800000	1.0
45	0x3f800000	1.0
46	0x3f800000	1.0
47	0x3f800000	1.0
48	0x3f800000	1.0
49	0x3f800000	1.0

bias f4 [50]
0	0x00000000	0.0
1	0x00000000	0.0
2	0x00000000	0.0
3	0x00000000	0.0
4	0x00000000	0.0
5	0x00000000	0.0
6	0x00000000	0.0
7	0x00000000	0.0
8	0x00000000	0.0
9	0x00000000	0.0
10	0x00000000	0.0
11	0x00000000	0.0
12	0x00000000	0.0
13	0x00000000	0.0
14	0x00000000	0.0
15	0x00000000	0.0
16	0x00000000	0.0
17	0x00000000	0.0
18	0x00000000	0.0
19	0x00000000	0.0
20	0x00000000	0.0
21	0x00000000	0.0
22	0x00000000	0.0
23	0x00000000	0.0
24	0x00000000	0.0
25	0x00000000	0.0
26	0x00000000	0.0
27	0x00000000	0.0
28	0x00000000	0.0
29	0x00000000	0.0
30	0x00000000	0.0
31	0x00000000	0.0
32	0x00000000	0.0
33	0x00000000	0.0
34	0x00000000	0.0
35	0x00000000	0.0
36	0x00000000	0.0
37	0x00000000	0.0
38	0x00000000	0.0
39	0x00000000	0.0
40	0x00000000	0.0
41	0x00000000	0.0
42	0x00000000	0.0
43	0x00000000	0.0
44	0x00000000	0.0
45	0x00000000	0.0
46	0x00000000	0.0
47	0x00000000	0.0
48	0x00000000	0.0
49	0x00000000	0.0

running_mean f4 [50]
0	0x00000000	0.0
1	0x00000000	0.0
2	0x00000000	0.0
3	0x00000000	0.0
4	0x00000000	0.0
5	0x00000000	0.0
6	0x00000000	0.0
7	0x00000000	0.0
8	0x00000000	0.0
9	0x00000000	0.0
10	0x00000000	0.0
11	0x00000000	0.0
12	0x00000000	0.0
13	0x00000000	0.0
14	0x00000000	0.0
15	0x00000000	0.0
16	0x00000000	0.0
17	0x00000000	0.0
18	0x00000000	0.0
19	0x00000000	0.0
20	0x00000000	0.0
21	0x00000000	0.0
22	0x00000000	0.0
23	0x00000000	0.0
24	0x00000000	0.0
25	0x00000000	0.0
26	0x00000000	0.0
27	0x00000000	0.0
28	0x00000000	0.0
29	0x00000000	0.0
30	0x00000000	0.0
31	0x00000000	0.0
32	0x00000000	0.0
33	0x00000000	0.0
34	0x00000000	0.0
35	0x00000000	0.0
36	0x00000000	0.0
37	0x00000000	0.0
38	0x00000000	0.0
39	0x00000000	0.0
40	0x00000000	0.0
41	0x00000000	0.0
42	0x00000000	0.0
43	0x00000000	0.0
44	0x00000000	0.0
45	0x00000000	0.0
46	0x00000000	0.0
47	0x00000000	0.0
48	0x00000000	0.0
49	0x00000000	0.0

running_var f4 [50]
0	0x3f800000	1.0
1	0x3f800000	1.0
2	0x3f800000	1.0
3	0x3f800000	1.0
4	0x3f800000	1.0
5	0x3f800000	1.0
6	0x3f800000	1.0
7	0x3f800000	1.0
8	0x3f800000	1.0
9	0x3f800000	1.0
10	0x3f800000	1.0
11	0x3f800000	1.0
12	0x3f800000	1.0
13	0x3f800000	1.0
14	0x3f800000	1.0
15	0x3f800000	1.0
16	0x3f800000	1.0
17	0x3f800000	1.0
18	0x3f800000	1.0
19	0x3f800000	1.0
20	0x3f800000	1.0
21	0x3f800000	1.0
22	0x3f800000	1.0
23	0x3f800000	1.0
24	0x3f800000	1.0
25	0x3f800000	1.0
26	0x3f800000	1.0
27	0x3f800000	1.0
28	0x3f800000	1.0
29	0x3f800000	1.0
30	0x3f800000	1.0
31	0x3f800000	1.0
32	0x3f800000	1.0
33	0x3f800000	1.0
34	0x3f800000	1.0
35	0x3f800000	1.0
36	0x3f800000	1.0
37	0x3f800000	1.0
38	0x3f800000	1.0
39	0x3f800000	1.0
40	0x3f800000	1.0
41	0x3f800000	1.0
42	0x3f800000	1.0
43	0x3f800000	1.0
44	0x3f800000	1.0
45	0x3f800000	1.0
46	0x3f800000	1.0
47	0x3f800000	1.0
48	0x3f800000	1.0
49	0x3f800000	1.0

weight f4 [20, 100]
0	0x3b914861	0.004433677
1	0xbc9b9363	-0.018991178
2	0x3cedfe8f	0.029052047
3	0x3cb72706	0.022357475
4	0x3e29f324	0.16596657
5	0xbdca1021	-0.098663576
6	0x3ddb5054	0.10708681
7	0x3df56a30	0.11983144
8	0x3de2e577	0.11078923
9	0xbd5b2840	-0.053505182
10	0xbdf7ad29	-0.120935746
11	0x3d95654c	0.072947115
12	0xbcd05aa2	-0.025433842
13	0x3ddbc52f	0.10730969
14	0x3d9a3478	0.07529539
15	0x3dadb7cb	0.08482321
16	0x3da15fbe	0.078795895
17	0x3dbf3777	0.09336751
18	0xbd835b09	-0.06413848
19	0xbd94c131	-0.07263411
20	0x3d8cecb2	0.068810835
21	0x3e2120d9	0.15735187
22	0xbbc10f69	-0.0058917296
23	0xbc264e76	-0.0101505425
24	0xbe1e49fe	-0.15457913
25	0xbd213f70	-0.03936714
26	0xbde61ec9	-0.112363406
27	0xbd1d67f1	-0.038429204
28	0x3dbb21ce	0.09137307
29	0x3ddbc810	0.10731518
30	0x3dcaaf3c	0.098967046
31	0x3e00276b	0.12515037
32	0xbd21f2b2	-0.039538093
33	0x3dc15dff	0.094417565
34	0xbe4f39f0	-0.20236945
35	0xbd42738b	-0.04747347
36	0x3d9574c6	0.072976634
37	0x3e16f933	0.147435
38	0xbe1febc2	-0.15617278
39	0x3cff06a7	0.031131102
40	0xbdc69417	-0.09696215
41	0xbd1affd7	-0.037841644
42	0xbd7f1556	-0.062276207
43	0xbdabb8c8	-0.083848536
44	0xbd896f6b	-0.067107044
45	0xbe5df9ea	-0.21677366
46	0xbe004cca	-0.12529293
47	0xbdf8a301	-0.121404655
48	0xbdbd072e	-0.09229885
49	0xbd8b1d94	-0.06792751
50	0xbd5ad58c	-0.05342631
51	0xbda60968	-0.08107263
52	0xbd9c7857	-0.076401405
53	0x3e08f728	0.13375533
54	0xbc70379c	-0.014661696
55	0x3cca970e	0.024730232
56	0xbdbabffd	-0.0911865
57	0xbd38a008	-0.045074493
58	0x3e0fe1cc	0.14050978
59	0x3e0665df	0.13124798
60	0xbcaf5c37	-0.021406276
61	0xbd85b57c	-0.06528756
62	0x3d731ee7	0.059355643
63	0x3d309000	0.04310608
64	0xbd75eb15	-0.060038645
65	0xbcbdc3b7	-0.023164613
66	0x3ce0ebac	0.027456127
67	0x3de3721e	0.111057505
68	0xbe20fc5a	-0.15721264
69	0xbd056dd6	-0.03257545
70	0xbdea58cb	-0.11442717
71	0x3d9dcbad	0.07704864
72	0x3c88ff68	0.01672335
73	0x3dac69ac	0.08418593
74	0xbd81202a	-0.06304963
75	0xbce17da5	-0.027525732
76	0xbcc9af8d	-0.024619842
77	0xbd879b5f	-0.066214316
78	0x3db8e170	0.09027374
79	0x3d3ee433	0.046604346
80	0x3de796bb	0.113080464
81	0xbced4711	-0.028964551
82	0x3d758545	0.05994155
83	0x3bcd8e6d	0.006273082
84	0xbd94e73f	-0.07270669
85	0x3e062295	0.1309913
86	0x3d03c1cb	0.032167237
87	0x3ce72f71	0.028220864
88	0x3c0948ae	0.008379145
89	0x3d2ce1c5	0.042207498
90	0x3d7350c2	0.05940319
91	0xbd06790d	-0.032830287
92	0x3e0b644c	0.13612479
93	0x3d7058e1	0.05867851
94	0x3cb0f911	0.02160314
95	0x3d152c42	0.03641916
96	0xbcca01e8	-0.024659112
97	0xbd0750f3	-0.033036184
98	0xbcc9b96a	-0.024624545
99	0x3e344e71	0.17608048
100	0xbda989cd	-0.082782365
101	0x3e009457	0.12556587
102	0x3d88fbce	0.06688653
103	0x3e4654e6	0.19368324
104	0x3e39bdd9	0.18138827
105	0xbda622b5	-0.081120886
106	0x3b410842	0.0029454385
107	0x3eaefd80	0.3417778
108	0xbdf25176	-0.11831944
109	0xbdc17f67	-0.09448128
110	0xbe7add5a	-0.24498501
111	0x3e0cbfde	0.13745067
112	0xbe6ffe89	-0.23436941
113	0xbd59768f	-0.053091582
114	0x3d6f6a18	0.05845079
115	0xbe39c60e	-0.18141958
116	0xbe0a74c3	-0.13521104
117	0x3e66b788	0.22530949
118	0xbdb5a11e	-0.08868621
119	0x3ebf5bbd	0.37374678
120	0xbe528600	-0.2055893
121	0xbe439c07	-0.19102488
122	0x3d026386	0.031833194
123	0x3db2fa99	0.08739204
124	0xbe291b41	-0.16514303
125	0xbe9634f8	-0.29337287
126	0xbdc39f27	-0.0955184
127	0xbd880cbf	-0.06643056
128	0xbd699715	-0.05702885
129	0xbe331bce	-0.17491075
130	0xbe600c81	-0.2187977
131	0xbe04791f	-0.12936829
132	0xbdaeb029	-0.08529694
133	0xbb7582a6	-0.0037461906
134	0x3e85edc6	0.2615797
135	0xbd4c5c42	-0.04989267
136	0xbdd639a8	-0.10460216
137	0xbe546740	-0.20742512
138	0x3e09615e	0.13416049
139	0x3e33fe5d	0.175775
140	0xbe194364	-0.14967114
141	0xbd26b7ed	-0.04070275
142	0x3e674108	0.22583401
143	0x3d4da977	0.050210442
144	0x3c87c79a	0.01657467
145	0x3c06e82a	0.008234063
146	0xbdd85f44	-0.105650455
147	0x3d964d93	0.07339015
148	0xbe468f7f	-0.19390677
149	0x3d31a5f9	0.043371174
150	0xbd2a47a5	-0.04157223
151	0x3e0fbde2	0.14037278
152	0x3e17b877	0.14816462
153	0xbdb9477e	-0.09046839
154	0x3e096abe	0.13419625
155	0xbc6c5761	-0.01442513
156	0x3d765469	0.060139094
157	0x3cc4290a	0.02394535
158	0xbe00146a	-0.12507787
159	0x3d0ddefa	0.034636475
160	0x3dbf2b4d	0.09334431
161	0xbbbfb9e2	-0.0058510164
162	0xbdb771f6	-0.08957283
163	0x3d431be6	0.047634028
164	0xbbd15ac8	-0.006388996
165	0x3d000b09	0.031260524
166	0xbdc29b63	-0.09502294
167	0x3d329441	0.043598417
168	0x3d7d3c61	0.06182516
169	0x3d43435a	0.047671653
170	0x3d9c8f23	0.07644489
171	0x3e136da3	0.14397292
172	0x3e3277bd	0.17428489
173	0xbe38fc1a	-0.18064919
174	0xbd8363c7	-0.064155154
175	0xbda892ed	-0.08231149
176	0xbba23669	-0.004950334
177	0xbd8658cf	-0.06559908
178	0x3e124e24	0.14287621
179	0xbd84407b	-0.06457611
180	0x3db6f42d	0.089332916
181	0x3be66cec	0.0070320275
182	0x3d0b711a	0.03404341
183	0x3c3604b9	0.011109524
184	0x3e29770c	0.16549319
185	0xbe194d28	-0.14970839
186	0x3cafbdb0	0.021452755
187	0x3c99849f	0.018739996
188	0xbd1cc82c	-0.038276836
189	0x3e48417a	0.19556227
190	0xbd2f6631	-0.042822067
191	0x3df02b11	0.11726964
192	0xbe091b73	-0.13389377
193	0x3d34017d	0.04394673
194	0xbe310da2	-0.17290357
195	0xbe2be939	-0.16788186
196	0xbd3764ae	-0.04477375
197	0x3c221854	0.009893496
198	0x3de7b69c	0.11314127
199	0x3d8910e6	0.06692676
200	0xbe0deee5	-0.13860662
201	0x3e0b0d4d	0.13579293
202	0x3e6a4fac	0.22881955
203	0x3e15e0bd	0.14636512
204	0x3e246284	0.16053206
205	0xbcacb5b3	-0.021082735
206	0xbc48e1b1	-0.01226084
207	0x3e99846d	0.29983845
208	0x3d86b04c	0.06576595
209	0xbdb73cbc	-0.08947131
210	0xbdc886bc	-0.097913235
211	0x3e497a02	0.19675449
212	0xbdcfa3c6	-0.10138659
213	0x3c750286	0.014954215
214	0xbe1d79c4	-0.15378481
215	0xbe3d09ba	-0.18460742
216	0xbe2fce37	-0.17168508
217	0x3ea3a596	0.3196227
218	0xbe08b0e1	-0.13348724
219	0x3e9d76e8	0.3075478
220	0xbd73e860	-0.059547782
221	0xbe8c244d	-0.27371445
222	0x3e327af9	0.17429723
223	0x3e002098	0.12512434
224	0xbe305d21	-0.17223026
225	0xbe3b4b30	-0.182904
226	0xbe56f77d	-0.20992847
227	0xbe190910	-0.14944863
228	0xbde637ac	-0.11241087
229	0xbe4555ad	-0.19270964
230	0xbd91629c	-0.07098886
231	0xbe87091a	-0.2637413
232	0xbd4ef161	-0.050523166
233	0x3d91ae09	0.07113273
234	0x3d1df4e6	0.03856363
235	0x3daae769	0.08344919
236	0xbdb4f925	-0.08836583
237	0xbe78fa17	-0.24314152
238	0x3dc38c0c	0.09548196
239	0x3e61ad2f	0.2203872
240	0xbe825f78	-0.25463462
241	0x3e6614f0	0.22468925
242	0x3e83a140	0.2570896
243	0xbddd119b	-0.107943736
244	0x3dedf70c	0.11619386
245	0x3dc4479d	0.09583972
246	0x3dcaea56	0.09907977
247	0x3d43400d	0.047668505
248	0xbe46a992	-0.19400623
249	0x3ea68516	0.32523412
250	0x3d8150c2	0.063142315
251	0x3db3e376	0.08783619
252	0x3e16c044	0.14721781
253	0xbd8027d8	-0.062575996
254	0x3e17cec4	0.14824969
255	0x3c72c246	0.014816826

bias f4 [20]
0	0x3e245558	0.16048181
1	0xbdb40566	-0.08790092
2	0xbd80c5d1	-0.062877305
3	0x3d1b8177	0.037965264
4	0xbd3e3c02	-0.046443947
5	0x3c9ff767	0.01952715
6	0x3dfd384c	0.123642534
7	0x3e086adb	0.13322012
8	0x3d8b894a	0.06813295
9	0x3d757bd1	0.059932534
10	0x3cdebe60	0.027190387
11	0xbd92e406	-0.07172398
12	0xbe007a75	-0.12546714
13	0xbe32c43c	-0.1745767
14	0x3e514ea7	0.2044016
15	0x3ce5b93c	0.028042428
16	0xbddc8ffd	-0.10769651
17	0xbdd9240d	-0.10602579
18	0x3db6e44c	0.08930263
19	0x3de20f39	0.1103806

weight f4 [20]
0	0x3f800000	1.0
1	0x3f800000	1.0
2	0x3f800000	1.0
3	0x3f800000	1.0
4	0x3f800000	1.0
5	0x3f800000	1.0
6	0x3f800000	1.0
7	0x3f800000	1.0
8	0x3f800000	1.0
9	0x3f800000	1.0
10	0x3f800000	1.0
11	0x3f800000	1.0
12	0x3f800000	1.0
13	0x3f800000	1.0
14	0x3f800000	1.0
15	0x3f800000	1.0
16	0x3f800000	1.0
17	0x3f800000	1.0
18	0x3f800000	1.0
19	0x3f800000	1.0

bias f4 [20]
0	0x00000000	0.0
1	0x00000000	0.0
2	0x00000000	0.0
3	0x00000000	0.0
4	0x00000000	0.0
5	0x00000000	0.0
6	0x00000000	0.0
7	0x00000000	0.0
8	0x00000000	0.0
9	0x00000000	0.0
10	0x00000000	0.0
11	0x00000000	0.0
12	0x00000000	0.0
13	0x00000000	0.0
14	0x00000000	0.0
15	0x00000000	0.0
16	0x00000000	0.0
17	0x00000000	0.0
18	0x00000000	0.0
19	0x00000000	0.0

running_mean f4 [20]
0	0x00000000	0.0
1	0x00000000	0.0
2	0x00000000	0.0
3	0x00000000	0.0
4	0x00000000	0.0
5	0x00000000	0.0
6	0x00000000	0.0
7	0x00000000	0.0
8	0x00000000	0.0
9	0x00000000	0.0
10	0x00000000	0.0
11	0x00000000	0.0
12	0x00000000	0.0
13	0x00000000	0.0
14	0x00000000	0.0
15	0x00000000	0.0
16	0x00000000	0.0
17	0x00000000	0.0
18	0x00000000	0.0
19	0x00000000	0.0

running_var f4 [20]
0	0x3f800000	1.0
1	0x3f800000	1.0
2	0x3f800000	1.0
3	0x3f800000	1.0
4	0x3f800000	1.0
5	0x3f800000	1.0
6	0x3f800000	1.0
7	0x3f800000	1.0
8	0x3f800000	1.0
9	0x3f800000	1.0
10	0x3f800000	1.0
11	0x3f800000	1.0
12	0x3f800000	1.0
13	0x3f800000	1.0
14	0x3f800000	1.0
15	0x3f800000	1.0
16	0x3f800000	1.0
17	0x3f800000	1.0
18	0x3f800000	1.0
19	0x3f800000	1.0

weight f4 [1, 20]
0	0x3e6a8793	0.2290328
1	0xbf3153f1	-0.6926871
2	0xbf8235d5	-1.0172678
3	0x3f8beda1	1.0931894
4	0xbf166b78	-0.58757734
5	0xbe454c0e	-0.19267294
6	0x3eb09db0	0.34495306
7	0x3d93a9a7	0.07210093
8	0x3e189b66	0.1490303
9	0x3da1d30a	0.07901581
10	0x3e08b3d4	0.13349849
11	0xbf1036a6	-0.56333387
12	0xbf1398ab	-0.5765483
13	0xbebb566c	-0.36589372
14	0x3e347415	0.17622407
15	0xbf37e531	-0.71834093
16	0xbf3aee41	-0.73019797
17	0xbf124c29	-0.5714746
18	0x3e8be162	0.2732039
19	0x3e2ded94	0.1698516
