models_version2/2UAVs_96554/a_c1.pt (torch_old, 16240 bytes, 14 tensors)

weight f4 [50, 34]
00000000: 2225 523d 6849 8dbd d5b9 0abf 5f96 033e
00000010: 9f06 fdbd 2b25 353e 7f94 8e3d 5c33 7bbd
00000020: f526 5e3d 2c2f d0bd 40fd 97bd 2a1d da3d
00000030: a3a5 c6bd 97f2 783d f934 633c ece9 963d
00000040: 584a 823d 3c3d 153e 64b6 f9bd 0ebb dd3d
00000050: 9365 9a3d 68eb 8cbd 5a40 6f3e ba41 07be
00000060: 3543 1e3e 7614 29bd 7164 f6bc a09c eabc
00000070: 7f88 ae3d 8cab 3a3e fcea e53d 36ab 4c3c
00000080: 38d7 0e3c 0fd5 bf3c feca de3c 64e4 c33d
00000090: 6919 21bf 94fd 653e 5e61 203d 914c 99bd
000000a0: 351e 72bd 0c9d 553c bdc7 47bd 7a79 86bd
000000b0: 7209 bf3b 6475 8f3d b369 8abc 8453 42bd
000000c0: 3e95 28bd 3ef2 c9bd ca63 3d3e e8ef 99bd
000000d0: 5e6d 103e a708 513d 88f3 8abd 1c10 02bd
000000e0: d631 a8bd 64b1 b33c e413 12be 4d82 833c
000000f0: ff8a 8dbe fc36 24bd 0168 033d 7180 b83a
00000100: acaf fa3d 9b0d e33d 1e5a d63d b62f 123e
00000110: 4e4d 9cbd 280a 133e 9234 c43e 3f01 4f3f
00000120: 8833 cb3d 726e 00be 2ee8 a0bd b1d7 b23c
00000130: 2c15 e73c f963 3d3d e9d9 75bd f589 033d
00000140: ee17 2d3e 9dac c2bd 4999 a7bd 1b16 eabd
00000150: 11fd a93d afc3 033e 9c78 08be 5020 973d
00000160: 2cc4 163e 4dd8 96bd 0c4f bd3d bb64 dd3d
00000170: c884 d13c 6a51 26bd ebcf 8c3e 04c5 fdbc
00000180: 38ac 693d a88e f7bd a561 b6bd f5b3 df3d
00000190: 523f dfbc b7a3 ed3d 7f0d e23d d03f a8bd
000001a0: d633 dcbe 85b0 af3f 2ef8 55bd f9d3 05bd
000001b0: 20ee 043b 456d a63d f5cf b1bb 659c ad3d
000001c0: 23e7 16be 01f5 34bd 0c57 f63d 15c0 2dbe
000001d0: d90c 2cbd 6c60 7cbe f21c aa3c 5563 213c
000001e0: 81e4 043d a9ff 113c efab c73d 11eb fcbd
000001f0: b89c 913b d516 913c 9b0f 91be 0694 503d
00000200: a9bb bebd 1690 1f3d 5f4e 9c3c aa01 483e
00000210: 6c4f 7cbc a2c0 943d eafe b8bd 7385 10bd
00000220: 4d66 e2bc 528c 07bc fd65 21bf 1c8e c23e
00000230: b17d bf3d bbeb d33d 271d 3c3e a98e 17be
00000240: 3e8e d9bd 8649 53bc 6cdc 05be 425d a03c
00000250: 36c4 57bc ddc7 9f3d ecca 833d 70e1 20be
00000260: b255 163e 834d df3d 1091 2abc 5840 053e
00000270: 3a1f 66bd 9434 513d 6b50 9c3e 5543 08bc
00000280: 1f68 e5bd 0acb a1bd 7a0a 12be e380 293e
00000290: e1d1 263e 7d4e 31bd f981 a6bd 7266 9bbd
000002a0: 3f72 dfbb e133 3b3d 4593 10be 4829 cdbd
000002b0: 1f5f 01be c4c1 12be 3c06 773d 6038 08be
000002c0: 0d45 e7bd d51e 1f3e 4c6b 21bd adb6 1a3e
000002d0: 314e 98bd 3eca 0cbe 78b3 593d 7654 be3d
000002e0: c4f5 2dbd 1c29 5e3d 5d7b 96bd 1ee1 8b3d
000002f0: c928 9dbd 1fc5 13be 4701 073e 285b f8bd
00000300: a16d 0f3e 4ceb 1cbd d047 25bd 0275 c43d
00000310: 80fb 813b 3e8a 19be 60b7 80bb 0483 08be
00000320: 90db 2ebe 1a4a f63d 4033 d0bd de58 6bbd
00000330: aa58 42be da96 683e 063d 813f 5f96 cebd
00000340: 47bb 2d3d 6c0d ba3d 8d28 37bd e452 8dbb
00000350: f3a6 78be 1b4c cd3b 6814 d93d c62c b53d
00000360: bd6d 903e 7ec6 913d ef29 2fbe a60d 5d3d
00000370: b629 b4bc 3d16 e7bd 5130 01be a1f8 8d3d
00000380: d741 943d 6a38 1a3d 9542 88be 3d2d 2a3e
00000390: 60c1 3fbe 2d83 e03d 2bd0 623d 5318 023d
000003a0: ae40 af3d 41ed 9ebd 7f46 72be 6f4c 21be
000003b0: 80c1 a13c fc89 8dbd ec68 ea3d 8282 49bc
000003c0: 4a5e 09bf 0fd9 1b3f 2838 0ebd 3fe7 cabb
000003d0: a850 ff3d 3c5a c5bd d7ab 2f3e ec98 223e
000003e0: 5ff0 2cbd e758 85bd 5c8e f03b 08d3 af3d
000003f0: 4199 e33d 05e6 84be f7fe d83d ff33 f13d
0.051304944 -0.06898767 -0.5418981 0.12850331 -0.123547785 0.1768996 0.06961917 -0.061328277
0.05423637 -0.10165247 -0.074213505 0.10650094 -0.096995614 0.060778227 0.01386761 0.07368836
0.06361836 0.1457414 -0.121929914 0.108266935 0.07538905 -0.06880838 0.23364392 -0.13208666
0.15455325 -0.04127928 -0.030077191 -0.028639138 0.08522128 0.18229502 0.1122646 0.012491992
0.008718304 0.023417024 0.027196404 0.095650464 -0.629294 0.22460014 0.039155357 -0.07485307
-0.05911084 0.013037931 -0.04877447 -0.065661386 0.0058299834 0.07004812 -0.016896104 -0.047442928
-0.041157953 -0.09860657 0.18495098 -0.075164616 0.1410422 0.051033642 -0.06784731 -0.031753644
-0.082126305 0.021935172 -0.142654 0.016053343 -0.27645108 -0.0400915 0.032081608 0.0014076364
0.12240538 0.110865794 0.10466407 0.14276013 -0.07631932 0.14359343 0.38321358 0.80861276
0.09921938 -0.12542132 -0.07856785 0.021831365 0.028208338 0.04623792 -0.06002227 0.032113988
0.1690366 -0.095055796 -0.08183534 -0.114299975 0.08300222 0.12867616 -0.13327259 0.0737921
0.14723271 -0.07365475 0.092435926 0.108102284 0.02557601 -0.040604986 0.2750238 -0.030977733
0.057049006 -0.120877564 -0.08905343 0.10922996 -0.027251873 0.11603492 0.110377304 -0.08215296
-0.43008298 1.3725744 -0.052238636 -0.032672856 0.0020283535 0.0812631 -0.0054264017 0.084770955
-0.14736609 -0.044178966 0.120283216 -0.16967805 -0.04200444 -0.24646157 0.020765755 0.009850343
0.03244448 0.008911052 0.097495906 -0.12349523 0.004443731 0.017711082 -0.2833222 0.050922416
-0.09313137 0.03895577 0.019080339 0.19531885 -0.015399795 0.07263304 -0.09032996 -0.035283517
-0.027636671 -0.008273201 -0.63046247 0.37999046 0.093501456 0.103476964 0.18370496 -0.14800514
-0.10622834 -0.012895947 -0.13072366 0.019575719 -0.013169339 0.07801793 0.06435189 -0.15710998
0.14681128 0.10903456 -0.010410562 0.13012826 -0.056182124 0.051075533 0.30530104 -0.008316834
-0.112015 -0.07900055 -0.14261809 0.16553073 0.16291 -0.043287743 -0.08130259 -0.07587899
-0.006819039 0.045703772 -0.14118679 -0.100176394 -0.12633942 -0.14331728 0.06030868 -0.13302755
-0.11292467 0.15539105 -0.039408967 0.15108748 -0.07436789 -0.13749024 0.05314967 0.092934534
-0.04247071 0.054238424 -0.073477484 0.06830047 -0.07673795 -0.14430664 0.13184081 -0.12126762
0.14006664 -0.038310334 -0.04035169 0.0959263 0.0039667487 -0.14994141 -0.00392811 -0.13331228
-0.17075944 0.120258525 -0.10166025 -0.057457797 -0.18979135 0.22713795 1.0096748 -0.10087275
0.04241493 0.09084591 -0.044716407 -0.00431286 -0.24282436 0.006265176 0.10599595 0.088464305
0.28208724 0.071179375 -0.1710584 0.053968094 -0.021992546 -0.112835385 -0.12616087 0.06932188
0.072391205 0.037651457 -0.26613298 0.1661882 -0.1872611 0.1096252 0.055374306 0.03176148
0.085572585 -0.07760096 -0.23659705 -0.15751813 0.019745588 -0.06911084 0.114457935 -0.012299182
-0.536595 0.6087808 -0.034721524 -0.0061921175 0.12466556 -0.096363515 0.17155395 0.15878648
-0.042221423 -0.065110974 0.0073411893 0.08585173 0.11113215 -0.2595674 0.10595506 0.117774956

bias f4 [50]
00000000: 82b8 893c 29b5 1b3e 4a03 30bd cf9b 92bd
00000010: e2b6 bd3d cf34 2dbe 7c36 e9ba b42b 953d
00000020: f168 033e 077e 19be f71f a9bd fcb3 e0bc
00000030: 90f4 063d f71b c83d a2a8 ef3c 9e80 173e
00000040: f46e 023e 683f 5e3d 437e 473d c231 643c
00000050: 2fcd 333e 9341 d9bd 7c22 3e3d d45f 2c3e
00000060: 3da7 cd3d a144 63bd ad33 543c 9772 0d3d
00000070: 2b46 ddbd 5f51 913d 73fa 8dbd 8560 e83d
00000080: b740 143e 4d67 093d 2479 06be 361a f53d
00000090: 8be5 14bb a6d7 94bc b7e3 283d b59d 003e
000000a0: 5ea2 3dbd 4268 46bd 8d5d 403e be3d a23d
000000b0: ed21 2bbe f905 733d 3c80 08bd 3f7f df3c
000000c0: 2cac f13c d7cd 80bd
0.016811613 0.15205826 -0.042971887 -0.071586244 0.09263398 -0.16914676 -0.0017792727 0.07283726
0.12833 -0.14989482 -0.0825805 -0.027429573 0.032948077 0.09770959 0.029255215 0.14795157
0.12737638 0.054259688 0.048704397 0.013927879 0.1755874 -0.106082104 0.046419606 0.1683343
0.10041664 -0.05548537 0.012951774 0.03453311 -0.10804399 0.070955984 -0.06932535 0.11346535
0.14477812 0.03354578 -0.13132149 0.1196789 -0.0022719826 -0.018169235 0.04123279 0.1256016
-0.046297424 -0.04843927 0.18785687 0.07921933 -0.1671216 0.059331868 -0.03332542 0.027282355
0.029501043 -0.06289261

weight f4 [50]
00000000: 0000 803f 0000 803f 0000 803f 0000 803f
00000010: 0000 803f 0000 803f 0000 803f 0000 803f
00000020: 0000 803f 0000 803f 0000 803f 0000 803f
00000030: 0000 803f 0000 803f 0000 803f 0000 803f
00000040: 0000 803f 0000 803f 0000 803f 0000 803f
00000050: 0000 803f 0000 803f 0000 803f 0000 803f
00000060: 0000 803f 0000 803f 0000 803f 0000 803f
00000070: 0000 803f 0000 803f 0000 803f 0000 803f
00000080: 0000 803f 0000 803f 0000 803f 0000 803f
00000090: 0000 803f 0000 803f 0000 803f 0000 803f
000000a0: 0000 803f 0000 803f 0000 803f 0000 803f
000000b0: 0000 803f 0000 803f 0000 803f 0000 803f
000000c0: 0000 803f 0000 803f
1.0 1.0 1.0 1.0 1.0 1.0 1.0 1.0
1.0 1.0 1.0 1.0 1.0 1.0 1.0 1.0
1.0 1.0 1.0 1.0 1.0 1.0 1.0 1.0
1.0 1.0 1.0 1.0 1.0 1.0 1.0 1.0
1.0 1.0 1.0 1.0 1.0 1.0 1.0 1.0
1.0 1.0 1.0 1.0 1.0 1.0 1.0 1.0
1.0 1.0

bias f4 [50]
00000000: 0000 0000 0000 0000 0000 0000 0000 0000
00000010: 0000 0000 0000 0000 0000 0000 0000 0000
00000020: 0000 0000 0000 0000 0000 0000 0000 0000
00000030: 0000 0000 0000 0000 0000 0000 0000 0000
00000040: 0000 0000 0000 0000 0000 0000 0000 0000
00000050: 0000 0000 0000 0000 0000 0000 0000 0000
00000060: 0000 0000 0000 0000 0000 0000 0000 0000
00000070: 0000 0000 0000 0000 0000 0000 0000 0000
00000080: 0000 0000 0000 0000 0000 0000 0000 0000
00000090: 0000 0000 0000 0000 0000 0000 0000 0000
000000a0: 0000 0000 0000 0000 0000 0000 0000 0000
000000b0: 0000 0000 0000 0000 0000 0000 0000 0000
000000c0: 0000 0000 0000 0000
0.0 0.0 0.0 0.0 0.0 0.0 0.0 0.0
0.0 0.0 0.0 0.0 0.0 0.0 0.0 0.0
0.0 0.0 0.0 0.0 0.0 0.0 0.0 0.0
0.0 0.0 0.0 0.0 0.0 0.0 0.0 0.0
0.0 0.0 0.0 0.0 0.0 0.0 0.0 0.0
0.0 0.0 0.0 0.0 0.0 0.0 0.0 0.0
0.0 0.0

running_mean f4 [50]
00000000: 0000 0000 0000 0000 0000 0000 0000 0000
00000010: 0000 0000 0000 0000 0000 0000 0000 0000
00000020: 0000 0000 0000 0000 0000 0000 0000 0000
00000030: 0000 0000 0000 0000 0000 0000 0000 0000
00000040: 0000 0000 0000 0000 0000 0000 0000 0000
00000050: 0000 0000 0000 0000 0000 0000 0000 0000
00000060: 0000 0000 0000 0000 0000 0000 0000 0000
00000070: 0000 0000 0000 0000 0000 0000 0000 0000
00000080: 0000 0000 0000 0000 0000 0000 0000 0000
00000090: 0000 0000 0000 0000 0000 0000 0000 0000
000000a0: 0000 0000 0000 0000 0000 0000 0000 0000
000000b0: 0000 0000 0000 0000 0000 0000 0000 0000
000000c0: 0000 0000 0000 0000
0.0 0.0 0.0 0.0 0.0 0.0 0.0 0.0
0.0 0.0 0.0 0.0 0.0 0.0 0.0 0.0
0.0 0.0 0.0 0.0 0.0 0.0 0.0 0.0
0.0 0.0 0.0 0.0 0.0 0.0 0.0 0.0
0.0 0.0 0.0 0.0 0.0 0.0 0.0 0.0
0.0 0.0 0.0 0.0 0.0 0.0 0.0 0.0
0.0 0.0

running_var f4 [50]
00000000: 0000 803f 0000 803f 0000 803f 0000 803f
00000010: 0000 803f 0000 803f 0000 803f 0000 803f
00000020: 0000 803f 0000 803f 0000 803f 0000 803f
00000030: 0000 803f 0000 803f 0000 803f 0000 803f
00000040: 0000 803f 0000 803f 0000 803f 0000 803f
00000050: 0000 803f 0000 803f 0000 803f 0000 803f
00000060: 0000 803f 0000 803f 0000 803f 0000 803f
00000070: 0000 803f 0000 803f 0000 803f 0000 803f
00000080: 0000 803f 0000 803f 0000 803f 0000 803f
00000090: 0000 803f 0000 803f 0000 803f 0000 803f
000000a0: 0000 803f 0000 803f 0000 803f 0000 803f
000000b0: 0000 803f 0000 803f 0000 803f 0000 803f
000000c0: 0000 803f 0000 803f
1.0 1.0 1.0 1.0 1.0 1.0 1.0 1.0
1.0 1.0 1.0 1.0 1.0 1.0 1.0 1.0
1.0 1.0 1.0 1.0 1.0 1.0 1.0 1.0
1.0 1.0 1.0 1.0 1.0 1.0 1.0 1.0
1.0 1.0 1.0 1.0 1.0 1.0 1.0 1.0
1.0 1.0 1.0 1.0 1.0 1.0 1.0 1.0
1.0 1.0

weight f4 [20, 50]
00000000: a040 90be e5c4 11be 3397 623c c075 99be
00000010: 0179 e7be 6c55 00be c067 303e dbb3 18be
00000020: fd70 96be 30af 603e 88b7 8bbe e7c3 00be
00000030: e73f 073e e86a c43d b0a1 dd3d 5a00 03be
00000040: 3774 6b3c 846d dbbe ecd0 42be 5eb1 b93d
00000050: 8574 e3be 4853 153e ced3 d4be af6c 32be
00000060: 37cb 85be b634 003e 42bf 82be d3b8 e13d
00000070: 900e d1bd 7cb3 c9be a311 0bbe d0ea d6be
00000080: 3a2c c03d d07f 3bbe 442b 783d 7f82 013d
00000090: 8ebf e13d 7483 0b3e 32a8 223d 14e1 cebe
000000a0: 88a8 b5be 7957 a2be 53f1 02be 64f0 043e
000000b0: b73c 61bd 58b1 8d3e ca57 26be 71db 9a3c
000000c0: 2ae6 5b3e a4ba 5f3e 6fdd 783e fbd4 a4bd
000000d0: e8a9 b0bc 510f 2ebe 276a 8d3d 17c6 9fbd
000000e0: f7c0 0fbf 2719 053d 8b22 353e 72d7 ddbd
000000f0: cf3b a7bd 8dfc 24bf 9478 afbd 27a8 be3d
00000100: 9ec0 31be bfb0 2cbe 2dc3 0c3e 99fb 233d
00000110: e091 28be 2eed 57bd 93dc 6d3e 8dff 503f
00000120: f9b0 9abe ca88 f83e ba61 143e 0bf0 7f3d
00000130: 3d3f 483e 094a 003e 18be 39be 3cd4 c53e
00000140: 2796 c0bb 2f07 1c3f 9665 8cbe e6b9 b1bd
00000150: 8b5f 1a3e ee0f c03e ce31 b33f bd60 a33d
00000160: 3ff8 debd 6f2b e83e 0d9f a93e d5cf 663e
00000170: fbb6 293e d163 b5bd 6a60 0fbe 520b c83e
00000180: b09b 70be 7e7c c03c f0ec e43c 4a0b 4a3e
00000190: 8985 2abd 20a0 3e3d 50a1 acbd dd2c 12c0
000001a0: 3908 9fbd ba86 f53d fc79 b23c 0987 d1bd
000001b0: 53c9 3a3d 8f5f 833e eddd 14bd ed5f 0bc0
000001c0: 7aa1 b43d e493 6d3e dc2b 113e 36ac 72be
000001d0: 2831 723e 7afa 9abd 2f5c 13be 7059 923e
000001e0: 81b9 f7bc 956b 9b3e af6c 1ebe fa49 f2be
000001f0: 875c ba3c f75f 6d3e 5fa6 c3bd 168c 9f3e
00000200: eeaf 883d 144f 6abe 93cf 39bf a61e febe
00000210: bc38 8d3b d8a0 ca3d 4114 063c c2a5 cb3d
00000220: c383 2a3e 05e6 9b3e cc99 dbbd 87f3 3f3e
00000230: b027 85bd 2134 28be ce71 553d 2236 433e
00000240: 2f13 12bd 4362 db3e 2571 7dbe 06dd c33e
00000250: 8e5a b23e 58dd 943e cc31 443e 7787 523d
00000260: 0e13 a4bd 74b1 f33f c4a3 8a3e 8ebd 84bd
00000270: 6a16 1ebf f82e 8a3e c1c1 933e 9d24 95be
00000280: 4f20 843e b51c e53f fca8 00bd 3607 54be
00000290: 129c 39be dc82 023e 5a5f 0c3e 662e a83e
000002a0: 3591 333e 25cf 08be fb09 bc3d 8d77 d83e
000002b0: 8de9 903e 7d04 4c3f da23 573c 5655 cabd
000002c0: e0d2 b93e cf14 543e b8ac 11bd bbca c23e
000002d0: ddf8 2a3f 9d22 713f ea83 1ebd 36e3 4cbe
000002e0: 9aed f5bc b895 333e 0f97 283f 4e32 72be
000002f0: 67fb 403c 55d0 353e 887e 813e b7fd ba3e
00000300: c161 203e 947e 37bd faf5 2bbe f44a 93be
00000310: 38bb e53c a336 9bbe f999 98bd 3cce 3fbe
00000320: 79bb 873d 27d7 63bd 92f5 4dbe e1b9 07c0
00000330: 9b25 02bd daa8 09be fb63 4abe 5a58 c1bd
00000340: 8594 7bbd a406 103e 2f6e 7d3d 710e e6bf
00000350: e882 b6bd f8a0 6a3e 3a16 01bb b804 92be
00000360: 0e1f 833e 0fd6 373e 4776 06be 3591 3b3e
00000370: 1c14 023e fff7 803f 3d02 54be af4a 22bd
00000380: 51c4 573d 7f3e db3d 7725 fdbc d1a3 903e
00000390: 14a6 88be 15e0 e53d cab5 0dbf a694 7b3d
000003a0: 4f3e e3bd cadf 0fbd facb 1d3e c751 9b3e
000003b0: 6dfd 973f ad5f 9d3e 1abe 073e 60df 6f3e
000003c0: 9c50 783e f4e8 a03c da3b 28bc 755f 80bd
000003d0: 46ee 0ebc cfdd 9c3e 59fc 91be f5d0 543e
000003e0: a455 fb3d a5aa 853e 4d3a e0bd 470c b4bd
000003f0: 8aaf 713e 7273 303e 8d75 2abe 06f0 b1bd
-0.28174305 -0.14235266 0.013829994 -0.2997265 -0.45209506 -0.12532586 0.17227077 -0.1491236
-0.29383078 0.21941829 -0.2728846 -0.12574731 0.1320797 0.09590703 0.10821855 -0.12793103
0.0143709695 -0.4285699 -0.1902501 0.09067033 -0.44424835 0.1458255 -0.41567844 -0.17424272
-0.26131603 0.12520108 -0.25536543 0.110215805 -0.10207856 -0.39394748 -0.13580947 -0.41976023
0.093834355 -0.18310475 0.060588136 0.03161859 0.11022864 0.13624364 0.039711185 -0.40406096
-0.35480142 -0.3170736 -0.1278737 0.12982327 -0.054989543 0.27674365 -0.16244426 0.018903466
0.2147452 0.21848541 0.2430322 -0.08048435 -0.021565393 -0.1699803 0.069050126 -0.078014545
-0.56153816 0.03249469 0.17688958 -0.108321086 -0.081657045 -0.6444786 -0.0856792 0.09309416
-0.17358634 -0.16864298 0.13746329 0.040034864 -0.16461897 -0.052716427 0.23228674 0.8163994
-0.30213144 0.48541862 0.14490405 0.062484782 0.19555373 0.12528242 -0.18138921 0.38638484
-0.0058772746 0.6094846 -0.27421254 -0.086780354 0.15075509 0.37512153 1.3999574 0.07977436
-0.10887193 0.45345637 0.3312916 0.22540219 0.16573708 -0.08856929 -0.14001623 0.39071137
-0.2349689 0.023496863 0.027945012 0.19730869 -0.041631255 0.046539426 -0.084292054 -2.2839882
-0.0776524 0.11988588 0.021786682 -0.10230834 0.045602154 0.25658843 -0.036344457 -2.1777298
0.08819862 0.23200947 0.14176887 -0.23698506 0.23651564 -0.07567306 -0.14390634 0.2858386
-0.030239822 0.30355516 -0.15471147 -0.47322065 0.022749199 0.23181139 -0.09553217 0.31161565
0.06674181 -0.22881728 -0.7258236 -0.49632758 0.004309742 0.0989396 0.00818354 0.09943725
0.16651826 0.30448928 -0.10722694 0.18745242 -0.065017104 -0.16426136 0.052110486 0.19063619
-0.035662826 0.42848405 -0.24750192 0.38254565 0.34834713 0.29075122 0.19159621 0.05139872
-0.08011447 1.9038529 0.27078068 -0.06481467 -0.6175295 0.2698896 0.2885876 -0.29129496
0.258059 1.7899386 -0.031411156 -0.20705876 -0.18125942 0.12745231 0.13708249 0.328479
0.17535861 -0.1336027 0.09181591 0.4227871 0.28303185 0.7969435 0.013131106 -0.09879558
0.36293697 0.20711063 -0.035565108 0.38045296 0.66785985 0.9419344 -0.03870002 -0.20008549
-0.030020524 0.17537582 0.658555 -0.23652002 0.011778689 0.17755254 0.25291848 0.36521694
0.1566229 -0.04479845 -0.16793051 -0.28768122 0.028043374 -0.30315122 -0.07451243 -0.18731016
0.066275544 -0.055625107 -0.20113209 -2.1207201 -0.031774145 -0.13443318 -0.19764702 -0.0944068
-0.061420936 0.14065033 0.061872657 -1.7973157 -0.08911687 0.22912967 -0.0019697086 -0.28519225
0.2560963 0.1795275 -0.13131057 0.18317111 0.12702984 1.0075682 -0.20703979 -0.039622005
0.052677456 0.107052796 -0.030901654 0.28249982 -0.26689208 0.11224381 -0.55355513 0.06142106
-0.11095869 -0.03512553 0.15409842 0.3033583 1.1874214 0.30737057 0.13256112 0.23425055
0.242495 0.01964233 -0.010268176 -0.06268207 -0.008723801 0.30637977 -0.28512838 0.20782836
0.12272194 0.26106754 -0.1094862 -0.08791404 0.23602119 0.17231539 -0.16646405 -0.08688359

bias f4 [20]
00000000: eabd 21be 7eff 513c b3a4 143b a996 0c3e
00000010: 9447 3f3d 5154 7d3d 0d84 b63d 0d6b d2bb
00000020: 3bee 0d3e 2e7d 75bc 76ae 823b a16a 043e
00000030: 3672 e6bd 9d56 7f3a 5f30 8cbd 743a bf3d
00000040: 02dd eabd 04bd 24bd 0575 6e3d 2bbf 583d
-0.15795103 0.012817262 0.0022681176 0.13729347 0.04669912 0.06184799 0.089119054 -0.006421453
0.13860409 -0.014983458 0.0039880825 0.129313 -0.11252253 0.00097403844 -0.068451636 0.09337321
-0.11467935 -0.04021932 0.058217067 0.052916687

weight f4 [20]
00000000: 0000 803f 0000 803f 0000 803f 0000 803f
00000010: 0000 803f 0000 803f 0000 803f 0000 803f
00000020: 0000 803f 0000 803f 0000 803f 0000 803f
00000030: 0000 803f 0000 803f 0000 803f 0000 803f
00000040: 0000 803f 0000 803f 0000 803f 0000 803f
1.0 1.0 1.0 1.0 1.0 1.0 1.0 1.0
1.0 1.0 1.0 1.0 1.0 1.0 1.0 1.0
1.0 1.0 1.0 1.0

bias f4 [20]
00000000: 0000 0000 0000 0000 0000 0000 0000 0000
00000010: 0000 0000 0000 0000 0000 0000 0000 0000
00000020: 0000 0000 0000 0000 0000 0000 0000 0000
00000030: 0000 0000 0000 0000 0000 0000 0000 0000
00000040: 0000 0000 0000 0000 0000 0000 0000 0000
0.0 0.0 0.0 0.0 0.0 0.0 0.0 0.0
0.0 0.0 0.0 0.0 0.0 0.0 0.0 0.0
0.0 0.0 0.0 0.0

running_mean f4 [20]
00000000: 0000 0000 0000 0000 0000 0000 0000 0000
00000010: 0000 0000 0000 0000 0000 0000 0000 0000
00000020: 0000 0000 0000 0000 0000 0000 0000 0000
00000030: 0000 0000 0000 0000 0000 0000 0000 0000
00000040: 0000 0000 0000 0000 0000 0000 0000 0000
0.0 0.0 0.0 0.0 0.0 0.0 0.0 0.0
0.0 0.0 0.0 0.0 0.0 0.0 0.0 0.0
0.0 0.0 0.0 0.0

running_var f4 [20]
00000000: 0000 803f 0000 803f 0000 803f 0000 803f
00000010: 0000 803f 0000 803f 0000 803f 0000 803f
00000020: 0000 803f 0000 803f 0000 803f 0000 803f
00000030: 0000 803f 0000 803f 0000 803f 0000 803f
00000040: 0000 803f 0000 803f 0000 803f 0000 803f
1.0 1.0 1.0 1.0 1.0 1.0 1.0 1.0
1.0 1.0 1.0 1.0 1.0 1.0 1.0 1.0
1.0 1.0 1.0 1.0

weight f4 [2, 20]
00000000: bf37 2abf 466b 223f 197a eabe cc44 343f
00000010: 0b10 fdbc c408 21bf 26b1 103f ca6f 973d
00000020: d0ce c23d 9931 cfbd 21af 19be e4c6 10bf
00000030: 3072 b03d 91c7 263f 56e0 1dbf 8b7c 35bf
00000040: 4e28 afbd 515e 39bf ecb4 a8bb ac47 213f
00000050: 45e3 e73e 5de9 223f 4e8e 1e3f 33dc 1ebe
00000060: 64a7 383f fe98 11bf 4ccd 75be b4fc 07be
00000070: b5fe 25bf 91e9 313e ddf1 733d 2b96 5c3f
00000080: 00f0 f93c d23f 073d d4d8 4a3e 0029 2b3f
00000090: 6c81 d03d 93e5 e4be c7a2 233f 15d3 7ebe
-0.6649131 0.63444936 -0.45796278 0.70417476 -0.030891439 -0.62904 0.5652031 0.07394369
0.095121026 -0.10116882 -0.15008213 -0.56553483 0.086155295 0.65148264 -0.61670434 -0.7089316
-0.085526094 -0.7240954 -0.0051485207 0.6299999 0.4529058 0.63637334 0.6193589 -0.15513687
0.7213042 -0.5687407 -0.24004096 -0.13279992 -0.6484178 0.17374255 0.05955683 0.8616664
0.030509949 0.03301985 0.19809276 0.66859436 0.10180935 -0.447064 0.63920254 -0.24885209

bias f4 [2]
00000000: 2ef7 0bbe 6acb d6bd
-0.1366851 -0.10488017
