models_version2/2UAVs_93163/c_c1.pt (torch_old, 28013 bytes, 15 tensors)

weight f4 [50, 68]
0.012938067 0.0721554 0.08224003 -0.096354276 -0.06530647 -0.11857077 0.01974994 0.032588646
-0.099379085 0.026871204 -0.028192677 -0.084719524 -0.040753745 -0.02560839 -0.042336963 -0.069550306
0.10177177 0.004068896 -0.008540899 0.012071624 0.0008926913 -0.0859462 0.020767346 0.09318443
0.046665877 0.096147284 -0.030185692 0.007084623 0.11171375 -0.12092367 -0.10427807 0.055508375
0.018341497 0.11545691 -0.112527 -0.075725555 -0.045405835 -0.023514941 -0.09488384 -0.0061118826
-0.11873717 0.09446001 -0.02262137 -0.056087643 -0.011216231 -0.041564435 -0.05833981 -0.046547852
0.024717495 -0.060024906 -0.028339699 -0.10850722 -0.055281438 0.10186584 -0.073474035 -0.071026295
-0.008136682 -0.06877804 -0.07528713 -0.07367084 -0.10451572 -0.059651546 -0.074765235 -0.06343003
0.09738983 0.10881367 -0.10766484 0.09228787 -0.017114466 -0.056013405 -0.15170977 0.42092088
0.17755917 -0.06291585 -0.030816875 0.03737768 -0.049945988 -0.02096514 -0.031781055 0.09722997
-0.056131363 0.016748931 0.016342174 0.13484696 -0.017547747 0.030958075 0.002985302 0.0730233
0.12049589 0.089107566 -0.07556661 0.0655989 0.0045384523 0.08077842 0.014053905 -0.06602104
0.18208402 0.06854943 -0.020868577 0.17229214 -0.043794297 -0.007683243 0.03391541 0.013171065
-0.16976932 0.6177687 0.09077392 -0.046507724 0.014821372 -0.047366295 -0.109821975 -0.085432515
0.042312723 -0.1166476 -0.04456921 -0.08809108 0.12456683 -0.046838257 0.15246984 -0.05847788
-0.025661482 0.06792138 -0.009493328 -0.049054638 -0.07858955 -0.08273681 0.051278234 0.019860934
0.036316037 -0.015262428 0.12358667 -0.019172153 0.0046318276 0.13649581 0.044345923 0.039299756
0.01620819 -0.097123556 0.051057246 -0.026471239 0.09029503 -0.03695448 0.23094268 0.044905838
-0.07590934 -0.049920328 0.07016697 0.10874362 -0.06396314 0.025539419 0.20938036 -0.0033057989
-0.013639004 -0.09807107 -0.04701804 -0.021121139 0.11705853 -0.14858364 -0.0057992395 -0.11208615
0.06426573 0.24248183 -0.10996768 -0.038694642 -0.02699757 0.0724462 -0.11311723 -0.10353508
-0.02159983 0.051085506 -0.0010912765 0.039662216 0.03257793 -0.14670938 -0.11562917 0.046997793
0.07006779 0.061761975 -0.030394372 0.10566502 -0.0070830774 0.045724504 -0.021432728 -0.095048845
0.12548706 -0.06354756 -0.08874633 -0.10558827 0.006708624 0.09868551 -0.057420306 -0.11007428
-0.0029928044 0.053411834 0.012368177 0.04515911 0.01182114 -5.4084212e-05 0.01099247 0.021730568
0.010289382 0.022455601 -0.010316698 -0.0733693 0.08605826 0.0006529275 0.10945187 -0.29052752
0.010686754 -0.02717051 0.17820717 -0.05940981 0.11281618 0.0097633405 -0.0082077375 0.098807424
-0.036023807 -0.078974225 -0.014664249 -0.083533816 0.045708925 -0.033218626 0.10650883 -0.036897406
0.030691046 0.124357864 0.033808168 0.020604532 -0.074714676 0.1429085 0.040002625 0.08402131
0.03397274 0.048953816 -0.0007879522 0.09811939 -0.019897018 -0.063999034 -0.024342652 0.046956256
-0.011426459 -0.37453473 0.14388488 -0.06930083 0.18265139 0.06455015 0.02036317 0.14133976
0.07333537 0.16595265 0.12812272 -0.07208801 0.16051272 0.092755444 0.091035046 -0.026551098
00000000: 30fa 533c 36c6 933d 766d a83d 6455 c5bd
00000010: 66bf 85bd 3bd5 f2bd a0ca a13c ac7b 053d
00000020: 4387 cbbd 0021 dc3c 54f4 e6bc 6e81 adbd
00000030: 66ed 26bd b0c8 d1bc 8669 2dbd 6470 8ebd
00000040: b86d d03d 6054 853b 20ef 0bbc 10c8 453c
00000050: 8003 6a3a 9004 b0bd 4820 aa3c 7ad7 be3d
00000060: b824 3f3d dee8 c43d fc47 f7bc 2026 e83b
00000070: 2eca e43d d4a6 f7bd be8f d5bd c05c 633d
00000080: e840 963c ac74 ec3d 8e74 e6bd 0016 9bbd
00000090: 78fb 39bd 68a2 c0bc 7552 c2bd 3046 c8bb
000000a0: 792c f3bd 4074 c13d 7450 b9bc 28bc 65bd
000000b0: 48c4 37bc 783f 2abd baf5 6ebd f6a8 3ebd
000000c0: 587c ca3c addc 75bd a828 e8bc 0939 debd
000000d0: ca6e 62bd 0a9f d03d 8e79 96bd 3c76 91bd
000000e0: b84f 05bc 80db 8cbd 2430 9abd bde0 96bd
000000f0: 560c d6bd 2e55 74bd 841e 99bd 9be7 81bd
00000100: 5274 c73d b4d9 de3d 627f dcbd 6c01 bd3d
00000110: a333 8cbc 506e 65bd ce59 1bbe f182 d73e
00000120: 12d2 353e 06da 80bd ac73 fcbc 5719 193d
00000130: 2a94 4cbd 16bf abbc da2c 02bd 8220 c73d
00000140: 00ea 65bd 0e35 893c 06e0 853c 5215 0a3e
00000150: 4bc0 8fbc ca9b fd3c 0ea5 433b 3d8d 953d
00000160: 8dc6 f63d 077e b63d abc2 9abd b758 863d
00000170: 4cb7 943b 286f a53d 5a42 663c 0a36 87bd
00000180: 3c74 3a3e a563 8c3d 94f4 aabc 5a6d 303e
00000190: a661 33bd b7c3 fbbb e3ea 0a3d 73cb 573c
000001a0: 02d8 2dbe 1726 1e3f ade7 b93d e27e 3ebd
000001b0: 57d5 723c 2903 42bd 58ea e0bd 3ef7 aebd
000001c0: 1b50 2d3d f0e4 eebd 348e 36bd 1969 b4bd
000001d0: e51c ff3d 79d9 3fbd 0e21 1c3e 8086 6fbd
000001e0: 0738 d2bc 5d1a 8b3d e789 1bbc 84ed 48bd
000001f0: 8ff3 a0bd eb71 a9bd 2009 523d 66b3 a23c
00000200: 20c0 143d 430f 7abc 021b fd3d eb0e 9dbc
00000210: 96c6 973b 8fc5 0b3e 12a4 353d c8f8 203d
00000220: 0ac7 843c b7e8 c6bd 6721 513d 36da d8bc
00000230: 9aec b83d 955d 17bd 3d7c 6c3e 2fef 373d
00000240: 5b76 9bbd 4279 4cbd b3b3 8f3d fab4 de3d
00000250: 1bff 82bd 0b38 d13c ce67 563e 1aa6 58bb
00000260: 2176 5fbc 7cd9 c8bd fd95 40bd 3d06 adbc
00000270: 62bc ef3d 4f26 18be 8c07 bebb 6c8d e5bd
00000280: c09d 833d 284d 783e bc36 e1bd 467e 1ebd
00000290: 022a ddbc ac5e 943d 02aa e7bd 330a d4bd
000002a0: 20f2 b0bc 093f 513d 2a09 8fba d974 223d
000002b0: 6f70 053d fc3a 16be fcce ecbd c280 403d
000002c0: b47f 8f3d 20fa 7c3d 9efd f8bc e766 d83d
000002d0: 2919 e8bb 9e49 3b3d b093 afbc f8a8 c2bd
000002e0: ae7f 003e 3925 82bd a3c0 b5bd aa3e d8bd
000002f0: 04d4 db3b a11b ca3d 8e31 6bbd a06e e1bd
00000300: ed22 44bb 5ec6 5a3d e5a3 4a3c c2f8 383d
00000310: 74ad 413c 7bd8 62b8 c319 343c 4e04 b23c
00000320: cc94 283c cff4 b73c 5e07 29bc a542 96bd
00000330: 503f b03d 3929 2b3a 4d28 e03d 06c0 94be
00000340: 7f17 2f3c b094 debc f17b 363e b357 73bd
00000350: 2b0c e73d 6bf6 1f3c bf79 06bc 8c5b ca3d
00000360: b38d 13bd 3dbd a1bd 5142 70bc c713 abbd
00000370: 4839 3b3d 4110 08bd 4d21 da3d bc21 17bd
00000380: ca6b fb3c 56af fe3d 6f7a 0a3d d6ca a83c
00000390: 0204 99bd 9b56 123e cbd9 233d 5d13 ac3d
000003a0: 0027 0b3d cc83 483d 948e 4eba d2f2 c83d
000003b0: 12ff a2bc ed11 83bd 3e6a c7bc 3455 403d
000003c0: 0b36 3bbc 04c3 bfbe 8f56 133e 98ed 8dbd
000003d0: f708 3b3e de32 843d aad0 a63c 5fbb 103e
000003e0: db30 963d 7eef 293e 9a32 033e e1a2 93bd
000003f0: 725d 243e 91f6 bd3d 9570 ba3d b081 d9bc

bias f4 [50]
-0.021116868 0.021706821 0.2286902 0.14910242 -0.09718113 0.08055075 0.13966848 0.21138634
0.13544339 0.24943317 -0.14953288 -0.045855667 0.3423319 -0.015063868 -0.12115499 0.22795595
0.24332952 0.0082918415 0.27843398 0.09877801 0.074109614 0.008650679 0.24101405 -0.035353653
-0.117966376 -0.10888857 0.062666915 -0.008560596 0.24056771 0.2754251 0.07372398 -0.23275833
0.24741212 0.04855946 0.18789387 0.13373734 0.13915117 0.24054697 -0.12085792 0.004620145
0.12972455 0.094585754 0.08201399 0.2585951 0.18050854 0.11334807 0.28018317 0.05397283
0.18324317 0.1902237
00000000: 48fd acbc 81d2 b13c c42d 6a3e 4eae 183e
00000010: e606 c7bd cbf7 a43d 4105 0f3e a975 583e
00000020: acb1 0a3e 696b 7f3e 261f 19be 27d3 3bbd
00000030: 2046 af3e 71ce 76bc 1b20 f8bd 496d 693e
00000040: 602b 793e 81da 073c e68e 8e3e 204c ca3d
00000050: c8c6 973d 94bb 0d3c 63cc 763e fece 10bd
00000060: 5b98 f1bd f800 dfbd 8357 803d be41 0cbc
00000070: 6257 763e 8504 8d3e 99fc 963d 3358 6ebe
00000080: 9a59 7d3e 49e6 463d 4067 403e 71f2 083e
00000090: a57d 0e3e f251 763e 5b84 f7bd 9664 973b
000000a0: 83d6 043e 2db6 c13d f3f6 a73d 9466 843e
000000b0: 3bd7 383e 0823 e83d 2b74 8f3e 9d12 5d3d
000000c0: 19a4 3b3e 00ca 423e

weight f4 [50, 4]
0.14571323 -0.057773553 0.52777684 0.33679822 -0.080122225 -0.19068316 0.4714409 0.2582742
0.38827065 0.34609607 -0.62167716 0.015975071 -0.032285143 -0.0047164774 -0.25568593 -0.30095813
-0.14650738 -0.0061777323 0.49929202 -0.33115312 0.3907312 0.5692274 -0.2696953 0.094459206
0.08843656 -0.10721946 0.6729849 -0.37155908 0.26957175 0.397393 -0.19040279 -0.45935717
0.34695485 0.27327827 0.54711294 -0.35368377 -0.36602128 0.32280898 0.22479746 0.17385915
-0.14830823 -0.22402379 -0.50636685 -0.08186879 0.25351936 0.1647758 0.4405979 -0.3658731
0.18370357 0.030175533 0.4651422 0.37085596 -0.1551337 0.08355574 0.044988226 -0.2007921
0.21243252 -0.4657226 0.24984598 -0.5793969 -0.2912213 0.1509658 -0.5499317 0.3810863
0.19094208 0.3131665 0.42149705 -0.70454973 -0.03903837 0.18036342 -0.23735893 0.078083254
-0.02787701 -0.081503116 -0.26746708 0.6320068 0.026848841 -0.14472468 0.26382565 0.39334506
-0.096383385 0.15642802 0.28416884 0.30273375 -0.13913679 0.3148913 -0.21953857 0.36368304
0.3962123 0.44332784 0.14621007 0.34359732 0.08845441 -0.0077486616 0.3964467 0.4900046
-0.08764267 -0.2881052 -0.4195531 0.37437713 -0.46643415 -0.32594964 -0.086757496 0.24825633
0.09174145 -0.4806456 -0.39653033 -0.27342242 -0.41881964 0.26104966 -0.23158878 0.30651814
-0.10902633 -0.40300182 -0.019615201 0.29242215 0.40971386 -0.26368815 -0.52790964 0.38301662
-0.3026441 -0.25821212 0.1465506 -0.5165173 -0.17237127 -0.045585416 0.5937671 0.50442487
0.28541464 -0.3457874 0.6726318 0.31413597 -0.30847275 -0.46414882 -0.22298655 -0.38332447
0.20442156 0.402163 -0.37461245 -0.6540392 0.056033105 0.09887453 0.4304606 -0.023843046
0.012668778 -0.4419766 0.42044246 0.054038513 -0.5096911 0.39921567 -0.37646455 -0.4544621
-0.13937542 0.42115852 -0.29933605 -0.23917283 0.21901195 -0.1629735 -0.14696658 -0.6510726
0.15939353 0.034338765 -0.39082974 0.6173941 -0.24091116 0.35392827 0.23170269 -0.22251524
-0.31209958 0.26059234 0.0493892 -0.04597092 -0.15735729 -0.06421786 -0.19447127 0.57647824
-0.20980042 0.025932232 0.513183 -0.2035369 -0.34803712 -0.335408 0.33151686 0.07348311
-0.11438104 -0.21380228 -0.308067 0.060055282 -0.09175842 0.2300518 0.52467227 -0.11370696
-0.467382 0.1231996 0.15658821 0.53683275 0.06498527 -0.43357065 -0.50653344 -0.3072359
00000000: d935 153e f6a3 6cbd 621c 073f d170 ac3e
00000010: 1f17 a4bd 7242 43be b460 f13e 843c 843e
00000020: 69cb c63e 8133 b13e 3c26 1fbf 27de 823c
00000030: 6d3d 04bd ae8c 9abb 44e9 82be 2f17 9abe
00000040: 0806 16be 936e cabb 34a3 ff3e e78c a9be
00000050: eb0d c83e e3b8 113f 8115 8abe d473 c13d
00000060: 3a1e b53d e095 dbbd bd48 2c3f fe3c bebe
00000070: 4f05 8a3e 1877 cb3e f3f8 42be dd30 ebbe
00000080: 11a4 b13e 21eb 8b3e 980f 0c3f 0a16 b5be
00000090: 2467 bbbe 3847 a53e 4e31 663e 2208 323e
000000a0: 1dde 17be 7e66 65be 42a1 01bf d3aa a7bd
000000b0: 4acd 813e fdba 283e 0c96 e13e b853 bbbe
000000c0: ca1c 3c3e ae32 f73c 1e27 ee3e d5e0 bd3e
000000d0: 5edb 1ebe 461f ab3d 9345 383d 729c 4dbe
000000e0: e987 593e 3173 eebe a0d7 7f3e 5b53 14bf
000000f0: f51a 95be c796 1a3e 53c8 0cbf be1d c33e
00000100: 5286 433e 5c57 a03e 76ce d73e 5f5d 34bf
00000110: b3e6 1fbd 30b1 383e 380e 73be 1dea 9f3d
00000120: 545e e4bc 1beb a6bd 72f1 88be 33cb 213f
00000130: 1af2 db3c b532 14be 2814 873e 8664 c93e
00000140: a764 c5bd ab2e 203e 947e 913e ebff 9a3e
00000150: e079 0ebe 6f39 a13e b8ce 60be aa34 ba3e
00000160: 57dc ca3e defb e23e 18b8 153e fdeb af3e
00000170: 9627 b53d 7ce8 fdbb 10fb ca3e e2e1 fa3e
00000180: 007e b3bd 8682 93be aacf d6be 5cae bf3e
00000190: 75d0 eebe dfe2 a6be eaad b1bd e836 7e3e
000001a0: f1e2 bb3d 2e17 f6be 0606 cbbe 06fe 8bbe
000001b0: 876f d6be 4da8 853e 9c25 6dbe f2ef 9c3e
000001c0: 3249 dfbd 4156 cebe 0fb0 a0bc 5bb8 953e
000001d0: 04c6 d13e 2202 87be 1625 07bf c11a c43e
000001e0: 2bf4 9abe 6134 84be 5c11 163e 7a3a 04bf
000001f0: 1882 30be c6b7 3abd 1f01 183f fd21 013f
00000200: de21 923e 0c0b b1be 9931 2c3f 6ed6 a03e
00000210: 24f0 9dbe eaa4 edbe 9656 64be 1b43 c4be
00000220: e353 513e 4fe8 cd3e 34cd bfbe 1d6f 27bf
00000230: f882 653d bb7e ca3d 5565 dc3e 7e52 c3bc
00000240: b590 4f3c c24a e2be 3c44 d73e 7d57 5d3d
00000250: 1e7b 02bf ff65 cc3e f6bf c0be 42af e8be
00000260: 6eb8 0ebe 17a2 d73e 9342 99be b9e9 74be
00000270: ab44 603e 86e2 26be 687e 16be b2ac 26bf
00000280: 0f38 233e cea6 0c3d d61a c8be 8a0d 1e3f
00000290: 6ab1 76be 1636 b53e 7843 6d3e 09db 63be
000002a0: 84cb 9fbe 5c6c 853e 544c 4a3d 014c 3cbd
000002b0: 4522 21be a784 83bd 7a23 47be 1494 133f
000002c0: ecd5 56be d56f d43c f65f 033f fa6b 50be
000002d0: ec31 b2be 99ba abbe 94bc a93e 507e 963d
000002e0: 9b40 eabd fcee 5abe f5ba 9dbe 87fc 753d
000002f0: d7eb bbbd b392 6b3e ec50 063f 32df e8bd
00000300: b24c efbe 1250 fc3d a958 203e df6d 093f
00000310: ff16 853d f9fc ddbe 2dac 01bf 064e 9dbe

bias f4 [50]
0.15242709 -0.31590274 -0.10585257 0.14764194 -0.40289354 -0.33634067 0.35013872 0.4877836
0.43521723 0.33515453 -0.2854575 -0.039450753 -0.30041647 0.5311561 -0.4081552 -0.33777317
0.4241002 0.33859518 -0.5607344 0.022502506 -0.2938367 0.5313649 0.2866114 0.30457044
-0.39770132 -0.5493851 -0.011518087 -0.013783374 0.35244244 0.36860153 0.3872589 0.2923168
0.10358618 -0.21696888 -0.093396395 0.11754186 0.5904146 -0.3180193 -0.38036662 0.01573711
-0.3975151 -0.32374802 -0.07359093 0.041542288 0.4145935 -0.44799793 0.7264646 0.035341486
-0.19633232 0.17812113
00000000: d915 1c3e 01be a1be 3bc9 d8bd 732f 173e
00000010: 1048 cebe d834 acbe 6245 b33e c6be f93e
00000020: cbd4 de3e 6099 ab3e 7c27 92be 1d97 21bd
00000030: 30d0 99be d9f9 073f b8f9 d0be 9bf0 acbe
00000040: a923 d93e 595c ad3e 4a8c 0fbf 2d57 b83c
00000050: c471 96be 8807 083f bbbe 923e a8f0 9b3e
00000060: 829f cbbe 80a4 0cbf 5cb6 3cbc a9d3 61bc
00000070: 5673 b43e 57b9 bc3e cc46 c63e 8caa 953e
00000080: fe24 d43d 172d 5ebe 9c46 bfbd c9b9 f03d
00000090: 6925 173f 6dd3 a2be 6abf c2be 1deb 803c
000000a0: 1987 cbbe 4dc2 a5be d7b6 96bd 3f28 2a3d
000000b0: 9945 d43e fc5f e5be 96f9 393f 3cc2 103d
000000c0: 570b 49be 6365 363e

weight f4 [50]
1.0 1.0 1.0 1.0 1.0 1.0 1.0 1.0
1.0 1.0 1.0 1.0 1.0 1.0 1.0 1.0
1.0 1.0 1.0 1.0 1.0 1.0 1.0 1.0
1.0 1.0 1.0 1.0 1.0 1.0 1.0 1.0
1.0 1.0 1.0 1.0 1.0 1.0 1.0 1.0
1.0 1.0 1.0 1.0 1.0 1.0 1.0 1.0
1.0 1.0
00000000: 0000 803f 0000 803f 0000 803f 0000 803f
00000010: 0000 803f 0000 803f 0000 803f 0000 803f
00000020: 0000 803f 0000 803f 0000 803f 0000 803f
00000030: 0000 803f 0000 803f 0000 803f 0000 803f
00000040: 0000 803f 0000 803f 0000 803f 0000 803f
00000050: 0000 803f 0000 803f 0000 803f 0000 803f
00000060: 0000 803f 0000 803f 0000 803f 0000 803f
00000070: 0000 803f 0000 803f 0000 803f 0000 803f
00000080: 0000 803f 0000 803f 0000 803f 0000 803f
00000090: 0000 803f 0000 803f 0000 803f 0000 803f
000000a0: 0000 803f 0000 803f 0000 803f 0000 803f
000000b0: 0000 803f 0000 803f 0000 803f 0000 803f
000000c0: 0000 803f 0000 803f

bias f4 [50]
0.0 0.0 0.0 0.0 0.0 0.0 0.0 0.0
0.0 0.0 0.0 0.0 0.0 0.0 0.0 0.0
0.0 0.0 0.0 0.0 0.0 0.0 0.0 0.0
0.0 0.0 0.0 0.0 0.0 0.0 0.0 0.0
0.0 0.0 0.0 0.0 0.0 0.0 0.0 0.0
0.0 0.0 0.0 0.0 0.0 0.0 0.0 0.0
0.0 0.0
00000000: 0000 0000 0000 0000 0000 0000 0000 0000
00000010: 0000 0000 0000 0000 0000 0000 0000 0000
00000020: 0000 0000 0000 0000 0000 0000 0000 0000
00000030: 0000 0000 0000 0000 0000 0000 0000 0000
00000040: 0000 0000 0000 0000 0000 0000 0000 0000
00000050: 0000 0000 0000 0000 0000 0000 0000 0000
00000060: 0000 0000 0000 0000 0000 0000 0000 0000
00000070: 0000 0000 0000 0000 0000 0000 0000 0000
00000080: 0000 0000 0000 0000 0000 0000 0000 0000
00000090: 0000 0000 0000 0000 0000 0000 0000 0000
000000a0: 0000 0000 0000 0000 0000 0000 0000 0000
000000b0: 0000 0000 0000 0000 0000 0000 0000 0000
000000c0: 0000 0000 0000 0000

running_mean f4 [50]
0.0 0.0 0.0 0.0 0.0 0.0 0.0 0.0
0.0 0.0 0.0 0.0 0.0 0.0 0.0 0.0
0.0 0.0 0.0 0.0 0.0 0.0 0.0 0.0
0.0 0.0 0.0 0.0 0.0 0.0 0.0 0.0
0.0 0.0 0.0 0.0 0.0 0.0 0.0 0.0
0.0 0.0 0.0 0.0 0.0 0.0 0.0 0.0
0.0 0.0
00000000: 0000 0000 0000 0000 0000 0000 0000 0000
00000010: 0000 0000 0000 0000 0000 0000 0000 0000
00000020: 0000 0000 0000 0000 0000 0000 0000 0000
00000030: 0000 0000 0000 0000 0000 0000 0000 0000
00000040: 0000 0000 0000 0000 0000 0000 0000 0000
00000050: 0000 0000 0000 0000 0000 0000 0000 0000
00000060: 0000 0000 0000 0000 0000 0000 0000 0000
00000070: 0000 0000 0000 0000 0000 0000 0000 0000
00000080: 0000 0000 0000 0000 0000 0000 0000 0000
00000090: 0000 0000 0000 0000 0000 0000 0000 0000
000000a0: 0000 0000 0000 0000 0000 0000 0000 0000
000000b0: 0000 0000 0000 0000 0000 0000 0000 0000
000000c0: 0000 0000 0000 0000

running_var f4 [50]
1.0 1.0 1.0 1.0 1.0 1.0 1.0 1.0
1.0 1.0 1.0 1.0 1.0 1.0 1.0 1.0
1.0 1.0 1.0 1.0 1.0 1.0 1.0 1.0
1.0 1.0 1.0 1.0 1.0 1.0 1.0 1.0
1.0 1.0 1.0 1.0 1.0 1.0 1.0 1.0
1.0 1.0 1.0 1.0 1.0 1.0 1.0 1.0
1.0 1.0
00000000: 0000 803f 0000 803f 0000 803f 0000 803f
00000010: 0000 803f 0000 803f 0000 803f 0000 803f
00000020: 0000 803f 0000 803f 0000 803f 0000 803f
00000030: 0000 803f 0000 803f 0000 803f 0000 803f
00000040: 0000 803f 0000 803f 0000 803f 0000 803f
00000050: 0000 803f 0000 803f 0000 803f 0000 803f
00000060: 0000 803f 0000 803f 0000 803f 0000 803f
00000070: 0000 803f 0000 803f 0000 803f 0000 803f
00000080: 0000 803f 0000 803f 0000 803f 0000 803f
00000090: 0000 803f 0000 803f 0000 803f 0000 803f
000000a0: 0000 803f 0000 803f 0000 803f 0000 803f
000000b0: 0000 803f 0000 803f 0000 803f 0000 803f
000000c0: 0000 803f 0000 803f

weight f4 [20, 100]
0.069260694 0.093289055 0.102544725 0.10439625 -0.041602287 0.12824309 0.09276942 0.053885393
0.10408363 0.13843605 -0.053939093 0.009916905 0.048258785 -0.04919542 -0.22529063 -0.021929903
0.13954066 0.122183025 0.11425807 0.13494696 -0.048854046 -0.09307267 0.14794861 0.028324656
-0.14425041 -0.11524512 -0.037950277 -0.1924762 0.14911789 0.01389138 -0.050429948 -0.10710924
0.1365668 0.048379984 0.12963203 -0.02482966 0.094919235 0.01217797 -0.16450095 -0.2612168
0.15365888 0.11571194 0.082089774 0.21681736 -0.0046301656 0.09622673 0.0064562266 0.10533629
0.113350384 0.037242588 0.02693088 -0.021355955 -0.044927116 0.10214867 -0.04817597 -0.16045141
0.0098446775 -0.0348934 -0.023174858 0.07757871 0.020351075 0.06273779 0.14788587 0.078953624
0.011828816 -0.009559618 0.09545865 0.12930816 -0.1756289 0.0042399634 -0.05428178 -0.016356008
0.062229622 -0.010381433 -0.060432825 -0.14035347 0.065431036 0.07976142 0.026326643 0.03200206
0.025371695 0.08106553 0.049567968 -0.09066144 0.047672067 0.09704108 0.17949374 -0.06174468
-0.08368786 -0.043428954 -0.044544075 -0.0018363775 0.019900935 0.014112175 -0.037283726 -0.092555806
0.20510937 0.07682784 0.047396563 0.067363776 -0.09258177 0.24892938 -0.16981314 -0.07238828
-0.16841839 -0.23300269 -0.056192853 0.14461286 0.061400093 -0.098249994 -0.28180316 -0.07271782
0.123099275 0.3465247 -0.13275851 0.12078539 -0.018425751 -0.1542503 0.10618768 0.102297045
0.20223847 0.3278856 -0.08097842 0.03433133 -0.1632711 -0.12392648 0.2817842 -0.041878518
-0.036362626 0.026455292 0.00981651 -0.13237585 0.12986511 0.1501739 0.0692464 0.3938389
0.24613713 0.35134462 0.030430878 0.5006137 -0.09178164 0.15877004 0.12299775 -0.02624307
0.078273945 -0.07026384 0.00079382205 0.12513812 0.016520973 0.08602613 -0.015591399 -0.13006899
0.059289556 -0.01777035 -0.32176647 0.21354055 -0.21658278 0.022271177 -0.1692084 -0.052535634
-0.0020802845 -0.1874988 -0.22830117 -0.05684555 -0.075960025 0.10340288 0.09543086 0.009862296
0.19755374 -0.0008747809 0.09034996 -0.05289662 0.019572288 -0.09988132 0.1399866 0.078669764
0.028343448 0.1595641 -0.03317665 0.025599854 -0.028108388 -0.015371359 -0.12669493 0.08977345
0.12923793 -0.0356379 -0.17723563 0.08816757 0.147287 0.0064370628 0.1223219 0.09961349
-0.013460007 -0.010192309 -0.16740972 -0.15323396 0.09641344 -0.081874155 0.0314203 0.0048798528
0.048469506 0.05724703 0.20517749 0.030825434 0.009076214 0.022028252 0.11874999 0.018827714
0.1299297 0.11640903 0.08963597 0.031900298 0.17014568 0.06640516 -0.12012301 0.116534844
0.12607393 0.07566222 0.053173814 -0.037494417 -0.067642346 -0.11122998 0.23771378 -0.034604825
-0.07928071 -0.04924968 0.122596495 -0.12886707 0.116557494 -0.039462164 0.13757601 -0.028722554
0.052405708 -0.06272981 0.09352725 -0.016057631 0.00020957243 0.029436821 -0.13821547 -0.20303668
0.080720544 0.027162904 0.027251784 0.04036536 0.1333594 0.028844563 0.005371316 0.07329044
0.09464398 0.02296698 0.10782793 -0.100005925 0.067431055 -0.014761638 0.050414596 -0.07486678
00000000: 8dd8 8d3d 550e bf3d f802 d23d b3cd d53d
00000010: 2967 2abd 2852 033e e5fd bd3d eeb6 5c3d
00000020: cc29 d53d 2ec2 0d3e 3def 5cbd 847a 223c
00000030: 01ab 453d 2381 49bd 96b2 66be 57a6 b3bc
00000040: bfe3 0e3e 183b fa3d 2300 ea3d 892f 0a3e
00000050: 2e1b 48bd e29c bebd d77f 173e 1c09 e83c
00000060: 61b6 13be a205 ecbd c071 1bbd 7b18 45be
00000070: 5cb2 183e ac98 633c a28f 4ebd 175c dbbd
00000080: 2bd8 0b3e 172a 463d 42be 043e 9267 cbbc
00000090: 0465 c23d 1c86 473c f072 28be 35be 85be
000000a0: c158 1d3e 62fa ec3d af1e a83d 5f05 5e3e
000000b0: a5b8 97bb 8512 c53d c18e d33b 8eba d73d
000000c0: 3f24 e83d af8b 183d 269e dc3c aff2 aebc
000000d0: 7f05 38bd 5233 d13d 2a54 45bd 604d 24be
000000e0: 924b 213c 62ec 0ebd 33d9 bdbc 96e1 9e3d
000000f0: 4cb7 a63c ac7c 803d 656f 173e 70b2 a13d
00000100: a6cd 413c f29f 1cbc d37f c33d 5c69 043e
00000110: 10d8 33be 64ef 8a3b 9256 5ebd 09fd 85bc
00000120: 7de4 7e3d e316 2abc 6988 77bd d2b8 0fbe
00000130: b500 863d f559 a33d f9aa d73c 9814 033d
00000140: 4dd8 cf3c af05 a63d c807 4b3d b4ac b9bd
00000150: c943 433d 79bd c63d 35cd 373e fde7 7cbd
00000160: 8a64 abbd 8fe2 31bd d973 36bd 9bb2 f0ba
00000170: 4907 a33c c136 673c d2b6 18bd e68d bdbd
00000180: 3108 523e ea57 9d3d e622 423d 05f6 893d
00000190: 839b bdbd 58e7 7e3e 7fe3 2dbe 4e40 94bd
000001a0: df75 2cbe 4298 6ebe 7a2a 66bd 6515 143e
000001b0: aa7e 7b3d 4b37 c9bd 8148 90be 15ed 94bd
000001c0: 791b fc3d af6b b13e d9f1 07be 555e f73d
000001d0: 9af1 96bc caf3 1dbe ed78 d93d 1d81 d13d
000001e0: 9a17 4f3e 9fe0 a73e 04d8 a5bd 029f 0c3d
000001f0: 8a30 27be 2bcd fdbd 0546 903e cf88 2bbd
00000200: faf0 14bd c5b8 d83c 6dd5 203c 898d 07be
00000210: 5cfb 043e 30c7 193e 0ed1 8d3d 41a5 c93e
00000220: 5f0b 7c3e 71e3 b33e 2d4a f93c 3828 003f
00000230: 03f8 bbbd 9d94 223e 3fe6 fb3d b5fb d6bc
00000240: 174e a03d 7de6 8fbd 7f18 503a 3524 003e
00000250: fe56 873c 782e b03d 1173 7fbc ce30 05be
00000260: 9bd9 723d 2093 91bc 93be a4be 60aa 5a3e
00000270: e0c7 5dbe 0b72 b63c f844 2dbe 9b2f 57bd
00000280: 6255 08bb afff 3fbe c8c7 69be e1d6 68bd
00000290: ee90 9bbd e4c4 d33d 4171 c33d 7895 213c
000002a0: 874b 4a3e 8d51 65ba 6609 b93d 20aa 58bd
000002b0: 1056 a03c 948e ccbd a658 0f3e 9d1d a13d
000002c0: 8530 e83c c564 233e 3de4 07bd c9b6 d13c
000002d0: 9043 e6bc 27d8 7bbc 51bc 01be 24db b73d
000002e0: f356 043e 0cf9 11bd 427d 35be 3391 b43d
000002f0: 67d2 163e ffed d23b e883 fa3d 2802 cc3d
00000300: 5c87 5cbc a4fd 26bc 746d 2bbe 5de9 1cbe
00000310: 6974 c53d a3ad a7bd 93b2 003d 2ce7 9f3b
00000320: f687 463d dd7b 6a3d 0c1a 523e 9f85 fc3c
00000330: 67b4 143c 9874 b43c 3233 f33d 943c 9a3c
00000340: 4b0c 053e dc67 ee3d 1093 b73d e3a9 023d
00000350: ab3a 2e3e 6eff 873d 0d03 f6bd d2a9 ee3d
00000360: 8619 013e cbf4 9a3d c9cc 593d bf93 19bd
00000370: 1288 8abd 8bcc e3bd 3e6b 733e cabd 0dbd
00000380: ed5d a2bd 08ba 49bd df13 fb3d bbf5 03be
00000390: b2b5 ee3d 14a3 21bd bae0 0c3e 904b ebbc
000003a0: 5ea7 563d 7d78 80bd 378b bf3d 4b8b 83bc
000003b0: acc0 5b39 7d25 f13c 5b88 0dbe d9e8 4fbe
000003c0: d050 a53d bd84 de3c 223f df3c 2656 253d
000003d0: 5e8f 083e 6f4b ec3c dd01 b03b 4c19 963d
000003e0: b4d4 c13d 3f25 bc3c e4d4 dc3d e8cf ccbd
000003f0: 4b19 8a3d ccda 71bc 897f 4e3d c153 99bd

bias f4 [20]
0.25382042 -0.05350994 0.18286422 0.18470655 -0.06968156 0.17518948 0.12761521 -0.021019233
-0.108795114 0.18858258 -0.010246208 0.16483466 -0.0120093655 0.10145327 -0.023397561 0.12751175
-0.043011453 0.15694548 0.111744516 -0.21271606
00000000: c0f4 813e 3d2d 5bbd c240 3b3e b723 3d3e
00000010: 35b5 8ebd df64 333e 90ad 023e 8730 acbc
00000020: f9cf debd cb1b 413e b6df 27bc 6bca 283e
00000030: eec2 44bc bbc6 cf3d 3eac bfbc 7192 023e
00000040: c72c 30bd 51b6 203e 4fda e43d 3dd2 59be

weight f4 [20]
1.0 1.0 1.0 1.0 1.0 1.0 1.0 1.0
1.0 1.0 1.0 1.0 1.0 1.0 1.0 1.0
1.0 1.0 1.0 1.0
00000000: 0000 803f 0000 803f 0000 803f 0000 803f
00000010: 0000 803f 0000 803f 0000 803f 0000 803f
00000020: 0000 803f 0000 803f 0000 803f 0000 803f
00000030: 0000 803f 0000 803f 0000 803f 0000 803f
00000040: 0000 803f 0000 803f 0000 803f 0000 803f

bias f4 [20]
0.0 0.0 0.0 0.0 0.0 0.0 0.0 0.0
0.0 0.0 0.0 0.0 0.0 0.0 0.0 0.0
0.0 0.0 0.0 0.0
00000000: 0000 0000 0000 0000 0000 0000 0000 0000
00000010: 0000 0000 0000 0000 0000 0000 0000 0000
00000020: 0000 0000 0000 0000 0000 0000 0000 0000
00000030: 0000 0000 0000 0000 0000 0000 0000 0000
00000040: 0000 0000 0000 0000 0000 0000 0000 0000

running_mean f4 [20]
0.0 0.0 0.0 0.0 0.0 0.0 0.0 0.0
0.0 0.0 0.0 0.0 0.0 0.0 0.0 0.0
0.0 0.0 0.0 0.0
00000000: 0000 0000 0000 0000 0000 0000 0000 0000
00000010: 0000 0000 0000 0000 0000 0000 0000 0000
00000020: 0000 0000 0000 0000 0000 0000 0000 0000
00000030: 0000 0000 0000 0000 0000 0000 0000 0000
00000040: 0000 0000 0000 0000 0000 0000 0000 0000

running_var f4 [20]
1.0 1.0 1.0 1.0 1.0 1.0 1.0 1.0
1.0 1.0 1.0 1.0 1.0 1.0 1.0 1.0
1.0 1.0 1.0 1.0
00000000: 0000 803f 0000 803f 0000 803f 0000 803f
00000010: 0000 803f 0000 803f 0000 803f 0000 803f
00000020: 0000 803f 0000 803f 0000 803f 0000 803f
00000030: 0000 803f 0000 803f 0000 803f 0000 803f
00000040: 0000 803f 0000 803f 0000 803f 0000 803f

weight f4 [1, 20]
0.2817209 -0.62565714 0.27986196 0.29100278 -0.8406441 0.22327574 0.22427356 0.41925484
-1.335119 0.19030872 -0.6066323 0.29672512 -0.83225924 0.114970885 -0.6401209 0.26635286
-0.392343 0.10607888 0.3380751 -0.5947768
00000000: b93d 903e 112b 20bf 114a 8f3e 51fe 943e
00000010: 7434 57bf 65a2 643e f8a7 653e 92a8 d63e
00000020: 2ee5 aabf 4ae0 423e 414c 1bbf 5bec 973e
00000030: f10e 55bf db75 eb3d f7de 23bf 675f 883e
00000040: 2fe1 c8be e23f d93d 2e18 ad3e 4b43 18bf
