models_version4/2UAVs_94498/a_t0.pt (torch_old, 16251 bytes, 14 tensors)

weight f4 [50, 34]
-0.56396544 -0.09215201 0.25854734 0.28396726 -0.033311553 0.13155569 0.272776 0.13317691
-0.07156564 -0.051918987 -0.027674804 -0.11544569 0.12734352 0.0016097028 -0.063810326 -0.21205841
0.27450815 -0.22465 -0.10030854 0.15780468 0.2787248 0.071095474 -0.062933035 0.2871722
-0.26256558 -0.053268325 0.13317953 -0.09920231 0.369613 0.043449 -0.24217196 0.07313637
-0.2333183 -0.15279414 -0.15844794 -0.039566908 -0.16388835 0.015658295 -0.08026556 0.08625508
-0.13258694 -0.02145313 -0.041010458 0.05182871 -0.168992 -0.015657179 -0.14287621 0.07409572
0.02944556 -0.11011783 -0.16436072 -0.08160443 -0.14012246 -0.04057646 -0.09948062 -0.09832802
0.016941052 0.107788764 0.085990585 0.10836246 0.084337294 -0.012561458 -0.05805889 -0.14092863
0.0017839791 0.08953706 -0.13791858 -0.11147458 -0.28169766 -0.53116345 0.31099913 0.12654603
-0.02324445 -0.14428054 0.11872141 0.14001986 0.12459806 -0.100604035 0.06507527 0.07366283
-0.03344378 -0.037573826 0.16398454 0.14975818 0.2823136 0.006180998 0.062067788 -0.008021016
0.6563064 -0.15617017 0.12641074 0.36350733 0.11731885 -0.02077086 -0.13232802 0.062160898
0.36611965 -0.03525835 -0.043592878 0.08906842 0.21221621 0.21498275 0.2961305 0.7482637
-0.0764291 0.071100965 0.13963164 0.025766535 -0.094732314 0.01456794 0.077346265 0.17473939
0.051255208 -0.0011442116 -0.087816246 0.09578287 0.13286693 0.14463927 -0.034831673 0.1619023
-0.19956662 -0.030494781 -0.2602468 0.11758872 -0.03236269 0.03869702 0.07303237 -0.1555182
0.16405568 -0.07579638 -0.106884934 -0.01870422 0.066779666 0.070956185 0.015740417 -0.1779719
0.062487155 -0.5286846 0.020197228 -0.018936351 0.061100956 0.1020195 -0.18897434 -0.16280329
-0.08860393 0.029312192 0.07477288 -0.1454327 0.00666301 0.05764663 0.024807537 0.02288108
-0.060623303 -0.09109017 -0.13282664 0.19418731 0.08402677 -0.2348018 0.06333591 -0.7144235
-0.18344897 -0.1834747 0.099875145 0.12439302 -0.058726497 0.102259755 0.33935934 0.11131137
-0.04253861 -0.01575208 0.6326964 -0.20939778 -0.31326944 0.060948685 0.032955263 0.0040667723
-0.032393184 0.06644761 0.16274226 0.07302107 0.094039 0.12889141 -0.10038348 0.15362494
0.027091049 0.31247288 0.119798794 0.06154119 0.044228464 0.06055484 -0.40913403 -0.0593535
0.3371273 -0.40426058 -0.00983917 -0.064493984 0.039532978 -0.05653711 -0.16413 0.023186462
0.4984564 -0.16441338 0.06486085 -0.09591088 -0.3272054 -0.5981977 0.19971839 0.23785752
0.18252619 -0.020518897 0.14044538 0.108301476 -0.0031384046 -0.20046303 -0.10742552 -0.014351789
-0.0757753 0.019962767 -0.20635426 -0.01801072 0.1585962 -0.07139304 -0.08689957 -0.06394672
0.39188287 0.08050318 -0.18958665 0.20428279 -0.11656738 -0.06605952 0.13747424 -0.111710705
0.24434216 -0.19251186 -0.08362213 0.07343273 -0.023596471 0.23551326 0.42075625 0.6715998
0.016502822 -0.0056312946 -0.042309344 0.0118640885 0.06072037 -0.034381934 -0.010889335 0.1322382
0.14474481 0.18561988 0.11666178 -0.05107458 -0.060113803 -0.03707576 0.16440064 -0.008210614
00000000: 0a60 10bf 31ba bcbd 5160 843e 2864 913e
00000010: b271 08bd 89b6 063e 4ca9 8b3e 875f 083e
00000020: 0291 92bd 01a9 54bd 45b6 e2bc ca6e ecbd
00000030: 5766 023e aafc d23a fdae 82bd d725 59be
00000040: 558c 8c3e a60a 66be 906e cdbd 8d97 213e
00000050: 04b5 8e3e 819a 913d 09e3 80bd 3c08 933e
00000060: ff6e 86be e32f 5abd 3760 083e 952a cbbd
00000070: ea3d bd3e 94f7 313d edfb 77be 85c8 953d
00000080: feea 6ebe 1176 1cbe 2d40 22be e910 22bd
00000090: 59d2 27be d345 803c 4562 a4bd 81a6 b03d
000000a0: dfc4 07be 79be afbc 95fa 27bd 574a 543d
000000b0: 3d0c 2dbe 7c43 80bc 244e 12be 7fbf 973d
000000c0: d137 f13c 7585 e1bd 2d4e 28be 3920 a7bd
000000d0: 437c 0fbe 8133 26bd 7fbc cbbd 3360 c9bd
000000e0: f6c7 8a3c 5bc0 dc3d d51b b03d 23ed dd3d
000000f0: 08b9 ac3d 93ce 4dbc 29cf 6dbd 984f 10be
00000100: 68d4 e93a 355f b73d 873a 0dbe c94c e4bd
00000110: ad3a 90be 54fa 07bf 473b 9f3e 4895 013e
00000120: 256b bebc 47be 13be 3624 f33d 5e61 0f3e
00000130: 452d ff3d 7d09 cebd 2f46 853d 8adc 963d
00000140: 58fc 08bd 03e7 19bd 90eb 273e 355a 193e
00000150: 688b 903e f889 ca3b cb3a 7e3d 946a 03bc
00000160: b203 283f 13eb 1fbe d171 013e a21d ba3e
00000170: dd44 f03d a727 aabc ff80 07be 6d9c 7e3d
00000180: 0974 bb3e 0f6b 10bd 728e 32bd 8169 b63d
00000190: 354f 593e 7024 5c3e 6b9e 973e 368e 3f3f
000001a0: dc86 9cbd 629d 913d 99fb 0e3e 5714 d33c
000001b0: 0403 c2bd 5eae 6e3c b867 9e3d e2ee 323e
000001c0: fbf0 513d 5ff9 95ba 01d9 b3bd cf29 c43d
000001d0: 450e 083e 511c 143e a8ab 0ebd b7c9 253e
000001e0: 315b 4cbe 31d0 f9bc 123f 85be 5bd2 f03d
000001f0: bd8e 04bd c480 1e3d ff91 953d 2a40 1fbe
00000200: 36fe 273e 223b 9bbd 7de6 dabd 9839 99bc
00000210: c7c3 883d 7a51 913d 0cf2 803c 443e 36be
00000220: 88f2 7f3d e057 07bf a874 a53c 6820 9bbc
00000230: ff44 7a3d 9aef d03d 7d82 41be e8b5 26be
00000240: fa75 b5bd 1f20 f03c 8622 993d 4fec 14be
00000250: 6155 da3b df1e 6c3d 2d39 cb3c 1a71 bb3c
00000260: 2450 78bd 7c8d babd b503 08be 0ad9 463e
00000270: 3a16 ac3d e26f 70be 42b6 813d 75e4 36bf
00000280: 0cda 3bbe cbe0 3bbe 578b cc3d c5c1 fe3d
00000290: 328b 70bd 906d d13d 82c0 ad3e 37f7 e33d
000002a0: f73c 2ebd 820a 81bc 64f8 213f 5f6c 56be
000002b0: da64 a0be 54a5 793d 19fc 063d 8f42 853b
000002c0: b7ae 04bd af15 883d e8a5 263e 128c 953d
000002d0: 8597 c03d 1cfc 033e db95 cdbd db4f 1d3e
000002e0: 0cee dd3c 72fc 9f3e 1259 f53d 9d12 7c3d
000002f0: e828 353d 5a08 783d 047a d1be a81c 73bd
00000300: f39b ac3e 3efb cebe 7834 21bc 6c15 84bd
00000310: 55ed 213d 7593 67bd b211 28be 89f1 bd3c
00000320: ad35 ff3e fb5b 28be c4d5 843d ec6c c4bd
00000330: 7787 a7be 7c23 19bf fa82 4c3e ec90 733e
00000340: 25e8 3a3e 3f17 a8bc ead0 0f3e 2acd dd3d
00000350: b1ad 4dbb 2e46 4dbe e901 dcbd c423 6bbc
00000360: 1530 9bbd f588 a33c 884e 53be 388b 93bc
00000370: 0b67 223e 8436 92bd 67f8 b1bd 7ff6 82bd
00000380: dfa4 c83e dade a43d 0123 42be 822f 513e
00000390: e1ba eebd 374a 87bd 0cc6 0c3e 95c8 e4bd
000003a0: d534 7a3e d421 45be 1442 abbd e663 963d
000003b0: 634d c1bc 632a 713e 5d6d d73e f7ed 2b3f
000003c0: ed30 873c b986 b8bb 904c 2dbd 9861 423c
000003d0: ecb5 783d 12d4 0cbd 2e69 32bc 7369 073e
000003e0: fc37 143e 2313 3e3e 5fec ee3d 9433 51bd
000003f0: e439 76bd c1dc 17bd a458 283e d085 06bc

bias f4 [50]
0.23661807 -0.11827026 0.09853487 -0.05916021 -0.0736638 0.09137913 -0.02337633 -0.1157342
0.10613648 0.0869114 -4.8064412e-05 -0.039885715 0.004957315 0.030694136 -0.14591697 0.16415545
0.26599732 0.10817654 0.0061562764 0.018141082 -0.115810044 -0.10627013 0.0060953517 0.16515347
-0.062529676 0.016663136 0.09263711 -0.013907806 0.063081436 -0.12258355 -0.1807342 0.050361756
0.1943887 0.17727971 0.06668612 -0.11965777 0.07682849 0.119097844 0.04503955 0.024075447
0.17478076 0.14318164 0.050534755 -0.04655139 -0.067207776 0.03468373 0.004727184 0.067282446
-0.048351593 0.029099453
00000000: 024c 723e ae37 f2bd a6cc c93d fa51 72bd
00000010: 0cdd 96bd fb24 bb3d b87f bfbc 0d06 edbd
00000020: 155e d93d 9bfe b13d c598 49b8 345f 23bd
00000030: f970 a23b 4572 fb3c 426b 15be 5e18 283e
00000040: cd30 883e a98b dd3d 97ba c93b 9b9c 943c
00000050: d12d edbd 27a4 d9bd 84bb c73b fe1d 293e
00000060: 8f0f 80bd 2181 883c 86b8 bd3d 91dd 63bc
00000070: d730 813d 160d fbbd 6312 39be 2148 4e3d
00000080: d50d 473e d088 353e bc92 883d 220f f5bd
00000090: 4158 9d3d 92e9 f33d 647b 383d df39 c53c
000000a0: baf9 323e 359e 123e 88fd 4e3d acac 3ebd
000000b0: 3ba4 89bd 8710 0e3d 7ee6 9a3b 61cb 893d
000000c0: 520c 46bd fa61 ee3c

weight f4 [50]
1.0 1.0 1.0 1.0 1.0 1.0 1.0 1.0
1.0 1.0 1.0 1.0 1.0 1.0 1.0 1.0
1.0 1.0 1.0 1.0 1.0 1.0 1.0 1.0
1.0 1.0 1.0 1.0 1.0 1.0 1.0 1.0
1.0 1.0 1.0 1.0 1.0 1.0 1.0 1.0
1.0 1.0 1.0 1.0 1.0 1.0 1.0 1.0
1.0 1.0
00000000: 0000 803f 0000 803f 0000 803f 0000 803f
00000010: 0000 803f 0000 803f 0000 803f 0000 803f
00000020: 0000 803f 0000 803f 0000 803f 0000 803f
00000030: 0000 803f 0000 803f 0000 803f 0000 803f
00000040: 0000 803f 0000 803f 0000 803f 0000 803f
00000050: 0000 803f 0000 803f 0000 803f 0000 803f
00000060: 0000 803f 0000 803f 0000 803f 0000 803f
00000070: 0000 803f 0000 803f 0000 803f 0000 803f
00000080: 0000 803f 0000 803f 0000 803f 0000 803f
00000090: 0000 803f 0000 803f 0000 803f 0000 803f
000000a0: 0000 803f 0000 803f 0000 803f 0000 803f
000000b0: 0000 803f 0000 803f 0000 803f 0000 803f
000000c0: 0000 803f 0000 803f

bias f4 [50]
0.0 0.0 0.0 0.0 0.0 0.0 0.0 0.0
0.0 0.0 0.0 0.0 0.0 0.0 0.0 0.0
0.0 0.0 0.0 0.0 0.0 0.0 0.0 0.0
0.0 0.0 0.0 0.0 0.0 0.0 0.0 0.0
0.0 0.0 0.0 0.0 0.0 0.0 0.0 0.0
0.0 0.0 0.0 0.0 0.0 0.0 0.0 0.0
0.0 0.0
00000000: 0000 0000 0000 0000 0000 0000 0000 0000
00000010: 0000 0000 0000 0000 0000 0000 0000 0000
00000020: 0000 0000 0000 0000 0000 0000 0000 0000
00000030: 0000 0000 0000 0000 0000 0000 0000 0000
00000040: 0000 0000 0000 0000 0000 0000 0000 0000
00000050: 0000 0000 0000 0000 0000 0000 0000 0000
00000060: 0000 0000 0000 0000 0000 0000 0000 0000
00000070: 0000 0000 0000 0000 0000 0000 0000 0000
00000080: 0000 0000 0000 0000 0000 0000 0000 0000
00000090: 0000 0000 0000 0000 0000 0000 0000 0000
000000a0: 0000 0000 0000 0000 0000 0000 0000 0000
000000b0: 0000 0000 0000 0000 0000 0000 0000 0000
000000c0: 0000 0000 0000 0000

running_mean f4 [50]
0.0 0.0 0.0 0.0 0.0 0.0 0.0 0.0
0.0 0.0 0.0 0.0 0.0 0.0 0.0 0.0
0.0 0.0 0.0 0.0 0.0 0.0 0.0 0.0
0.0 0.0 0.0 0.0 0.0 0.0 0.0 0.0
0.0 0.0 0.0 0.0 0.0 0.0 0.0 0.0
0.0 0.0 0.0 0.0 0.0 0.0 0.0 0.0
0.0 0.0
00000000: 0000 0000 0000 0000 0000 0000 0000 0000
00000010: 0000 0000 0000 0000 0000 0000 0000 0000
00000020: 0000 0000 0000 0000 0000 0000 0000 0000
00000030: 0000 0000 0000 0000 0000 0000 0000 0000
00000040: 0000 0000 0000 0000 0000 0000 0000 0000
00000050: 0000 0000 0000 0000 0000 0000 0000 0000
00000060: 0000 0000 0000 0000 0000 0000 0000 0000
00000070: 0000 0000 0000 0000 0000 0000 0000 0000
00000080: 0000 0000 0000 0000 0000 0000 0000 0000
00000090: 0000 0000 0000 0000 0000 0000 0000 0000
000000a0: 0000 0000 0000 0000 0000 0000 0000 0000
000000b0: 0000 0000 0000 0000 0000 0000 0000 0000
000000c0: 0000 0000 0000 0000

running_var f4 [50]
1.0 1.0 1.0 1.0 1.0 1.0 1.0 1.0
1.0 1.0 1.0 1.0 1.0 1.0 1.0 1.0
1.0 1.0 1.0 1.0 1.0 1.0 1.0 1.0
1.0 1.0 1.0 1.0 1.0 1.0 1.0 1.0
1.0 1.0 1.0 1.0 1.0 1.0 1.0 1.0
1.0 1.0 1.0 1.0 1.0 1.0 1.0 1.0
1.0 1.0
00000000: 0000 803f 0000 803f 0000 803f 0000 803f
00000010: 0000 803f 0000 803f 0000 803f 0000 803f
00000020: 0000 803f 0000 803f 0000 803f 0000 803f
00000030: 0000 803f 0000 803f 0000 803f 0000 803f
00000040: 0000 803f 0000 803f 0000 803f 0000 803f
00000050: 0000 803f 0000 803f 0000 803f 0000 803f
00000060: 0000 803f 0000 803f 0000 803f 0000 803f
00000070: 0000 803f 0000 803f 0000 803f 0000 803f
00000080: 0000 803f 0000 803f 0000 803f 0000 803f
00000090: 0000 803f 0000 803f 0000 803f 0000 803f
000000a0: 0000 803f 0000 803f 0000 803f 0000 803f
000000b0: 0000 803f 0000 803f 0000 803f 0000 803f
000000c0: 0000 803f 0000 803f

weight f4 [20, 50]
0.059875324 0.101132415 0.057948243 -0.19425248 0.12803061 -0.21612458 0.029186964 -0.14229926
-0.096916825 0.21364595 0.08246945 0.064530335 0.24528842 0.036668733 -0.010562422 0.22150356
0.17699763 0.28035617 0.1800497 -0.06911009 -0.0717389 0.016173843 0.079586364 0.14430085
-0.002854401 0.07879066 -0.009676784 -0.025859717 -0.019291816 -0.058772497 -0.31661686 0.21172833
0.024325458 0.15281196 -0.044843283 -0.024700182 0.17083962 -0.016873552 0.1225457 0.2087438
-0.27415016 -0.2038293 -0.047607593 -0.2680584 0.09557726 -0.006064185 -0.08966575 0.19856378
-0.04194052 -0.07785366 -0.11711858 0.033119164 0.1847249 -0.15705588 0.26727507 0.21880886
-0.05440861 0.02453563 0.08565479 -0.20455769 0.39721146 0.15299454 0.50191736 -0.20414838
-0.038997304 0.06867158 0.22712144 0.28750464 -0.23726293 -0.09809929 0.38860184 -0.18286142
-0.32319683 -0.05355723 0.3126112 -0.09750873 -0.044041608 0.19139934 -0.14622168 0.19085523
0.0042694486 0.25025433 -0.1963028 -0.12374028 0.12517565 -0.13619442 0.41899687 0.823946
0.121695146 0.26306796 0.055856407 0.18105438 0.1696025 0.18937561 0.004784196 0.38250807
-0.12757023 0.23444767 0.070920095 -0.07760023 0.3602965 -0.11280748 0.14077869 0.0737494
-0.2903261 -0.3305012 -0.009960033 0.06658988 -0.10732417 0.4279982 -0.2126783 -0.16256157
-0.27509093 0.27663836 0.19435751 0.19158763 0.06659926 0.13838816 0.0918624 0.26093203
-0.33405477 0.13202807 0.1563979 0.18076742 -0.17008267 0.28090048 0.12105979 -0.018696599
0.1830818 0.05605101 -0.030261178 0.105362 0.1665972 0.13679244 0.07636029 0.20322579
-0.38009024 -0.57423913 0.065048754 0.003024278 -0.03426694 -0.14854522 -0.034550775 -0.1818829
0.2741124 -0.2610742 0.110766225 -0.22158611 -0.10687914 0.025311785 0.21360338 -0.0678864
0.18722388 -0.18955098 0.11877708 -0.39337796 0.36454698 -0.19301674 -0.10701182 0.120888084
0.37914234 -0.40342945 0.34721538 0.005254135 0.31450966 0.25465617 0.30910864 0.40295365
-0.25536558 0.08415742 -0.16641746 0.0020997052 0.16159032 0.4253005 -0.2742096 -0.2795474
-0.3164489 -0.1417763 0.09930532 -0.15333442 -0.1485179 0.31655565 0.40336248 -0.21834058
-0.0082081705 0.115253925 0.08654056 0.08311314 0.14669403 0.29824582 -0.3909699 -0.4330692
-0.21361148 -0.3291893 -0.027205264 0.04794391 -0.13993694 -0.005308309 -0.48082456 -0.3441695
-0.04240707 -0.036226433 -0.13939677 0.11921947 -0.03484025 0.042175725 -0.1594031 0.022705572
-0.06741552 -0.07944972 -0.073171854 -0.04194811 0.019585267 0.10732757 -0.06099256 -0.020063596
-0.086543426 0.017898453 0.1232085 0.11025119 0.11377904 -0.060399123 -0.12846528 -0.13708858
-0.08073047 -0.049815934 0.013308565 -0.08699642 -0.13403831 -0.023769332 -0.048873432 -0.1304039
-0.07941172 -0.0018696261 0.0016351653 -0.03548138 -0.10428998 -0.043402843 0.030396627 -0.004504882
0.11380735 0.027087448 0.10463419 0.08944021 0.06110171 -0.1494476 -0.10703403 0.029157221
-0.011501985 0.10190802 0.09515834 -0.1135883 0.17339234 -0.21376315 0.04371768 -0.29671726
00000000: d43f 753d 831e cf3d 235b 6d3d 1fea 46be
00000010: 751a 033e c34f 5dbe 8019 ef3c e6b6 11be
00000020: 547c c6bd 01c6 5a3e bee5 a83d 7b28 843d
00000030: e32c 7b3e f431 163d 020e 2dbc d4d1 623e
00000040: de3e 353e d88a 8f3e f35e 383e 9789 8dbd
00000050: d8eb 92bd 027f 843c 2dfe a23d 9ac3 133e
00000060: e710 3bbb ff5c a13d 608b 1ebc c2d7 d3bc
00000070: df09 9ebc 6ebb 70bd 9b1b a2be 50cf 583e
00000080: 2f46 c73c bd7a 1c3e 97ad 37bd 0958 cabc
00000090: 95f0 2e3e 673a 8abc 3df9 fa3d efc0 553e
000000a0: 695d 8cbe a1b8 50be 2e00 43bd f33e 89be
000000b0: 03be c33d 12b6 c6bb ada2 b7bd 4e54 4b3e
000000c0: d3c9 2bbd bd71 9fbd dedb efbd f6a7 073d
000000d0: 8628 3d3e 42d3 20be 47d8 883e 6e0f 603e
000000e0: 90db 5ebd f2fe c83c c76b af3d 9277 51be
000000f0: 4d5f cb3e 9aaa 1c3e a87d 003f 460c 51be
00000100: a3bb 1fbd afa3 8c3d 8692 683e cf33 933e
00000110: 0ef5 72be 48e8 c8bd d2f6 c63e 0640 3bbe
00000120: 0e7a a5be d35e 5bbd 930e a03e a8b2 c7bd
00000130: f964 34bd 30fe 433e 23bb 15be 8e6f 433e
00000140: bbe6 8b3b 5621 803e 9a03 49be 8b6b fdbd
00000150: 0c2e 003e 8d76 0bbe c286 d63e 20ee 523f
00000160: 4e3b f93d d8b0 863e b0c9 643d 5266 393e
00000170: 47ac 2d3e aeeb 413e bfc4 9c3b 19d8 c33e
00000180: c5a1 02be 0d13 703e 8e3e 913d dfec 9ebd
00000190: c878 b83e 9c07 e7bd 4a28 103e ed09 973d
000001a0: 9fa5 94be 7437 a9be 682f 23bc 4660 883d
000001b0: c6cc dbbd 9422 db3e 57c8 59be 8a76 26be
000001c0: b8d8 8cbe 8ba3 8d3e a805 473e 8c2f 443e
000001d0: 3165 883d a0b5 0d3e 5b22 bc3d e298 853e
000001e0: 3a09 abbe 5e32 073e c526 203e 181b 393e
000001f0: 272a 2ebe 30d2 8f3e 32ee f73d 9c29 99bc
00000200: cc79 3b3e be95 653d 4ae6 f7bc 08c8 d73d
00000210: 7598 2a3e 5113 0c3e c962 9c3d 6c1a 503e
00000220: 309b c2be 5601 13bf 4838 853d f732 463b
00000230: 7e5b 0cbd 3d1c 18be 1d85 0dbd 833f 3abe
00000240: 7658 8c3e 84ab 85be 67d9 e23d 78e7 62be
00000250: 73e3 dabd a95a cf3c d8ba 5a3e 0608 8bbd
00000260: 9eb7 3f3e a719 42be 6641 f33d d668 c9be
00000270: e7a5 ba3e 2ea6 45be 0329 dbbd 2c94 f73d
00000280: f21e c23e 4e8e cebe 37c6 b13e e12a ac3b
00000290: 6907 a13e 4b62 823e 7d43 9e3e f14f ce3e
000002a0: 47bf 82be ba5a ac3d 5769 2abe 359b 093b
000002b0: ef77 253e fdc0 d93e 3365 8cbe d620 8fbe
000002c0: 9705 a2be ce2d 11be 9660 cb3d b303 1dbe
000002d0: 1415 18be 9513 a23e 8785 ce3e ac94 5fbe
000002e0: 907b 06bc 400a ec3d 2d3c b13d 3937 aa3d
000002f0: f636 163e adb3 983e 352d c8be 3fbb ddbe
00000300: f8bc 5abe 808b a8be 93dd debc d560 443d
00000310: a14b 0fbe 53f1 adbb a32e f6be fc36 b0be
00000320: 09b3 2dbd 2b62 14bd 07be 0ebe 5629 f43d
00000330: a6b4 0ebd 74c0 2c3d 913a 23be 0901 ba3c
00000340: 2611 8abd 89b6 a2bd 20db 95bd c8d1 2bbd
00000350: 4871 a03c 8fce db3d 56d3 79bd 695c a4bc
00000360: ae3d b1bd c79f 923c bd54 fc3d 60cb e13d
00000370: fc04 e93d 1265 77bd 678c 03be f360 0cbe
00000380: 0456 a5bd cb0b 4cbd 2b0c 5a3c 2e2b b2bd
00000390: 5741 09be e7b7 c2bc 822f 48bd 9a88 05be
000003a0: 9da2 a2bd 3e0e f5ba 0b53 d63a ec54 11bd
000003b0: fc95 d5bd 2ec7 31bd 5902 f93c b09d 93bb
000003c0: d413 e93d 7fe6 dd3c 734a d63d 6e2c b73d
000003d0: c945 7a3d cb08 19be a834 dbbd 20db ee3c
000003e0: d272 3cbc 27b5 d03d 60e2 c23d fca0 e8bd
000003f0: c38d 313e bae4 5abe 4f11 333d 53eb 97be

bias f4 [20]
-0.069835454 0.03213007 0.087940745 0.15624407 -0.11129577 0.09431092 0.14389236 0.009258141
0.02655503 -0.01569079 0.056321338 -0.11829102 -0.040857837 -0.05655695 0.07514777 0.06185214
0.10007842 0.0025575235 -0.07571154 0.061513636
00000000: e405 8fbd d29a 033d 471a b43d 72fe 1f3e
00000010: 09ef e3bd 1526 c13d 8558 133e 75af 173c
00000020: ef89 d93c f989 80bc 34b1 663d 9042 f2bd
00000030: 8c5a 27bd 43a8 67bd 13e7 993d ab58 7d3d
00000040: eaf5 cc3d 209c 273b a70e 9bbd b9f5 7b3d

weight f4 [20]
1.0 1.0 1.0 1.0 1.0 1.0 1.0 1.0
1.0 1.0 1.0 1.0 1.0 1.0 1.0 1.0
1.0 1.0 1.0 1.0
00000000: 0000 803f 0000 803f 0000 803f 0000 803f
00000010: 0000 803f 0000 803f 0000 803f 0000 803f
00000020: 0000 803f 0000 803f 0000 803f 0000 803f
00000030: 0000 803f 0000 803f 0000 803f 0000 803f
00000040: 0000 803f 0000 803f 0000 803f 0000 803f

bias f4 [20]
0.0 0.0 0.0 0.0 0.0 0.0 0.0 0.0
0.0 0.0 0.0 0.0 0.0 0.0 0.0 0.0
0.0 0.0 0.0 0.0
00000000: 0000 0000 0000 0000 0000 0000 0000 0000
00000010: 0000 0000 0000 0000 0000 0000 0000 0000
00000020: 0000 0000 0000 0000 0000 0000 0000 0000
00000030: 0000 0000 0000 0000 0000 0000 0000 0000
00000040: 0000 0000 0000 0000 0000 0000 0000 0000

running_mean f4 [20]
0.0 0.0 0.0 0.0 0.0 0.0 0.0 0.0
0.0 0.0 0.0 0.0 0.0 0.0 0.0 0.0
0.0 0.0 0.0 0.0
00000000: 0000 0000 0000 0000 0000 0000 0000 0000
00000010: 0000 0000 0000 0000 0000 0000 0000 0000
00000020: 0000 0000 0000 0000 0000 0000 0000 0000
00000030: 0000 0000 0000 0000 0000 0000 0000 0000
00000040: 0000 0000 0000 0000 0000 0000 0000 0000

running_var f4 [20]
1.0 1.0 1.0 1.0 1.0 1.0 1.0 1.0
1.0 1.0 1.0 1.0 1.0 1.0 1.0 1.0
1.0 1.0 1.0 1.0
00000000: 0000 803f 0000 803f 0000 803f 0000 803f
00000010: 0000 803f 0000 803f 0000 803f 0000 803f
00000020: 0000 803f 0000 803f 0000 803f 0000 803f
00000030: 0000 803f 0000 803f 0000 803f 0000 803f
00000040: 0000 803f 0000 803f 0000 803f 0000 803f

weight f4 [2, 20]
0.43840945 -0.407295 0.51746905 1.0742003 0.14896332 0.8224153 0.30350024 -0.69307965
-0.5234382 -0.56550205 0.3834958 -2.1662095 -0.745679 0.21524818 -0.7597477 0.75661117
0.39269853 -2.0597746 0.11042854 -0.4980253 0.31654963 0.4425136 -0.23745511 0.4422551
0.15150695 0.46303064 -0.15426995 -0.42316732 0.68223953 0.24792401 -0.2959055 -0.6687867
0.22343603 -0.49550515 -0.47726476 0.8036691 0.4514296 -1.004746 -0.5689224 0.42364523
00000000: 3477 e03e f888 d0be da78 043f 657f 893f
00000010: d789 183e cf89 523f 6264 9b3e ab6d 31bf
00000020: 0c00 06bf bec4 10bf 9059 c43e 2da3 0ac0
00000030: d2e4 3ebf 056a 5c3e d37e 42bf 45b1 413f
00000040: c80f c93e 59d3 03c0 5c28 e23d 2cfd febe
00000050: cb12 a23e 2591 e23e 6f27 73be 436f e23e
00000060: a324 1b3e 5a12 ed3e f1f8 1dbe 63a9 d8be
00000070: 40a7 2e3f cbdf 7d3e ed80 97be 9b35 2bbf
00000080: 6acc 643e dab2 fdbe 0c5c f4be 42bd 4d3f
00000090: c821 e73e 849b 80bf e6a4 11bf 07e8 d83e

bias f4 [2]
0.15834337 0.08444281
00000000: c424 223e 5af0 ac3d
