models_version4/2UAVs_94498/c_c1.pt (torch_old, 28024 bytes, 15 tensors)

weight f4 [50, 68]
-0.020323575 -0.10612249 0.4983093 0.23874672 -0.08089578 0.10817914 -0.009858352 -0.06371193
-0.04808378 -0.04883656 -0.038438186 0.018003205 0.047569204 0.07943659 0.008836815 -0.063664734
-0.09427223 0.07721913 0.093359515 -0.069502 -0.04500273 -0.05455479 -0.0008206057 0.09539476
-0.015650578 0.010106774 0.10441756 0.099564835 0.05324029 -0.06679689 0.007794252 0.07664454
-0.04842674 -0.027784675 0.120655514 0.10872615 0.4166638 0.31742734 0.08925556 -0.075592116
0.10814227 -0.0211346 -0.06929688 0.0791165 -0.10151812 -0.009346603 0.02864985 0.008921136
0.11310333 -0.030172378 0.03430305 0.009431901 0.025743743 0.07579491 0.05126396 -0.051837213
0.07865859 -0.00381533 -0.0061830645 0.13493076 0.09114115 -0.024620725 0.032458767 0.06690195
-0.03887346 -0.01442407 -0.03673303 0.072326325 -0.05032548 0.060749527 0.49578348 -0.11826513
0.05177799 0.013495749 0.060300574 0.07445979 -0.08868841 -0.043205682 0.05813258 -0.021580214
0.10755894 0.026552545 -0.071873724 0.11795331 0.12383832 0.0412931 0.039368022 -0.05171475
0.05225424 -0.05144892 -0.0739159 -0.0075975964 -0.01607371 0.02986639 0.106203414 -0.031833984
-0.041825086 -0.015653148 -0.009806273 0.1267259 -0.013056453 0.0925285 -0.077956535 -0.043923628
0.40541026 -0.18898223 0.016929638 -0.09034182 0.13718547 -0.0046294653 0.096018575 0.017571079
0.10464061 0.0153013365 -0.07483017 -0.022534454 -0.02216245 -0.025168344 -0.046640895 0.115278505
-0.008520229 0.02574042 -0.01950949 -0.09904489 -0.008442149 0.06397625 0.09056809 0.0674413
0.099110596 -0.0881054 -0.0282718 0.08120355 0.042380434 -0.09157363 -0.0752515 0.06933229
0.07518162 0.08555473 -0.35879242 0.23660617 -0.023751805 -0.0239502 0.082986385 0.023783099
-0.023876632 0.06796075 0.07800227 -0.080418654 0.02081058 -0.074432805 -0.07829431 0.049368925
-0.02238791 -0.049223702 -0.024959572 0.09273479 -0.043061644 -0.052495893 0.076470494 0.093764514
0.017722242 0.13394782 0.10456212 -0.064448 -0.09317114 -0.065308586 -0.0018377934 -0.05233703
0.044425353 0.031564586 0.041389186 -0.047390208 -0.43941146 0.22811429 -0.051458035 -0.088182725
-0.024674514 0.094101146 0.06859969 0.117697515 -0.057783253 0.09605294 0.0998777 -0.025137266
0.13031088 0.0009338589 0.07899857 0.035019267 0.074040994 -0.043333773 -0.023548026 -0.012191462
0.0026806162 0.096342504 0.08969044 0.025026599 0.03857085 -0.0036184941 0.111772396 -0.077324346
0.015140837 0.048105862 -0.06448807 -0.04023612 0.09404306 -0.037840288 -0.6162745 -0.2781736
-0.04539265 0.07059168 0.18209022 -0.011638926 -0.0118502155 0.08313661 0.094158806 -0.09049584
0.06772786 -0.07347564 0.009455858 -0.019546222 0.014086612 -0.028286032 0.04900222 -0.058750365
0.08818792 -0.0736007 0.01435416 -0.05413911 0.056055557 0.13613367 0.097823024 -0.018733786
0.046137635 0.037890516 0.06596943 0.08727457 0.050363965 0.0154989315 0.055249475 0.11176258
-0.63320065 -0.16954143 0.003742772 -0.04811871 0.14998233 -0.020547526 -0.035943855 0.007342094
0.026801184 0.04203698 0.046427533 0.066569485 0.15780735 0.07091454 0.10990061 0.018236928
00000000: a07d a6bc bf56 d9bd 6622 ff3e 057a 743e
00000010: b0ac a5bd 068d dd3d ed84 21bc 667b 82bd
00000020: 7ff3 44bd d808 48bd 5c71 1dbd 757b 933c
00000030: edd7 423d a7af a23d 4ac8 103c a862 82bd
00000040: cd11 c1bd 1025 9e3d 4633 bf3d 1157 8ebd
00000050: c854 38bd d874 5fbd eb1d 57ba 545e c33d
00000060: a435 80bc e296 253c e0d8 d53d a6e8 cb3d
00000070: 7e12 5a3d cfcc 88bd ed66 ff3b d0f7 9c3d
00000080: 1e5b 46bd b09c e3bc 3d1a f73d d1ab de3d
00000090: f554 d53e d685 a23e 9ecb b63d 0ad0 9abd
000000a0: b279 dd3d 7822 adbc 86eb 8dbd d507 a23d
000000b0: bbe8 cfbd 7f22 19bc 17b3 ea3c f529 123c
000000c0: b8a2 e73d 102c f7bc 5b81 0c3d 4388 1a3c
000000d0: 8be4 d23c 5d3a 9b3d 28fa 513d 4253 54bd
000000e0: c117 a13d 9e0a 7abb 4e9b cabb 4a2b 0a3e
000000f0: 36a8 ba3d 67b1 c9bc 7cf3 043d e403 893d
00000100: c739 1fbd ef52 6cbc 6075 16bd d31f 943d
00000110: 1722 4ebd 7fd4 783d 55d7 fd3e fd34 f2bd
00000120: 2815 543d 461d 5d3c bcfd 763d 607e 983d
00000130: 45a2 b5bd 71f8 30bd 6e1c 6e3d fdc8 b0bc
00000140: dd47 dc3d b984 d93c 8832 93bd 8191 f13d
00000150: f29e fd3d f422 293d 5d40 213d d8d2 53bd
00000160: 8b08 563d 1abc 52bd 3861 97bd 42f5 f8bb
00000170: 03ad 83bc 5caa f43c 2d81 d93d 5a64 02bd
00000180: c850 2bbd 083b 80bc 7daa 20bc 6fc4 013e
00000190: bcea 55bc 957f bd3d ada7 9fbd 43e9 33bd
000001a0: ef91 cf3e 8f84 41be 06b0 8a3c 2205 b9bd
000001b0: 597a 0c3e c5b2 97bb 63a5 c43d 39f1 8f3c
000001c0: d14d d63d 75b2 7a3c 8f40 99bd 2d9a b8bc
000001d0: 078e b5bc d82d cebc 860a 3fbd 2317 ec3d
000001e0: 6e98 0bbc 93dd d23c 5ed2 9fbc 0cd8 cabd
000001f0: f050 0abc fb05 833d c37b b93d aa1e 8a3d
00000200: 7ffa ca3d 9b70 b4bd 439a e7bc 0c4e a63d
00000210: 1b97 2d3d f58a bbbd 751d 9abd 16fe 8d3d
00000220: d2f8 993d 5137 af3d a4b3 b7be e348 723e
00000230: 2593 c2bc 3633 c4bc c4f4 a93d c6d4 c23c
00000240: ed98 c3bc 012f 8b3d a7bf 9f3d 89b2 a4bd
00000250: f37a aa3c 3a70 98bd c458 a0bd 1237 4a3d
00000260: da66 b7bc cb9e 49bd 0478 ccbc bdeb bd3d
00000270: 6861 30bd ef05 57bd 909c 9c3d 9c07 c03d
00000280: 3c2e 913c 9e29 093e aa24 d63d 50fd 83bd
00000290: 83d0 bebd 82c0 85bd 1de2 f0ba 5b5f 56bd
000002a0: 5cf7 353d de49 013d b587 293d 3c1c 42bd
000002b0: 8afa e0be cb96 693e a9c5 52bd 2599 b4bd
000002c0: 3522 cabc 1ab8 c03d ff7d 8c3d 650b f13d
000002d0: 22ae 6cbd 67b7 c43d ae8c cc3d abec cdbc
000002e0: 3770 053e 36ce 743a 01ca a13d 5d70 0f3d
000002f0: cea2 973d c17e 31bd cae7 c0bc b3be 47bc
00000300: 47ad 2f3b 384f c53d 9faf b73d 9504 cd3c
00000310: 78fc 1d3d 4224 6dbb ede8 e43d 3a5c 9ebd
00000320: 4611 783c a70a 453d 5212 84bd a1ce 24bd
00000330: a699 c03d 6bfe 1abd 2ac4 1dbf c56c 8ebe
00000340: a5ed 39bd 5f92 903d dc75 3a3e 32b1 3ebc
00000350: 6827 42bc 8743 aa3d 55d6 c03d e255 b9bd
00000360: e7b4 8a3d 657a 96bd beec 1a3c 661f a0bc
00000370: 88cb 663c 1cb8 e7bc 8db6 483d 39a4 70bd
00000380: de9b b43d f7bb 96bd b62d 6b3c f9c0 5dbd
00000390: 839a 653d a066 0b3e 7057 c83d 9977 99bc
000003a0: d1fa 3c3d 1633 1b3d fb1a 873d 02bd b23d
000003b0: 724a 4e3d 3bef 7d3c 464d 623d c8e3 e43d
000003c0: 7019 22bf 459c 2dbe 4b49 753b 2018 45bd
000003d0: f894 193e 4953 a8bc dd39 13bd f395 f03b
000003e0: 288e db3c f82e 2c3d cc2a 3e3d 9555 883d
000003f0: 4098 213e a43b 913d 9213 e13d 9c65 953c

bias f4 [50]
-0.14281523 0.17550646 -0.07385945 0.21505247 0.092166014 -0.06379678 0.06477701 -0.11036064
0.17044315 0.1615547 -0.004978514 0.15655425 -0.056040537 -0.08483404 0.07056709 0.065420374
0.057681877 0.16840826 0.20673643 0.057677366 -0.03365773 0.23454441 -0.16902925 0.21323636
0.15442382 0.25274685 -0.089683674 0.23364228 0.061692886 -0.11512192 -0.019419461 0.019977845
0.30912003 -0.14821714 0.051868647 0.045387566 0.12644164 0.014821967 0.07459096 0.007405174
0.060359746 -0.19708008 0.062899105 -0.07719891 0.19763304 0.022208283 -0.040744122 0.18235047
0.20245643 0.047320582
00000000: 283e 12be f7b7 333e a043 97bd b736 5c3e
00000010: 89c1 bc3d e3a7 82bd cfa9 843d c204 e2bd
00000020: a688 2e3e 986e 253e cd22 a3bb c24f 203e
00000030: c38a 65bd 78bd adbd 7a85 903d 1efb 853d
00000040: d543 6c3d 3773 2c3e b7b2 533e 1a3f 6c3d
00000050: b0dc 09bd 692c 703e 0116 2dbe a25a 5a3e
00000060: 4721 1e3e 0968 813e 13ac b7bd ec3f 6f3e
00000070: aeb1 7c3d 0bc5 ebbd 9015 9fbc 94a8 a33c
00000080: fb44 9e3e 3cc6 17be 3874 543d 50e8 393d
00000090: eb79 013e d6d7 723c 25c3 983d 1aa7 f23b
000000a0: c83b 773d 5ccf 49be 3fd1 803d 761a 9ebd
000000b0: 5160 4a3e 25ee b53c 4fe3 26bd 15ba 3a3e
000000c0: bd50 4f3e 3ad3 413d

weight f4 [50, 4]
-0.103698425 -0.18540075 0.46039003 -0.24323128 0.23712638 0.38315317 0.19799359 -0.15392879
0.06483643 -0.20289333 -0.35060102 0.11938565 0.50156325 -0.14198445 0.10151484 -0.31117296
-0.30417535 -0.13373597 0.06037191 -0.425448 -0.13948776 0.0582556 -0.08333885 0.35721874
0.3684415 0.04029677 -0.26685625 0.43954596 -0.16983946 -0.012000204 -0.47549954 -0.33839458
0.43005365 -0.009784795 0.5279401 0.35285684 -0.33589652 0.25212294 -0.3741225 0.2290696
0.25229618 0.022034954 -0.46623293 0.29720882 -0.16969569 0.30003622 -0.082515694 0.4559441
-0.13862316 0.18332636 -0.22736679 0.052338563 -0.05489289 0.07394026 -0.55554307 -0.30476034
-0.32310423 -0.24582858 0.0041709114 -0.029987754 0.35785842 -0.32925272 0.51477045 -0.34548873
0.42442822 -0.13045014 -0.06696262 0.117649734 -0.39530066 0.2870439 -0.20637053 0.16430323
-0.30864558 0.10067355 -0.5195289 -0.13487907 0.3410281 -0.3596982 -0.47475913 0.21686564
0.43414325 0.36360607 -0.1246458 0.22167064 -0.09758104 -0.21755591 0.20790377 0.17798759
-0.2899688 0.24347001 -0.54631126 -0.39610457 0.2324608 -0.32774636 -0.5176123 0.5111215
0.07823657 -0.48110062 -0.41733688 -0.29165542 0.14848249 -0.24920763 -0.505871 0.41464424
0.13495383 -0.026721966 0.42286193 -0.07674391 0.21239893 0.09461398 -0.29947412 -0.14807658
-0.17466934 -0.089587204 0.34348652 0.36332723 -0.22026592 -0.010187232 -0.07611909 -0.24206455
-0.37286258 0.22044611 0.24483949 -0.19866428 0.23776683 -0.31767046 -0.46138674 -0.17199405
0.20076117 0.044159677 0.29577902 0.53987545 0.34437674 -0.2707379 -0.5166089 -0.00683007
-0.4086207 -0.011637287 -0.18822646 -0.14660187 -0.43571708 0.1624999 0.03232016 -0.3390502
0.4658711 -0.36211738 0.32746693 -0.3047316 -0.25305262 0.36932498 0.53086185 -0.5128772
-0.13263406 -0.2211302 0.21207349 0.28166163 -0.100307785 0.30606836 -0.12982109 0.3207387
-0.23083234 0.29549804 0.15362298 -0.25345805 0.1611097 -0.14885086 -0.17455883 0.25176647
0.28559107 0.09562701 -0.41971177 -0.3222175 -0.011011143 0.1150401 0.24319392 -0.30811256
-0.08072372 -0.020953638 -0.48305675 -0.36822248 0.39944544 -0.48555627 0.38943216 0.04091274
0.0483708 0.2606628 -0.56859183 0.029919954 -0.2067834 0.27750865 -0.046062544 -0.32063276
-0.25699976 -0.23708346 0.0054672835 0.3291301 -0.4448438 0.38126713 0.42330837 0.3522146
00000000: d75f d4bd b2d9 3dbe 3eb8 eb3e 9f11 79be
00000010: 42d1 723e a72c c43e d5be 4a3e 829f 1dbe
00000020: f6c8 843d 45c3 4fbe fa81 b3be 7780 f43d
00000030: 7366 003f 5f64 11be 03e7 cf3d 1052 9fbe
00000040: dfbc 9bbe 15f2 08be 8948 773d 52d4 d9be
00000050: e1d5 0ebe 6d9d 6e3d 8fad aabd 60e5 b63e
00000060: 5da4 bc3e 3a0e 253d 62a1 88be 2b0c e13e
00000070: 65ea 2dbe 819c 44bc ad74 f3be 0e42 adbe
00000080: fe2f dc3e 6850 20bc 1527 073f a7a9 b43e
00000090: a1fa abbe 4216 813e fc8c bfbe 3991 6a3e
000000a0: f72c 813e a682 b43c 15b6 eebe c12b 983e
000000b0: b5c4 2dbe 599e 993e fdfd a8bd 8171 e93e
000000c0: 3bf3 0dbe e8b9 3b3e d7d2 68be f660 563d
000000d0: 5ed7 60bd fe6d 973d 1238 0ebf 8c09 9cbe
000000e0: eb6d a5be 7dba 7bbe 24ac 883b e1a8 f5bc
000000f0: 3839 b73e d093 a8be ffc7 033f e6e3 b0be
00000100: a84e d93e b994 05be b323 89bd 58f2 f03d
00000110: d964 cabe 6bf7 923e cc52 53be 1b3f 283e
00000120: cb06 9ebe ef2d ce3d d9ff 04bf bd1d 0abe
00000130: 3c9b ae3e 5d2a b8be a113 f3be 0712 5e3e
00000140: 0648 de3e 932a ba3e 4c46 ffbd a1fd 623e
00000150: 91d8 c7bd fac6 5ebe bae4 543e 6142 363e
00000160: ca76 94be 3450 793e 0edb 0bbf 38ce cabe
00000170: 340a 6e3e 5fce a7be 3d82 04bf dcd8 023f
00000180: 7f3a a03d d252 f6be 2ead d5be dc53 95be
00000190: cb0b 183e 4930 7fbe c380 01bf 404c d43e
000001a0: 5631 0a3e 06e8 dabc 5c81 d83e e92b 9dbd
000001b0: 1b7f 593e f9c4 c13d ac54 99be 63a1 17be
000001c0: 85dc 32be 7f79 b7bd 77dd af3e 0706 ba3e
000001d0: 648d 61be 59e8 26bc 53e4 9bbd c5df 77be
000001e0: d8e7 bebe a0bc 613e 34b7 7a3e a66e 4bbe
000001f0: 2679 733e b4a5 a2be e23a ecbe 351f 30be
00000200: 5694 4d3e c7e0 343d 5970 973e 4735 0a3f
00000210: 2652 b03e 289e 8abe 7b40 04bf c8ce dfbb
00000220: bb36 d1be 52aa 3ebc 70be 40be cd1e 16be
00000230: 4f16 dfbe 6066 263e 2562 043d fd97 adbe
00000240: a886 ee3e 7367 b9be bfa9 a73e c805 9cbe
00000250: 1d90 81be 2a18 bd3e 90e6 073f ec4b 03bf
00000260: 39d1 07be f56f 62be cb29 593e f435 903e
00000270: 2b6e cdbd feb4 9c3e d2ef 04be dd37 a43e
00000280: 505f 6cbe 854b 973e 584f 1d3e 41c5 81be
00000290: f1f9 243e 5c6c 18be 8dbf 32be 89e7 803e
000002a0: fe38 923e 18d8 c33d 76e4 d6be b1f9 a4be
000002b0: 1568 34bc 259a eb3d d407 793e eec0 9dbe
000002c0: 7a52 a5bd f7a6 abbc 3753 f7be a887 bcbe
000002d0: 1d84 cc3e d59a f8be a763 c73e 1e94 273d
000002e0: 7620 463d 9875 853e 3c8f 11bf b11a f53c
000002f0: 07bf 53be 9d15 8e3e 14ac 3cbd fa29 a4be
00000300: 7995 83be 02c6 72be e626 b33b be83 a83e
00000310: 91c2 e3be 7235 c33e e0bb d83e 7955 b43e

bias f4 [50]
0.63863647 -0.35997018 0.6559846 -0.38117483 -0.32284853 0.11274804 -0.4985584 -0.4756925
0.57063204 0.46257573 -0.3798158 -0.13340823 -0.13365903 0.04679651 0.4679969 0.32545692
-0.22373044 -0.24740843 -0.31612855 0.5191185 0.25695783 0.1957935 -0.21180417 -0.35565364
0.02275612 0.031736724 -0.28053933 0.075813554 -0.49392658 0.4630952 -0.39887306 -0.03487901
-0.08908982 0.30510014 0.0013717243 0.1510703 0.38378176 0.29257235 -0.3082243 0.47303352
0.5222964 0.5216408 0.507793 0.005478682 0.08489952 -0.3386955 -0.35447058 0.4248721
0.3605363 -0.18766938
00000000: ae7d 233f 034e b8be 9bee 273f 5929 c3be
00000010: 674c a5be 72e8 e63d 0c43 ffbe f88d f3be
00000020: f114 123f bad6 ec3e 3777 c2be 2b9c 08be
00000030: eadd 08be b3ad 3f3d 4a9d ef3e 4aa2 a63e
00000040: 9819 65be a358 7dbe 9adb a1be f3e4 043f
00000050: fa8f 833e 177e 483e 31e3 58be 3c18 b6be
00000060: 0b6b ba3c 5efe 013d daa2 8fbe 2344 9b3d
00000070: f2e3 fcbe d01a ed3e 1739 ccbe 4bdd 0ebd
00000080: b974 b6bd 1636 9c3e 6ecb b33a 2cb2 1a3e
00000090: 0b7f c43e 0bcc 953e 93cf 9dbe 7331 f23e
000000a0: 38b5 053f 408a 053f b9fe 013f 8486 b33b
000000b0: cddf ad3d 7f69 adbe 2b7d b5be d688 d93e
000000c0: 3798 b83e 672c 40be

weight f4 [50]
1.0 1.0 1.0 1.0 1.0 1.0 1.0 1.0
1.0 1.0 1.0 1.0 1.0 1.0 1.0 1.0
1.0 1.0 1.0 1.0 1.0 1.0 1.0 1.0
1.0 1.0 1.0 1.0 1.0 1.0 1.0 1.0
1.0 1.0 1.0 1.0 1.0 1.0 1.0 1.0
1.0 1.0 1.0 1.0 1.0 1.0 1.0 1.0
1.0 1.0
00000000: 0000 803f 0000 803f 0000 803f 0000 803f
00000010: 0000 803f 0000 803f 0000 803f 0000 803f
00000020: 0000 803f 0000 803f 0000 803f 0000 803f
00000030: 0000 803f 0000 803f 0000 803f 0000 803f
00000040: 0000 803f 0000 803f 0000 803f 0000 803f
00000050: 0000 803f 0000 803f 0000 803f 0000 803f
00000060: 0000 803f 0000 803f 0000 803f 0000 803f
00000070: 0000 803f 0000 803f 0000 803f 0000 803f
00000080: 0000 803f 0000 803f 0000 803f 0000 803f
00000090: 0000 803f 0000 803f 0000 803f 0000 803f
000000a0: 0000 803f 0000 803f 0000 803f 0000 803f
000000b0: 0000 803f 0000 803f 0000 803f 0000 803f
000000c0: 0000 803f 0000 803f

bias f4 [50]
0.0 0.0 0.0 0.0 0.0 0.0 0.0 0.0
0.0 0.0 0.0 0.0 0.0 0.0 0.0 0.0
0.0 0.0 0.0 0.0 0.0 0.0 0.0 0.0
0.0 0.0 0.0 0.0 0.0 0.0 0.0 0.0
0.0 0.0 0.0 0.0 0.0 0.0 0.0 0.0
0.0 0.0 0.0 0.0 0.0 0.0 0.0 0.0
0.0 0.0
00000000: 0000 0000 0000 0000 0000 0000 0000 0000
00000010: 0000 0000 0000 0000 0000 0000 0000 0000
00000020: 0000 0000 0000 0000 0000 0000 0000 0000
00000030: 0000 0000 0000 0000 0000 0000 0000 0000
00000040: 0000 0000 0000 0000 0000 0000 0000 0000
00000050: 0000 0000 0000 0000 0000 0000 0000 0000
00000060: 0000 0000 0000 0000 0000 0000 0000 0000
00000070: 0000 0000 0000 0000 0000 0000 0000 0000
00000080: 0000 0000 0000 0000 0000 0000 0000 0000
00000090: 0000 0000 0000 0000 0000 0000 0000 0000
000000a0: 0000 0000 0000 0000 0000 0000 0000 0000
000000b0: 0000 0000 0000 0000 0000 0000 0000 0000
000000c0: 0000 0000 0000 0000

running_mean f4 [50]
0.0 0.0 0.0 0.0 0.0 0.0 0.0 0.0
0.0 0.0 0.0 0.0 0.0 0.0 0.0 0.0
0.0 0.0 0.0 0.0 0.0 0.0 0.0 0.0
0.0 0.0 0.0 0.0 0.0 0.0 0.0 0.0
0.0 0.0 0.0 0.0 0.0 0.0 0.0 0.0
0.0 0.0 0.0 0.0 0.0 0.0 0.0 0.0
0.0 0.0
00000000: 0000 0000 0000 0000 0000 0000 0000 0000
00000010: 0000 0000 0000 0000 0000 0000 0000 0000
00000020: 0000 0000 0000 0000 0000 0000 0000 0000
00000030: 0000 0000 0000 0000 0000 0000 0000 0000
00000040: 0000 0000 0000 0000 0000 0000 0000 0000
00000050: 0000 0000 0000 0000 0000 0000 0000 0000
00000060: 0000 0000 0000 0000 0000 0000 0000 0000
00000070: 0000 0000 0000 0000 0000 0000 0000 0000
00000080: 0000 0000 0000 0000 0000 0000 0000 0000
00000090: 0000 0000 0000 0000 0000 0000 0000 0000
000000a0: 0000 0000 0000 0000 0000 0000 0000 0000
000000b0: 0000 0000 0000 0000 0000 0000 0000 0000
000000c0: 0000 0000 0000 0000

running_var f4 [50]
1.0 1.0 1.0 1.0 1.0 1.0 1.0 1.0
1.0 1.0 1.0 1.0 1.0 1.0 1.0 1.0
1.0 1.0 1.0 1.0 1.0 1.0 1.0 1.0
1.0 1.0 1.0 1.0 1.0 1.0 1.0 1.0
1.0 1.0 1.0 1.0 1.0 1.0 1.0 1.0
1.0 1.0 1.0 1.0 1.0 1.0 1.0 1.0
1.0 1.0
00000000: 0000 803f 0000 803f 0000 803f 0000 803f
00000010: 0000 803f 0000 803f 0000 803f 0000 803f
00000020: 0000 803f 0000 803f 0000 803f 0000 803f
00000030: 0000 803f 0000 803f 0000 803f 0000 803f
00000040: 0000 803f 0000 803f 0000 803f 0000 803f
00000050: 0000 803f 0000 803f 0000 803f 0000 803f
00000060: 0000 803f 0000 803f 0000 803f 0000 803f
00000070: 0000 803f 0000 803f 0000 803f 0000 803f
00000080: 0000 803f 0000 803f 0000 803f 0000 803f
00000090: 0000 803f 0000 803f 0000 803f 0000 803f
000000a0: 0000 803f 0000 803f 0000 803f 0000 803f
000000b0: 0000 803f 0000 803f 0000 803f 0000 803f
000000c0: 0000 803f 0000 803f

weight f4 [20, 100]
-0.012015057 -0.0014717445 -0.06753085 -0.22314332 -0.16584453 0.09385306 0.08045565 0.1006345
-0.051323373 -0.061617978 0.038772974 -0.052307338 -0.08688795 -0.022921365 -0.13239697 0.11822049
-0.07248709 0.02858312 -0.014330181 -0.04761726 -0.17463891 -0.013817947 0.13876893 0.07394233
0.11563257 -0.09195237 0.08016064 -0.07206949 -0.10634186 0.12780851 -0.11345399 -0.07892644
-0.07473485 0.03463336 0.072054856 0.12504482 -0.12706508 0.04350443 -0.15584706 0.0626653
-0.075356744 0.06495716 0.19941787 0.11737162 -0.010209826 0.050017275 0.016586185 0.02862505
0.037020545 -0.058758106 -0.04859672 0.033392172 -0.020399896 -0.089655496 -0.076907486 -0.015413646
0.05133353 -0.06533866 0.07612335 -0.0542116 -0.052184172 0.008245884 -0.081791066 -0.052327972
0.006265546 0.092180684 0.07281729 -0.058062322 -0.21762185 -0.06809999 0.0076546404 0.03785882
-0.0568707 0.13979103 -0.1082946 -0.07597797 -0.010293819 -0.13726632 0.028134076 0.04630422
-0.016702091 -0.100628436 0.09888393 -0.0024725192 0.056634925 0.020681592 0.023856929 -0.0036606733
-0.0051775505 -0.11254788 -0.0046327733 -0.03656932 -0.095571674 -0.03530345 -0.0018710288 0.06850517
-0.057714168 0.08028365 -0.004363305 0.09448706 0.06282291 -0.03876647 0.045243207 -0.0021212478
-0.1016299 -0.10680106 0.10152071 0.04184029 -0.12957428 -0.3207258 -0.03461943 0.065601274
0.08666565 0.13355252 0.00071080076 0.013188513 -0.019080672 -0.013357035 -0.12691295 -0.14456959
-0.03238562 -0.1396415 0.030666362 -0.1763019 -0.0694012 0.032289352 -0.0021080293 -0.108835384
-0.0016967301 -0.01725673 -0.08794783 0.017602436 -0.1623831 -0.07873295 -0.046708517 0.045388423
-0.06178288 -0.10709976 0.070584506 -0.023155663 -0.014733349 0.08344659 -0.0762344 -0.0030480616
0.03345329 0.053645745 -0.070993036 -0.030414551 -0.12063205 0.18672127 -0.029244062 -0.035340417
0.049628485 0.060757246 0.0071894093 0.0028844504 0.08931127 -0.013468673 -0.008758746 -0.093095675
0.11107483 0.03148864 -0.047676545 0.02821744 -0.108490504 -0.034323853 -0.089716285 0.038834274
-0.036642235 -0.03308414 0.01454994 0.031134395 0.01708349 0.14414258 0.042407542 0.0928668
-0.021435682 0.02853884 0.11186698 -0.02343288 0.07513954 -0.057869203 -0.07310882 -0.04999798
-0.0730302 0.020401226 -0.056860525 -0.1301264 0.03945734 0.033910472 0.039430745 0.01830322
-0.04153984 -0.0066184355 0.0105441725 -0.049919996 0.1225324 -0.056398187 0.047124475 -0.011820458
-0.1292545 -0.20308824 0.1949117 0.26257604 0.17679715 -0.18481398 0.029701214 -0.026021807
-0.02372863 -0.11470003 0.06717784 0.23937355 0.07563613 0.24392028 0.070460595 -0.27214935
0.10252579 0.004735713 -0.12215509 -0.0519652 0.41922516 -0.03494802 -0.19005828 -0.21719481
-0.12978846 0.026265163 -0.051678758 -0.112272754 0.07168785 -0.21430987 0.21214385 0.049414
-0.0734156 -0.21620363 -0.05147833 -0.14193054 0.15093699 -0.09616031 0.18913952 -0.088814005
-0.060937047 0.010236438 -0.27095577 -0.08378347 0.17163941 0.13524397 0.03297359 -0.14793651
-0.10963756 0.22430588 -0.22653505 -0.010558828 0.030014051 0.017194588 -0.0490694 0.0055008787
00000000: cdda 44bc 8de7 c0ba 9d4d 8abd af7f 64be
00000010: 26d3 29be 0836 c03d efc5 a43d 7619 ce3d
00000020: 7538 52bd 2263 7cbd 69d0 1e3d 3840 56bd
00000030: 4ff2 b1bd 96c5 bbbc 1293 07be 961d f23d
00000040: 1d74 94bd 2627 ea3c 23c9 6abc 510a 43bd
00000050: 8bd4 32be ac64 62bc 7119 0e3e 146f 973d
00000060: c5d0 ec3d 8651 bcbd 432b a43d 2b99 93bd
00000070: c3c9 d9bd 3ce0 023e 915a e8bd 2fa4 a1bd
00000080: 960e 99bd b6db 0d3d 7f91 933d c00b 003e
00000090: 591d 02be b431 323d 5f96 1fbe aa56 803d
000000a0: a354 9abd 4208 853d 3334 4c3e 8860 f03d
000000b0: 1d47 27bc eade 4c3d c0df 873c 157f ea3c
000000c0: dba2 173d 57ac 70bd 5b0d 47bd 3bc6 083d
000000d0: af1d a7bc 4d9d b7bd ac81 9dbd 8489 7cbc
000000e0: 1c43 523d 46d0 85bd 8fe6 9b3d fc0c 5ebd
000000f0: 12bf 55bd bf19 073c 1382 a7bd db55 56bd
00000100: 364f cd3b 3ac9 bc3d 3b21 953d c2d2 6dbd
00000110: 43d8 5ebe 0278 8bbd c7d3 fa3b da11 1b3d
00000120: 40f1 68bd 6125 0f3e 8fc9 ddbd 579a 9bbd
00000130: 68a7 28bc 8b8f 0cbe 6f79 e63c 7ea9 3d3d
00000140: d3d2 88bc 4816 cebd a883 ca3d fd09 22bb
00000150: 06fa 673d 716c a93c 9b6f c33c e8e7 6fbb
00000160: 71a8 a9bb 817f e6bd 85ce 97bb b6c9 15bd
00000170: 15bb c3bd 5a9a 10bd 4f3d f5ba 704c 8c3d
00000180: b165 6cbd c16b a43d 0efa 8ebb 6f82 c13d
00000190: 4ca9 803d 97c9 1ebd f150 393d a204 0bbb
000001a0: 5623 d0bd 84ba dabd 17ea cf3d b960 2b3d
000001b0: 1faf 04be 2c36 a4be 1acd 0dbd f659 863d
000001c0: c37d b13d fec1 083e 0855 3a3a a214 583c
000001d0: 124f 9cbc 77d7 5abc 78f5 01be 0d0a 14be
000001e0: c9a6 04bd 2efe 0ebe 0638 fb3c 7c88 34be
000001f0: 3722 8ebd d741 043d dd26 0abb 16e5 debd
00000200: d164 deba fc5d 8dbc fe1d b4bd fc32 903c
00000210: c147 26be be3e a1bd 6e51 3fbd 36e9 393d
00000220: 0c10 7dbd 1e57 dbbd 9c8e 903d f2b0 bdbc
00000230: 2564 71bc 0ce6 aa3d c820 9cbd fdc1 47bb
00000240: 5106 093d a4bb 5b3d cc64 91bd f027 f9bc
00000250: f00d f7bd dc33 3f3e 3e91 efbc 1dc1 10bd
00000260: 3d47 4b3d 97dc 783d 2395 eb3b 0c09 3d3b
00000270: d4e8 b63d b6ab 5cbc d880 0fbc f2a8 bebd
00000280: 337b e33d 3bfa 003d 7b48 43bd 4328 e73c
00000290: 4530 debd 2b97 0cbd 2cbd b7bd b010 1f3d
000002a0: 2b16 16bd 3c83 07bd df62 6e3c 8f0d ff3c
000002b0: adf2 8b3c 1d9a 133e 88b3 2d3d f330 be3d
000002c0: e299 afbc 49ca e93c 841a e53d 50f6 bfbc
000002d0: c2e2 993d 4208 6dbd 14ba 95bd afca 4cbd
000002e0: dc90 95bd 7920 a73c 95e6 68bd db3f 05be
000002f0: 059e 213d b5e5 0a3d 2282 213d a2f0 953c
00000300: ae25 2abd 76df d8bb 77c1 2c3c e978 4cbd
00000310: 44f2 fa3d c901 67bd 9805 413d 98aa 41bc
00000320: 4b5b 04be 5df6 4fbe ef96 473e 5e70 863e
00000330: 500a 353e e03f 3dbe f64f f33c af2b d5bc
00000340: 8b62 c2bc d9e7 eabd 8994 893d 571e 753e
00000350: 1ee7 9a3d 3dc6 793e a54d 903d 2957 8bbe
00000360: 0bf9 d13d 0a2e 9b3b 732c fabd 76d9 54bd
00000370: aea4 d63e a825 0fbd a39e 42be 5168 5ebe
00000380: 44e7 04be 0a2a d73c 1bad 53bd 42ef e5bd
00000390: 14d1 923d 0c74 5bbe 3d3c 593e 5666 4a3d
000003a0: eb5a 96bd 7c64 5dbe f1da 52bd 3d56 11be
000003b0: 3a8f 1a3e b2ef c4bd caad 413e 1ee4 b5bd
000003c0: 2099 79bd bcb6 273c b7ba 8abe ab96 abbd
000003d0: 3ec2 2f3e 657d 0a3e 510f 073d ab7c 17be
000003e0: a889 e0bd 71b0 653e cef8 67be effe 2cbc
000003f0: 07e0 f53c aadb 8c3c fffc 48bd b740 b43b

bias f4 [20]
-0.11704578 -0.058899004 0.059816815 0.08526196 0.025026469 -0.17312881 -0.06052309 -0.030669453
0.15359063 -0.031059062 0.18014881 0.17452353 0.17777854 -0.18491861 0.064233735 -0.09396795
0.017256469 0.023526274 -0.043342188 0.18155463
00000000: b3b5 efbd 1540 71bd 7a02 753d d39d ae3d
00000010: 4f04 cd3c ae48 31be 0fe7 77bd 813e fbbc
00000020: dd46 1d3e 936f febc ee78 383e 4cb6 323e
00000030: 940b 363e 4e5b 3dbe fa8c 833d 4572 c0bd
00000040: 705d 8d3c 2cba c03c 9487 31bd 75e9 393e

weight f4 [20]
1.0 1.0 1.0 1.0 1.0 1.0 1.0 1.0
1.0 1.0 1.0 1.0 1.0 1.0 1.0 1.0
1.0 1.0 1.0 1.0
00000000: 0000 803f 0000 803f 0000 803f 0000 803f
00000010: 0000 803f 0000 803f 0000 803f 0000 803f
00000020: 0000 803f 0000 803f 0000 803f 0000 803f
00000030: 0000 803f 0000 803f 0000 803f 0000 803f
00000040: 0000 803f 0000 803f 0000 803f 0000 803f

bias f4 [20]
0.0 0.0 0.0 0.0 0.0 0.0 0.0 0.0
0.0 0.0 0.0 0.0 0.0 0.0 0.0 0.0
0.0 0.0 0.0 0.0
00000000: 0000 0000 0000 0000 0000 0000 0000 0000
00000010: 0000 0000 0000 0000 0000 0000 0000 0000
00000020: 0000 0000 0000 0000 0000 0000 0000 0000
00000030: 0000 0000 0000 0000 0000 0000 0000 0000
00000040: 0000 0000 0000 0000 0000 0000 0000 0000

running_mean f4 [20]
0.0 0.0 0.0 0.0 0.0 0.0 0.0 0.0
0.0 0.0 0.0 0.0 0.0 0.0 0.0 0.0
0.0 0.0 0.0 0.0
00000000: 0000 0000 0000 0000 0000 0000 0000 0000
00000010: 0000 0000 0000 0000 0000 0000 0000 0000
00000020: 0000 0000 0000 0000 0000 0000 0000 0000
00000030: 0000 0000 0000 0000 0000 0000 0000 0000
00000040: 0000 0000 0000 0000 0000 0000 0000 0000

running_var f4 [20]
1.0 1.0 1.0 1.0 1.0 1.0 1.0 1.0
1.0 1.0 1.0 1.0 1.0 1.0 1.0 1.0
1.0 1.0 1.0 1.0
00000000: 0000 803f 0000 803f 0000 803f 0000 803f
00000010: 0000 803f 0000 803f 0000 803f 0000 803f
00000020: 0000 803f 0000 803f 0000 803f 0000 803f
00000030: 0000 803f 0000 803f 0000 803f 0000 803f
00000040: 0000 803f 0000 803f 0000 803f 0000 803f

weight f4 [1, 20]
-0.24929531 -0.07116574 -2.2208905 -2.1322763 -0.25208414 -0.5309225 -2.5148222 -0.056852166
0.26003855 -0.57825696 0.17531726 0.20513473 0.09211341 -0.645267 0.11559993 -0.1368383
-0.14857608 -2.0163424 -0.23282322 0.23884673
00000000: 4547 7fbe 58bf 91bd 1223 0ec0 3777 08c0
00000010: 2c11 81be 89ea 07bf d9f2 20c0 d1dd 68bd
00000020: c623 853e a608 14bf 5e86 333e d70e 523e
00000030: f5a5 bc3d 3830 25bf a8bf ec3d 571f 0cbe
00000040: 5424 18be c10b 01c0 3669 6ebe 3d94 743e
