models_version2/2UAVs_77338/a_t1.pt (torch_old, 16240 bytes, 14 tensors)

weight f4 [50, 34]
0	0x3e8d6466	0.2761566
1	0x3dc3e513	0.09565177
2	0xbeef61e9	-0.46754387
3	0x3e195dd6	0.14977202
4	0xbc12dbc4	-0.008963529
5	0x3cea3260	0.028588474
6	0x3e90bd23	0.282693
7	0x3e48d5c5	0.19612797
8	0x3c61eb41	0.013788999
9	0xbdfdaffc	-0.12387082
10	0xbdc97738	-0.09837192
11	0xbdb5b51a	-0.08872433
12	0xbcaad853	-0.020855105
13	0xbe15adc8	-0.14617074
14	0x3e618225	0.22022302
15	0x3e1e6503	0.1546822
16	0xbd8a34e7	-0.067483716
17	0x3cf11663	0.02942962
18	0x3b62a658	0.0034584012
19	0x3e4c7fdf	0.19970654
20	0x3e0245f4	0.12721997
21	0x3dd78205	0.10522846
22	0xbbc1a89f	-0.005909994
23	0x3d02a7f0	0.03189844
24	0xbd71fb18	-0.059077352
25	0x3d15872f	0.036505874
26	0x3e5f37ab	0.2179858
27	0x3d1d718e	0.038438372
28	0xbcaea0e1	-0.021316947
29	0xbc1af20a	-0.009457121
30	0x3ca20054	0.019775547
31	0xbd171d66	-0.03689327
32	0xbc83f039	-0.016105758
33	0x3dee52af	0.116368644
34	0xbe463b59	-0.19358577
35	0x3e2597a2	0.16171125
36	0x3ee6af6f	0.4505572
37	0xba851060	-0.0010151975
38	0x3dde66ae	0.10859428
39	0x3e36ae7b	0.17839997
40	0xbb0d8268	-0.002159262
41	0xbd822ded	-0.06356416
42	0xbd490077	-0.04907271
43	0x3d9ffad6	0.07811515
44	0xbd869421	-0.06571222
45	0x3d94c5b3	0.07264271
46	0x3d37a615	0.044836123
47	0x3dd8559a	0.10563202
48	0xbdfd2e6f	-0.12362372
49	0xbba1f7cd	-0.0049428702
50	0x3dd7e293	0.105412625
51	0x3dd614ee	0.10453211
52	0x3d0b5ece	0.03402596
53	0xbdc748d9	-0.097306915
54	0x3d558c86	0.052135967
55	0x3dd1fb51	0.10253013
56	0x3d92aa9e	0.07161449
57	0xbd72f824	-0.059318677
58	0x3e0e198c	0.13876933
59	0xbe14e9b2	-0.14542273
60	0xbdc1147b	-0.094277345
61	0x3e0e0fb5	0.1387318
62	0x3de97772	0.113997355
63	0x3e263b1a	0.16233483
64	0x3e01180f	0.12606834
65	0xbe347c4c	-0.1762554
66	0xbd8a930a	-0.06766327
67	0xbd764ad4	-0.060129955
68	0x3dd42a8e	0.10359679
69	0xbeb749e7	-0.3579857
70	0x3e4c835b	0.19971983
71	0x3f087515	0.53303653
72	0xbda86900	-0.08223152
73	0x3e0f28e2	0.1398044
74	0xbdef26ad	-0.11677299
75	0x3d89c0e0	0.06726241
76	0xbdb155f8	-0.08658975
77	0xbdf72ec0	-0.12069464
78	0xbdc97ac7	-0.09837871
79	0x3e004446	0.12526044
80	0x3e4e2dbc	0.20134634
81	0x3d4a6601	0.049413685
82	0xbe071de7	-0.13195
83	0xbc93ea55	-0.018056074
84	0x3c85ceef	0.016334025
85	0x3d85f040	0.06539965
86	0x3c9ae743	0.018909102
87	0xbe4189cc	-0.18900222
88	0xbc553b77	-0.013014666
89	0xbdbfaa99	-0.09358711
90	0x3dd1363d	0.10215423
91	0xbc426b24	-0.011866365
92	0x3db7e220	0.08978677
93	0xbd938860	-0.07203746
94	0x3e129c35	0.14317401
95	0x3d1a97de	0.037742488
96	0xbd4554b4	-0.048176482
97	0xbc0236ce	-0.007947637
98	0x3e1f63fc	0.15565485
99	0x3d88acef	0.066736095
100	0xbd31ff79	-0.04345653
101	0x3dea4be1	0.11440254
102	0xbe645636	-0.22298512
103	0x3e9a0a6d	0.3008608
104	0x3e16ffdb	0.14746039
105	0xbe7ba7cf	-0.24575733
106	0xbdc586ae	-0.09644829
107	0xbe2d5c0b	-0.16929643
108	0xbe3a9a66	-0.18222961
109	0x3d43bb5e	0.04778611
110	0x3e1f29df	0.15543316
111	0x3da7f158	0.082003295
112	0x3e372350	0.17884564
113	0x3d4b6bbb	0.049663287
114	0x3d8ac873	0.06776514
115	0x3d8afcdc	0.0678651
116	0xbd712795	-0.05887564
117	0x3e48d7da	0.19613591
118	0xbcbbd8a5	-0.022930453
119	0x3dba74ab	0.09104284
120	0xbdc8cbe9	-0.09804518
121	0x3dd7054b	0.104990564
122	0xbe086efa	-0.13323584
123	0x3d9467a8	0.07246333
124	0x3cb77fe4	0.02239985
125	0xbd80334c	-0.06259784
126	0x3e500550	0.20314527
127	0xbdd32b99	-0.1031105
128	0xbcc8eec4	-0.024527915
129	0x3d5fb6b6	0.054617606
130	0x3e40d8a3	0.1883264
131	0xbe1cc123	-0.15308051
132	0x3cf4324b	0.029809138
133	0x3d6a4df2	0.05720324
134	0x3cb815ee	0.022471394
135	0x3e374f91	0.17901446
136	0x3de715f6	0.112834856
137	0x3cb7ef28	0.022452906
138	0xbcd4d1f0	-0.025979012
139	0xbde7bf35	-0.11315767
140	0xbe0ce3f8	-0.13758838
141	0xbe2917a3	-0.16512923
142	0xbe298672	-0.16555193
143	0xbdab859e	-0.08375095
144	0xbd4d77e6	-0.050163172
145	0xbdbcc8d3	-0.09217992
146	0xbd3eb23a	-0.04655669
147	0x3dd843de	0.1055982
148	0xbcb13e88	-0.021636263
149	0xbe222263	-0.1583343
150	0x3d8f7742	0.070051685
151	0xbdd27ff4	-0.10278311
152	0xbdc74681	-0.097302444
153	0xbe182c9b	-0.14860766
154	0xbda74ff4	-0.08169547
155	0xbe023c14	-0.1271823
156	0xbe0ab5ac	-0.13545865
157	0x3dbd505a	0.092438415
158	0xbac02e00	-0.0014662147
159	0xbb39bb00	-0.002834022
160	0x3d9dcc58	0.07704991
161	0x3dfd706a	0.12374957
162	0xbca9fb50	-0.020749718
163	0xbd34be8e	-0.04412704
164	0x3d1386a4	0.036017075
165	0xbe1c1ee8	-0.15246165
166	0xbdf60db6	-0.12014334
167	0xbd96fdf3	-0.07372656
168	0x3dbb4a1a	0.09144993
169	0xbe10e0ff	-0.14148329
170	0xbe9614e9	-0.29312828
171	0x3e9ef63e	0.31047243
172	0x3e7f7689	0.24947561
173	0xbedcbe31	-0.43113855
174	0xbe258812	-0.16165188
175	0x3becb23d	0.007223396
176	0xbd9eee34	-0.077602774
177	0x3d3a300f	0.04545599
178	0xbe22422a	-0.15845552
179	0x3e4b2d6a	0.19841543
180	0xbb4e5b3f	-0.0031487492
181	0xbd90bc61	-0.070671804
182	0x3e0962e5	0.13416632
183	0x3d8dceba	0.069241956
184	0x3e364dff	0.1780319
185	0xbd28110b	-0.04103188
186	0xbdb00421	-0.085945375
187	0xbd364840	-0.044502497
188	0xbe0520f8	-0.13000858
189	0x3da3895a	0.07985182
190	0xbe0c70a2	-0.13714841
191	0xbd4f3a8c	-0.050592944
192	0x3d93bcc3	0.07213738
193	0x3df1038e	0.11768256
194	0xbd8334ef	-0.06406581
195	0x3de6273a	0.112379506
196	0xbd47c45a	-0.04877124
197	0x3e69f595	0.22847588
198	0x3e0a67c1	0.13516141
199	0x3dff6e28	0.124721825
200	0x3def6677	0.116894655
201	0xbd00f0a7	-0.031479504
202	0x3e1c3286	0.15253648
203	0x3e341043	0.17584328
204	0x3ecacb8d	0.39608422
205	0xbe9642dc	-0.29347885
206	0xbe8659a4	-0.26240265
207	0x3ef9314c	0.48670423
208	0x3d32ba1f	0.04363453
209	0x3e22ee07	0.15911113
210	0xbc8b86ab	-0.017031988
211	0x3e1e9ce3	0.15489535
212	0xbd88eaec	-0.06685433
213	0x3d97d738	0.074140966
214	0xbd8591b8	-0.06521934
215	0xbe20de8a	-0.15709892
216	0x3d8879df	0.0666387
217	0x3e3c3973	0.1838129
218	0x3d229ff2	0.039703317
219	0x3e401d61	0.18761207
220	0xbe41a695	-0.18911202
221	0xbcf5007b	-0.029907456
222	0x3d91ea92	0.07124819
223	0x3de4beea	0.111692265
224	0xbd8bbdc5	-0.06823305
225	0xbd91718e	-0.07101737
226	0xbd6603a2	-0.05615581
227	0x3c59b2ec	0.013287287
228	0x3e30bc05	0.17259224
229	0xbc0192e2	-0.007908555
230	0xbb7fb2bb	-0.0039016444
231	0xbe3d131b	-0.1846432
232	0x3e11c88a	0.14236656
233	0x3e2cf879	0.1689166
234	0x3d398d62	0.04530085
235	0x3e668d4c	0.22514838
236	0xbe11b89b	-0.14230578
237	0xbd5a7502	-0.053334244
238	0xbe4df794	-0.20113975
239	0x3e9b4c38	0.30331588
240	0xbde0677e	-0.109572396
241	0xbec45e2f	-0.38353106
242	0x3d247944	0.04015471
243	0xbdf24999	-0.11830444
244	0x3d088b96	0.033336245
245	0xbe54bd71	-0.20775391
246	0x3e47e6f8	0.19521701
247	0x3e808baf	0.2510657
248	0xbde5277f	-0.11189174
249	0x3e4929fe	0.19644925
250	0x3dd7dfb9	0.105407186
251	0xbe4ce1e7	-0.2000805
252	0x3c0e6239	0.00869041
253	0x3b97d891	0.004633971
254	0x3db3952b	0.08768686
255	0xbe0bcb3e	-0.1365175

bias f4 [50]
0	0x3d042da7	0.0322701
1	0x3e153bcb	0.1457359
2	0x3dbe75d5	0.092998184
3	0x3df81b2d	0.12114558
4	0xbc0128d0	-0.007883266
5	0x3e1614d6	0.14656386
6	0x3e293abc	0.16526312
7	0xbc9f7161	-0.019463243
8	0xbde71202	-0.112827316
9	0x3e5295a5	0.20564897
10	0xbdbafa42	-0.09129764
11	0x3e115976	0.14194283
12	0x3d8a19ba	0.06743188
13	0xbd055038	-0.032547206
14	0x3dc7a3b5	0.097480215
15	0xbdf9cfa2	-0.12197806
16	0x3d5b1782	0.053489216
17	0x3e09aa6b	0.13443916
18	0xbd3e30b9	-0.046433184
19	0xbd14f6fa	-0.036368348
20	0x3e3e16ed	0.18563433
21	0xbd42fa7f	-0.047602173
22	0x3deeac52	0.11653961
23	0x3d2aac2c	0.041668102
24	0xbdfee640	-0.124462605
25	0xbcdec0dc	-0.027191572
26	0xbc9cf66d	-0.019160474
27	0x3e2bbb17	0.16770588
28	0x3df71b4d	0.12065754
29	0x3d33405a	0.043762542
30	0x3dfb3137	0.12265246
31	0x3e0ab8ea	0.13547102
32	0xbd39fcfb	-0.045407277
33	0xbd7bd97d	-0.06148671
34	0x3d69db09	0.057093654
35	0x3e40c6aa	0.18825784
36	0x3d3c87f5	0.046028096
37	0xbdb930d7	-0.090425186
38	0x3c03ead9	0.0080515975
39	0x3e1a5c7c	0.15074342
40	0xbdf02560	-0.11725879
41	0x3ced5944	0.02897323
42	0x3e1a2490	0.1505301
43	0x3cfc2114	0.030777492
44	0xbb8497a0	-0.0040463954
45	0xbd5684bf	-0.05237269
46	0x3db12337	0.08649295
47	0x3dcb5ec1	0.09930182
48	0x3c6e8298	0.014557503
49	0x3dfc1881	0.12309361

weight f4 [50]
0	0x3f800000	1.0
1	0x3f800000	1.0
2	0x3f800000	1.0
3	0x3f800000	1.0
4	0x3f800000	1.0
5	0x3f800000	1.0
6	0x3f800000	1.0
7	0x3f800000	1.0
8	0x3f800000	1.0
9	0x3f800000	1.0
10	0x3f800000	1.0
11	0x3f800000	1.0
12	0x3f800000	1.0
13	0x3f800000	1.0
14	0x3f800000	1.0
15	0x3f800000	1.0
16	0x3f800000	1.0
17	0x3f800000	1.0
18	0x3f800000	1.0
19	0x3f800000	1.0
20	0x3f800000	1.0
21	0x3f800000	1.0
22	0x3f800000	1.0
23	0x3f800000	1.0
24	0x3f800000	1.0
25	0x3f800000	1.0
26	0x3f800000	1.0
27	0x3f800000	1.0
28	0x3f800000	1.0
29	0x3f800000	1.0
30	0x3f800000	1.0
31	0x3f800000	1.0
32	0x3f800000	1.0
33	0x3f800000	1.0
34	0x3f800000	1.0
35	0x3f800000	1.0
36	0x3f800000	1.0
37	0x3f800000	1.0
38	0x3f800000	1.0
39	0x3f800000	1.0
40	0x3f800000	1.0
41	0x3f800000	1.0
42	0x3f800000	1.0
43	0x3f800000	1.0
44	0x3f800000	1.0
45	0x3f800000	1.0
46	0x3f800000	1.0
47	0x3f800000	1.0
48	0x3f800000	1.0
49	0x3f800000	1.0

bias f4 [50]
0	0x00000000	0.0
1	0x00000000	0.0
2	0x00000000	0.0
3	0x00000000	0.0
4	0x00000000	0.0
5	0x00000000	0.0
6	0x00000000	0.0
7	0x00000000	0.0
8	0x00000000	0.0
9	0x00000000	0.0
10	0x00000000	0.0
11	0x00000000	0.0
12	0x00000000	0.0
13	0x00000000	0.0
14	0x00000000	0.0
15	0x00000000	0.0
16	0x00000000	0.0
17	0x00000000	0.0
18	0x00000000	0.0
19	0x00000000	0.0
20	0x00000000	0.0
21	0x00000000	0.0
22	0x00000000	0.0
23	0x00000000	0.0
24	0x00000000	0.0
25	0x00000000	0.0
26	0x00000000	0.0
27	0x00000000	0.0
28	0x00000000	0.0
29	0x00000000	0.0
30	0x00000000	0.0
31	0x00000000	0.0
32	0x00000000	0.0
33	0x00000000	0.0
34	0x00000000	0.0
35	0x00000000	0.0
36	0x00000000	0.0
37	0x00000000	0.0
38	0x00000000	0.0
39	0x00000000	0.0
40	0x00000000	0.0
41	0x00000000	0.0
42	0x00000000	0.0
43	0x00000000	0.0
44	0x00000000	0.0
45	0x00000000	0.0
46	0x00000000	0.0
47	0x00000000	0.0
48	0x00000000	0.0
49	0x00000000	0.0

running_mean f4 [50]
0	0x00000000	0.0
1	0x00000000	0.0
2	0x00000000	0.0
3	0x00000000	0.0
4	0x00000000	0.0
5	0x00000000	0.0
6	0x00000000	0.0
7	0x00000000	0.0
8	0x00000000	0.0
9	0x00000000	0.0
10	0x00000000	0.0
11	0x00000000	0.0
12	0x00000000	0.0
13	0x00000000	0.0
14	0x00000000	0.0
15	0x00000000	0.0
16	0x00000000	0.0
17	0x00000000	0.0
18	0x00000000	0.0
19	0x00000000	0.0
20	0x00000000	0.0
21	0x00000000	0.0
22	0x00000000	0.0
23	0x00000000	0.0
24	0x00000000	0.0
25	0x00000000	0.0
26	0x00000000	0.0
27	0x00000000	0.0
28	0x00000000	0.0
29	0x00000000	0.0
30	0x00000000	0.0
31	0x00000000	0.0
32	0x00000000	0.0
33	0x00000000	0.0
34	0x00000000	0.0
35	0x00000000	0.0
36	0x00000000	0.0
37	0x00000000	0.0
38	0x00000000	0.0
39	0x00000000	0.0
40	0x00000000	0.0
41	0x00000000	0.0
42	0x00000000	0.0
43	0x00000000	0.0
44	0x00000000	0.0
45	0x00000000	0.0
46	0x00000000	0.0
47	0x00000000	0.0
48	0x00000000	0.0
49	0x00000000	0.0

running_var f4 [50]
0	0x3f800000	1.0
1	0x3f800000	1.0
2	0x3f800000	1.0
3	0x3f800000	1.0
4	0x3f800000	1.0
5	0x3f800000	1.0
6	0x3f800000	1.0
7	0x3f800000	1.0
8	0x3f800000	1.0
9	0x3f800000	1.0
10	0x3f800000	1.0
11	0x3f800000	1.0
12	0x3f800000	1.0
13	0x3f800000	1.0
14	0x3f800000	1.0
15	0x3f800000	1.0
16	0x3f800000	1.0
17	0x3f800000	1.0
18	0x3f800000	1.0
19	0x3f800000	1.0
20	0x3f800000	1.0
21	0x3f800000	1.0
22	0x3f800000	1.0
23	0x3f800000	1.0
24	0x3f800000	1.0
25	0x3f800000	1.0
26	0x3f800000	1.0
27	0x3f800000	1.0
28	0x3f800000	1.0
29	0x3f800000	1.0
30	0x3f800000	1.0
31	0x3f800000	1.0
32	0x3f800000	1.0
33	0x3f800000	1.0
34	0x3f800000	1.0
35	0x3f800000	1.0
36	0x3f800000	1.0
37	0x3f800000	1.0
38	0x3f800000	1.0
39	0x3f800000	1.0
40	0x3f800000	1.0
41	0x3f800000	1.0
42	0x3f800000	1.0
43	0x3f800000	1.0
44	0x3f800000	1.0
45	0x3f800000	1.0
46	0x3f800000	1.0
47	0x3f800000	1.0
48	0x3f800000	1.0
49	0x3f800000	1.0

weight f4 [20, 50]
0	0xbe9a47b4	-0.3013283
1	0x3e4aad46	0.19792661
2	0xbded07fa	-0.11573787
3	0x3e610a9d	0.21976705
4	0x3d6c34dc	0.057667598
5	0x3e6affd8	0.22949159
6	0xbec4e5f3	-0.38456687
7	0x3e4a443f	0.19752596
8	0xbd662356	-0.056186043
9	0x3e24d7a1	0.16097881
10	0x3df09dea	0.1174887
11	0x3da611bd	0.08108852
12	0xbdd6a692	-0.104809895
13	0xbd3e8098	-0.046509355
14	0xbed1fdaa	-0.41013843
15	0x3e02c00e	0.12768576
16	0xbde2e3f0	-0.11078632
17	0x3e1e0b37	0.15433966
18	0xbe60148a	-0.21882835
19	0x3e72d49b	0.23713915
20	0x3e42d62a	0.1902701
21	0xbeb2ebcd	-0.34945527
22	0x3f05f40d	0.52325517
23	0x3e1e2a72	0.15445879
24	0xbe15683a	-0.1459054
25	0xbd9026f8	-0.07038683
26	0xbe0a7048	-0.13519394
27	0x3ec08170	0.37598753
28	0x3c178a51	0.009249286
29	0x3eab31f3	0.33436546
30	0x3e400f47	0.18755828
31	0xbe9e1057	-0.3087184
32	0xbdfe5529	-0.12418587
33	0xbd83d2ca	-0.06436689
34	0x3ee544a5	0.44778934
35	0xbd623ecf	-0.05523568
36	0x3edbcae9	0.42928246
37	0x3e3b7516	0.18306383
38	0x3edfdec6	0.4372465
39	0xbd9e6eaf	-0.07735955
40	0xbe0c5d59	-0.13707484
41	0x3d7fd0d9	0.062455032
42	0xbe04390b	-0.12912385
43	0x3e1da558	0.15395105
44	0xbbb53a77	-0.005530651
45	0x3e415be0	0.18882704
46	0xbe5912ed	-0.21198626
47	0x3e80b752	0.25139862
48	0x3e4c5d56	0.1995748
49	0xbe8006e8	-0.2500527
50	0x3eb0c5dc	0.34525955
51	0xbe0c588c	-0.13705653
52	0xbe028916	-0.12747607
53	0xbcfb34b6	-0.030664783
54	0x3d7d39f8	0.06182286
55	0x3de8e023	0.11370876
56	0x3cb2a004	0.021804817
57	0x3e86764d	0.2626213
58	0x3e37548d	0.17903347
59	0x3ecbeaa1	0.39827445
60	0x3df7e2d9	0.12103815
61	0x3e25f04e	0.1620495
62	0x3e8cda6a	0.27510387
63	0x3dfad9fd	0.12248609
64	0xbd8b5359	-0.06803007
65	0xbe737d31	-0.23778225
66	0x3e99ba69	0.30025032
67	0xbcb5fa6c	-0.022214137
68	0x3bf678d3	0.0075217276
69	0x3e0295a9	0.12752403
70	0xbdfbe703	-0.12299921
71	0x3dfe1c5f	0.12407755
72	0xbe829755	-0.25506082
73	0xbe3f7656	-0.18697485
74	0xbee57c48	-0.44821382
75	0xbda2d758	-0.0795123
76	0x3d9bff2f	0.07617032
77	0x3e8ee87a	0.2791174
78	0xbe9df7c4	-0.30853093
79	0x3e84d134	0.2594086
80	0x3ec8cc93	0.39218578
81	0xbdeb2d42	-0.114832416
82	0x3e43f5d3	0.19136743
83	0xbe28e770	-0.16494536
84	0x3c4434a2	0.011975439
85	0xbd6a5c6a	-0.05721704
86	0xbda998e2	-0.08281113
87	0xbe003f2c	-0.12524098
88	0xbe3aab02	-0.18229297
89	0x3d8407db	0.06446811
90	0xbe1bae33	-0.1520317
91	0x3e56bcef	0.2097051
92	0x3e08a1fd	0.13343044
93	0x3e3b45c8	0.18288338
94	0xbd19d1c5	-0.037553567
95	0xbe0ceec9	-0.13762964
96	0x3e5ac52b	0.21364276
97	0xbe325ec9	-0.1741897
98	0xbddee700	-0.108839035
99	0x3e809c05	0.25119033
100	0xbe749315	-0.23884232
101	0x3e11930a	0.14216247
102	0xbe962bfa	-0.29330426
103	0x3eaa85bd	0.3330516
104	0xbde15613	-0.110027455
105	0x3e94c26d	0.29054585
106	0xbecf7265	-0.40516964
107	0x3e6211dd	0.22077127
108	0xbe94bb68	-0.2904923
109	0x3eaf4a7d	0.34236518
110	0xbde98969	-0.11403162
111	0x3dd98bea	0.106223896
112	0x3c3b47db	0.011430706
113	0xbe4e52fc	-0.20148844
114	0xbeaf0ce3	-0.3418952
115	0x3e84efd5	0.25964227
116	0xbd636421	-0.055515412
117	0x3eb59e07	0.35472128
118	0xbed39625	-0.4132549
119	0x3e7bc602	0.24587253
120	0xbde678d5	-0.11253516
121	0xbec92582	-0.3928643
122	0x3ef502bb	0.47853646
123	0x3e4197ff	0.18905638
124	0xbe1ef2fc	-0.15522379
125	0x3dee70e0	0.11642623
126	0xbe3cde60	-0.18444204
127	0x3ec0e51f	0.37674806
128	0x3d9fd560	0.0780437
129	0x3ec840a2	0.3911181
130	0x3db3b2b6	0.08774321
131	0xbec63020	-0.3870859
132	0xbde1ebbb	-0.1103129
133	0x3baf9ab0	0.0053590164
134	0x3e9309d7	0.28718445
135	0xbe8b0da4	-0.27158844
136	0x3f057e8e	0.5214623
137	0x3ead09ed	0.33796635
138	0x3f04c80f	0.51867765
139	0xbd9c6b24	-0.07637623
140	0xbebda616	-0.37040776
141	0x3ddd4c33	0.108055495
142	0xbc66b279	-0.014080637
143	0x3e91084a	0.28326637
144	0xbd4cc1ad	-0.04998939
145	0x3e6eaa6a	0.23307195
146	0xbd43752f	-0.047719177
147	0x3ec78764	0.38970482
148	0x3ebaa7eb	0.36456236
149	0xbe46cecf	-0.19414829
150	0xbea009f2	-0.31257588
151	0x3e2764e5	0.16347082
152	0x3e0862b4	0.13318902
153	0x3dda2834	0.106521994
154	0xbda3c00f	-0.07995617
155	0x3d9498bb	0.072556935
156	0xbe5b12b8	-0.2139386
157	0xbd09e4ba	-0.033665396
158	0xbe22de83	-0.15905194
159	0xbd865a47	-0.06560188
160	0x3c7b8f7a	0.015354032
161	0x3dcec1ba	0.10095544
162	0xbd644480	-0.05572939
163	0xbe5ab9cd	-0.2135994
164	0x3d2a9049	0.041641507
165	0x3c803375	0.015649537
166	0xbe2f2932	-0.17105559
167	0x3e192478	0.14955318
168	0xbe041854	-0.12899905
169	0xbc86b078	-0.016441569
170	0x3e1b9a93	0.15195684
171	0xbead3d40	-0.33835793
172	0x3e9c6e43	0.30552873
173	0x3ed67e08	0.4189303
174	0x3e196155	0.14978535
175	0x3c98777b	0.01861166
176	0xbda1082e	-0.07862888
177	0x3e5f4633	0.21804123
178	0x3e33aad9	0.17545642
179	0x3db71ccc	0.089410394
180	0xbd80736c	-0.06272015
181	0xbd64be87	-0.055845764
182	0xbe8ada60	-0.27119732
183	0xbcefbaac	-0.029263817
184	0x3e2f3b4d	0.17112465
185	0x3d823cc7	0.063592486
186	0x3e70955a	0.23494473
187	0x3d71a8c7	0.05899885
188	0x3e39ca92	0.1814368
189	0x3e4646b6	0.19362912
190	0x3e846486	0.25857943
191	0xbe3adfb7	-0.18249403
192	0x3d365682	0.044516094
193	0xbe208b87	-0.15678225
194	0x3c9a78d1	0.018856438
195	0x3e688d38	0.2271012
196	0xbdc6abf0	-0.09700763
197	0x3e9d0c7e	0.30673593
198	0x3dbaa175	0.09112827
199	0xbe0b62de	-0.13611934
200	0x3cb03dd8	0.021513864
201	0x3d8f2811	0.06990064
202	0x3deee7b5	0.11665288
203	0xbdeab015	-0.11459366
204	0xbc8dceb8	-0.017310485
205	0xbd6b7773	-0.057486963
206	0x3e24a114	0.16077071
207	0xbdf009d0	-0.117206216
208	0xbce1540c	-0.027505897
209	0xbdb1b81a	-0.08677693
210	0x3d3ee81d	0.04660808
211	0xbdda8251	-0.10669387
212	0xbcc904e6	-0.024538469
213	0x3d842722	0.064527765
214	0xbce085bf	-0.027407525
215	0x3d6b6e50	0.05747825
216	0xbe0acce8	-0.13554728
217	0xbc7b52d9	-0.015339577
218	0x3c698cb4	0.014254738
219	0xbd880f3d	-0.066435315
220	0x3c572893	0.013132232
221	0x3d54778c	0.05187182
222	0xbd00406f	-0.03131145
223	0x3dfc81f2	0.123294726
224	0x3e4ed33b	0.20197766
225	0x3dd01a77	0.10161298
226	0xbbfaf746	-0.007658872
227	0xbd16d432	-0.03682346
228	0x3dcf4cf5	0.101221
229	0xbd6cdd19	-0.057828043
230	0xbc6c4aea	-0.014422158
231	0xbd8eca48	-0.06972176
232	0x3e04d5ad	0.12972136
233	0x3cb39f8b	0.021926662
234	0xbe0b3dfe	-0.13597867
235	0x3de86336	0.11347048
236	0xbd864ec8	-0.06557995
237	0x3e10145c	0.14070266
238	0xbe23d58d	-0.15999432
239	0x3e03d4bc	0.1287412
240	0x3d990b0c	0.0747281
241	0xbd937eec	-0.07201943
242	0xbc538dc8	-0.012912221
243	0x3d3655f1	0.044515554
244	0x3d3c4e07	0.04597285
245	0x3d94c3fc	0.072639436
246	0x3d9c28c7	0.07624965
247	0x3d9ab564	0.07554129
248	0xbcec2547	-0.028826369
249	0xbe180226	-0.1484457
250	0x3e7edd0a	0.24889007
251	0x3cbdf242	0.023186807
252	0x3e30b620	0.17256975
253	0xbebe4781	-0.37163928
254	0xbbdcd740	-0.006739527
255	0xbe58cdf3	-0.21172313

bias f4 [20]
0	0x3dae0a86	0.08498101
1	0x3bfe9b95	0.0077700117
2	0x3dea0475	0.11426631
3	0x3c35ba20	0.011091739
4	0xbe1283f9	-0.14308156
5	0xbd5050e1	-0.050858382
6	0x3c8d0790	0.01721552
7	0x3cb6f0c7	0.022331608
8	0x3dd58417	0.10425585
9	0x3e380bf9	0.17973317
10	0x3c8577e2	0.016292516
11	0xbd986138	-0.07440418
12	0x3dc6bb3d	0.097036816
13	0xbcea1920	-0.028576434
14	0x3dd90c4e	0.1059805
15	0x3d26cf5c	0.040725097
16	0x3d52a1c0	0.051423788
17	0xbd47d15f	-0.048783656
18	0x3c650e60	0.013980478
19	0x3e10713c	0.14105695

weight f4 [20]
0	0x3f800000	1.0
1	0x3f800000	1.0
2	0x3f800000	1.0
3	0x3f800000	1.0
4	0x3f800000	1.0
5	0x3f800000	1.0
6	0x3f800000	1.0
7	0x3f800000	1.0
8	0x3f800000	1.0
9	0x3f800000	1.0
10	0x3f800000	1.0
11	0x3f800000	1.0
12	0x3f800000	1.0
13	0x3f800000	1.0
14	0x3f800000	1.0
15	0x3f800000	1.0
16	0x3f800000	1.0
17	0x3f800000	1.0
18	0x3f800000	1.0
19	0x3f800000	1.0

bias f4 [20]
0	0x00000000	0.0
1	0x00000000	0.0
2	0x00000000	0.0
3	0x00000000	0.0
4	0x00000000	0.0
5	0x00000000	0.0
6	0x00000000	0.0
7	0x00000000	0.0
8	0x00000000	0.0
9	0x00000000	0.0
10	0x00000000	0.0
11	0x00000000	0.0
12	0x00000000	0.0
13	0x00000000	0.0
14	0x00000000	0.0
15	0x00000000	0.0
16	0x00000000	0.0
17	0x00000000	0.0
18	0x00000000	0.0
19	0x00000000	0.0

running_mean f4 [20]
0	0x00000000	0.0
1	0x00000000	0.0
2	0x00000000	0.0
3	0x00000000	0.0
4	0x00000000	0.0
5	0x00000000	0.0
6	0x00000000	0.0
7	0x00000000	0.0
8	0x00000000	0.0
9	0x00000000	0.0
10	0x00000000	0.0
11	0x00000000	0.0
12	0x00000000	0.0
13	0x00000000	0.0
14	0x00000000	0.0
15	0x00000000	0.0
16	0x00000000	0.0
17	0x00000000	0.0
18	0x00000000	0.0
19	0x00000000	0.0

running_var f4 [20]
0	0x3f800000	1.0
1	0x3f800000	1.0
2	0x3f800000	1.0
3	0x3f800000	1.0
4	0x3f800000	1.0
5	0x3f800000	1.0
6	0x3f800000	1.0
7	0x3f800000	1.0
8	0x3f800000	1.0
9	0x3f800000	1.0
10	0x3f800000	1.0
11	0x3f800000	1.0
12	0x3f800000	1.0
13	0x3f800000	1.0
14	0x3f800000	1.0
15	0x3f800000	1.0
16	0x3f800000	1.0
17	0x3f800000	1.0
18	0x3f800000	1.0
19	0x3f800000	1.0

weight f4 [2, 20]
0	0xbed5e9d6	-0.41779965
1	0x3edbce13	0.4293066
2	0xbe3bf46d	-0.1835496
3	0xbee67041	-0.45007518
4	0xbea884bb	-0.32913765
5	0x3e95f977	0.2929189
6	0xbe110595	-0.14162286
7	0xbeb33f92	-0.35009438
8	0xbe759ed5	-0.23986371
9	0x3e5b59eb	0.2142102
10	0x3d858f12	0.06521429
11	0x3e157a3f	0.14597414
12	0x3e0089e9	0.12552609
13	0xbe834186	-0.25635928
14	0x3ec7656e	0.38944572
15	0x3e06e9ba	0.13175097
16	0xbe9127cc	-0.28350675
17	0xbd638465	-0.055546183
18	0x3e9a09f9	0.30085734
19	0xbe4602fc	-0.19337076
20	0x3f7251fb	0.9465634
21	0x3e447704	0.19186026
22	0x3f43e764	0.7652495
23	0x3e412636	0.18862233
24	0xbd7b8ad2	-0.061411686
25	0xbf0caa51	-0.5494738
26	0x3e118552	0.14211014
27	0xbecc2090	-0.39868593
28	0xbe9a2458	-0.30105853
29	0xbf25de71	-0.64792544
30	0x3f6121d5	0.8794225
31	0x3e101a77	0.14072596
32	0x3f664035	0.8994172
33	0x3f3860e1	0.72022825
34	0x3ef55fb1	0.4792457
35	0x3e111ab7	0.14170347
36	0xbf0d0289	-0.55081993
37	0x3e2628f4	0.1622656
38	0xbf2b4ab6	-0.66910875
39	0xbe9d3877	-0.30707142

bias f4 [2]
0	0x3e183dff	0.148674
1	0xbd8b07f3	-0.067886256
