models_version4/2UAVs_76832/a_c1.pt (torch_old, 16251 bytes, 14 tensors)

weight f4 [50, 34]
0	0x3d24a4e5	0.04019632
1	0x3dd84a05	0.10560993
2	0x3ea18761	0.31548598
3	0x3f18b6d4	0.59653974
4	0xbdacb7bb	-0.08433481
5	0xbd9403f0	-0.072273135
6	0x3d5e3266	0.054247282
7	0x3e14ffef	0.14550756
8	0x3e0241f3	0.1272047
9	0xbe7196ce	-0.23592684
10	0xbe069b66	-0.13145217
11	0xbd6d7b94	-0.05797918
12	0x3dc2393c	0.09483573
13	0xbdc35f89	-0.09539706
14	0x3e14c75b	0.14529173
15	0x3db42db2	0.08797778
16	0xbadbc1e7	-0.0016766161
17	0xbd2ee67f	-0.042700287
18	0xbce2ebad	-0.02770027
19	0xbb4f62b3	-0.0031644523
20	0xbdac7a9c	-0.084218234
21	0x3e64073c	0.22268385
22	0x3d847ea7	0.064694695
23	0xbc95344f	-0.01821342
24	0x3ee028e6	0.43781203
25	0xbd7befcf	-0.061507996
26	0xbdcf9823	-0.1013644
27	0x3c8b648c	0.017015718
28	0xbdd38ae9	-0.103292294
29	0x3e21ba1b	0.1579365
30	0x3df7ab75	0.1209325
31	0xbb1febbe	-0.0024401988
32	0xbc1433aa	-0.009045521
33	0xbdb46bcc	-0.08809623
34	0xbe02977b	-0.12753098
35	0xbda6ba5c	-0.08141014
36	0x3f688bb9	0.908382
37	0xbe218d91	-0.1577666
38	0x3d14a7ac	0.036292717
39	0xbc8f0e54	-0.017462887
40	0x3d9da7d2	0.07698025
41	0x3bd62b2f	0.0065359096
42	0x3e62b767	0.22140275
43	0x3e133e8b	0.14379327
44	0xbca543b0	-0.020173877
45	0x3d6c585e	0.05770146
46	0x3c57871a	0.013154769
47	0x3d4ac5a0	0.049504876
48	0x3ce50355	0.02795569
49	0x3d3e18bd	0.04641031
50	0x3e53290c	0.20621127
51	0x3da1721d	0.078830935
52	0xbdd1eb52	-0.10249962
53	0xbdeada2f	-0.114673965
54	0x3cbead7d	0.023276085
55	0xbe720be0	-0.23637342
56	0xbdbfa424	-0.09357479
57	0x3cf205bd	0.029543752
58	0x3e3a6703	0.18203358
59	0x3e6bb000	0.23016357
60	0x3e26bdc3	0.16283326
61	0x3e3a917c	0.1821956
62	0x3d99b4c3	0.07505181
63	0x3d190e38	0.037367076
64	0xbcbeaf22	-0.02327687
65	0xbcdbbba7	-0.026822878
66	0x3dde975a	0.10868712
67	0xbc75332e	-0.0149658155
68	0x3e2c5718	0.16830099
69	0x3c534595	0.012895008
70	0xbed00add	-0.40633288
71	0xbf03af3c	-0.5143926
72	0xbda373d3	-0.07981076
73	0xbe01cb66	-0.12675247
74	0x3e41c7aa	0.18923822
75	0x3d7b1498	0.061298937
76	0xbe3142d2	-0.17310646
77	0x3d646df3	0.05576892
78	0xbe1b83cb	-0.15186994
79	0xbbda1fb8	-0.006656613
80	0xbc2bec3c	-0.010493334
81	0xbde29e33	-0.1106533
82	0xbd737332	-0.05943603
83	0x3d24c5f6	0.040227853
84	0x3e469614	0.19393188
85	0xbe380d48	-0.17973816
86	0xbdbb784f	-0.091538064
87	0xbd4932f0	-0.049120843
88	0x3db61422	0.08890559
89	0xbe4306ea	-0.19045606
90	0xbcff8af7	-0.031194193
91	0x3dcbd400	0.09952545
92	0xbe8b9c09	-0.27267483
93	0x3b56687b	0.0032716084
94	0x3d2a2ad0	0.041544735
95	0xbe308b66	-0.17240676
96	0x3ca0dec5	0.019637475
97	0x3e2b4666	0.16726074
98	0xbb32f13f	-0.0027304438
99	0xbd0bca6f	-0.034128603
100	0xbcee3b7b	-0.029081097
101	0x3d1ca12c	0.038239643
102	0xbce91928	-0.028454378
103	0x3c9915fa	0.018687237
104	0xbf43f2b0	-0.76542187
105	0x3cbac042	0.022796754
106	0x3e02fc4e	0.12791559
107	0x3e1daafb	0.15397255
108	0xbd3a27dd	-0.045448173
109	0xbd8747a8	-0.06605464
110	0xbe4eb0d7	-0.20184647
111	0xbdcbc1f7	-0.09949105
112	0x3d89fcac	0.067376465
113	0x3e50445f	0.20338582
114	0xbcfed50d	-0.03110745
115	0xbccb363b	-0.024806133
116	0x3c6a3d71	0.014296875
117	0x3d05d2ac	0.032671615
118	0x3a0ea8ea	0.000544204
119	0x3da2fc85	0.079583205
120	0xbe278ea9	-0.16363014
121	0xbcb3d52f	-0.02195224
122	0xbcbc698e	-0.022999551
123	0x3e66eebe	0.2255201
124	0x3d9934ac	0.074807495
125	0xbd33b431	-0.043873016
126	0xbe34f8e7	-0.17673074
127	0xbe05cde8	-0.13066828
128	0x3d1a3a73	0.037653398
129	0xbdcad02d	-0.09902988
130	0x3db7fc59	0.08983678
131	0xbdba38cb	-0.09092864
132	0xbcbe817b	-0.0232551
133	0x3d3ad6af	0.045614894
134	0xbe4d5cb5	-0.20054896
135	0x3db6fe33	0.089352034
136	0x3d437c5e	0.047726028
137	0x3e678636	0.22609791
138	0x3ec463bc	0.3835734
139	0xbe600598	-0.21877134
140	0xbd043a19	-0.03228197
141	0x3e69a83a	0.2281808
142	0x3e6b64d7	0.22987686
143	0xbdf75499	-0.120766826
144	0xbdb1abc9	-0.086753435
145	0x3de649e5	0.11244563
146	0xbdb09f33	-0.08624115
147	0x3e780095	0.24218972
148	0x3e2c05ee	0.16799137
149	0x3db55a90	0.08855164
150	0xbdd20266	-0.10254364
151	0xbe181cd5	-0.14854749
152	0x3d5664f4	0.05234237
153	0xbe178bfb	-0.14799492
154	0x3d796b44	0.060893312
155	0x3e0b1288	0.13581288
156	0x3dadfb0c	0.08495149
157	0xbe1cbcfe	-0.1530647
158	0xbdd61d2c	-0.10454783
159	0x3e2bef6d	0.16790552
160	0xbe132d5b	-0.1437277
161	0xbe057b62	-0.13035348
162	0xbd279037	-0.04090902
163	0x3d669f12	0.056304045
164	0x3d1ae288	0.037813693
165	0x3e0f64c1	0.14003278
166	0x3d605b27	0.05477443
167	0x3e8c8b3d	0.2744998
168	0xbd8ca37d	-0.068671204
169	0xbdcf2687	-0.101147704
170	0x3e253f35	0.16137393
171	0x3dead61a	0.11466618
172	0x3f0bd046	0.54614675
173	0xbeddc966	-0.43317717
174	0x3e080079	0.1328143
175	0x3e129245	0.1431361
176	0x3e64ba96	0.22336802
177	0xbd8bfa97	-0.068349056
178	0xbe690f1c	-0.2275967
179	0x3c616eb4	0.013759304
180	0x3d2de211	0.04245192
181	0x3e7b3e7a	0.24535552
182	0x3de0fadc	0.10985348
183	0xbcefcf11	-0.029273542
184	0x3de72609	0.112865515
185	0xbc83bf0a	-0.016082305
186	0xbcf79eb8	-0.03022705
187	0xbe00f7a4	-0.12594467
188	0x3da834e0	0.0821321
189	0x3cb4660c	0.022021316
190	0x3d996b4e	0.0749117
191	0xbe2f4ec2	-0.17119887
192	0xbcf68311	-0.030091794
193	0x3e263d62	0.16234353
194	0xbdbc7a32	-0.092029944
195	0x3e223725	0.15841348
196	0x3ded166b	0.115765415
197	0x3d30c7e9	0.0431594
198	0x3e04ba7c	0.12961763
199	0xbe24163a	-0.16024104
200	0x3da9e595	0.082957424
201	0xbd5017dd	-0.050804008
202	0x3d9636a5	0.07334641
203	0xbbb6fb4f	-0.0055841575
204	0xbd499125	-0.049210686
205	0x3dc5a0e1	0.09649826
206	0xbf2163b2	-0.6304275
207	0xbe8e8124	-0.278329
208	0x3e0e46dc	0.13894218
209	0x3e102b9b	0.14079134
210	0x3e2aad36	0.16667637
211	0x3dbc9d13	0.09209647
212	0xbe3a94f6	-0.18220887
213	0x3b9f144d	0.004854715
214	0x3ddb5c93	0.107110165
215	0x3d792d15	0.06083401
216	0x3e2581f0	0.16162848
217	0x3cf4e9fe	0.029896732
218	0x3d840988	0.064471304
219	0x3db7d0d2	0.08975376
220	0xbd9b7201	-0.07590104
221	0x3d1d5619	0.038412187
222	0x3ce98cac	0.02850946
223	0x3dd3c84a	0.103409365
224	0xbd96bd1d	-0.07360289
225	0x3e2aa99c	0.16666263
226	0xbd626a7f	-0.055277344
227	0xbdd8c486	-0.10584359
228	0xbde48946	-0.11158995
229	0x3e18c77a	0.14919844
230	0xbcb45d45	-0.02201713
231	0x3d95b0e0	0.07309127
232	0x3e222c84	0.15837294
233	0x3de0d15d	0.10977433
234	0xbd6b6aa8	-0.057474762
235	0xbdda0bd6	-0.10646789
236	0x3db5797b	0.08861061
237	0x3dd7bfc7	0.105346255
238	0xbe10707a	-0.14105406
239	0x3db2dede	0.08733915
240	0x3ef2a384	0.47390378
241	0x3edaa2e4	0.427024
242	0x3dfb7cc6	0.12279658
243	0xbd962d49	-0.07332856
244	0x3dd63fbb	0.10461374
245	0x3e0375ac	0.12837857
246	0x3e7da89f	0.24771355
247	0xbd015e9d	-0.03158437
248	0x3c2217ee	0.009893401
249	0xbe8ce0cd	-0.2751526
250	0x3c5d335c	0.013501015
251	0x3d8e3129	0.0694297
252	0xbd8cfd08	-0.068841994
253	0x3e1f2331	0.15540768
254	0xbd860fdf	-0.06545996
255	0xbd5d6359	-0.054049823

bias f4 [50]
0	0x3c6edaca	0.014578531
1	0xbc390e64	-0.011294935
2	0x3e9bb7f7	0.30413792
3	0x3db36be4	0.08760813
4	0x3e011e03	0.12609105
5	0x3d42de2c	0.04757516
6	0x3e17538b	0.14777963
7	0xbe15942d	-0.14607306
8	0x3c19d5cc	0.009389352
9	0x3ccca07c	0.024978869
10	0xbcc87975	-0.024471978
11	0x3cf2c661	0.02963561
12	0xbd6bbd50	-0.05755359
13	0x3e7e5ec5	0.24840839
14	0x3e0b66c4	0.1361342
15	0x3d9b4258	0.075810134
16	0x3db4d637	0.08829921
17	0x3e38a063	0.18029933
18	0xbcdbc59a	-0.026827622
19	0x3e6f53bc	0.23371786
20	0x3dd9079f	0.10597157
21	0x3ddb23b9	0.10700173
22	0x3e2a477e	0.16628835
23	0x3e7fd2f2	0.24982813
24	0xbd975f58	-0.07391232
25	0xbe1a6bb7	-0.15080152
26	0x3db64425	0.08899716
27	0xbba936f5	-0.005164022
28	0x3d8d9b70	0.06914413
29	0x3e17c065	0.14819486
30	0x3e44780c	0.19186419
31	0x3d55736b	0.052112024
32	0x3dd6c625	0.10487012
33	0xbdc7a595	-0.09748379
34	0xbe1b9de5	-0.1519695
35	0xbe636981	-0.22208215
36	0x3ca427af	0.020038454
37	0x3e83b571	0.25724366
38	0xbe3cd084	-0.18438917
39	0x3e32b8c4	0.17453295
40	0x3e183471	0.14863755
41	0x3c93fc7b	0.018064728
42	0x3e455cc3	0.19273667
43	0x3e00c699	0.12575759
44	0x3c5c0fbd	0.013431487
45	0x3d42685d	0.04746281
46	0x3d08454f	0.033269223
47	0x3da10cfd	0.078638054
48	0x3d74f095	0.05979975
49	0x3d2878ca	0.04113082

weight f4 [50]
0	0x3f800000	1.0
1	0x3f800000	1.0
2	0x3f800000	1.0
3	0x3f800000	1.0
4	0x3f800000	1.0
5	0x3f800000	1.0
6	0x3f800000	1.0
7	0x3f800000	1.0
8	0x3f800000	1.0
9	0x3f800000	1.0
10	0x3f800000	1.0
11	0x3f800000	1.0
12	0x3f800000	1.0
13	0x3f800000	1.0
14	0x3f800000	1.0
15	0x3f800000	1.0
16	0x3f800000	1.0
17	0x3f800000	1.0
18	0x3f800000	1.0
19	0x3f800000	1.0
20	0x3f800000	1.0
21	0x3f800000	1.0
22	0x3f800000	1.0
23	0x3f800000	1.0
24	0x3f800000	1.0
25	0x3f800000	1.0
26	0x3f800000	1.0
27	0x3f800000	1.0
28	0x3f800000	1.0
29	0x3f800000	1.0
30	0x3f800000	1.0
31	0x3f800000	1.0
32	0x3f800000	1.0
33	0x3f800000	1.0
34	0x3f800000	1.0
35	0x3f800000	1.0
36	0x3f800000	1.0
37	0x3f800000	1.0
38	0x3f800000	1.0
39	0x3f800000	1.0
40	0x3f800000	1.0
41	0x3f800000	1.0
42	0x3f800000	1.0
43	0x3f800000	1.0
44	0x3f800000	1.0
45	0x3f800000	1.0
46	0x3f800000	1.0
47	0x3f800000	1.0
48	0x3f800000	1.0
49	0x3f800000	1.0

bias f4 [50]
0	0x00000000	0.0
1	0x00000000	0.0
2	0x00000000	0.0
3	0x00000000	0.0
4	0x00000000	0.0
5	0x00000000	0.0
6	0x00000000	0.0
7	0x00000000	0.0
8	0x00000000	0.0
9	0x00000000	0.0
10	0x00000000	0.0
11	0x00000000	0.0
12	0x00000000	0.0
13	0x00000000	0.0
14	0x00000000	0.0
15	0x00000000	0.0
16	0x00000000	0.0
17	0x00000000	0.0
18	0x00000000	0.0
19	0x00000000	0.0
20	0x00000000	0.0
21	0x00000000	0.0
22	0x00000000	0.0
23	0x00000000	0.0
24	0x00000000	0.0
25	0x00000000	0.0
26	0x00000000	0.0
27	0x00000000	0.0
28	0x00000000	0.0
29	0x00000000	0.0
30	0x00000000	0.0
31	0x00000000	0.0
32	0x00000000	0.0
33	0x00000000	0.0
34	0x00000000	0.0
35	0x00000000	0.0
36	0x00000000	0.0
37	0x00000000	0.0
38	0x00000000	0.0
39	0x00000000	0.0
40	0x00000000	0.0
41	0x00000000	0.0
42	0x00000000	0.0
43	0x00000000	0.0
44	0x00000000	0.0
45	0x00000000	0.0
46	0x00000000	0.0
47	0x00000000	0.0
48	0x00000000	0.0
49	0x00000000	0.0

running_mean f4 [50]
0	0x00000000	0.0
1	0x00000000	0.0
2	0x00000000	0.0
3	0x00000000	0.0
4	0x00000000	0.0
5	0x00000000	0.0
6	0x00000000	0.0
7	0x00000000	0.0
8	0x00000000	0.0
9	0x00000000	0.0
10	0x00000000	0.0
11	0x00000000	0.0
12	0x00000000	0.0
13	0x00000000	0.0
14	0x00000000	0.0
15	0x00000000	0.0
16	0x00000000	0.0
17	0x00000000	0.0
18	0x00000000	0.0
19	0x00000000	0.0
20	0x00000000	0.0
21	0x00000000	0.0
22	0x00000000	0.0
23	0x00000000	0.0
24	0x00000000	0.0
25	0x00000000	0.0
26	0x00000000	0.0
27	0x00000000	0.0
28	0x00000000	0.0
29	0x00000000	0.0
30	0x00000000	0.0
31	0x00000000	0.0
32	0x00000000	0.0
33	0x00000000	0.0
34	0x00000000	0.0
35	0x00000000	0.0
36	0x00000000	0.0
37	0x00000000	0.0
38	0x00000000	0.0
39	0x00000000	0.0
40	0x00000000	0.0
41	0x00000000	0.0
42	0x00000000	0.0
43	0x00000000	0.0
44	0x00000000	0.0
45	0x00000000	0.0
46	0x00000000	0.0
47	0x00000000	0.0
48	0x00000000	0.0
49	0x00000000	0.0

running_var f4 [50]
0	0x3f800000	1.0
1	0x3f800000	1.0
2	0x3f800000	1.0
3	0x3f800000	1.0
4	0x3f800000	1.0
5	0x3f800000	1.0
6	0x3f800000	1.0
7	0x3f800000	1.0
8	0x3f800000	1.0
9	0x3f800000	1.0
10	0x3f800000	1.0
11	0x3f800000	1.0
12	0x3f800000	1.0
13	0x3f800000	1.0
14	0x3f800000	1.0
15	0x3f800000	1.0
16	0x3f800000	1.0
17	0x3f800000	1.0
18	0x3f800000	1.0
19	0x3f800000	1.0
20	0x3f800000	1.0
21	0x3f800000	1.0
22	0x3f800000	1.0
23	0x3f800000	1.0
24	0x3f800000	1.0
25	0x3f800000	1.0
26	0x3f800000	1.0
27	0x3f800000	1.0
28	0x3f800000	1.0
29	0x3f800000	1.0
30	0x3f800000	1.0
31	0x3f800000	1.0
32	0x3f800000	1.0
33	0x3f800000	1.0
34	0x3f800000	1.0
35	0x3f800000	1.0
36	0x3f800000	1.0
37	0x3f800000	1.0
38	0x3f800000	1.0
39	0x3f800000	1.0
40	0x3f800000	1.0
41	0x3f800000	1.0
42	0x3f800000	1.0
43	0x3f800000	1.0
44	0x3f800000	1.0
45	0x3f800000	1.0
46	0x3f800000	1.0
47	0x3f800000	1.0
48	0x3f800000	1.0
49	0x3f800000	1.0

weight f4 [20, 50]
0	0xbd69a087	-0.057037856
1	0x3eb371c2	0.35047728
2	0x3dffe61d	0.124950625
3	0xbda36832	-0.07978858
4	0x3ca00330	0.01953277
5	0x3e827fda	0.25488168
6	0xbd6c7e22	-0.057737477
7	0x3e0342cf	0.12818454
8	0x3e042e8b	0.1290838
9	0x3e58d5de	0.21175334
10	0xbde07d95	-0.10961453
11	0x3e12122d	0.14264746
12	0xbd25a324	-0.040438786
13	0x3e22e4c6	0.15907583
14	0xbd4e9b29	-0.05044094
15	0x3e2309de	0.15921733
16	0x3ca54d9d	0.02017861
17	0x3ed0b5ca	0.40763694
18	0xbeb34a01	-0.35017398
19	0x3e486a94	0.19571906
20	0x3c822e7d	0.015891308
21	0xbe9a54a5	-0.30142704
22	0x3e8e51cd	0.27796784
23	0x3f017c8e	0.5058068
24	0xbd73462f	-0.059393104
25	0x3d928d7f	0.071558945
26	0xbe99ddb9	-0.30051973
27	0xbd89c0e4	-0.06726244
28	0xbe0a81b2	-0.13526037
29	0x3e60f974	0.21970159
30	0xbddebc2f	-0.10875737
31	0x3d1c3561	0.038136844
32	0x3bd362f4	0.006451005
33	0x3e46587f	0.19369696
34	0xbe1a0777	-0.1504191
35	0x3ea51320	0.32241154
36	0xbd9ac3e8	-0.075568974
37	0x3dac1377	0.0840215
38	0x3e5454ac	0.20735425
39	0x3e6f3273	0.23359089
40	0xbda271bb	-0.079318486
41	0x3d0f391a	0.034966566
42	0xbeb89b70	-0.3605609
43	0x3e5396c2	0.20662978
44	0x3e57c133	0.21069793
45	0x3d7cfe04	0.061765686
46	0xbe03aa12	-0.12857845
47	0x3e525a92	0.20542362
48	0xbce016cf	-0.027354626
49	0xbe3ea397	-0.18617092
50	0xbe553afd	-0.20823283
51	0xbbedbf2d	-0.007255456
52	0x3f24b2b5	0.64335185
53	0x3da7006c	0.08154377
54	0x3e07f6fa	0.13277808
55	0x3dac7090	0.08419907
56	0x3e81cdf5	0.25352445
57	0xbe1c60e8	-0.15271342
58	0x3e5304f6	0.20607361
59	0x3dc2ecbd	0.095178105
60	0x3d8a76a1	0.06760908
61	0xbeb9743d	-0.36221495
62	0xbe8cd58d	-0.27506676
63	0x3e2974d8	0.16548479
64	0x3e6f734e	0.23383829
65	0x3e981dc4	0.2971021
66	0xbde4fcd8	-0.111810386
67	0xbe18fa32	-0.14939192
68	0xbde7c8bd	-0.11317585
69	0x3e817817	0.25286934
70	0xbea66d2e	-0.32505172
71	0xbe069002	-0.13140872
72	0xb90a6b6e	-0.00013200726
73	0x3dd9d60e	0.10636531
74	0x3e58cf78	0.21172893
75	0xbeaa84c6	-0.33304423
76	0x3e4a9712	0.19784191
77	0x3d2a78b6	0.041619025
78	0x3dff37a6	0.12461786
79	0xbd6b2b98	-0.05741462
80	0x3e2988bf	0.1655607
81	0xbe6ed827	-0.23324643
82	0xbf04e339	-0.51909214
83	0xbea34bb8	-0.31893706
84	0xbed01ac7	-0.4064543
85	0x3d89d239	0.0672955
86	0xbea02f53	-0.31286106
87	0x3d494765	0.049140353
88	0x3e59ac97	0.21257244
89	0x3cb27b6a	0.021787364
90	0x3e89fe72	0.2695194
91	0xbe93218c	-0.28736532
92	0x3de50e86	0.11184411
93	0x3da95cea	0.08269675
94	0xbd7299be	-0.05922865
95	0x3e13ee6f	0.14446424
96	0x3dbbd92d	0.09172282
97	0x3df1f537	0.11814349
98	0xbe892890	-0.2678876
99	0x3cf1ffb4	0.029540874
100	0xbde6171d	-0.11234877
101	0xbe309f11	-0.17248179
102	0x3de0b09b	0.10971185
103	0xbe0df6f2	-0.13863733
104	0xbcd65ed6	-0.026168268
105	0xbb75cab7	-0.003750486
106	0x3d928420	0.07154107
107	0x3dc092ba	0.09402986
108	0xbd99d8fd	-0.0751209
109	0xbd9be45d	-0.07611916
110	0xbcdb6a34	-0.02678404
111	0xbcf1ed7e	-0.02953219
112	0xbd5aaf54	-0.053389862
113	0x3dc7bcc5	0.09752802
114	0xbba0ba34	-0.0049050096
115	0xbd96b9c8	-0.07359654
116	0xbd9e88be	-0.07740925
117	0xbe0bc466	-0.13649139
118	0xbe06ebe6	-0.13175926
119	0xbe0036e7	-0.12520944
120	0xbcabc9b8	-0.02097021
121	0xbcea507c	-0.028602831
122	0xbcaf6ede	-0.02141517
123	0xbe04b261	-0.12958671
124	0x3d11adc8	0.03556612
125	0xbd157cdb	-0.036496025
126	0xbcce44f3	-0.025179362
127	0x3d3dcce5	0.04633798
128	0x3d3b070d	0.04566102
129	0x3dba1234	0.09085503
130	0x3c8f56df	0.017497478
131	0xbda7702c	-0.08175692
132	0xbc1d60a8	-0.009605564
133	0xbdde0ec8	-0.10842663
134	0xbd8dc88f	-0.06923019
135	0x3d0b9688	0.034079105
136	0xbda144ae	-0.07874428
137	0x3d6f0b96	0.05836066
138	0x3bbd9b6c	0.00578635
139	0xbd0e2446	-0.03470256
140	0xbd333d34	-0.04375954
141	0xbdf0e1be	-0.11761807
142	0xbcc79536	-0.024363142
143	0xbe408940	-0.18802357
144	0xbe0b894b	-0.13626592
145	0xbb88b133	-0.0041715144
146	0x3bc39c86	0.005969587
147	0x3db01ddc	0.08599445
148	0x3d2c1b1b	0.042018037
149	0xbdb8efc4	-0.09030107
150	0xbe026f51	-0.12737776
151	0x3eb09f49	0.34496525
152	0x3dc28f39	0.09499974
153	0xbdc2014c	-0.094729036
154	0x3d08d332	0.033404537
155	0x3e99d775	0.30047193
156	0xbd0bf948	-0.03417328
157	0x3cc13d66	0.023588847
158	0x3e21922b	0.15778415
159	0x3e991105	0.29895797
160	0xbe450968	-0.1924187
161	0xbddca3c5	-0.10773424
162	0xbea234f1	-0.31681016
163	0x3eb695b0	0.35661077
164	0x3d04420a	0.032289542
165	0x3e894a1a	0.26814348
166	0x3d515905	0.051110286
167	0x3e0bee85	0.13665207
168	0xbea656d7	-0.3248813
169	0x3e551228	0.20807707
170	0xbdb077bc	-0.086165875
171	0xbde5378c	-0.11192235
172	0x3e987f85	0.2978479
173	0x3eac4ce9	0.33652428
174	0xbd9e3c82	-0.07726385
175	0xbcd96b3a	-0.026540387
176	0xbeb47992	-0.35249
177	0xbdf0ba8a	-0.117543295
178	0x3da78679	0.081799455
179	0x3e391b78	0.18076885
180	0x3d0f180b	0.03493504
181	0xbd33d33e	-0.043902628
182	0xbcf1c936	-0.02951489
183	0xbdb3b36c	-0.087744564
184	0xbe30ac05	-0.1725312
185	0x3e9a8b5a	0.30184442
186	0xbe46f518	-0.19429433
187	0x3e380ae7	0.17972909
188	0x3e64fe07	0.22362529
189	0x3e6fd9a8	0.23422873
190	0x3dfde59d	0.12397311
191	0xba505d23	-0.0007948449
192	0xbd49628c	-0.049166247
193	0x3e8b2809	0.27178982
194	0x3e87e6d0	0.26543283
195	0x3d7d1012	0.061782904
196	0xbe94b7d2	-0.29046494
197	0x3e62455d	0.22096772
198	0xbe2ef795	-0.17086633
199	0xbe84aa3d	-0.25911132
200	0xbda5dbf8	-0.08098596
201	0xbd8a6a2d	-0.06758533
202	0x3c890ec0	0.016730666
203	0x3de4b8e2	0.11168076
204	0xbdd210ea	-0.10257132
205	0xbd846970	-0.06465423
206	0xbd64b390	-0.055835307
207	0x3d3cde18	0.046110243
208	0xbc3fe4c0	-0.011712253
209	0xbdf9b75a	-0.12193175
210	0x3d061500	0.03273487
211	0xbd61afb4	-0.055099204
212	0xbd663d2c	-0.05621068
213	0xbd879918	-0.06620997
214	0xbdb9e700	-0.09077263
215	0x3c8209d0	0.01587382
216	0x3db8e0f6	0.09027283
217	0x3c3b5640	0.011434138
218	0x3d0c2f20	0.03422463
219	0xbdae1e24	-0.085018426
220	0xbdb03e1c	-0.086055964
221	0xbda10de3	-0.07863977
222	0xbd7808e2	-0.060555346
223	0xbe02c430	-0.12770152
224	0xbde1aad9	-0.11018915
225	0xbdb31ba0	-0.087455034
226	0xbdfcccef	-0.123437755
227	0x3d459544	0.048238054
228	0xbdbd6839	-0.092483945
229	0x3dd06e62	0.10177304
230	0xbe00951c	-0.1255688
231	0xbe063e60	-0.13109732
232	0x3de902c6	0.11377482
233	0xbe0e2131	-0.13879849
234	0xbdc57b34	-0.0964264
235	0x3d411e08	0.04714778
236	0x3e0c980d	0.13729878
237	0xbde700cb	-0.11279448
238	0x3d2d535c	0.042315826
239	0xbd903aab	-0.0704244
240	0xbc9c5ed8	-0.019088194
241	0x3d0fa2e0	0.03506744
242	0xbdaac9b4	-0.08339253
243	0x3dd7d2f6	0.105382845
244	0x3dc81ce2	0.09771134
245	0xbe0e8942	-0.13919547
246	0x3dfa46a2	0.122205034
247	0xbd9ae061	-0.07562328
248	0xbdf0ee07	-0.1176415
249	0x3e070609	0.13185896
250	0x3ed9258d	0.4241146
251	0x3edfcd8c	0.43711507
252	0xbeea8ab2	-0.4580894
253	0xbe85c4c6	-0.2612669
254	0x3e62bacf	0.22141574
255	0x3e75821a	0.23975411

bias f4 [20]
0	0x3e4d2ba5	0.2003618
1	0xbd56d742	-0.05245138
2	0x3d9da8bb	0.076981984
3	0x3c2dc50b	0.010606061
4	0xbd592378	-0.05301234
5	0x3e206ac1	0.15665723
6	0x3c32bd95	0.010909458
7	0xbdb69fd6	-0.08917205
8	0xbcd5cf38	-0.026099786
9	0x3e4cd04e	0.20001337
10	0x39732ac0	0.00023190212
11	0x3e461e64	0.1934753
12	0x3e48edaa	0.19621912
13	0x3e4ed9f8	0.20200336
14	0xbc8ccd5e	-0.01718777
15	0xbd8eda02	-0.069751754
16	0x3dccc9e8	0.09999448
17	0xbd853582	-0.065043464
18	0x3baa9122	0.0052052895
19	0x3d04fb10	0.032465994

weight f4 [20]
0	0x3f800000	1.0
1	0x3f800000	1.0
2	0x3f800000	1.0
3	0x3f800000	1.0
4	0x3f800000	1.0
5	0x3f800000	1.0
6	0x3f800000	1.0
7	0x3f800000	1.0
8	0x3f800000	1.0
9	0x3f800000	1.0
10	0x3f800000	1.0
11	0x3f800000	1.0
12	0x3f800000	1.0
13	0x3f800000	1.0
14	0x3f800000	1.0
15	0x3f800000	1.0
16	0x3f800000	1.0
17	0x3f800000	1.0
18	0x3f800000	1.0
19	0x3f800000	1.0

bias f4 [20]
0	0x00000000	0.0
1	0x00000000	0.0
2	0x00000000	0.0
3	0x00000000	0.0
4	0x00000000	0.0
5	0x00000000	0.0
6	0x00000000	0.0
7	0x00000000	0.0
8	0x00000000	0.0
9	0x00000000	0.0
10	0x00000000	0.0
11	0x00000000	0.0
12	0x00000000	0.0
13	0x00000000	0.0
14	0x00000000	0.0
15	0x00000000	0.0
16	0x00000000	0.0
17	0x00000000	0.0
18	0x00000000	0.0
19	0x00000000	0.0

running_mean f4 [20]
0	0x00000000	0.0
1	0x00000000	0.0
2	0x00000000	0.0
3	0x00000000	0.0
4	0x00000000	0.0
5	0x00000000	0.0
6	0x00000000	0.0
7	0x00000000	0.0
8	0x00000000	0.0
9	0x00000000	0.0
10	0x00000000	0.0
11	0x00000000	0.0
12	0x00000000	0.0
13	0x00000000	0.0
14	0x00000000	0.0
15	0x00000000	0.0
16	0x00000000	0.0
17	0x00000000	0.0
18	0x00000000	0.0
19	0x00000000	0.0

running_var f4 [20]
0	0x3f800000	1.0
1	0x3f800000	1.0
2	0x3f800000	1.0
3	0x3f800000	1.0
4	0x3f800000	1.0
5	0x3f800000	1.0
6	0x3f800000	1.0
7	0x3f800000	1.0
8	0x3f800000	1.0
9	0x3f800000	1.0
10	0x3f800000	1.0
11	0x3f800000	1.0
12	0x3f800000	1.0
13	0x3f800000	1.0
14	0x3f800000	1.0
15	0x3f800000	1.0
16	0x3f800000	1.0
17	0x3f800000	1.0
18	0x3f800000	1.0
19	0x3f800000	1.0

weight f4 [2, 20]
0	0xbea297e3	-0.31756505
1	0x3e9773eb	0.29580626
2	0xbdc5c6ee	-0.096570835
3	0xbeeff3d9	-0.46865728
4	0xbe51b808	-0.20480359
5	0xbee843bb	-0.45364174
6	0xbf087efc	-0.5331876
7	0x3f449f83	0.76805896
8	0x3f1a6f79	0.60326344
9	0x3dbc73df	0.09201788
10	0x3f01b19e	0.5066165
11	0xbe8505e8	-0.2598107
12	0xbee50cf4	-0.44736445
13	0x3f2a7a21	0.66592604
14	0x3defbfea	0.117065266
15	0xbe2e2ca9	-0.17009224
16	0x3e857b27	0.2607052
17	0xbc2638f0	-0.010145411
18	0x3f3f68cd	0.7476929
19	0x3e927143	0.28602037
20	0x3dbe9d27	0.09307318
21	0x3f3f825b	0.7480828
22	0xbe006fe3	-0.12542681
23	0x3ec9d979	0.3942373
24	0xbd7cdf00	-0.061736107
25	0xbe97a4fe	-0.29618067
26	0x3d17654b	0.036961835
27	0xbdbd5fde	-0.09246801
28	0x3e9fb34c	0.3119148
29	0x3ef6d142	0.48206526
30	0x3f0b8923	0.5450613
31	0x3f2a9fa2	0.6664983
32	0x3ec087ed	0.37603703
33	0x3f10f5ac	0.56624866
34	0xbecf9eac	-0.40550745
35	0x3e143f3f	0.14477251
36	0xbe9b46aa	-0.3032735
37	0x3e549eae	0.20763656
38	0x3ee7ac2a	0.45248538
39	0xbeeb5578	-0.45963645

bias f4 [2]
0	0xbe8583db	-0.2607716
1	0xbe6e4d01	-0.23271562
