models_version2/2UAVs_39090/a_c1.pt (torch_old, 16240 bytes, 14 tensors)

weight f4 [50, 34]
00000000: 16e8 703b 1535 74bd e3c3 86bd 321c 8a3b
00000010: 33df eebd 4869 1d3e f2f0 d53c 6882 c9bd
00000020: 3ba7 0bbd 9444 f6bd 0eb4 debd 1970 983d
00000030: 5ab8 f2bd c296 82bc 7f21 5dbc 4e2c 013e
00000040: 564e 993c 6326 4b3e 4002 a4bd 740d 143e
00000050: f239 c93d 3f0e cdbd d55a a73d 8615 49bd
00000060: 87a0 e33c cbb8 99bd 1f84 103c 044b d4bc
00000070: 5f71 0d3e e27f 3b3e 4b38 3a3c 823c 653d
00000080: d754 6b3d 8ab4 9b3d 0172 133c dd01 d93d
00000090: 13b1 15be 7307 b43d 4517 a53d 3f9b 65bd
000000a0: 1ab4 1dbd a887 853d bd0f bbbd 9723 9bbb
000000b0: 5099 3b3d 1332 c33d 98fd e23d 4118 7e3b
000000c0: 6b27 dd3a fb35 88bc 841b 3a3e 1d03 08bd
000000d0: 72b4 2d3e 512b bb3d 43d1 abbd 1b74 99bc
000000e0: f8bc 1abe 8045 143e e7bf 22be fbd6 4d3d
000000f0: e990 48be 226f 833c 905b cb3d 882f 933d
00000100: 50bc 133d ae1e 2b3e 6ccf 143e 02f7 2d3e
00000110: 0cd8 6cbd 7164 8c3d a242 7d3d 0dd4 113e
00000120: b44f e33b b866 00be ebd0 bbbd 4fd4 433e
00000130: 863c 613d cc3f 563a 0c39 cabd 3f50 a5bb
00000140: 1558 aa3d c891 44bd c2c4 a3bd ba1c 9a3c
00000150: 9363 843d 0a64 373e eed9 edbd c5a7 323d
00000160: 4133 023e 05bb ffbd 2f7f 6f3e 8227 df3d
00000170: 4adb e03c ebf0 2bbd 6175 663e 71de a3bd
00000180: d119 233d 7715 d4bd 6f0d 293e a19a 923d
00000190: 30f1 54bd eaf1 533d 0857 d33d f4c7 41bd
000001a0: bda7 79bd 0c30 643e 0cf3 0b3d 6d46 cd3d
000001b0: c422 21bc d1fc c23a 3edc babc b15f d83d
000001c0: 6ee7 14be 5336 46bd 3ce7 40bd f6d3 f7bd
000001d0: a5e9 8bbc 2ac8 413e 0c15 21bc a4e9 433d
000001e0: 4fae 353e 40a4 a7bb 6f9e 6e3c 0309 1bbe
000001f0: d347 053a 894d ca3d bb52 f2bd e8f3 8c3d
00000200: 4a7c 2b3a db8c 223d 038a d33c 70c5 5f3d
00000210: a2e9 1e3c 9c40 2d3e 700d b53c 0329 873c
00000220: b123 80bd b54e 3abd 365a 5dbe 8b3e f13d
00000230: a892 d13d 7766 e23d 25f2 233e b8d2 f8bd
00000240: 6110 36be 860e cabb 9463 10be 5c11 4dba
00000250: fe50 053d c982 f13d 87fa 7a3d 6a1c bebd
00000260: bc01 d13d edca ff3d 29be 2cbc a152 1a3e
00000270: 2fc1 7dbd 7587 e23c 84ef 473e 3a25 ba3d
00000280: 79df 2fbe da93 b8bd 7b58 8cbd 3dcf 373e
00000290: 8be5 633e 65d9 87bc 9286 26be 817f 67bd
000002a0: ec6c b13c 7e3c 883d 4593 10be 4829 cdbd
000002b0: 1f5f 01be c4c1 12be 3c06 773d 6038 08be
000002c0: 0d45 e7bd d51e 1f3e 4c6b 21bd adb6 1a3e
000002d0: 314e 98bd 3eca 0cbe 78b3 593d 7654 be3d
000002e0: c4f5 2dbd 1c29 5e3d 5d7b 96bd 1ee1 8b3d
000002f0: c928 9dbd 1fc5 13be 4701 073e 285b f8bd
00000300: a16d 0f3e 4ceb 1cbd d047 25bd 0275 c43d
00000310: 80fb 813b 3e8a 19be 60b7 80bb 0483 08be
00000320: 90db 2ebe 1a4a f63d 4033 d0bd de58 6bbd
00000330: b309 23be 9638 353e 96cc 083e 3706 00be
00000340: 7453 743c a117 f63d 4095 733c f98e 813d
00000350: d8b2 10be 40c0 b13c 165b 0f3e cdc8 063e
00000360: c766 d43d 007b 013e f9b8 12be e0cd 063e
00000370: e321 403d b77c a3bd f60d 34be 6af3 ee3d
00000380: b496 c43c e816 b03d a864 b2bd 2d3e b33d
00000390: 9bc3 883d 2da4 163e 00e6 363d 9606 413d
000003a0: f3d8 a03d 4941 41be 32f3 5abd 8451 3bbe
000003b0: d53d bc3c bc32 d6bd c5c7 bd3d 7161 85bd
000003c0: 438d 4ebe 09b7 1d3e cc45 febc 84d1 f03c
000003d0: ac42 c63d bd19 26bc 980e 093e bf6c 1b3e
000003e0: d201 84bd 3bba bcbd 461d b33b c00d 1d3e
000003f0: 9087 e63d 6e1d 03be 81b1 7f3d 45ce 173e
0.0036759428 -0.059620935 -0.06580331 0.004214787 -0.116636656 0.15372193 0.026115868 -0.09839326
-0.03409503 -0.12024799 -0.108741865 0.07443256 -0.118515685 -0.015941028 -0.013496756 0.12614557
0.018714111 0.19838862 -0.08008242 0.14458257 0.09825505 -0.10012483 0.08171622 -0.049092792
0.027786506 -0.075059496 0.008820563 -0.025914676 0.13812779 0.18310502 0.01136596 0.055965908
0.057453956 0.076027945 0.008999349 0.105960585 -0.1461833 0.08790483 0.08061079 -0.056056257
-0.038501836 0.06520015 -0.09133861 -0.0047344672 0.045800507 0.09531035 0.110835254 0.003877178
0.0016872709 -0.016627302 0.18174559 -0.033206094 0.16963366 0.09139121 -0.08389523 -0.018732121
-0.15111148 0.14479637 -0.15893517 0.05025385 -0.19586529 0.016044203 0.099295735 0.071868
0.03606826 0.16710922 0.1453225 0.16988757 -0.057823226 0.06855095 0.061831124 0.14241047
0.0069369916 -0.12539184 -0.09170707 0.19123958 0.05498936 0.00081729586 -0.09874162 -0.0050449665
0.083175816 -0.04799059 -0.07996513 0.018812526 0.06464305 0.17909256 -0.116138324 0.04361703
0.12714864 -0.12486843 0.2338836 0.108962074 0.027448315 -0.041977804 0.22505714 -0.08001412
0.039819542 -0.103556566 0.16509031 0.071583994 -0.051987827 0.05174438 0.10319334 -0.04730983
-0.060950983 0.22283953 0.034167334 0.10023198 -0.009834949 0.001487637 -0.022810098 0.10565127
-0.14541408 -0.04839165 -0.047095522 -0.12100975 -0.017079184 0.18924013 -0.009831678 0.04783024
0.17742275 -0.0051160157 0.014564141 -0.15140156 0.000508425 0.0987807 -0.11832186 0.06882459
0.0006541653 0.03968511 0.025822645 0.05463165 0.009699257 0.16919178 0.022101134 0.016499048
-0.062568076 -0.045485217 -0.21616444 0.11779507 0.102330506 0.110547 0.1601034 -0.121495664
-0.17779686 -0.006166282 -0.14100486 -0.0007822716 0.032547943 0.117925234 0.061274078 -0.09282763
0.10205409 0.12489877 -0.010543385 0.15070583 -0.061951812 0.027652482 0.19524962 0.09089132
-0.17175092 -0.090125754 -0.06852814 0.17950149 0.22255532 -0.016583154 -0.16262272 -0.05651808
0.021658383 0.06652163 -0.14118679 -0.100176394 -0.12633942 -0.14331728 0.06030868 -0.13302755
-0.11292467 0.15539105 -0.039408967 0.15108748 -0.07436789 -0.13749024 0.05314967 0.092934534
-0.04247071 0.054238424 -0.073477484 0.06830047 -0.07673795 -0.14430664 0.13184081 -0.12126762
0.14006664 -0.038310334 -0.04035169 0.0959263 0.0039667487 -0.14994141 -0.00392811 -0.13331228
-0.17075944 0.120258525 -0.10166025 -0.057457797 -0.15921669 0.17697367 0.13359293 -0.12502371
0.014912475 0.120162256 0.014867127 0.06326098 -0.14130723 0.021698117 0.1399959 0.13162537
0.10371166 0.12644577 -0.14328374 0.13164473 0.046907317 -0.07982772 -0.1758345 0.11667521
0.023997642 0.08598119 -0.08710605 0.087520935 0.06677934 0.14711066 0.04465294 0.04712542
0.0785388 -0.1887256 -0.053454585 -0.18292814 0.022978703 -0.104588956 0.09266619 -0.06512726
-0.20171075 0.15401854 -0.031039141 0.02939678 0.096806854 -0.010137972 0.13384473 0.15178202
-0.0644566 -0.09215208 0.005466136 0.15337276 0.11256325 -0.12804195 0.06242514 0.1482478

bias f4 [50]
00000000: 64c5 dbbc 71bb 2e3e 1cee 00bd b1cf 81bd
00000010: f538 8d3d cf34 2dbe 5f00 473d 4367 5d3d
00000020: df05 c43d 3569 0ebe 77bc c1bd 5b2a dbbb
00000030: 90f4 063d 63dd db3d 1761 133d 6ad1 1a3e
00000040: ad78 fa3d 3b70 b43c cb15 2b3d bbf3 003d
00000050: 3f88 1c3e e5d8 c5bd faeb 173d d126 353e
00000060: 9e93 aa3d 7f54 42bd 7fb6 0e3d 4c22 2f3c
00000070: e4ee d1bd d906 993d 3cd9 74bd 97ea de3d
00000080: 578e de3d 8eb1 233d c1ea fabd 311d c93d
00000090: e18c 71bd 02c0 33bc b7e3 283d a55b 7e3d
000000a0: 3437 83bd c861 9ebd 2066 2c3e 6722 cc3d
000000b0: f7a5 1bbe 5b53 573d 8975 82bc 85c2 a03c
000000c0: 273f 333d c55c 66bd
-0.026827522 0.1706369 -0.03147708 -0.06338442 0.06895629 -0.16914676 0.04858434 0.054053556
0.09571432 -0.13907321 -0.09459775 -0.006688399 0.032948077 0.107355855 0.035981264 0.15118948
0.12230048 0.022026172 0.04176883 0.03148244 0.15286349 -0.0966051 0.03709028 0.17690589
0.08328937 -0.047443863 0.03484201 0.010689329 -0.10250643 0.07472009 -0.059777483 0.10884588
0.10866993 0.03996425 -0.12251807 0.09820021 -0.058972243 -0.010971071 0.04123279 0.062099118
-0.064070135 -0.07733494 0.16835833 0.09967499 -0.1520003 0.05256973 -0.015925186 0.019624004
0.0437614 -0.056240816

weight f4 [50]
00000000: 0000 803f 0000 803f 0000 803f 0000 803f
00000010: 0000 803f 0000 803f 0000 803f 0000 803f
00000020: 0000 803f 0000 803f 0000 803f 0000 803f
00000030: 0000 803f 0000 803f 0000 803f 0000 803f
00000040: 0000 803f 0000 803f 0000 803f 0000 803f
00000050: 0000 803f 0000 803f 0000 803f 0000 803f
00000060: 0000 803f 0000 803f 0000 803f 0000 803f
00000070: 0000 803f 0000 803f 0000 803f 0000 803f
00000080: 0000 803f 0000 803f 0000 803f 0000 803f
00000090: 0000 803f 0000 803f 0000 803f 0000 803f
000000a0: 0000 803f 0000 803f 0000 803f 0000 803f
000000b0: 0000 803f 0000 803f 0000 803f 0000 803f
000000c0: 0000 803f 0000 803f
1.0 1.0 1.0 1.0 1.0 1.0 1.0 1.0
1.0 1.0 1.0 1.0 1.0 1.0 1.0 1.0
1.0 1.0 1.0 1.0 1.0 1.0 1.0 1.0
1.0 1.0 1.0 1.0 1.0 1.0 1.0 1.0
1.0 1.0 1.0 1.0 1.0 1.0 1.0 1.0
1.0 1.0 1.0 1.0 1.0 1.0 1.0 1.0
1.0 1.0

bias f4 [50]
00000000: 0000 0000 0000 0000 0000 0000 0000 0000
00000010: 0000 0000 0000 0000 0000 0000 0000 0000
00000020: 0000 0000 0000 0000 0000 0000 0000 0000
00000030: 0000 0000 0000 0000 0000 0000 0000 0000
00000040: 0000 0000 0000 0000 0000 0000 0000 0000
00000050: 0000 0000 0000 0000 0000 0000 0000 0000
00000060: 0000 0000 0000 0000 0000 0000 0000 0000
00000070: 0000 0000 0000 0000 0000 0000 0000 0000
00000080: 0000 0000 0000 0000 0000 0000 0000 0000
00000090: 0000 0000 0000 0000 0000 0000 0000 0000
000000a0: 0000 0000 0000 0000 0000 0000 0000 0000
000000b0: 0000 0000 0000 0000 0000 0000 0000 0000
000000c0: 0000 0000 0000 0000
0.0 0.0 0.0 0.0 0.0 0.0 0.0 0.0
0.0 0.0 0.0 0.0 0.0 0.0 0.0 0.0
0.0 0.0 0.0 0.0 0.0 0.0 0.0 0.0
0.0 0.0 0.0 0.0 0.0 0.0 0.0 0.0
0.0 0.0 0.0 0.0 0.0 0.0 0.0 0.0
0.0 0.0 0.0 0.0 0.0 0.0 0.0 0.0
0.0 0.0

running_mean f4 [50]
00000000: 0000 0000 0000 0000 0000 0000 0000 0000
00000010: 0000 0000 0000 0000 0000 0000 0000 0000
00000020: 0000 0000 0000 0000 0000 0000 0000 0000
00000030: 0000 0000 0000 0000 0000 0000 0000 0000
00000040: 0000 0000 0000 0000 0000 0000 0000 0000
00000050: 0000 0000 0000 0000 0000 0000 0000 0000
00000060: 0000 0000 0000 0000 0000 0000 0000 0000
00000070: 0000 0000 0000 0000 0000 0000 0000 0000
00000080: 0000 0000 0000 0000 0000 0000 0000 0000
00000090: 0000 0000 0000 0000 0000 0000 0000 0000
000000a0: 0000 0000 0000 0000 0000 0000 0000 0000
000000b0: 0000 0000 0000 0000 0000 0000 0000 0000
000000c0: 0000 0000 0000 0000
0.0 0.0 0.0 0.0 0.0 0.0 0.0 0.0
0.0 0.0 0.0 0.0 0.0 0.0 0.0 0.0
0.0 0.0 0.0 0.0 0.0 0.0 0.0 0.0
0.0 0.0 0.0 0.0 0.0 0.0 0.0 0.0
0.0 0.0 0.0 0.0 0.0 0.0 0.0 0.0
0.0 0.0 0.0 0.0 0.0 0.0 0.0 0.0
0.0 0.0

running_var f4 [50]
00000000: 0000 803f 0000 803f 0000 803f 0000 803f
00000010: 0000 803f 0000 803f 0000 803f 0000 803f
00000020: 0000 803f 0000 803f 0000 803f 0000 803f
00000030: 0000 803f 0000 803f 0000 803f 0000 803f
00000040: 0000 803f 0000 803f 0000 803f 0000 803f
00000050: 0000 803f 0000 803f 0000 803f 0000 803f
00000060: 0000 803f 0000 803f 0000 803f 0000 803f
00000070: 0000 803f 0000 803f 0000 803f 0000 803f
00000080: 0000 803f 0000 803f 0000 803f 0000 803f
00000090: 0000 803f 0000 803f 0000 803f 0000 803f
000000a0: 0000 803f 0000 803f 0000 803f 0000 803f
000000b0: 0000 803f 0000 803f 0000 803f 0000 803f
000000c0: 0000 803f 0000 803f
1.0 1.0 1.0 1.0 1.0 1.0 1.0 1.0
1.0 1.0 1.0 1.0 1.0 1.0 1.0 1.0
1.0 1.0 1.0 1.0 1.0 1.0 1.0 1.0
1.0 1.0 1.0 1.0 1.0 1.0 1.0 1.0
1.0 1.0 1.0 1.0 1.0 1.0 1.0 1.0
1.0 1.0 1.0 1.0 1.0 1.0 1.0 1.0
1.0 1.0

weight f4 [20, 50]
00000000: 88c2 b2bc 9f0a ca3b 2286 db3d d116 71bc
00000010: 965e 3abe 6c55 00be c489 dc3c 6e61 913d
00000020: 0215 6abd fd48 b13d d565 1b3d 0ef5 a33b
00000030: e73f 073e b50d af3d 5a04 173e 5292 ae3d
00000040: 20e0 d13c 9892 90bd 5dfa 763d 08ec 91bc
00000050: 33d1 e2bd 2262 243e 4940 d8bd 26a9 9b3c
00000060: d336 b4bc 568c 123e 5663 babc 3de8 e83d
00000070: 4246 383c 7170 32be dc53 c8bb 334f 39be
00000080: 8702 f13d a42d 11be 5537 ac3d a23c 243e
00000090: 54e2 d63d 2878 96bb 32a8 223d 199d f9bd
000000a0: 1065 17be cf85 343d d31e 0a3d aab1 1d3d
000000b0: b736 0fbc 1b8a d13d 8103 86bd 3d1a dabd
000000c0: d1ed 0e3e cff6 223e 449f 113c 6732 99bd
000000d0: 90fc ce3d e107 9d3d faf7 be3d 17c6 9fbd
000000e0: 1111 b23b b5a5 353d 6929 6d3d ff10 d53d
000000f0: 5381 08be cdf7 f9bd 9478 afbd eb59 a93d
00000100: d238 f4bd 6584 4cbd e358 893d 5ba8 b3bd
00000110: d2c3 e43a 9fce c2bd db71 103e 1803 42bd
00000120: b1ae 09be e88f b43b 3a21 6c3d e448 7d3d
00000130: 589f 83bd d70b 75bd 9811 88bd 476f 8d3d
00000140: 08ac 4c3d b661 3b3d 88fc 78bd f76e 433d
00000150: f3b4 0c3e 1b9d b33d 3936 873d 8ff8 c43d
00000160: 3ff8 debd 7134 fe3d 03e5 fa3d fbe1 4d3d
00000170: f6ac 583d 8f48 cdbd 38e1 bf3b 9d6d 433e
00000180: 092c 17bd c0ca 9cbd 39df 74bd 5f8a be3d
00000190: 19d8 bdbd 7ee9 473d e530 10bd 2f8f 46bd
000001a0: 17d9 233c ba86 f53d 23a2 55bd 251f 20bd
000001b0: 274e 8d3d 30f8 2cbc c44d 823d 9b1d 0abe
000001c0: 7aa1 b43d e754 1c3e 771a f23d eaef 1abe
000001d0: a0ff 403e a5aa 02bd c9e7 83bb 1410 253e
000001e0: 7c1f 383d 3c25 b23d 4028 493d bc12 57be
000001f0: 87de 93bc 746d 2a3e b4b9 143d e79d 353e
00000200: b278 db3d b7d1 4bbe f28c 97bd 4b1c 63be
00000210: 5c08 703d cdba d03d d25f 7abd b980 9bbc
00000220: 4fb5 923d 2eaa 183e cc99 dbbd 83d8 4b3d
00000230: 5e01 02be baf3 b1bd a405 633c 2e76 e73d
00000240: d78c 2e3a 06d8 503e 9fa5 27be 1d0e cbbc
00000250: af45 5e3e 11c8 0b3e 07db f03d 5194 daba
00000260: 0dfe 33bd 50b1 de3d b7b5 2c3e 8ebd 84bd
00000270: a876 a33c 1239 193e e314 193e b4f7 f33d
00000280: 6a72 843d aec1 bd3d fca8 00bd 1947 08be
00000290: a4e2 03be b798 c43d 6808 d23d 1d70 233e
000002a0: 4d37 293e a6e4 0cbd 0ddb 89bd 35dc 24bd
000002b0: 236d 163e 2bff 273e e555 43bd 59cf 68bc
000002c0: 949f 18bd 4f46 4a3e 76a9 b7bc daa0 4c3d
000002d0: 3c02 203e 9935 223e f237 273d 9b9a 04be
000002e0: a0b5 b93c 2a78 783d ac9c d73d 3990 a4bd
000002f0: 67fb 403c 1ba3 e0bc 98a3 a73d f7e5 463e
00000300: b274 993d 2429 8e3c 5b53 16be a70c 19be
00000310: a826 8f3d 53c6 ef3d ae21 e93c 5553 c3bd
00000320: 41db 3fbd ad2e 40bd 4727 a2bd 6633 67be
00000330: 11cd ea3c daa8 09be a005 1e3d 5a28 78bd
00000340: e24e ccbd 8e0a be3d 7e9a c53d ef62 96bd
00000350: e882 b6bd 6541 413e 3c8d 023d 840d 30be
00000360: 2697 623e 631f e33d e042 f13c 456e b13d
00000370: 0fef 033e 0c6e 45bd f01e 8cbc 0bb5 81bd
00000380: 364f 3abc 88aa c13d 705f a1bd 8778 0d3e
00000390: 2f70 3abe dea9 52bc 99f8 523d 9fad 813c
000003a0: 88d9 da3c 36a6 2b3d d60b ff3d 5220 d93d
000003b0: 3f42 c23c 436e 683e 1abe 073e 42e2 6b3c
000003c0: eb56 e03d 1814 feba 487c b1bd 77a4 d5bd
000003d0: 7b33 c73d 4ba1 d33d 0ce9 00be 99f0 1dbd
000003e0: 319d b73c b2aa ff3d 2385 f13c c5ac eabd
000003f0: d834 0d3d 7f63 cabc 9ce1 45be 06f0 b1bd
-0.021821275 0.006165817 0.10718943 -0.0147149125 -0.18200144 -0.12532586 0.02692116 0.07098661
-0.05714894 0.086564995 0.03793891 0.005003578 0.1320797 0.08547536 0.14747754 0.08524002
0.025619566 -0.070592105 0.06029736 -0.017812744 -0.11075058 0.1605306 -0.105591364 0.019001555
-0.021998798 0.14311346 -0.022752445 0.11372421 0.0112472195 -0.17425705 -0.0061135124 -0.18096618
0.1176806 -0.14177567 0.08408991 0.16038755 0.104923874 -0.0045919605 0.039711185 -0.12188167
-0.14784646 0.044072922 0.033720803 0.03849951 -0.008741072 0.1023142 -0.06543637 -0.10649536
0.13957907 0.15914463 0.00888807 -0.074803166 0.10106766 0.076675184 0.093246415 -0.078014545
0.0054341634 0.044347484 0.05790082 0.104036324 -0.13330583 -0.122054674 -0.0856792 0.082691036
-0.119249 -0.04993095 0.06706407 -0.08772346 0.0017453379 -0.09512066 0.14105932 -0.04736623
-0.13445546 0.005510319 0.057648875 0.061837092 -0.06426877 -0.059825744 -0.06643981 0.0690599
0.04996875 0.04574748 -0.060787708 0.047713246 0.13740902 0.087702 0.06602139 0.09617721
-0.10887193 0.12412346 0.12250712 0.05026434 0.052899323 -0.10023605 0.0058557056 0.19084783
-0.03690723 -0.07655859 -0.059783194 0.09303736 -0.09269733 0.04880666 -0.03520288 -0.048476394
0.010000489 0.11988588 -0.05215658 -0.0390922 0.06899672 -0.010557219 0.06362489 -0.13487856
0.08819862 0.15266763 0.11821454 -0.15130582 0.18847513 -0.03190102 -0.0040254337 0.16119415
0.0449519 0.08698508 0.04911065 -0.2100324 -0.018050445 0.16643316 0.036309913 0.17736016
0.1071638 -0.19904219 -0.0739993 -0.22178762 0.058601722 0.101918794 -0.061126538 -0.018982278
0.07163488 0.14908668 -0.10722694 0.04976703 -0.12695834 -0.08689065 0.013856325 0.11301838
0.000665856 0.20394906 -0.16371773 -0.024787003 0.2170627 0.13650538 0.11760526 -0.0016676282
-0.043943454 0.108736634 0.16866194 -0.06481467 0.01995404 0.14963177 0.14949374 0.1191248
0.06467135 0.09265457 -0.031411156 -0.13308372 -0.12879425 0.095994405 0.102555096 0.15960737
0.16525002 -0.034397744 -0.06731234 -0.04024907 0.1469007 0.16405933 -0.047689337 -0.014209592
-0.03726156 0.19753383 -0.022419672 0.049958088 0.15625852 0.15840758 0.040824838 -0.12949602
0.022669613 0.060661472 0.1052793 -0.08035321 0.011778689 -0.027421525 0.081855 0.19423662
0.07492961 0.017353602 -0.14680235 -0.14946233 0.06989795 0.11707749 0.028458443 -0.09537379
-0.046839956 -0.046919513 -0.07917648 -0.225782 0.028662236 -0.13443318 0.038579583 -0.060585357
-0.09975983 0.09279357 0.09648608 -0.07343089 -0.08911687 0.18872602 0.031872973 -0.17192656
0.22127971 0.11089971 0.029450834 0.0866361 0.12884162 -0.048200652 -0.017104596 -0.06333359
-0.011371424 0.094563544 -0.078795314 0.13815509 -0.18206857 -0.012857882 0.051506612 0.01582986
0.026715055 0.041906558 0.124534294 0.10601868 0.02371323 0.22698312 0.13256112 0.014397206
0.10954078 -0.001938465 -0.08666283 -0.1043176 0.09726616 0.103334986 -0.125889 -0.03855953
0.022413822 0.124837294 0.02948243 -0.114587344 0.034474224 -0.024705647 -0.19324344 -0.08688359

bias f4 [20]
00000000: a51c 94bd cc13 e4bc f191 0fbd 14ff ef3d
00000010: 5fdc 933c fca8 603d ab05 7f3d 0d6b d2bb
00000020: 81f9 d83d 2eb2 74bc 76ae 823b 8952 ac3d
00000030: 3672 e6bd 4791 e0bc f931 bcbd 1d09 2e3e
00000040: 02dd eabd 49b1 40bd 31c2 223d cf5a ba3c
-0.07232026 -0.027841471 -0.03505129 0.11718574 0.018049417 0.054848656 0.062261265 -0.006421453
0.10594464 -0.0149350595 0.0039880825 0.0841418 -0.11252253 -0.027413024 -0.09189219 0.16995664
-0.11467935 -0.047044072 0.039735977 0.022748379

weight f4 [20]
00000000: 0000 803f 0000 803f 0000 803f 0000 803f
00000010: 0000 803f 0000 803f 0000 803f 0000 803f
00000020: 0000 803f 0000 803f 0000 803f 0000 803f
00000030: 0000 803f 0000 803f 0000 803f 0000 803f
00000040: 0000 803f 0000 803f 0000 803f 0000 803f
1.0 1.0 1.0 1.0 1.0 1.0 1.0 1.0
1.0 1.0 1.0 1.0 1.0 1.0 1.0 1.0
1.0 1.0 1.0 1.0

bias f4 [20]
00000000: 0000 0000 0000 0000 0000 0000 0000 0000
00000010: 0000 0000 0000 0000 0000 0000 0000 0000
00000020: 0000 0000 0000 0000 0000 0000 0000 0000
00000030: 0000 0000 0000 0000 0000 0000 0000 0000
00000040: 0000 0000 0000 0000 0000 0000 0000 0000
0.0 0.0 0.0 0.0 0.0 0.0 0.0 0.0
0.0 0.0 0.0 0.0 0.0 0.0 0.0 0.0
0.0 0.0 0.0 0.0

running_mean f4 [20]
00000000: 0000 0000 0000 0000 0000 0000 0000 0000
00000010: 0000 0000 0000 0000 0000 0000 0000 0000
00000020: 0000 0000 0000 0000 0000 0000 0000 0000
00000030: 0000 0000 0000 0000 0000 0000 0000 0000
00000040: 0000 0000 0000 0000 0000 0000 0000 0000
0.0 0.0 0.0 0.0 0.0 0.0 0.0 0.0
0.0 0.0 0.0 0.0 0.0 0.0 0.0 0.0
0.0 0.0 0.0 0.0

running_var f4 [20]
00000000: 0000 803f 0000 803f 0000 803f 0000 803f
00000010: 0000 803f 0000 803f 0000 803f 0000 803f
00000020: 0000 803f 0000 803f 0000 803f 0000 803f
00000030: 0000 803f 0000 803f 0000 803f 0000 803f
00000040: 0000 803f 0000 803f 0000 803f 0000 803f
1.0 1.0 1.0 1.0 1.0 1.0 1.0 1.0
1.0 1.0 1.0 1.0 1.0 1.0 1.0 1.0
1.0 1.0 1.0 1.0

weight f4 [2, 20]
00000000: a752 19be e87f e13d 1820 a4bd 4c76 883e
00000010: eb13 54bc a2d0 7fbe 1148 5b3e ca6f 973d
00000020: a292 513c d931 cfbd 21af 19be 2e2f 15be
00000030: 3072 b03d c733 4c3e f441 05be 3fcf 5bbe
00000040: 4e28 afbd b744 97be 8744 0dbd 2e42 5e3e
00000050: 8ddd 1a3e d02d 153e 0c73 6d3e 56dc acbd
00000060: accf 8d3e 7f5e 55be 68ed cbbd b4fc 07be
00000070: 6fb9 73be a6e9 313e ddf1 733d 6b50 863e
00000080: 00f0 f93c 71e1 3abb 0859 903c 49ec 983e
00000090: 6c81 d03d ed30 1bbe b73e 6f3e 6881 04be
-0.14972936 0.11010724 -0.08013934 0.26652753 -0.012944202 -0.24981931 0.2141421 0.07394369
0.012791308 -0.101169296 -0.15008213 -0.14568779 0.086155295 0.19941626 -0.1301344 -0.21465777
-0.085526094 -0.29544613 -0.03448918 0.21704933 0.15123577 0.14568257 0.23188418 -0.08440463
0.27697504 -0.20836829 -0.09957391 -0.13279992 -0.23801206 0.17374286 0.05955683 0.2623323
0.030509949 -0.0028515721 0.017620578 0.2986777 0.10180935 -0.15155382 0.23363768 -0.1293999

bias f4 [2]
00000000: e9d8 27be 2885 a9bd
-0.16391338 -0.08277351
