models_version2/2UAVs_98062/a_t1.pt (torch_old, 16240 bytes, 14 tensors)

weight f4 [50, 34]
0	0x3d4bd8ec	0.04976742
1	0xbd8c6790	-0.068556905
2	0xbf095efd	-0.53660566
3	0x3e00ca2b	0.12577121
4	0xbdfe1fee	-0.12408434
5	0x3e34c745	0.1765414
6	0x3d88fb65	0.06688575
7	0xbd734061	-0.05938757
8	0x3d5cbcd7	0.05389103
9	0xbdd0e43a	-0.10199781
10	0xbd98b24b	-0.07455882
11	0x3dd96837	0.106155805
12	0xbdc6660f	-0.09687435
13	0x3d65ae06	0.056074165
14	0x3c5d8ca0	0.013522297
15	0x3d8b80f0	0.06811702
16	0x3d81955e	0.06327318
17	0x3e0fcd01	0.14043047
18	0xbdfb14a2	-0.12259795
19	0x3dde6391	0.108588345
20	0x3d9ae365	0.07562903
21	0xbd8da073	-0.06915369
22	0x3e72344e	0.23652765
23	0xbe093b9c	-0.13401645
24	0x3e1e8ed5	0.15484174
25	0xbd2a7ea0	-0.041624665
26	0xbcf61f06	-0.03004409
27	0xbced70d0	-0.028984457
28	0x3da61d5c	0.081110686
29	0x3e3b1332	0.18269041
30	0x3ddc2848	0.107498705
31	0x3c338504	0.010957006
32	0x3c2416be	0.010015188
33	0x3cb501ec	0.022095643
34	0x3c99a2e2	0.018754426
35	0x3db7c881	0.0897379
36	0xbf2306aa	-0.63682044
37	0x3e59fd03	0.21287923
38	0x3d0dabef	0.034587797
39	0xbda09211	-0.0784036
40	0xbd8c4e5f	-0.068508856
41	0x3bdd5e97	0.0067556608
42	0xbd66bd00	-0.05633259
43	0xbd95f427	-0.07321959
44	0xbae27ead	-0.0017280184
45	0x3d7ff5a1	0.06249011
46	0xbcdcbf6c	-0.026946746
47	0xbd9443ee	-0.07239519
48	0xbd478a6c	-0.048715994
49	0xbde6900a	-0.11257942
50	0x3e35a687	0.17739306
51	0xbdad6cee	-0.08468042
52	0x3e03239a	0.1280655
53	0x3d2685be	0.04065489
54	0xbd9ebd74	-0.07750979
55	0xbd210546	-0.03931167
56	0xbdb00c33	-0.08596077
57	0x3c544780	0.0129565
58	0xbe240c5a	-0.16020337
59	0x3c0b301f	0.00849536
60	0xbe91c288	-0.28468728
61	0xbd432c26	-0.047649525
62	0x3cc25e03	0.023726469
63	0xbb4e3be6	-0.0031468808
64	0x3df0f6a4	0.11765793
65	0x3dd0071d	0.10157607
66	0x3dbe795d	0.09300492
67	0x3e06bbd0	0.13157582
68	0xbd9b34bc	-0.07578418
69	0x3e15adc2	0.14617065
70	0x3ebe2ab5	0.37141958
71	0x3f4d2595	0.8013547
72	0x3dc8a5bd	0.09797237
73	0xbe006ac1	-0.12540723
74	0xbd9d8a3b	-0.07692381
75	0x3c834944	0.016026147
76	0x3ceac2d8	0.028657362
77	0x3d3f3ac4	0.046686903
78	0xbd740338	-0.059573382
79	0x3d0560be	0.032562964
80	0x3e2e5ac1	0.17026807
81	0xbdcc7d78	-0.09984869
82	0xbda6ae19	-0.08138675
83	0xbdec6eca	-0.11544569
84	0x3daae85a	0.08345099
85	0x3e0a4443	0.13502602
86	0xbe09556d	-0.13411494
87	0x3d9b6501	0.07587624
88	0x3e0feb06	0.14054498
89	0xbd95ed21	-0.073206194
90	0x3dbe6984	0.09297469
91	0x3de30a05	0.110858954
92	0x3cb07c37	0.021543605
93	0xbd247ab3	-0.040156078
94	0x3e8ce5a1	0.27518943
95	0xbcfa178c	-0.030528806
96	0x3d80c258	0.06287068
97	0xbde92342	-0.11383678
98	0xbda9d1fd	-0.08292005
99	0x3ddf62a3	0.10907485
100	0xbcfcdaae	-0.030865993
101	0x3de8e29b	0.113713466
102	0x3ddf76f0	0.109113574
103	0xbd92b66d	-0.07163701
104	0xbee5f2b1	-0.4491172
105	0x3fb32216	1.3994777
106	0xbd56498a	-0.052316226
107	0xbd0b5cc0	-0.034024
108	0x39a418d3	0.00031299013
109	0x3da02301	0.078191765
110	0xbbd89c75	-0.006610448
111	0x3dab2f96	0.08358686
112	0xbe181d7f	-0.14855002
113	0xbd39ce90	-0.04536301
114	0x3de62bc6	0.11238818
115	0xbe333d8d	-0.17503949
116	0xbd30e66b	-0.043188494
117	0xbe801dda	-0.25022775
118	0x3ca069f2	0.019581769
119	0x3c222852	0.009897308
120	0x3cc0adaa	0.02352031
121	0x3bc97eae	0.0061491346
122	0x3dbd689f	0.092484705
123	0xbdff5801	-0.12467957
124	0x3b608afe	0.0034262533
125	0x3c7efd16	0.01556327
126	0xbe89c5f0	-0.26908827
127	0x3d4bba92	0.049738474
128	0xbdc4f4da	-0.09617014
129	0x3d1ab696	0.037771784
130	0x3c7e5f3d	0.015525636
131	0x3e4483cf	0.19190906
132	0xbc894278	-0.016755328
133	0x3d8dc9e6	0.06923275
134	0xbdb21a13	-0.086963795
135	0xbd143be1	-0.036189917
136	0xbcf30728	-0.029666498
137	0xbbdf2b48	-0.0068105794
138	0xbf217fb9	-0.63085514
139	0x3ebf2ac1	0.37337306
140	0x3dbce7f5	0.0922393
141	0x3dd303cb	0.10303458
142	0x3e395e21	0.18102314
143	0xbe1843a2	-0.1486955
144	0xbdda4887	-0.10658365
145	0xbc591b76	-0.013251176
146	0xbe063975	-0.13107856
147	0x3c9d7449	0.019220488
148	0xbc5e7a59	-0.013578975
149	0x3d86007a	0.0654306
150	0x3d8310b8	0.06399673
151	0xbe28508b	-0.16436975
152	0x3e15f8bb	0.14645664
153	0x3ddf0972	0.108904734
154	0xbc6d2e3e	-0.014476357
155	0x3e0767e6	0.13223228
156	0xbd70c2b8	-0.05877945
157	0x3d4fc01c	0.05072032
158	0x3e9e3c6c	0.30905473
159	0xbc1f16ad	-0.009709996
160	0xbdea03b1	-0.11426485
161	0xbda2854e	-0.07935582
162	0xbe120366	-0.14259109
163	0x3e2923eb	0.16517608
164	0x3e2492f9	0.1607169
165	0xbd2afa28	-0.041742474
166	0xbdaba7ae	-0.08381592
167	0xbd9f9231	-0.07791556
168	0xbc1f9a19	-0.00974133
169	0x3d24ae26	0.040205143
170	0xbe109345	-0.14118679
171	0xbdcd2948	-0.100176394
172	0xbe015f1f	-0.12633942
173	0xbe12c1c4	-0.14331728
174	0x3d77063c	0.06030868
175	0xbe083860	-0.13302755
176	0xbde7450d	-0.11292467
177	0x3e1f1ed5	0.15539105
178	0xbd216b4c	-0.039408967
179	0x3e1ab6ad	0.15108748
180	0xbd984e31	-0.07436789
181	0xbe0cca3e	-0.13749024
182	0x3d59b380	0.0531497
183	0x3dbe5476	0.092934534
184	0xbd2df5c4	-0.04247071
185	0x3d5e291c	0.054238424
186	0xbd967b5d	-0.073477484
187	0x3d8be11e	0.06830047
188	0xbd9d28c9	-0.07673795
189	0xbe13c524	-0.14430672
190	0x3e070147	0.13184081
191	0xbdf85b2a	-0.12126763
192	0x3e0f6da1	0.14006664
193	0xbd1ceb54	-0.038310364
194	0xbd2547d0	-0.04035169
195	0x3dc47502	0.0959263
196	0x3b81fb80	0.0039667487
197	0xbe198a3e	-0.14994141
198	0xbb80b760	-0.00392811
199	0xbe088304	-0.13331228
200	0xbe2edb90	-0.17075944
201	0x3df64a1a	0.120258525
202	0xbdd03340	-0.10166025
203	0xbd6b58de	-0.057457797
204	0xbe3e0b8f	-0.18559097
205	0x3e6773be	0.22602746
206	0x3f86cc3f	1.0531081
207	0xbdbef18f	-0.093234174
208	0x3d1e421f	0.038637277
209	0x3dafe00c	0.085876554
210	0xbd38cb8e	-0.045116
211	0xbc5067ed	-0.01272009
212	0xbe798d26	-0.2437025
213	0x3bb0879e	0.0053872606
214	0x3dd74837	0.10511821
215	0x3db36093	0.087586544
216	0x3e914a0d	0.2837681
217	0x3d9c28df	0.07624983
218	0xbe30100c	-0.17193621
219	0x3d5827a9	0.052772198
220	0xbcbb5aeb	-0.022870502
221	0xbdce64e5	-0.10077838
222	0xbe00d305	-0.12580498
223	0x3d863656	0.065533325
224	0x3d92fd3a	0.071772054
225	0x3d169fbe	0.036773436
226	0xbe890281	-0.26759723
227	0x3e25fa9b	0.1620888
228	0xbe383d6a	-0.17992178
229	0x3ddeb6fa	0.10874744
230	0x3d618575	0.055058915
231	0x3cfcff92	0.030883584
232	0x3dafb2a6	0.08578996
233	0xbd9917d0	-0.07475245
234	0xbe76e308	-0.24110043
235	0xbe1c7e68	-0.15282595
236	0x3c31d886	0.010854846
237	0xbd8c608c	-0.06854352
238	0x3de78bd2	0.113059655
239	0xbc1f368c	-0.009717595
240	0xbf09b761	-0.5379544
241	0x3f19ff4c	0.6015518
242	0xbd13d152	-0.036088295
243	0xbbd62a43	-0.0065357997
244	0x3dfb6143	0.122744106
245	0xbdc7e12e	-0.097597465
246	0x3e2ff918	0.17184865
247	0x3e22e633	0.15908127
248	0xbd2bbb5a	-0.04192672
249	0xbd84be68	-0.064816296
250	0x3c06ea50	0.008234575
251	0x3d99e23c	0.07513854
252	0x3de433d8	0.11142701
253	0xbe88805b	-0.26660427
254	0x3dd9998b	0.10624989
255	0x3df3f55e	0.119120345

bias f4 [50]
0	0x3c86e46a	0.016466338
1	0x3e13f7e2	0.14450029
2	0xbd2e2c8d	-0.042522956
3	0xbd9508b2	-0.07277049
4	0x3dbcfcba	0.09227891
5	0xbe2d34cf	-0.16914676
6	0xbb2e245f	-0.0026571972
7	0x3d95c645	0.073132075
8	0x3e038afc	0.12845987
9	0xbe197dfc	-0.14989465
10	0xbda95609	-0.08268363
11	0xbce46550	-0.02788034
12	0x3d06f490	0.032948077
13	0x3dc60d8a	0.09670551
14	0x3cee22e4	0.029069372
15	0x3e17fdad	0.14842863
16	0x3e013428	0.12617552
17	0x3d613546	0.054982446
18	0x3d497865	0.049187083
19	0x3c52b04f	0.012859418
20	0x3e344276	0.17603478
21	0xbdd85763	-0.10563543
22	0x3d40393c	0.046929583
23	0x3e2a0292	0.16602543
24	0x3dcd5772	0.100264445
25	0xbd6836af	-0.056692775
26	0x3c79a5a9	0.01523725
27	0x3d097a2e	0.033563785
28	0xbddc92e0	-0.10770202
29	0x3d91f0d5	0.07126013
30	0xbd8d3fa1	-0.06896902
31	0x3dddc5a1	0.1082871
32	0x3e1460b4	0.14490014
33	0x3d0a61fa	0.033784844
34	0xbe07ef1e	-0.1327481
35	0x3df406f2	0.11915387
36	0xbae0e8df	-0.0017159245
37	0xbc9cc19d	-0.01913529
38	0x3d28e3c8	0.041232854
39	0x3e001f18	0.12511861
40	0xbd3a6541	-0.04550672
41	0xbd44ff0c	-0.048094794
42	0x3e3f8746	0.18703946
43	0x3da06796	0.078322574
44	0xbe2adf65	-0.16686781
45	0x3d6f4a7e	0.05842065
46	0xbd077993	-0.033074927
47	0x3ce9f827	0.028560711
48	0x3ce8333f	0.028344749
49	0xbd8333fd	-0.064064

weight f4 [50]
0	0x3f800000	1.0
1	0x3f800000	1.0
2	0x3f800000	1.0
3	0x3f800000	1.0
4	0x3f800000	1.0
5	0x3f800000	1.0
6	0x3f800000	1.0
7	0x3f800000	1.0
8	0x3f800000	1.0
9	0x3f800000	1.0
10	0x3f800000	1.0
11	0x3f800000	1.0
12	0x3f800000	1.0
13	0x3f800000	1.0
14	0x3f800000	1.0
15	0x3f800000	1.0
16	0x3f800000	1.0
17	0x3f800000	1.0
18	0x3f800000	1.0
19	0x3f800000	1.0
20	0x3f800000	1.0
21	0x3f800000	1.0
22	0x3f800000	1.0
23	0x3f800000	1.0
24	0x3f800000	1.0
25	0x3f800000	1.0
26	0x3f800000	1.0
27	0x3f800000	1.0
28	0x3f800000	1.0
29	0x3f800000	1.0
30	0x3f800000	1.0
31	0x3f800000	1.0
32	0x3f800000	1.0
33	0x3f800000	1.0
34	0x3f800000	1.0
35	0x3f800000	1.0
36	0x3f800000	1.0
37	0x3f800000	1.0
38	0x3f800000	1.0
39	0x3f800000	1.0
40	0x3f800000	1.0
41	0x3f800000	1.0
42	0x3f800000	1.0
43	0x3f800000	1.0
44	0x3f800000	1.0
45	0x3f800000	1.0
46	0x3f800000	1.0
47	0x3f800000	1.0
48	0x3f800000	1.0
49	0x3f800000	1.0

bias f4 [50]
0	0x00000000	0.0
1	0x00000000	0.0
2	0x00000000	0.0
3	0x00000000	0.0
4	0x00000000	0.0
5	0x00000000	0.0
6	0x00000000	0.0
7	0x00000000	0.0
8	0x00000000	0.0
9	0x00000000	0.0
10	0x00000000	0.0
11	0x00000000	0.0
12	0x00000000	0.0
13	0x00000000	0.0
14	0x00000000	0.0
15	0x00000000	0.0
16	0x00000000	0.0
17	0x00000000	0.0
18	0x00000000	0.0
19	0x00000000	0.0
20	0x00000000	0.0
21	0x00000000	0.0
22	0x00000000	0.0
23	0x00000000	0.0
24	0x00000000	0.0
25	0x00000000	0.0
26	0x00000000	0.0
27	0x00000000	0.0
28	0x00000000	0.0
29	0x00000000	0.0
30	0x00000000	0.0
31	0x00000000	0.0
32	0x00000000	0.0
33	0x00000000	0.0
34	0x00000000	0.0
35	0x00000000	0.0
36	0x00000000	0.0
37	0x00000000	0.0
38	0x00000000	0.0
39	0x00000000	0.0
40	0x00000000	0.0
41	0x00000000	0.0
42	0x00000000	0.0
43	0x00000000	0.0
44	0x00000000	0.0
45	0x00000000	0.0
46	0x00000000	0.0
47	0x00000000	0.0
48	0x00000000	0.0
49	0x00000000	0.0

running_mean f4 [50]
0	0x00000000	0.0
1	0x00000000	0.0
2	0x00000000	0.0
3	0x00000000	0.0
4	0x00000000	0.0
5	0x00000000	0.0
6	0x00000000	0.0
7	0x00000000	0.0
8	0x00000000	0.0
9	0x00000000	0.0
10	0x00000000	0.0
11	0x00000000	0.0
12	0x00000000	0.0
13	0x00000000	0.0
14	0x00000000	0.0
15	0x00000000	0.0
16	0x00000000	0.0
17	0x00000000	0.0
18	0x00000000	0.0
19	0x00000000	0.0
20	0x00000000	0.0
21	0x00000000	0.0
22	0x00000000	0.0
23	0x00000000	0.0
24	0x00000000	0.0
25	0x00000000	0.0
26	0x00000000	0.0
27	0x00000000	0.0
28	0x00000000	0.0
29	0x00000000	0.0
30	0x00000000	0.0
31	0x00000000	0.0
32	0x00000000	0.0
33	0x00000000	0.0
34	0x00000000	0.0
35	0x00000000	0.0
36	0x00000000	0.0
37	0x00000000	0.0
38	0x00000000	0.0
39	0x00000000	0.0
40	0x00000000	0.0
41	0x00000000	0.0
42	0x00000000	0.0
43	0x00000000	0.0
44	0x00000000	0.0
45	0x00000000	0.0
46	0x00000000	0.0
47	0x00000000	0.0
48	0x00000000	0.0
49	0x00000000	0.0

running_var f4 [50]
0	0x3f800000	1.0
1	0x3f800000	1.0
2	0x3f800000	1.0
3	0x3f800000	1.0
4	0x3f800000	1.0
5	0x3f800000	1.0
6	0x3f800000	1.0
7	0x3f800000	1.0
8	0x3f800000	1.0
9	0x3f800000	1.0
10	0x3f800000	1.0
11	0x3f800000	1.0
12	0x3f800000	1.0
13	0x3f800000	1.0
14	0x3f800000	1.0
15	0x3f800000	1.0
16	0x3f800000	1.0
17	0x3f800000	1.0
18	0x3f800000	1.0
19	0x3f800000	1.0
20	0x3f800000	1.0
21	0x3f800000	1.0
22	0x3f800000	1.0
23	0x3f800000	1.0
24	0x3f800000	1.0
25	0x3f800000	1.0
26	0x3f800000	1.0
27	0x3f800000	1.0
28	0x3f800000	1.0
29	0x3f800000	1.0
30	0x3f800000	1.0
31	0x3f800000	1.0
32	0x3f800000	1.0
33	0x3f800000	1.0
34	0x3f800000	1.0
35	0x3f800000	1.0
36	0x3f800000	1.0
37	0x3f800000	1.0
38	0x3f800000	1.0
39	0x3f800000	1.0
40	0x3f800000	1.0
41	0x3f800000	1.0
42	0x3f800000	1.0
43	0x3f800000	1.0
44	0x3f800000	1.0
45	0x3f800000	1.0
46	0x3f800000	1.0
47	0x3f800000	1.0
48	0x3f800000	1.0
49	0x3f800000	1.0

weight f4 [20, 50]
0	0xbe90405c	-0.28174102
1	0xbe11c4a4	-0.14235169
2	0x3c629748	0.013830014
3	0xbe9975c8	-0.29972672
4	0xbee778e5	-0.45209423
5	0xbe00556c	-0.12532586
6	0x3e306801	0.17227174
7	0xbe18b3a4	-0.14912277
8	0xbe9670bc	-0.29382885
9	0x3e60af01	0.21941759
10	0xbe8bb76b	-0.27288374
11	0xbe00c431	-0.12574841
12	0x3e073fe7	0.1320797
13	0x3dc46b0e	0.095907316
14	0x3ddda1bf	0.10821866
15	0xbe03002b	-0.12793033
16	0x3c6b746c	0.014371019
17	0xbedb6d4c	-0.42856824
18	0xbe42d0e7	-0.19025002
19	0x3db9b1bd	0.09067104
20	0xbee37461	-0.44424728
21	0x3e155330	0.14582515
22	0xbed4d3d8	-0.41567874
23	0xbe326c6a	-0.17424169
24	0xbe85cb03	-0.26131448
25	0x3e003507	0.12520228
26	0xbe82beef	-0.25536296
27	0x3de1b904	0.11021617
28	0xbdd10e9c	-0.10207865
29	0xbec9b367	-0.39394686
30	0xbe0b1167	-0.13580857
31	0xbed6ea9c	-0.41975868
32	0x3dc02c56	0.093834564
33	0xbe3b7fda	-0.1831049
34	0x3d782b81	0.060588364
35	0x3d0182ea	0.03161899
36	0x3de1bf45	0.1102281
37	0x3e0b83da	0.13624516
38	0x3d22a878	0.039711446
39	0xbecee0cb	-0.40405878
40	0xbeb5a88a	-0.35480148
41	0xbea25739	-0.3170717
42	0xbe02f153	-0.1278737
43	0x3e04f0a6	0.12982425
44	0xbd613c69	-0.054989252
45	0x3e8db1aa	0.2767461
46	0xbe265772	-0.16244295
47	0x3c9adb97	0.018903537
48	0x3e5be663	0.21474604
49	0x3e5fbadb	0.21848623
50	0x3e6f1d03	0.23350911
51	0xbdd06023	-0.101745866
52	0xbc695712	-0.014241951
53	0xbe61e345	-0.22059353
54	0x3d7fab99	0.062419508
55	0xbd9fc617	-0.078014545
56	0xbf2b209e	-0.66846645
57	0x3cef21a4	0.029190846
58	0x3e2ce39f	0.16883706
59	0xbdddd744	-0.10832074
60	0xbdb1cc40	-0.08681536
61	0xbf30221b	-0.6880204
62	0xbdaf7894	-0.0856792
63	0x3dbe2936	0.09285204
64	0xbe31bcf3	-0.17357235
65	0xbe2b9e43	-0.16759591
66	0x3e0ab9b5	0.13547404
67	0x3d11c633	0.035589408
68	0xbe25833a	-0.1616334
69	0xbd5873de	-0.052844875
70	0x3e68d8f1	0.22739007
71	0x3f5f9eb8	0.8735156
72	0xbe9a9f76	-0.30199784
73	0x3efe24ed	0.49637547
74	0x3e0871c2	0.13324645
75	0x3d7e0b54	0.062022522
76	0x3e4b5740	0.19857502
77	0x3def654e	0.11689244
78	0xbe398e3f	-0.18120669
79	0x3ecd00cc	0.4003967
80	0xbbd9ed87	-0.00665063
81	0x3f1ba9f2	0.6080619
82	0xbe8ad513	-0.27115688
83	0xbdab1863	-0.08354261
84	0x3e192d16	0.14958605
85	0x3ebc811f	0.36817262
86	0x3fb63909	1.4236156
87	0x3da0f3ab	0.07858976
88	0xbddef7f0	-0.10887134
89	0x3ee50700	0.44731903
90	0x3ea4469a	0.32085115
91	0x3e615747	0.2200595
92	0x3e265f64	0.16247326
93	0xbdb30b45	-0.08742384
94	0xbe0c9db8	-0.1373204
95	0x3ec489a2	0.38386256
96	0xbe6ceba4	-0.23136765
97	0x3c825b37	0.015912635
98	0x3cce0c4c	0.025152348
99	0x3e49153b	0.19637005
100	0xbd341984	-0.043969646
101	0x3d139a5c	0.03603588
102	0xbda14bfc	-0.07875821
103	0xc01dc089	-2.4648764
104	0xbda2eb24	-0.07955006
105	0x3df586ba	0.11988588
106	0x3ca42898	0.020038888
107	0xbdd43818	-0.103622615
108	0x3d3a2502	0.04544545
109	0x3e835fde	0.25659078
110	0xbd13478a	-0.035956897
111	0xc01787b9	-2.3676589
112	0x3db4a17a	0.08819862
113	0x3e6d0882	0.23147777
114	0x3e107551	0.14107253
115	0xbe7061bd	-0.23474784
116	0x3e6e60dd	0.23279138
117	0xbd9a2378	-0.075262964
118	0xbe0f0791	-0.1396773
119	0x3e90c6d4	0.28276694
120	0xbd02277e	-0.031775944
121	0x3ea84582	0.3286553
122	0xbe1ca52c	-0.15297383
123	0xbeeda459	-0.4641445
124	0x3c8a81e5	0.016907642
125	0x3e6ca586	0.23110017
126	0xbdf39cab	-0.118951164
127	0x3e9963f4	0.2995907
128	0x3d8c108b	0.06839093
129	0xbe83e86e	-0.25763267
130	0xbf386e1d	-0.7204302
131	0xbf06925b	-0.5256707
132	0x3ba1e5f8	0.0049407445
133	0x3dd1917c	0.10232827
134	0x3bed5471	0.007242732
135	0x3dbeafb4	0.093108565
136	0x3e3316b9	0.17489137
137	0x3e9a227b	0.30104432
138	0xbddb99d4	-0.107227
139	0x3e3de25e	0.18543383
140	0xbd95495e	-0.07289384
141	0xbe25abbe	-0.16178796
142	0x3d4f8a47	0.05066898
143	0x3e3dd8f1	0.18539788
144	0xbd0c2558	-0.0342153
145	0x3ed7cffa	0.4215086
146	0xbe77fbdb	-0.24217169
147	0x3ec46710	0.3835988
148	0x3eaf3035	0.34216467
149	0x3e9468d5	0.2898623
150	0x3e3daae3	0.1852222
151	0x3d3fc37d	0.04681729
152	0xbda506a5	-0.08057908
153	0x40065fbe	2.0995936
154	0x3e88bf3c	0.267084
155	0xbd84bd8e	-0.06481467
156	0xbf3c323d	-0.7351416
157	0x3e88e8cf	0.2674012
158	0x3e8ff97c	0.2812003
159	0xbe9524b3	-0.29129562
160	0x3e8192b2	0.25307232
161	0x3ffd5df8	1.9794302
162	0xbd00a8fc	-0.031411156
163	0xbe55d292	-0.20881107
164	0xbe3aae21	-0.18230487
165	0x3e001c33	0.12510757
166	0x3e0ba39b	0.1363663
167	0x3ea5f9c3	0.32417116
168	0x3e30c080	0.17260933
169	0xbe08b8c1	-0.13351728
170	0x3db4e378	0.08832449
171	0x3ee0e77f	0.43926618
172	0x3e900e31	0.28135827
173	0x3f4b5573	0.7942726
174	0x3c00a2c4	0.007851306
175	0xbdcd09ea	-0.100116566
176	0x3ece2623	0.4026347
177	0x3e542af2	0.20719507
178	0xbd1bc9d0	-0.03803426
179	0x3ed69113	0.41907558
180	0x3f29f03a	0.6638218
181	0x3f7ca219	0.9868484
182	0xbd1e54f2	-0.03865523
183	0xbe50015e	-0.20313022
184	0xbd04c424	-0.032413617
185	0x3e31e06d	0.17370768
186	0x3f2ac73f	0.66710275
187	0xbe72a0ad	-0.23694105
188	0x3c40fb5f	0.011778682
189	0x3e3134e9	0.1730534
190	0x3e803444	0.25039876
191	0x3eb7bd81	0.35886768
192	0x3e1d2d45	0.153493
193	0xbd342cfe	-0.04398822
194	0xbe2d3f2b	-0.16918628
195	0xbe95c1b3	-0.29249343
196	0x3ccd0007	0.025024427
197	0xbead0946	-0.33796138
198	0xbd9a8bd2	-0.075462
199	0xbe41b7ec	-0.18917817
200	0x3d744643	0.05963732
201	0xbd96968a	-0.07352932
202	0xbe44e983	-0.19229703
203	0xc011b70a	-2.2767968
204	0xbd16310b	-0.036667865
205	0xbe09a8db	-0.1344332
206	0xbe7dd5a0	-0.24788523
207	0xbdc6ca1b	-0.09706517
208	0xbd856735	-0.06513826
209	0x3e1006ef	0.14065145
210	0x3d73fa91	0.05956513
211	0xbffcc170	-1.9746532
212	0xbdb682e8	-0.08911687
213	0x3e6a7c6d	0.22899027
214	0xbb02fdae	-0.001998763
215	0xbe90a631	-0.28251794
216	0x3e8129cc	0.252272
217	0x3e35ff84	0.17773253
218	0xbe00f014	-0.12591583
219	0x3e39366c	0.18087167
220	0x3dfc701c	0.12326071
221	0x3f99508b	1.1977705
222	0xbe5247a0	-0.20535135
223	0xbce48784	-0.02789665
224	0x3d2e6e88	0.04258588
225	0x3dda397e	0.10655497
226	0xbd2f3b5d	-0.042781223
227	0x3e89b07a	0.26892453
228	0xbe87cc3b	-0.26523003
229	0x3dc9d049	0.0985418
230	0xbf0cc9ad	-0.5499523
231	0x3d30243b	0.043003302
232	0xbddd5005	-0.10806278
233	0xbcf914b5	-0.030405382
234	0x3e1cded5	0.15319379
235	0x3e969f7c	0.29418552
236	0x3f9dbda4	1.2323499
237	0x3e9bb62d	0.30412427
238	0x3e07be3a	0.1325616
239	0x3e6abdb8	0.22923934
240	0x3e6c4814	0.2307437
241	0x3c99dd0d	0.018782163
242	0xbc52cc29	-0.012866058
243	0xbd8503a0	-0.06494832
244	0xbbb429d4	-0.0054981504
245	0x3e989e4b	0.29808268
246	0xbe8eca6d	-0.27888814
247	0x3e51ca2f	0.20487283
248	0x3defada5	0.11703042
249	0x3e852c62	0.26010424
250	0xbdcce325	-0.10004262
251	0xbd890afe	-0.0669155
252	0x3e693c38	0.22776878
253	0x3e55a219	0.20862617
254	0xbe24134e	-0.16022989
255	0xbdb1f006	-0.08688359

bias f4 [20]
0	0xbe21bdb5	-0.15795024
1	0x3c43f94e	0.011961294
2	0x3a94d193	0.0011353962
3	0x3e0b22f9	0.1358756
4	0x3d3b5aaa	0.04574076
5	0x3d7dd93c	0.06197475
6	0x3db6cae2	0.089254156
7	0xbbd26b0c	-0.0064214524
8	0x3e0f589d	0.13998647
9	0xbc757d2e	-0.014983458
10	0x3b82ae86	0.00398809
11	0x3e034844	0.12820536
12	0xbde67236	-0.11252253
13	0x3aef48e9	0.0018255982
14	0xbd8e8aaf	-0.069600455
15	0x3db52611	0.08845151
16	0xbdeadd02	-0.11467935
17	0xbd255edd	-0.04037367
18	0x3d6c74f0	0.057728708
19	0x3d5e2fdb	0.054244857

weight f4 [20]
0	0x3f800000	1.0
1	0x3f800000	1.0
2	0x3f800000	1.0
3	0x3f800000	1.0
4	0x3f800000	1.0
5	0x3f800000	1.0
6	0x3f800000	1.0
7	0x3f800000	1.0
8	0x3f800000	1.0
9	0x3f800000	1.0
10	0x3f800000	1.0
11	0x3f800000	1.0
12	0x3f800000	1.0
13	0x3f800000	1.0
14	0x3f800000	1.0
15	0x3f800000	1.0
16	0x3f800000	1.0
17	0x3f800000	1.0
18	0x3f800000	1.0
19	0x3f800000	1.0

bias f4 [20]
0	0x00000000	0.0
1	0x00000000	0.0
2	0x00000000	0.0
3	0x00000000	0.0
4	0x00000000	0.0
5	0x00000000	0.0
6	0x00000000	0.0
7	0x00000000	0.0
8	0x00000000	0.0
9	0x00000000	0.0
10	0x00000000	0.0
11	0x00000000	0.0
12	0x00000000	0.0
13	0x00000000	0.0
14	0x00000000	0.0
15	0x00000000	0.0
16	0x00000000	0.0
17	0x00000000	0.0
18	0x00000000	0.0
19	0x00000000	0.0

running_mean f4 [20]
0	0x00000000	0.0
1	0x00000000	0.0
2	0x00000000	0.0
3	0x00000000	0.0
4	0x00000000	0.0
5	0x00000000	0.0
6	0x00000000	0.0
7	0x00000000	0.0
8	0x00000000	0.0
9	0x00000000	0.0
10	0x00000000	0.0
11	0x00000000	0.0
12	0x00000000	0.0
13	0x00000000	0.0
14	0x00000000	0.0
15	0x00000000	0.0
16	0x00000000	0.0
17	0x00000000	0.0
18	0x00000000	0.0
19	0x00000000	0.0

running_var f4 [20]
0	0x3f800000	1.0
1	0x3f800000	1.0
2	0x3f800000	1.0
3	0x3f800000	1.0
4	0x3f800000	1.0
5	0x3f800000	1.0
6	0x3f800000	1.0
7	0x3f800000	1.0
8	0x3f800000	1.0
9	0x3f800000	1.0
10	0x3f800000	1.0
11	0x3f800000	1.0
12	0x3f800000	1.0
13	0x3f800000	1.0
14	0x3f800000	1.0
15	0x3f800000	1.0
16	0x3f800000	1.0
17	0x3f800000	1.0
18	0x3f800000	1.0
19	0x3f800000	1.0

weight f4 [2, 20]
0	0xbf2a37a1	-0.6649113
1	0x3f23ba5d	0.6395624
2	0xbeebf366	-0.46084136
3	0x3f370db5	0.7150529
4	0xbcf5ff1d	-0.030028874
5	0xbf21b07d	-0.63159925
6	0x3f129842	0.57263577
7	0x3d976fd0	0.073943734
8	0x3dc62f02	0.09676935
9	0xbdcf31a6	-0.101168916
10	0xbe19af33	-0.1500824
11	0xbf11718a	-0.5681387
12	0x3db07230	0.086155295
13	0x3f28bb65	0.6591094
14	0xbf1fcd79	-0.624229
15	0xbf357c9e	-0.70893276
16	0xbdaf284e	-0.085526094
17	0xbf3a55a3	-0.7278692
18	0xbb5822c7	-0.0032979713
19	0x3f2300fd	0.63673383
20	0x3ee7e388	0.4529078
21	0x3f2359c8	0.6380887
22	0x3f1f9084	0.6232989
23	0xbe28030e	-0.16407415
24	0x3f3b145f	0.7307796
25	0xbf118660	-0.56845665
26	0xbe7a7e2e	-0.24462196
27	0xbe07fd1e	-0.1328015
28	0xbf272c2c	-0.65301776
29	0x3e31e9f1	0.17374398
30	0x3d73f241	0.059557203
31	0x3f5e36e4	0.86802506
32	0x3cf9f000	0.030509949
33	0x3cd62493	0.026140487
34	0x3e50a320	0.20374727
35	0x3f2b12c4	0.6682551
36	0x3dd0816c	0.10180935
37	0xbee4739d	-0.44619456
38	0x3f25b683	0.64731616
39	0xbe8264c9	-0.25467518

bias f4 [2]
0	0xbe0afe2f	-0.13573526
1	0xbdd978fa	-0.106187776
