models_version2/2UAVs_56898/a_c0.pt (torch_old, 16240 bytes, 14 tensors)

weight f4 [50, 34]
000000 94 fe 0f 3e 6a 1e bc be 3c 4c 27 be 88 79 60 3e
       0.14061958 -0.36741954 -0.16337675 0.2192136
000010 61 86 d1 3d d8 f0 a9 3d 2d 48 b8 3d b2 91 bf 3c
       0.10230709 0.082978904 0.089981414 0.023384903
000020 8f 58 cc bd 76 cd 02 3e 1c 40 73 3d 46 74 b6 bc
       -0.09977829 0.1277369 0.05938731 -0.02227224
000030 99 d7 cc bc b3 76 c7 bd af 95 cb 3d 58 2f 15 3e
       -0.025005149 -0.09739437 0.09940659 0.14568841
000040 cb d2 be bd c7 96 11 3c 7a 26 34 3c 35 b6 2f bd
       -0.09317549 0.008886046 0.010995502 -0.042898376
000050 7c d2 be bb 91 cc c2 bc 94 d3 b4 bc 36 1d 1e be
       -0.0058234315 -0.023779185 -0.022073545 -0.1544083
000060 ce 86 2d bc 5a 3d 19 3e f1 a9 37 3c cb 1e 4e 3e
       -0.010591222 0.1496481 0.011209951 0.20128934
000070 c8 1c 1e 3e 0b e8 cf 3d d8 cd ff bc 6a 35 3b 3e
       0.15440667 0.101516806 -0.031226084 0.18282095
000080 e1 3b ea 3d 3b 7c 00 bd 51 08 a7 bd 1e 3c 9e 3e
       0.11437202 -0.031368475 -0.08155883 0.3090524
000090 7a c0 05 3e 93 c0 10 be 7f 16 8f 3c 22 de ee 3c
       0.13061705 -0.14135961 0.017466782 0.029158656
0000a0 d5 92 e6 3d 33 7b 21 3e ae 77 d5 bd b4 a8 38 be
       0.11258475 0.15769653 -0.10423218 -0.18033105
0000b0 42 a7 b4 bd e1 60 62 bd 25 f0 3d 3e b4 7c 07 be
       -0.088209644 -0.055268172 0.18548639 -0.13231164
0000c0 32 d2 b5 3d 58 f6 6a 3d 07 28 cf 3c b6 ab 2b be
       0.08877982 0.057363838 0.025287641 -0.16764721
0000d0 44 95 d4 bc 9a 7d 77 3c ad 00 3d 3d 8e 58 d7 3d
       -0.025950082 0.015105629 0.046143223 0.10514937
0000e0 f9 91 c1 3d a5 bf 56 3e f0 9d d8 3b b2 ec 9b bd
       0.0945167 0.20971544 0.0066106245 -0.076135054
0000f0 8e 25 fc 3c 32 83 1e be 5b ed 39 bd e8 26 e6 bd
       0.030779626 -0.15479735 -0.045392375 -0.112378895
000100 08 14 3e be 3c 37 c2 3c cd 00 41 bc 18 38 00 3e
       -0.18562329 0.023707978 -0.011779976 0.12521398
000110 17 ba 9f be 8c 4e dc 3b 8f 5e 00 3e ee e2 08 3d
       -0.31196663 0.0067232307 0.12536071 0.033419542
000120 6c 2c b6 bd 21 79 ea 3c 7f ed d5 bd 33 46 cd 3b
       -0.088951916 0.028622212 -0.104456894 0.006264472
000130 9b 3b ec bd 4c 58 4b 3d c7 73 81 bb 5f eb 47 be
       -0.11534806 0.049644753 -0.0039505693 -0.1952338
000140 62 ec 01 3e 34 78 9e 3d 60 86 03 3e ff 27 8c 3c
       0.12687829 0.07737771 0.12844229 0.017108915
000150 07 0d ca 3d 2c 73 26 3e ed ea 32 3e 55 f6 9c bd
       0.09865766 0.16254872 0.1747243 -0.076641716
000160 47 41 7c b9 b5 a2 21 be fd e5 3a 3d a2 ba e9 3d
       -0.0002405691 -0.15784724 0.04562949 0.114125505
000170 ad ff 8b 3c 4f d8 e8 3d 9c 1c 09 be e9 0e bf 3d
       0.01708969 0.113693826 -0.1338982 0.09329016
000180 0c 34 14 3e 00 5d 8a 3d f7 73 62 3d 35 19 f5 3d
       0.1447298 0.067560196 0.055286374 0.119676985
000190 90 77 ce 39 41 7b 07 3c a5 45 97 be 64 4c cb 3e
       0.00039380463 0.008269132 -0.29545322 0.3970672
0001a0 8a 45 c0 bc e8 25 c7 3d b4 fb 24 be 38 f2 e2 bd
       -0.023470659 0.09724027 -0.16111642 -0.11081356
0001b0 66 71 6f bd fb 76 33 3e ab fa 93 bd e3 23 55 bc
       -0.058457755 0.17525856 -0.072255455 -0.013009044
0001c0 15 e9 01 be 5d 4e 28 bd 37 1c a4 3d 00 7e 13 3e
       -0.1268657 -0.041090358 0.08013194 0.14403534
0001d0 31 11 fa 3c a8 77 fd 3d 7e bf ee bd ef 31 a0 3d
       0.030525776 0.12376338 -0.11657618 0.07822024
0001e0 19 b5 89 bc 4c b4 03 3e 7e 8a 42 3c 7b ab 25 be
       -0.016809987 0.12861747 0.011873839 -0.16178696
0001f0 f3 24 4a 3e c6 ab 12 3b 46 ed 2f bd 17 85 34 bd
       0.19740658 0.0022380217 -0.04295089 -0.044072237
000200 76 36 df 3d 3d a6 44 be bd e9 98 3e ce e7 6a 3d
       0.108990595 -0.1920404 0.29865828 0.057349972
000210 49 ba 3f 3d b7 17 13 3e 08 f4 2e 3e 3f 5d 70 3c
       0.046808515 0.14364515 0.17085278 0.014670669
000220 04 c3 9a bd 99 28 d1 3e af 77 d2 bd eb fa 5d be
       -0.075567275 0.40851286 -0.10276734 -0.21677749
000230 be fb ef 3c fd 14 9c bd dd f1 af 3d db d5 30 3e
       0.029294845 -0.07621191 0.08591054 0.1726908
000240 95 49 2b 3c 5c 25 23 3d 3f 04 a1 bd 97 94 3d be
       0.010454555 0.03983055 -0.07862138 -0.18513714
000250 d0 85 45 bb 5c 02 c7 bc 3d 4d 82 bd d4 2b 14 3e
       -0.0030139573 -0.024293117 -0.06362388 0.14469844
000260 60 03 80 3c c1 02 bb 3d db 35 0b be f4 9c fd bd
       0.01562661 0.09131385 -0.13594763 -0.12383452
000270 41 ab df bd c5 f6 3b 3a 5d 11 18 3e 18 de e1 3d
       -0.10921336 0.00071702554 0.14850374 0.11028689
000280 8c 5f 77 3b e7 fc 54 3d c2 8e 28 bb e1 83 a5 bd
       0.003774616 0.051999 -0.0025719856 -0.080817945
000290 56 c2 34 3e d6 cb 9a bd b4 c7 e4 3c ab e4 de ba
       0.17652258 -0.0755841 0.027927257 -0.0017005404
0002a0 36 14 4f 3e fe a7 6b bd 45 05 5b 3e 50 c7 82 be
       0.20222554 -0.057533257 0.21388729 -0.25542688
0002b0 0a 79 a3 bc fd 95 73 3e 81 cf 04 3e 3d f5 70 3d
       -0.019955177 0.23787685 0.12969781 0.058827627
0002c0 ea ea 11 be d6 23 37 bc ce b1 8b bd 65 9b 4f 3e
       -0.14249769 -0.011177978 -0.06821023 0.20274122
0002d0 44 d1 e1 3d ce 59 32 bc 5e 7b fa bc 30 02 b9 bd
       0.110262424 -0.010885669 -0.030576404 -0.0903362
0002e0 f0 02 48 3e ef 27 2e 3e c2 2e 36 3d 3e 67 ca bd
       0.1953237 0.17007421 0.044478185 -0.09882973
0002f0 a1 df f8 bd 57 94 19 3e 05 b6 dd 3d 00 e3 3f 3d
       -0.12152029 0.14997993 0.10825733 0.046847343
000300 92 62 fe 3d 5b 0d bf bc e8 57 86 bd 13 aa 1a 3e
       0.124211445 -0.023321798 -0.065597355 0.1510394
000310 c2 1c dd 3d 4c c8 50 3e 79 27 28 be 5f 0b c3 3d
       0.10796501 0.20388907 -0.16421308 0.09523653
000320 cf c7 8b bc a6 0b 16 3c ba 9e 05 bc 03 c4 45 be
       -0.01706305 0.009158051 -0.008155519 -0.19313054
000330 82 15 e1 bd 28 b5 c2 3c 10 49 66 bd a0 5f c0 3c
       -0.109904304 0.023768023 -0.05622202 0.023483098
000340 40 2b a1 bc f7 ae a5 bd 75 f4 f4 bd 00 78 d0 bc
       -0.019673944 -0.080900125 -0.11960689 -0.025447845
000350 82 42 b0 bd e8 80 a5 bc 14 f0 86 3d 16 dc b3 3d
       -0.08606435 -0.020203069 0.0658876 0.087822124
000360 1c ce 6c 3d ee 05 cb bd 14 fb 74 bd ee 8d d0 bd
       0.05781375 -0.099132404 -0.05980976 -0.10183321
000370 6c 0e ff bd 2f 61 c0 bd 22 c7 52 bd 37 84 10 be
       -0.12453923 -0.09393536 -0.05145944 -0.14112936
000380 b5 0d 10 3e 1f 85 05 3e 77 e0 22 be 2f 8b 26 be
       0.14067729 0.13039063 -0.15905939 -0.16264032
000390 30 ab af bc 50 aa 35 bc df f8 0c be 00 5b 78 3a
       -0.021443933 -0.011087969 -0.13766812 0.0009474009
0003a0 d0 6e 27 be 6d 25 03 3e ba 42 e6 3d 99 16 14 be
       -0.16350865 0.12807246 0.11243196 -0.14461745
0003b0 8c 59 b1 bd 90 04 d8 3c f1 5a 9a bd 4b 76 11 3d
       -0.08659658 0.026369363 -0.07536877 0.035513204
0003c0 c6 bc 98 bc 4e d4 66 3d 6c 58 79 3d bc c8 55 3c
       -0.018644702 0.056354813 0.06087534 0.013048347
0003d0 c6 63 b0 3d c7 ca e6 bd 41 d0 f3 bd 17 01 88 bd
       0.0861278 -0.112691455 -0.11904956 -0.06640833
0003e0 35 b5 89 bd 86 95 30 be 16 35 ba 3d 99 0a df 3c
       -0.067240156 -0.17244539 0.090921566 0.027226733
0003f0 42 64 af bd 27 02 fd bd a7 9b 2b 3e 64 30 be 3d
       -0.085640445 -0.12353926 0.16758595 0.092865735

bias f4 [50]
000000 b5 3f 38 bd b5 b1 92 3d 2b b0 dd 3c bc b1 f0 3c
       -0.04498263 0.07162801 0.027061542 0.029381625
000010 6c d8 88 3c 9a 78 a9 bd e2 0c af 3d 05 e5 ed 3c
       0.01670476 -0.08274956 0.08547379 0.02903987
000020 90 f4 0a bc 67 cd 81 3d 4a 1c 6d 3c 56 8c 03 be
       -0.00848116 0.063380055 0.014472077 -0.12846503
000030 11 ea 0c be 7c 98 d0 bd c8 cc dc bd 49 59 e5 bc
       -0.13761164 -0.10185334 -0.107812464 -0.027996676
000040 46 c4 45 bd df 6e ed bd cf 9d 5a 3d f9 b6 90 3d
       -0.048282884 -0.115934126 0.053373154 0.07066149
000050 56 f2 51 be 39 8c 7e bc ef b1 51 bc 63 67 c7 bd
       -0.205026 -0.015536361 -0.01279877 -0.09736516
000060 5b c8 06 3e 0c e1 e4 bd 1e b5 a4 bd 03 a4 e7 bd
       0.13162367 -0.11175737 -0.08042358 -0.1131058
000070 e3 a5 4a 3c c6 75 e4 bd 6e 00 80 bd b7 e5 e1 3d
       0.012368652 -0.11155276 -0.06250082 0.11030143
000080 9b 94 b0 3d e4 ce 88 bd 2b 47 a4 3d b7 d4 c6 bd
       0.08622094 -0.06680086 0.08021387 -0.09708541
000090 93 e6 18 be c6 8b 12 3e 85 c1 22 3e b6 1c 39 3e
       -0.14931707 0.14311132 0.15894134 0.18077359
0000a0 be 71 98 bd 64 48 ed 3d 6a f4 85 3d 7d bc a9 bc
       -0.074435696 0.11586073 0.06540759 -0.020719761
0000b0 ca 1e af bd dc b1 33 3e 1f b4 06 3e 32 24 e4 bd
       -0.085507944 0.17548317 0.13154648 -0.11139716
0000c0 c6 d3 01 be 70 59 0d 3e
       -0.12678441 0.13803649

weight f4 [50]
000000 00 00 80 3f 00 00 80 3f 00 00 80 3f 00 00 80 3f
       1.0 1.0 1.0 1.0
000010 00 00 80 3f 00 00 80 3f 00 00 80 3f 00 00 80 3f
       1.0 1.0 1.0 1.0
000020 00 00 80 3f 00 00 80 3f 00 00 80 3f 00 00 80 3f
       1.0 1.0 1.0 1.0
000030 00 00 80 3f 00 00 80 3f 00 00 80 3f 00 00 80 3f
       1.0 1.0 1.0 1.0
000040 00 00 80 3f 00 00 80 3f 00 00 80 3f 00 00 80 3f
       1.0 1.0 1.0 1.0
000050 00 00 80 3f 00 00 80 3f 00 00 80 3f 00 00 80 3f
       1.0 1.0 1.0 1.0
000060 00 00 80 3f 00 00 80 3f 00 00 80 3f 00 00 80 3f
       1.0 1.0 1.0 1.0
000070 00 00 80 3f 00 00 80 3f 00 00 80 3f 00 00 80 3f
       1.0 1.0 1.0 1.0
000080 00 00 80 3f 00 00 80 3f 00 00 80 3f 00 00 80 3f
       1.0 1.0 1.0 1.0
000090 00 00 80 3f 00 00 80 3f 00 00 80 3f 00 00 80 3f
       1.0 1.0 1.0 1.0
0000a0 00 00 80 3f 00 00 80 3f 00 00 80 3f 00 00 80 3f
       1.0 1.0 1.0 1.0
0000b0 00 00 80 3f 00 00 80 3f 00 00 80 3f 00 00 80 3f
       1.0 1.0 1.0 1.0
0000c0 00 00 80 3f 00 00 80 3f
       1.0 1.0

bias f4 [50]
000000 00 00 00 00 00 00 00 00 00 00 00 00 00 00 00 00
       0.0 0.0 0.0 0.0
000010 00 00 00 00 00 00 00 00 00 00 00 00 00 00 00 00
       0.0 0.0 0.0 0.0
000020 00 00 00 00 00 00 00 00 00 00 00 00 00 00 00 00
       0.0 0.0 0.0 0.0
000030 00 00 00 00 00 00 00 00 00 00 00 00 00 00 00 00
       0.0 0.0 0.0 0.0
000040 00 00 00 00 00 00 00 00 00 00 00 00 00 00 00 00
       0.0 0.0 0.0 0.0
000050 00 00 00 00 00 00 00 00 00 00 00 00 00 00 00 00
       0.0 0.0 0.0 0.0
000060 00 00 00 00 00 00 00 00 00 00 00 00 00 00 00 00
       0.0 0.0 0.0 0.0
000070 00 00 00 00 00 00 00 00 00 00 00 00 00 00 00 00
       0.0 0.0 0.0 0.0
000080 00 00 00 00 00 00 00 00 00 00 00 00 00 00 00 00
       0.0 0.0 0.0 0.0
000090 00 00 00 00 00 00 00 00 00 00 00 00 00 00 00 00
       0.0 0.0 0.0 0.0
0000a0 00 00 00 00 00 00 00 00 00 00 00 00 00 00 00 00
       0.0 0.0 0.0 0.0
0000b0 00 00 00 00 00 00 00 00 00 00 00 00 00 00 00 00
       0.0 0.0 0.0 0.0
0000c0 00 00 00 00 00 00 00 00
       0.0 0.0

running_mean f4 [50]
000000 00 00 00 00 00 00 00 00 00 00 00 00 00 00 00 00
       0.0 0.0 0.0 0.0
000010 00 00 00 00 00 00 00 00 00 00 00 00 00 00 00 00
       0.0 0.0 0.0 0.0
000020 00 00 00 00 00 00 00 00 00 00 00 00 00 00 00 00
       0.0 0.0 0.0 0.0
000030 00 00 00 00 00 00 00 00 00 00 00 00 00 00 00 00
       0.0 0.0 0.0 0.0
000040 00 00 00 00 00 00 00 00 00 00 00 00 00 00 00 00
       0.0 0.0 0.0 0.0
000050 00 00 00 00 00 00 00 00 00 00 00 00 00 00 00 00
       0.0 0.0 0.0 0.0
000060 00 00 00 00 00 00 00 00 00 00 00 00 00 00 00 00
       0.0 0.0 0.0 0.0
000070 00 00 00 00 00 00 00 00 00 00 00 00 00 00 00 00
       0.0 0.0 0.0 0.0
000080 00 00 00 00 00 00 00 00 00 00 00 00 00 00 00 00
       0.0 0.0 0.0 0.0
000090 00 00 00 00 00 00 00 00 00 00 00 00 00 00 00 00
       0.0 0.0 0.0 0.0
0000a0 00 00 00 00 00 00 00 00 00 00 00 00 00 00 00 00
       0.0 0.0 0.0 0.0
0000b0 00 00 00 00 00 00 00 00 00 00 00 00 00 00 00 00
       0.0 0.0 0.0 0.0
0000c0 00 00 00 00 00 00 00 00
       0.0 0.0

running_var f4 [50]
000000 00 00 80 3f 00 00 80 3f 00 00 80 3f 00 00 80 3f
       1.0 1.0 1.0 1.0
000010 00 00 80 3f 00 00 80 3f 00 00 80 3f 00 00 80 3f
       1.0 1.0 1.0 1.0
000020 00 00 80 3f 00 00 80 3f 00 00 80 3f 00 00 80 3f
       1.0 1.0 1.0 1.0
000030 00 00 80 3f 00 00 80 3f 00 00 80 3f 00 00 80 3f
       1.0 1.0 1.0 1.0
000040 00 00 80 3f 00 00 80 3f 00 00 80 3f 00 00 80 3f
       1.0 1.0 1.0 1.0
000050 00 00 80 3f 00 00 80 3f 00 00 80 3f 00 00 80 3f
       1.0 1.0 1.0 1.0
000060 00 00 80 3f 00 00 80 3f 00 00 80 3f 00 00 80 3f
       1.0 1.0 1.0 1.0
000070 00 00 80 3f 00 00 80 3f 00 00 80 3f 00 00 80 3f
       1.0 1.0 1.0 1.0
000080 00 00 80 3f 00 00 80 3f 00 00 80 3f 00 00 80 3f
       1.0 1.0 1.0 1.0
000090 00 00 80 3f 00 00 80 3f 00 00 80 3f 00 00 80 3f
       1.0 1.0 1.0 1.0
0000a0 00 00 80 3f 00 00 80 3f 00 00 80 3f 00 00 80 3f
       1.0 1.0 1.0 1.0
0000b0 00 00 80 3f 00 00 80 3f 00 00 80 3f 00 00 80 3f
       1.0 1.0 1.0 1.0
0000c0 00 00 80 3f 00 00 80 3f
       1.0 1.0

weight f4 [20, 50]
000000 b6 84 00 be b7 df 76 bd 82 80 0f be b5 c1 04 be
       -0.12550625 -0.060271945 -0.14013866 -0.12964518
000010 b1 9e 6d 3d 9a c0 03 bd 2c e2 33 3d 65 db 0e 3d
       0.058012668 -0.0321661 0.043916866 0.0348772
000020 3c 73 c2 bd 0d f0 10 be fe 66 9e bc f3 aa 59 3d
       -0.094946355 -0.14154072 -0.01933622 0.053141546
000030 94 53 f3 bc d0 f5 20 3d bf e4 e4 3d 53 80 df bd
       -0.02970294 0.039296925 0.11176442 -0.10913148
000040 33 cf a8 bd 50 f7 b8 3d 7f 52 96 bd c7 4a 03 bd
       -0.08242645 0.09031546 -0.07339954 -0.032053735
000050 37 10 d9 3d f0 92 ca bd 48 a0 31 bd bd 15 37 3d
       0.10598796 -0.09891307 -0.043365747 0.044698466
000060 54 a9 fd 3b df 2d cd 3d 49 47 a6 3d 9b 8e 28 3d
       0.0077411328 0.10018515 0.08119065 0.041151624
000070 56 be f9 bd a5 d6 16 3b a5 7a c1 bd 0d 15 da 3b
       -0.12194507 0.0023016122 -0.09447221 0.0066553415
000080 a7 e2 70 3c 2d 03 fc 3d 2a 1c 03 3e 16 d9 5c bd
       0.014702476 0.12305293 0.12803712 -0.053917967
000090 6a 54 d6 3d f3 cf 72 bd 6a 2c c7 3d 19 5d 01 3d
       0.104653195 -0.059280347 0.09725268 0.031582925
0000a0 f3 b8 07 bd ca cd 3c bd c8 22 6a bd 87 80 d4 bc
       -0.033135366 -0.046094693 -0.057162076 -0.025940193
0000b0 ff 39 67 3c 2c 9d db bd 1c 3d 94 bd f6 7a a0 3d
       0.014112948 -0.107233375 -0.07238218 0.07835953
0000c0 74 fe 1b 3d e2 96 9d 3d 0e 67 98 3c 19 51 1c bd
       0.038084462 0.07694794 0.018603828 -0.03816328
0000d0 11 b9 33 bd 1f dc bf bc 9e a1 fb 3d 18 21 24 be
       -0.043877665 -0.023420392 0.122866854 -0.1602825
0000e0 ec 9d bb 3d 40 03 7a 3b dc 4b 88 bd 63 6a 93 3d
       0.091609806 0.003814891 -0.06655094 0.07198026
0000f0 ce 05 16 be 35 41 73 bb b4 86 7d bd 8c 3b 66 ba
       -0.14650652 -0.0037117724 -0.06189604 -0.0008782677
000100 83 8e 7f 3c 35 08 ba bc f9 15 00 3d 13 71 07 be
       0.015597942 -0.022708992 0.031270955 -0.13226728
000110 07 12 fc 3d 87 77 44 bc bb ef 98 3b d7 4f de bd
       0.12308126 -0.011991388 0.00466725 -0.10855072
000120 df 35 0b be f4 97 f7 bd ff 82 a3 3d 0e 57 c7 bd
       -0.13594769 -0.1208953 0.0798397 -0.09733401
000130 58 1e bf bd cd ce 08 3d 64 dd e7 3a 8c 74 14 bd
       -0.093319595 0.033400346 0.0017689881 -0.03624396
000140 3c e1 3a be 28 74 83 3d 52 17 05 bd dc 60 cc bd
       -0.18249983 0.064186394 -0.032492943 -0.09979412
000150 86 c1 ad bd f8 f0 cc 3d 59 f3 d9 3d dc ff 80 3d
       -0.08484177 0.10006899 0.10642118 0.06298801
000160 8e 13 a7 bd 1a de 83 3d c4 12 ac bd 08 86 fa bd
       -0.08158027 0.06438847 -0.08402017 -0.12232596
000170 ce bc 75 bd 59 5e be 3c 97 e1 a0 bd 1f 16 ca 3d
       -0.05999451 0.023238348 -0.07855528 0.098675005
000180 75 73 35 bd cb 22 76 3c 5b 03 0d bc 4a a9 8a 3c
       -0.04429956 0.015022944 -0.008606757 0.016926426
000190 96 93 ad 3d bb c3 23 be 90 b3 60 3d 44 b2 1a be
       0.084754154 -0.15992634 0.054858744 -0.15107065
0001a0 9c 4d 30 be 52 3e 80 3d 30 78 f4 bd ab 41 72 3d
       -0.17217106 0.06261887 -0.119369864 0.059144657
0001b0 1b 57 05 3e d2 f6 02 3e 49 b7 2c 3e c9 57 20 3d
       0.1302151 0.12789467 0.16866793 0.03914622
0001c0 e0 d0 81 3d 05 68 2a bd 48 ab 3a 3e 65 ef 09 3e
       0.06338668 -0.041603107 0.18229401 0.13470228
0001d0 37 98 ac bd fb db 96 bd 96 f7 c3 3d 73 4b 01 3e
       -0.0842747 -0.07366177 0.09568708 0.12626438
0001e0 81 46 0d be ea 7b a1 be 37 63 e0 bb fc 44 32 3e
       -0.13796426 -0.3153985 -0.006847765 0.17409128
0001f0 5d 01 5d 3e 3a bc 93 bd 48 ae 80 3e fb a0 9f 3e
       0.21582551 -0.07213636 0.25132966 0.31177506
000200 0a 88 4a 3e ad cf 49 be db 79 9d 3e 97 f4 1b 3c
       0.19778457 -0.19708128 0.3075703 0.009518764
000210 93 57 dc bd 79 85 57 bd 8c 54 dc 3d 10 aa 8e 3e
       -0.10758891 -0.052617524 0.107583135 0.27864122
000220 12 59 fe bc 1e d9 33 bc ab 8c 95 3c 4d 75 65 3d
       -0.031048331 -0.010977058 0.018255552 0.05602007
000230 44 ef 2e 3d be ce 3e bc fd 7a cd bd 3c a7 6a 3e
       0.04270865 -0.011645971 -0.10033224 0.22915357
000240 83 d9 45 3d e8 0d 5f be 06 c1 3d 3e b2 41 83 3e
       0.04830314 -0.21782649 0.18530664 0.2563606
000250 14 a1 bc bc 2f 8e 8b be 4c db 96 3d bf 5b fa 3c
       -0.023026027 -0.27256915 0.07366046 0.030561326
000260 f3 6c 22 3e c1 e1 01 3e 3a 63 40 3e 02 87 9d bd
       0.15861873 0.12683775 0.18787852 -0.07691766
000270 f8 49 b4 3c 22 9d 12 3e fc 73 89 bd eb e7 09 3d
       0.022007927 0.14317754 -0.067115754 0.03366844
000280 37 07 06 be 11 4a d7 bd f8 b0 98 3c 1b 95 71 3c
       -0.1308869 -0.10512174 0.018639073 0.014745022
000290 1d c0 23 be 76 0d 7e 3c 40 a3 08 bd b4 8e 24 bd
       -0.15991254 0.015506139 -0.033358812 -0.040175155
0002a0 68 e1 59 3c 4f 77 39 be 1b 72 db bb 11 c4 0a 3e
       0.01329837 -0.18111919 -0.006696952 0.13551356
0002b0 e1 eb 65 3e d9 f1 12 3e bd 7c 0e be 12 f6 ee 3d
       0.22453262 0.1435007 -0.13914771 0.11668028
0002c0 39 93 1a be 0d 63 08 be bf 82 58 be 5a e7 01 3e
       -0.15095223 -0.13319035 -0.21143626 0.1268591
0002d0 69 45 e8 bc d1 cb e2 3d 33 32 4e 3e a7 e9 a2 bd
       -0.02835341 0.11074031 0.20136337 -0.07954722
0002e0 97 0d 0d 3e 3b 12 14 bc 7a 34 b4 3d b8 e3 bf 3d
       0.13774715 -0.00903755 0.087990716 0.09369606
0002f0 6a 47 4c 3d bd aa 87 bd 0e f9 c0 3d 85 05 64 3e
       0.049872793 -0.066243626 0.094225034 0.2226773
000300 a3 8d 47 3e 72 c8 58 be 48 ff e5 bc b6 8f 7a 3e
       0.19487624 -0.21170214 -0.02807583 0.24468884
000310 5b 8a 9c bd 58 16 7e bc 31 0b c0 3d 76 54 fd bb
       -0.07643577 -0.015508257 0.093771346 -0.007731016
000320 72 0a 81 be 7e d9 87 3e 16 81 c2 ba f0 11 8c 3e
       -0.25203282 0.2653312 -0.0014839496 0.27357435
000330 30 c6 34 3e e3 b1 e6 bd a8 7a c6 bd cc be d2 3d
       0.17653728 -0.11264398 -0.096913636 0.10290298
000340 04 a3 8c bc 89 f6 b0 3d 16 e0 95 3d 7f 34 10 bd
       -0.017167576 0.08640773 0.073181316 -0.035206314
000350 34 5e ae bc 1a fd f1 3d 8b d8 46 be b7 9a ab 3d
       -0.021285154 0.118158534 -0.19418542 0.08379119
000360 9f d1 6d bb 60 a7 ab 3d b9 41 67 be a3 77 7f bd
       -0.0036288274 0.083815336 -0.22583665 -0.062369954
000370 c3 1a ed bc af a3 a2 3e 59 49 ee 3d 35 fb b7 bd
       -0.028943425 0.31765506 0.11635084 -0.08983461
000380 14 5f 0d be 92 0d 0a bb 70 70 3f be f3 21 c2 bd
       -0.138058 -0.0021065217 -0.18695235 -0.094791315
000390 53 28 80 be ae e6 0b 3e 00 d2 41 bd 0f 20 0a 3e
       -0.25030765 0.13662216 -0.047319412 0.13488792
0003a0 7c 40 a3 bc 0b e4 1c 3d a9 f1 20 be ab 99 24 be
       -0.01992821 0.038303416 -0.15717186 -0.16074245
0003b0 6e 04 09 3e 5b 47 8c 3c 85 bb 50 3c 12 6d 61 bd
       0.13380596 0.017123869 0.012740021 -0.05503566
0003c0 b1 b0 2b 3e 3b e9 91 3e a3 34 72 3e 58 15 79 be
       0.16766621 0.28498253 0.23652892 -0.24324548
0003d0 5a 38 0b 3e 16 d1 0d 3e bd 3b ce bb e1 32 3b 3a
       0.13595715 0.13849291 -0.0062937425 0.00071410654
0003e0 92 1b a6 3c d6 ac 55 3e 4b f1 e0 3d 80 ae 2d be
       0.020276818 0.20866713 0.10983523 -0.16961098
0003f0 3b 77 9c bd 3e 68 9d be 7c 44 24 be 4e 2d a8 3d
       -0.07639929 -0.30743593 -0.1604175 0.08211766

bias f4 [20]
000000 90 a1 20 bd cd c9 bd 3c f1 5e e1 3d 6a e9 68 3c
       -0.039216578 0.023167515 0.11004437 0.0142158065
000010 ae 23 9c bc 17 8b ab bd 4b 68 5e 3d 55 c9 c3 3d
       -0.019059982 -0.08376139 0.05429868 0.095598854
000020 84 d0 cc 3d 47 79 26 3b 08 28 56 3d 6c cb 68 bd
       0.10000709 0.0025401877 0.05228427 -0.056834623
000030 f1 85 ff bd ed e8 23 3d 3f 37 e3 3d 39 a0 44 bd
       -0.12476719 0.040017057 0.11094522 -0.048004363
000040 40 c0 d3 3c 0c 0b 0f 3e be 35 84 bc 59 93 e1 3d
       0.025848508 0.13969058 -0.016138908 0.110144325

weight f4 [20]
000000 00 00 80 3f 00 00 80 3f 00 00 80 3f 00 00 80 3f
       1.0 1.0 1.0 1.0
000010 00 00 80 3f 00 00 80 3f 00 00 80 3f 00 00 80 3f
       1.0 1.0 1.0 1.0
000020 00 00 80 3f 00 00 80 3f 00 00 80 3f 00 00 80 3f
       1.0 1.0 1.0 1.0
000030 00 00 80 3f 00 00 80 3f 00 00 80 3f 00 00 80 3f
       1.0 1.0 1.0 1.0
000040 00 00 80 3f 00 00 80 3f 00 00 80 3f 00 00 80 3f
       1.0 1.0 1.0 1.0

bias f4 [20]
000000 00 00 00 00 00 00 00 00 00 00 00 00 00 00 00 00
       0.0 0.0 0.0 0.0
000010 00 00 00 00 00 00 00 00 00 00 00 00 00 00 00 00
       0.0 0.0 0.0 0.0
000020 00 00 00 00 00 00 00 00 00 00 00 00 00 00 00 00
       0.0 0.0 0.0 0.0
000030 00 00 00 00 00 00 00 00 00 00 00 00 00 00 00 00
       0.0 0.0 0.0 0.0
000040 00 00 00 00 00 00 00 00 00 00 00 00 00 00 00 00
       0.0 0.0 0.0 0.0

running_mean f4 [20]
000000 00 00 00 00 00 00 00 00 00 00 00 00 00 00 00 00
       0.0 0.0 0.0 0.0
000010 00 00 00 00 00 00 00 00 00 00 00 00 00 00 00 00
       0.0 0.0 0.0 0.0
000020 00 00 00 00 00 00 00 00 00 00 00 00 00 00 00 00
       0.0 0.0 0.0 0.0
000030 00 00 00 00 00 00 00 00 00 00 00 00 00 00 00 00
       0.0 0.0 0.0 0.0
000040 00 00 00 00 00 00 00 00 00 00 00 00 00 00 00 00
       0.0 0.0 0.0 0.0

running_var f4 [20]
000000 00 00 80 3f 00 00 80 3f 00 00 80 3f 00 00 80 3f
       1.0 1.0 1.0 1.0
000010 00 00 80 3f 00 00 80 3f 00 00 80 3f 00 00 80 3f
       1.0 1.0 1.0 1.0
000020 00 00 80 3f 00 00 80 3f 00 00 80 3f 00 00 80 3f
       1.0 1.0 1.0 1.0
000030 00 00 80 3f 00 00 80 3f 00 00 80 3f 00 00 80 3f
       1.0 1.0 1.0 1.0
000040 00 00 80 3f 00 00 80 3f 00 00 80 3f 00 00 80 3f
       1.0 1.0 1.0 1.0

weight f4 [2, 20]
000000 1c 72 f3 3d 24 b9 1a 3e 87 f6 4c be f3 c1 67 3e
       0.11886999 0.15109688 -0.20015918 0.2263258
000010 18 58 71 3e 58 c7 96 be 7f fa 0f 3e 1f 92 65 be
       0.23568761 -0.29448962 0.140604 -0.22419022
000020 a7 df b8 3d e1 f5 57 3d 7b ec 8d 3d 4e 66 35 be
       0.09027033 0.052724723 0.06929871 -0.17714807
000030 40 a7 1e be 69 3a a7 be 93 89 46 be 98 24 b9 3d
       -0.15493488 -0.3266175 -0.19388418 0.09040183
000040 aa c7 8d be b2 be 42 be 65 a9 96 be ff e0 6c 3d
       -0.27691394 -0.19018057 -0.29426113 0.05783176
000050 6f 79 a3 bd ad 21 35 be 5e 3d 5f 3e b0 75 55 bd
       -0.07982146 -0.17688628 0.21800753 -0.05211419
000060 e9 06 61 be db 9d d8 3e c5 4c d3 be 72 d6 24 be
       -0.21975292 0.42307934 -0.41269508 -0.1609743
000070 ed 09 4c 3e ef d3 81 3e e7 7e bf 3e 63 8f 7f be
       0.19925661 0.25357005 0.37401506 -0.24957041
000080 53 d7 b8 be 5f 7a 21 3e e9 b3 aa be b5 bc 2e 3e
       -0.3610178 0.15769337 -0.33340386 0.17064174
000090 96 96 de bb 49 07 4f be 9b 63 4a 3e 46 c2 68 be
       -0.0067928536 -0.20217623 0.19764559 -0.2273036

bias f4 [2]
000000 a2 59 43 3e 91 37 23 be
       0.19077161 -0.15939166
