models_version2/2UAVs_87607/a_t0.pt (torch_old, 16240 bytes, 14 tensors)

weight f4 [50, 34]
000000 f4 9f 74 3e 45 4e 59 3f f0 a9 0b be b7 dd 40 be
       0.23889142 0.84885055 -0.13639045 -0.18834578
000010 25 8a da bd fc 1e 2a 3e 76 e9 05 be 02 21 0d be
       -0.1067088 0.16613382 -0.1307734 -0.13782123
000020 06 25 ac 3d 1b 0c aa bd 47 2d 06 3e 40 14 9f bd
       0.08405499 -0.0830309 0.1310321 -0.07767534
000030 ba e9 51 3e 86 f0 a3 bc 21 cd f8 bd 03 58 47 3d
       0.20499316 -0.020012151 -0.121485 0.04866792
000040 e1 51 9c bc 50 dd 61 3c fd 11 fa 3d 6b 36 f7 3d
       -0.019082012 0.013785675 0.12210462 0.12070926
000050 b0 ac 33 be f5 d4 56 3d 97 ca 09 be 05 a4 ef 3c
       -0.17546344 0.052449185 -0.13456188 0.029253015
000060 8a e1 87 bc 7b 58 ae bc 43 a6 79 3e f8 71 2c be
       -0.016587038 -0.021282425 0.2437983 -0.1684035
000070 e1 ae 17 3d b5 f0 0d 3e 48 b7 e4 bd a2 58 fa 3d
       0.037032012 0.13861354 -0.111677706 0.122239366
000080 b2 59 c0 bc 87 69 83 bd 03 43 4d bf 9d 9f 9a be
       -0.02348027 -0.06416612 -0.80180377 -0.301999
000090 6d 9b 05 3e a7 25 af bd 6e bb b5 3d 3e c2 dc 3d
       0.13047571 -0.085521035 0.0887364 0.10779236
0000a0 f7 61 69 3d 4c 74 40 3e 04 ae 42 bd fe 21 a9 3d
       0.056978192 0.18794364 -0.047529235 0.082584366
0000b0 be fd 97 3d e9 fb 41 3e a7 c1 22 be 08 75 13 be
       0.07421444 0.18943752 -0.15894185 -0.14400113
0000c0 67 ec 8d 3d 1d 15 ea bd be 37 84 3d b2 e3 9d bc
       0.06929856 -0.11429808 0.064559445 -0.019273613
0000d0 ac 37 2b bd 3d 91 fa 3d 1a d8 ad bd 5f 19 37 b9
       -0.04180114 0.12234733 -0.08488484 -0.00017461691
0000e0 97 78 2c bb 78 8f b3 3d 7c 0e 9c bd b4 b3 01 3e
       -0.0026316994 0.08767599 -0.0761995 0.12666208
0000f0 22 f6 5f be 5e 9f 2e 3e 32 37 35 3d de 29 14 3d
       -0.21871236 0.17052981 0.04424209 0.03617274
000100 1e a2 5e bc 1a fd a2 bd 24 bd 8d bd 78 dd a7 bd
       -0.013588456 -0.079584315 -0.06920841 -0.08196539
000110 40 93 49 bf 38 bc 14 bf 76 64 d6 3d 11 d7 81 3c
       -0.7874031 -0.580997 0.1046838 0.015849622
000120 ef 15 6e bd 20 35 50 3d 42 b5 d2 bd 57 b0 78 bd
       -0.058126386 0.050831914 -0.102884784 -0.060715046
000130 51 f7 68 bd e9 33 fa 3d 0b e9 a7 bc b9 2f f9 3b
       -0.056876484 0.12216932 -0.020496866 0.007604566
000140 7e 90 b6 3a b2 5b c3 3c e9 26 e9 3d f4 92 db 3d
       0.001392856 0.023847435 0.11384375 0.107213885
000150 bd cd cd 3d c3 4d 1f 3e b2 c4 fb 3d 27 48 3a 3e
       0.10049007 0.15557007 0.12293376 0.18191586
000160 96 d1 ab 3d 56 ac df 3c ad 4e 83 3d dc d0 da 3c
       0.08389585 0.027303856 0.064114906 0.02671092
000170 98 20 67 bd 3c bd 20 3e 20 d8 13 be 93 f3 16 be
       -0.05642757 0.15697187 -0.14437914 -0.14741354
000180 35 b1 8a 3d a3 20 c3 3d 47 7c c4 bd b3 ba 9a bd
       0.06772081 0.09527709 -0.095940165 -0.07555141
000190 61 91 5d 3d c6 82 6f 3d c7 97 a8 be 54 2d 2d 3f
       0.054093722 0.058474325 -0.32928297 0.6764729
0001a0 03 c4 12 3e 34 b4 57 bd 04 a1 44 3d 2f 57 9f bb
       0.14332585 -0.05266209 0.04800512 -0.004862688
0001b0 26 ec 8c 3d bc 49 b5 3d 80 c1 56 bd 2d 0a 5e 3d
       0.06880979 0.08851954 -0.05243063 0.054208923
0001c0 04 34 e5 bd c7 4e 47 3e b5 83 84 3d 29 c6 dd be
       -0.11191562 0.19463645 0.064704336 -0.43315247
0001d0 f8 c0 1a be 28 b7 cf bb 14 41 81 bd 94 35 3f b9
       -0.15112674 -0.0063389726 -0.06311241 -0.00018235139
0001e0 9f 72 69 be 0a 58 b4 bd 0d f8 f5 bd 3c 0a b5 bd
       -0.2279763 -0.088058546 -0.120102026 -0.08839843
0001f0 a8 6b 31 3e d0 cc e6 bd 2c bc 73 3d 5d 09 95 3d
       0.17326224 -0.11269534 0.059505627 0.072771765
000200 4e 28 a9 be c0 71 23 3e 6d 12 93 bd a4 e2 c3 3d
       -0.33038563 0.15961361 -0.07181249 0.09564713
000210 2d a4 ca be 01 ec 0a 3d b1 39 4c be 93 9e 9b 3d
       -0.3957838 0.033916477 -0.19943883 0.07598605
000220 35 4c 25 3f 0f 07 66 bd 07 34 04 bd 8f c2 50 bd
       0.6456941 -0.056159075 -0.03227618 -0.050966796
000230 4a f2 e4 bc d7 07 dd 3d c1 45 dc 3c f9 4e 09 be
       -0.027947564 0.10792511 0.02688873 -0.13409032
000240 d7 50 02 3e 8d 84 91 3d ea 28 19 3d c3 85 ff bd
       0.1272615 0.0710536 0.037392534 -0.12476685
000250 ba 99 20 3e b3 02 95 3e c0 d7 c6 3d 5e 34 33 3d
       0.15683642 0.29103622 0.0970912 0.043751113
000260 d7 24 13 3e 70 d7 14 3e 2a 8e d9 bd ae b7 0d 3d
       0.14369522 0.14535308 -0.10622819 0.034599
000270 68 d0 e4 bb 4d a0 c5 3c 51 de 24 be 9c f5 45 bd
       -0.006982852 0.024124289 -0.16100432 -0.048329934
000280 68 62 61 3d f0 43 08 3c 57 d1 5c 3d 03 17 d4 3d
       0.05502549 0.008316979 0.05391058 0.10355952
000290 98 dc c8 bd 69 64 33 3e 52 de 03 be 76 fd 2e 3e
       -0.098077 0.17518772 -0.12877777 0.17088875
0002a0 da fe f1 bd 5c 4c c2 3c a0 da 65 3e 12 f2 3e bf
       -0.11816187 0.023718052 0.2244668 -0.7458812
0002b0 6e 02 2b 3e 6b 8a 42 bd b2 5f 45 3e 8c aa 6e bd
       0.16700146 -0.047495287 0.19274786 -0.058268115
0002c0 70 a3 17 be e4 d7 98 3c 0b 22 8e bd 88 c7 3a bd
       -0.1480844 0.018657632 -0.06940087 -0.045600444
0002d0 3e 87 82 bd 7a c9 45 3e d2 47 09 3d 08 b3 16 3e
       -0.06373452 0.19315138 0.03351576 0.14716733
0002e0 15 b6 dc bc 32 f3 00 3d 66 f4 02 be 46 13 18 be
       -0.026942292 0.03148193 -0.12788543 -0.14851102
0002f0 5b 5e 0c be fe 63 95 bc 8d 7b 88 3c b3 bb 69 3e
       -0.13707869 -0.018236157 0.016660476 0.22825508
000300 10 ed f1 3c 87 e7 07 be f4 62 92 3e cd 78 36 3e
       0.029531986 -0.13271914 0.2859112 0.1781952
000310 44 0d b2 bd 84 51 0b 3e 86 0a 3f 3e 08 d3 8c bd
       -0.086939365 0.13605314 0.18656358 -0.068761885
000320 a9 b0 ca bc 96 ad aa bc ea 39 6c bd 88 98 dc 3d
       -0.024742441 -0.020834725 -0.05767242 0.107712805
000330 8c 35 07 bf 39 ef 3b bf 93 3d 92 3d fb 03 47 3d
       -0.5281608 -0.734119 0.071406506 0.04858778
000340 62 4a c5 3d a3 11 e8 bd ba 94 fe 3d aa ab 70 3e
       0.09633328 -0.11331489 0.12430711 0.23502985
000350 9a e4 ce bc d7 74 29 3d 35 41 89 3d 38 9a f9 3c
       -0.02525549 0.041371193 0.067018904 0.030469045
000360 61 82 02 be c8 48 17 bd cf 49 65 3d 6c 49 78 bd
       -0.12745048 -0.036934644 0.055978592 -0.060616896
000370 9a 90 2b 3e 8d 5c 2b bd ef d0 00 3e d6 78 a9 bd
       0.1675438 -0.04183631 0.12579702 -0.08275001
000380 6e c7 e2 3c 34 38 02 3c 5e 97 c0 bc 34 5a 11 3d
       0.027682986 0.00794797 -0.023509677 0.035486415
000390 da 44 14 3e 25 9b fe 3d 2d 72 29 be d1 39 be 3d
       0.1447939 0.12431935 -0.16547461 0.09288371
0003a0 f2 b2 c5 3d 15 86 2a 3d 44 90 16 bd 66 83 31 3c
       0.09653272 0.041631777 -0.036758676 0.0108345505
0003b0 07 fe 1a be ab f6 70 3d b9 9b 06 bf 58 4e 18 bf
       -0.15135966 0.05882899 -0.52581364 -0.59494543
0003c0 24 52 b7 3d 75 b7 84 bd f6 ec bc bd f4 77 cb 3c
       0.08951214 -0.06480304 -0.09224884 0.024837472
0003d0 e6 db 18 3d e4 ba 4e 3e 9b ad de 3d 03 57 87 3d
       0.037319086 0.2018848 0.10872956 0.06608393
0003e0 f3 21 a7 3c a8 d4 2b 3e e2 db 31 bd 6b 72 9a 3d
       0.02040193 0.1678034 -0.043422587 0.07541355
0003f0 75 17 b2 3d b3 53 d2 3d 43 a4 48 3d 7d 7f 79 3b
       0.0869588 0.102698706 0.048984777 0.0038070374

bias f4 [50]
000000 67 68 10 3e 8d bf aa 3d fb 48 c8 3d 12 4c 5c 3d
       0.14102326 0.08337317 0.09779545 0.053783484
000010 ed d5 27 be 92 37 46 3e 25 ae 73 3b 43 ea d9 3d
       -0.163902 0.19357136 0.0037182656 0.10640385
000020 65 10 01 be 84 99 37 3e eb 78 17 be 4e 12 1b 3d
       -0.1260391 0.17929655 -0.1479222 0.037859254
000030 e4 02 33 3e 89 8f f5 3b 98 5c 72 3d 22 40 aa bd
       0.17481571 0.0074939174 0.059170336 -0.083130136
000040 41 08 bf bd fd ab 40 bd a2 a2 49 3e a8 94 af bc
       -0.09327746 -0.04703902 0.19690946 -0.02143319
000050 b2 46 49 bd c7 f7 06 be c7 2e 21 3b 88 28 68 bc
       -0.049139686 -0.13180457 0.0024594532 -0.01416982
000060 07 06 34 be d6 bd 9c bd 2d d7 5d bd 3c d6 02 3e
       -0.17580424 -0.07653396 -0.054160286 0.12777036
000070 7c 3e 78 3d 31 5b 02 3e 91 50 e6 3d 71 6e 90 3d
       0.060606465 0.127301 0.112458356 0.07052315
000080 a3 79 ae 3d 27 12 82 bd f7 57 5d 3e 1d ce 49 3e
       0.08519294 -0.063511185 0.21615587 0.19707532
000090 bd 09 d4 bd b4 47 2d bd 1a 07 85 3e ca 69 0d be
       -0.1035342 -0.04230471 0.2598198 -0.13809887
0000a0 26 25 25 3e 42 69 70 3d e1 de 0f be 96 6f e4 3c
       0.16127452 0.05869413 -0.14049865 0.02788524
0000b0 df db 4b 3c b8 d8 94 bc 48 e3 0f bc 29 11 fc bd
       0.012442558 -0.018169746 -0.008782215 -0.123079605
0000c0 28 d1 7b 3d bf 7e 81 bc
       0.061478764 -0.015807508

weight f4 [50]
000000 00 00 80 3f 00 00 80 3f 00 00 80 3f 00 00 80 3f
       1.0 1.0 1.0 1.0
000010 00 00 80 3f 00 00 80 3f 00 00 80 3f 00 00 80 3f
       1.0 1.0 1.0 1.0
000020 00 00 80 3f 00 00 80 3f 00 00 80 3f 00 00 80 3f
       1.0 1.0 1.0 1.0
000030 00 00 80 3f 00 00 80 3f 00 00 80 3f 00 00 80 3f
       1.0 1.0 1.0 1.0
000040 00 00 80 3f 00 00 80 3f 00 00 80 3f 00 00 80 3f
       1.0 1.0 1.0 1.0
000050 00 00 80 3f 00 00 80 3f 00 00 80 3f 00 00 80 3f
       1.0 1.0 1.0 1.0
000060 00 00 80 3f 00 00 80 3f 00 00 80 3f 00 00 80 3f
       1.0 1.0 1.0 1.0
000070 00 00 80 3f 00 00 80 3f 00 00 80 3f 00 00 80 3f
       1.0 1.0 1.0 1.0
000080 00 00 80 3f 00 00 80 3f 00 00 80 3f 00 00 80 3f
       1.0 1.0 1.0 1.0
000090 00 00 80 3f 00 00 80 3f 00 00 80 3f 00 00 80 3f
       1.0 1.0 1.0 1.0
0000a0 00 00 80 3f 00 00 80 3f 00 00 80 3f 00 00 80 3f
       1.0 1.0 1.0 1.0
0000b0 00 00 80 3f 00 00 80 3f 00 00 80 3f 00 00 80 3f
       1.0 1.0 1.0 1.0
0000c0 00 00 80 3f 00 00 80 3f
       1.0 1.0

bias f4 [50]
000000 00 00 00 00 00 00 00 00 00 00 00 00 00 00 00 00
       0.0 0.0 0.0 0.0
000010 00 00 00 00 00 00 00 00 00 00 00 00 00 00 00 00
       0.0 0.0 0.0 0.0
000020 00 00 00 00 00 00 00 00 00 00 00 00 00 00 00 00
       0.0 0.0 0.0 0.0
000030 00 00 00 00 00 00 00 00 00 00 00 00 00 00 00 00
       0.0 0.0 0.0 0.0
000040 00 00 00 00 00 00 00 00 00 00 00 00 00 00 00 00
       0.0 0.0 0.0 0.0
000050 00 00 00 00 00 00 00 00 00 00 00 00 00 00 00 00
       0.0 0.0 0.0 0.0
000060 00 00 00 00 00 00 00 00 00 00 00 00 00 00 00 00
       0.0 0.0 0.0 0.0
000070 00 00 00 00 00 00 00 00 00 00 00 00 00 00 00 00
       0.0 0.0 0.0 0.0
000080 00 00 00 00 00 00 00 00 00 00 00 00 00 00 00 00
       0.0 0.0 0.0 0.0
000090 00 00 00 00 00 00 00 00 00 00 00 00 00 00 00 00
       0.0 0.0 0.0 0.0
0000a0 00 00 00 00 00 00 00 00 00 00 00 00 00 00 00 00
       0.0 0.0 0.0 0.0
0000b0 00 00 00 00 00 00 00 00 00 00 00 00 00 00 00 00
       0.0 0.0 0.0 0.0
0000c0 00 00 00 00 00 00 00 00
       0.0 0.0

running_mean f4 [50]
000000 00 00 00 00 00 00 00 00 00 00 00 00 00 00 00 00
       0.0 0.0 0.0 0.0
000010 00 00 00 00 00 00 00 00 00 00 00 00 00 00 00 00
       0.0 0.0 0.0 0.0
000020 00 00 00 00 00 00 00 00 00 00 00 00 00 00 00 00
       0.0 0.0 0.0 0.0
000030 00 00 00 00 00 00 00 00 00 00 00 00 00 00 00 00
       0.0 0.0 0.0 0.0
000040 00 00 00 00 00 00 00 00 00 00 00 00 00 00 00 00
       0.0 0.0 0.0 0.0
000050 00 00 00 00 00 00 00 00 00 00 00 00 00 00 00 00
       0.0 0.0 0.0 0.0
000060 00 00 00 00 00 00 00 00 00 00 00 00 00 00 00 00
       0.0 0.0 0.0 0.0
000070 00 00 00 00 00 00 00 00 00 00 00 00 00 00 00 00
       0.0 0.0 0.0 0.0
000080 00 00 00 00 00 00 00 00 00 00 00 00 00 00 00 00
       0.0 0.0 0.0 0.0
000090 00 00 00 00 00 00 00 00 00 00 00 00 00 00 00 00
       0.0 0.0 0.0 0.0
0000a0 00 00 00 00 00 00 00 00 00 00 00 00 00 00 00 00
       0.0 0.0 0.0 0.0
0000b0 00 00 00 00 00 00 00 00 00 00 00 00 00 00 00 00
       0.0 0.0 0.0 0.0
0000c0 00 00 00 00 00 00 00 00
       0.0 0.0

running_var f4 [50]
000000 00 00 80 3f 00 00 80 3f 00 00 80 3f 00 00 80 3f
       1.0 1.0 1.0 1.0
000010 00 00 80 3f 00 00 80 3f 00 00 80 3f 00 00 80 3f
       1.0 1.0 1.0 1.0
000020 00 00 80 3f 00 00 80 3f 00 00 80 3f 00 00 80 3f
       1.0 1.0 1.0 1.0
000030 00 00 80 3f 00 00 80 3f 00 00 80 3f 00 00 80 3f
       1.0 1.0 1.0 1.0
000040 00 00 80 3f 00 00 80 3f 00 00 80 3f 00 00 80 3f
       1.0 1.0 1.0 1.0
000050 00 00 80 3f 00 00 80 3f 00 00 80 3f 00 00 80 3f
       1.0 1.0 1.0 1.0
000060 00 00 80 3f 00 00 80 3f 00 00 80 3f 00 00 80 3f
       1.0 1.0 1.0 1.0
000070 00 00 80 3f 00 00 80 3f 00 00 80 3f 00 00 80 3f
       1.0 1.0 1.0 1.0
000080 00 00 80 3f 00 00 80 3f 00 00 80 3f 00 00 80 3f
       1.0 1.0 1.0 1.0
000090 00 00 80 3f 00 00 80 3f 00 00 80 3f 00 00 80 3f
       1.0 1.0 1.0 1.0
0000a0 00 00 80 3f 00 00 80 3f 00 00 80 3f 00 00 80 3f
       1.0 1.0 1.0 1.0
0000b0 00 00 80 3f 00 00 80 3f 00 00 80 3f 00 00 80 3f
       1.0 1.0 1.0 1.0
0000c0 00 00 80 3f 00 00 80 3f
       1.0 1.0

weight f4 [20, 50]
000000 64 f1 88 be d0 d4 37 3e 22 5f c8 3e 74 17 8c be
       -0.26746666 0.17952275 0.3913508 -0.27361643
000010 43 8a 00 be 01 06 93 3d 8d e4 ba 3e 50 22 87 3e
       -0.12552743 0.071788795 0.36502495 0.26393366
000020 56 bd 28 bd fb 42 16 3f 48 91 43 3d c0 60 da bd
       -0.04119619 0.58695954 0.047745973 -0.10662985
000030 ab 6f ce 3d 9e d1 08 be 77 43 bb 3e 1c bc 86 3e
       0.10079893 -0.13361213 0.3657491 0.2631539
000040 71 0c f0 3d e4 52 57 3e ee 92 f1 bd 8f 69 d3 bd
       0.11721123 0.21027714 -0.11795603 -0.10322868
000050 8f e0 d3 3d 81 71 1f 3d 7e 3a a3 3e 33 78 b5 3d
       0.103455655 0.038926605 0.31880563 0.08860817
000060 31 9d bb be 9f a8 c5 be f9 28 a5 be b5 da 41 be
       -0.36643365 -0.3860521 -0.32257822 -0.18931086
000070 fe 41 93 be d3 09 2b 3e 5a fc 50 3c aa c6 49 3d
       -0.28761286 0.16702966 0.012755478 0.049261726
000080 c8 1e 08 3d cf 40 3a be 85 fa 76 bd a2 45 bf 3d
       0.03323248 -0.18188785 -0.060297508 0.09339453
000090 e2 e9 30 3e 2e 0e b9 3e d2 f4 82 3c 5d 73 6d bb
       0.17276719 0.3614363 0.01598588 -0.0036232092
0000a0 eb 28 d9 bd 3b a4 1b 3b b3 45 83 3d 87 66 01 be
       -0.106035076 0.0023749012 0.064097784 -0.12636767
0000b0 2e ab aa 3e df 17 43 3c b5 cd da bd 54 11 5f 3e
       0.33333725 0.011907547 -0.10683767 0.21783954
0000c0 23 95 3f be 0d 06 0a 3e fe 02 81 3e 47 8c 17 be
       -0.18709235 0.1347887 0.25197595 -0.14799605
0000d0 cf a0 ec bd cd 2c 97 3e ff 46 8d 3d d8 74 02 be
       -0.11554109 0.29526368 0.06898307 -0.12739885
0000e0 ae 7e 91 be 47 51 19 be d2 90 98 3d 29 f8 26 bf
       -0.2841696 -0.14972411 0.07449497 -0.6522241
0000f0 1b c7 21 3d c9 ba 8f 3e ae 44 09 3e b7 cf 80 3d
       0.039496522 0.28072193 0.13405105 0.062896185
000100 3a 07 75 be 59 39 22 3d c1 6f f3 3c ae fc d6 3d
       -0.23928538 0.039605472 0.029716374 0.104974136
000110 1d 9e 08 3e cb df 52 3e 7f 6f 7d bd e9 49 77 3e
       0.13341565 0.20593183 -0.06187391 0.24149288
000120 0a ad 79 be 73 d6 23 be b7 ca 5d 3e 20 b5 1e 3e
       -0.24382415 -0.15999775 0.21659361 0.15498781
000130 f9 bf 79 3e 3b 15 d1 bb 13 77 44 3e 38 14 f2 bd
       0.24389638 -0.0063807047 0.19186048 -0.11820263
000140 d8 1f 4c bd 04 de f8 bd e5 2b 4f 3d 85 6e 3d 3e
       -0.049835056 -0.12151721 0.05057897 0.18499191
000150 8b b9 3c 3e 59 08 c0 bc eb 93 c1 bd 47 0f 00 bf
       0.18430154 -0.02344148 -0.09452041 -0.5002331
000160 7e 21 e4 3c c1 c5 b0 bd 20 f0 d3 3d 5a f8 cf bc
       0.027848002 -0.086314686 0.103485346 -0.025386978
000170 f4 96 0f 3d 80 ea b5 3d 9f e3 76 be f3 6c d1 3c
       0.03505607 0.08882618 -0.24110268 0.025564646
000180 3f 22 1c 3e 33 c8 19 3c 1c 43 6a 3e 0d 20 20 bc
       0.15247439 0.00938611 0.22877163 -0.0097732665
000190 36 63 4e 3e f7 d0 be bc b3 3d 8e be d3 72 93 3e
       0.20155033 -0.023293002 -0.27781448 0.2879854
0001a0 4b cc 3b 3e 94 0a 35 be 9b 5b 52 be 93 89 01 be
       0.1833965 -0.17679816 -0.20542757 -0.12650137
0001b0 dd 69 45 3e 67 c1 3e bf 06 55 39 be 0c 5e b2 3e
       0.19278665 -0.7451386 -0.1809884 0.34837377
0001c0 8f 1b 89 3d 62 b2 c8 3d 97 5e ba be 87 01 73 be
       0.066947095 0.09799649 -0.3640029 -0.23731051
0001d0 1e cf 6e be c5 ee 85 be ca d7 54 3d 5a b3 49 3e
       -0.23321196 -0.2615873 0.051963605 0.19697323
0001e0 c8 da b9 3d eb 88 60 3e 23 eb 03 be 09 ee 17 be
       0.09074932 0.2192723 -0.12882666 -0.14836897
0001f0 e1 91 5f 3e da 94 a4 3e 27 25 74 3e b2 c0 2a 3e
       0.21832992 0.32144815 0.23842297 0.1667507
000200 d1 d2 0c 3f 9f 16 26 be 7e b8 5e 3e 1c de 29 3d
       0.5500918 -0.16219567 0.21750066 0.041471586
000210 a7 2f cb 3d 3f d1 85 3e 85 49 3b 3d f4 75 cc bd
       0.09921198 0.26136205 0.04572441 -0.09983435
000220 93 81 08 be 07 ae f8 be cd 59 c9 3d 0e 66 f0 3c
       -0.13330679 -0.48570272 0.09831581 0.029345538
000230 c9 f9 4c 3e bd cb 9f 3e b8 e8 a5 bc 39 ac c5 3b
       0.2001716 0.31210127 -0.02025257 0.0060324934
000240 98 07 70 be ad e0 93 3e ba ab 9c 3d 7d 8e 29 be
       -0.23440397 0.28882352 0.07649942 -0.16558261
000250 d2 14 6d 3e e2 3d 81 bd e0 d1 09 3e bf 42 2b 3e
       0.23152474 -0.06310631 0.13458967 0.1672468
000260 8b 56 7e 3d f7 e4 34 3f ba bc ee bd fb 2d ba be
       0.062094253 0.7066187 -0.116570905 -0.36363205
000270 f4 ec 12 be 98 3b ef 3c 67 dd 3a 3e e8 48 82 be
       -0.14348203 0.029203221 0.18248521 -0.25446248
000280 9c 61 be be 8e 08 f5 3b 7e d8 b2 3e a0 b1 81 3d
       -0.37183845 0.0074778264 0.34930795 0.063327074
000290 01 0c 93 3e c0 9b b7 be 6e 5c a8 be da b9 ab be
       0.28720096 -0.35861015 -0.32883018 -0.3354023
0002a0 27 64 a0 3e dd c8 97 3e 01 5e a1 3e 62 4e 2b 3e
       0.3132641 0.29645434 0.31517032 0.1672912
0002b0 25 26 97 3e 45 4e 89 be 09 d8 ef bd 2f 6d 05 be
       0.2952129 -0.26817527 -0.11711127 -0.13029931
0002c0 01 a6 8b 3d 7f 62 ab 3e 35 f5 f1 3e e3 20 94 3d
       0.06818772 0.33473584 0.4725739 0.07232835
0002d0 bb 72 00 3f 02 d7 28 be ee 57 e5 bd dd 5e 40 bc
       0.50175065 -0.16488269 -0.11198412 -0.011741367
0002e0 d1 f4 3e 3e ea fd 6b be 73 48 5e be 00 7d 76 bd
       0.18648078 -0.2304608 -0.21707325 -0.060177803
0002f0 79 e0 5a 3e 30 f9 e3 3d 2f f8 96 3e 12 66 6d 3e
       0.21374692 0.11131513 0.29486224 0.23183468
000300 e0 63 93 3c e3 44 68 3d ad 0f 95 bd 34 48 5b 3e
       0.01799196 0.05670632 -0.072783805 0.21414262
000310 94 d3 53 3e c6 b0 06 be 74 fb 59 3e 52 77 21 be
       0.2068618 -0.13153371 0.21287328 -0.15768173
000320 e5 3f 7e be 38 68 b8 3c 6c 9b 74 3e 87 a1 e9 be
       -0.24829061 0.022510633 0.23887414 -0.45631048
000330 79 1e 56 3e 98 75 97 3e c3 02 78 3e 29 c8 81 3e
       0.20910062 0.29581904 0.24219804 0.25348023
000340 be a7 69 be 6a 76 b9 3e dc 9b b7 3e f6 f6 00 3e
       -0.22817895 0.36223155 0.358611 0.12594208
000350 55 af 80 bc 8d 53 31 bd 59 44 4b bd be a4 b4 3e
       -0.015708605 -0.04329257 -0.04962573 0.35281938
000360 5c c3 9a 3e 50 42 b6 3e 42 e8 80 be 3a c2 b1 bd
       0.30227172 0.35597467 -0.251772 -0.08679624
000370 58 f6 40 be 55 aa e0 3d a9 0e da 3b a8 23 1f 3e
       -0.18843973 0.10969988 0.0066545797 0.15540946
000380 4d 51 53 3e 50 e5 7b 3d b5 17 43 be 00 a3 20 be
       0.20636483 0.061497986 -0.19052012 -0.1568718
000390 c9 5a e3 be 3a 86 a1 3d 42 a7 0e bf a1 7b f8 3d
       -0.444052 0.0788693 -0.55723965 0.12132955
0003a0 6d de 26 bd 9d f8 c5 bd 28 d4 53 be 7d 5e b2 3e
       -0.040739466 -0.0966656 -0.206864 0.34837714
0003b0 fd 20 b8 3e 87 c1 1d 3e 2a af 5d 3c 1d 4d 2a bd
       0.35962668 0.15405856 0.013530532 -0.041577447
0003c0 a1 6a a1 be 21 39 d3 be 7f fc c7 bd 88 08 f7 3d
       -0.31526664 -0.41254523 -0.09764957 0.12062174
0003d0 2a 3b 92 3e aa fb d2 bd 7a 2a 29 be 0d 38 27 3e
       0.28560764 -0.10301907 -0.1652011 0.16329975
0003e0 14 a9 e8 bd ca ac a4 3e 44 b5 d2 bd e6 d1 06 3d
       -0.11360374 0.32163078 -0.1028848 0.03291502
0003f0 e3 de d6 3d fb a9 da 3d 62 76 04 3d e7 49 8c bb
       0.10491731 0.106769525 0.03233946 -0.004281271

bias f4 [20]
000000 df 17 51 bb c8 c6 d9 3d 0f 85 cf bd 48 d4 89 3d
       -0.0031905097 0.10633618 -0.10132801 0.067299426
000010 42 2c 0e 3e 7b c7 53 3d 70 e0 4c 3e aa 29 d4 3d
       0.1388407 0.05170391 0.20007491 0.10359509
000020 c9 d3 a1 3c 8c 98 b6 3c 7c 11 ff 3d 53 3a f0 bd
       0.019754307 0.022289537 0.12454507 -0.117298745
000030 1d fe 54 3d 77 7e 25 3e 78 ef 93 3d 79 35 a1 3b
       0.052000154 0.16161524 0.072234094 0.0049197045
000040 ba 99 b2 3d 1e 9b cf bd 07 1c e0 3d e6 61 61 bd
       0.08720727 -0.10137008 0.10942846 -0.055025004

weight f4 [20]
000000 00 00 80 3f 00 00 80 3f 00 00 80 3f 00 00 80 3f
       1.0 1.0 1.0 1.0
000010 00 00 80 3f 00 00 80 3f 00 00 80 3f 00 00 80 3f
       1.0 1.0 1.0 1.0
000020 00 00 80 3f 00 00 80 3f 00 00 80 3f 00 00 80 3f
       1.0 1.0 1.0 1.0
000030 00 00 80 3f 00 00 80 3f 00 00 80 3f 00 00 80 3f
       1.0 1.0 1.0 1.0
000040 00 00 80 3f 00 00 80 3f 00 00 80 3f 00 00 80 3f
       1.0 1.0 1.0 1.0

bias f4 [20]
000000 00 00 00 00 00 00 00 00 00 00 00 00 00 00 00 00
       0.0 0.0 0.0 0.0
000010 00 00 00 00 00 00 00 00 00 00 00 00 00 00 00 00
       0.0 0.0 0.0 0.0
000020 00 00 00 00 00 00 00 00 00 00 00 00 00 00 00 00
       0.0 0.0 0.0 0.0
000030 00 00 00 00 00 00 00 00 00 00 00 00 00 00 00 00
       0.0 0.0 0.0 0.0
000040 00 00 00 00 00 00 00 00 00 00 00 00 00 00 00 00
       0.0 0.0 0.0 0.0

running_mean f4 [20]
000000 00 00 00 00 00 00 00 00 00 00 00 00 00 00 00 00
       0.0 0.0 0.0 0.0
000010 00 00 00 00 00 00 00 00 00 00 00 00 00 00 00 00
       0.0 0.0 0.0 0.0
000020 00 00 00 00 00 00 00 00 00 00 00 00 00 00 00 00
       0.0 0.0 0.0 0.0
000030 00 00 00 00 00 00 00 00 00 00 00 00 00 00 00 00
       0.0 0.0 0.0 0.0
000040 00 00 00 00 00 00 00 00 00 00 00 00 00 00 00 00
       0.0 0.0 0.0 0.0

running_var f4 [20]
000000 00 00 80 3f 00 00 80 3f 00 00 80 3f 00 00 80 3f
       1.0 1.0 1.0 1.0
000010 00 00 80 3f 00 00 80 3f 00 00 80 3f 00 00 80 3f
       1.0 1.0 1.0 1.0
000020 00 00 80 3f 00 00 80 3f 00 00 80 3f 00 00 80 3f
       1.0 1.0 1.0 1.0
000030 00 00 80 3f 00 00 80 3f 00 00 80 3f 00 00 80 3f
       1.0 1.0 1.0 1.0
000040 00 00 80 3f 00 00 80 3f 00 00 80 3f 00 00 80 3f
       1.0 1.0 1.0 1.0

weight f4 [2, 20]
000000 8a 93 51 3e 90 05 95 be 95 5c 55 be 46 cd 9c 3e
       0.20466438 -0.29105806 -0.20836098 0.3062536
000010 7e 18 83 be 7d 35 63 be 74 62 03 3f ce 9c 69 be
       -0.25604624 -0.22188373 0.513221 -0.22813722
000020 a9 6a f4 be bb 50 cc 3e b5 64 7a 3e 16 1c 55 be
       -0.47737625 0.39905342 0.24452479 -0.20811495
000030 fa dd 27 bf 8b f2 3e 3f c4 1e 4e be d7 f1 eb be
       -0.65573084 0.7458884 -0.20128924 -0.46082947
000040 4f 58 44 3e a8 86 de 3d d3 a2 0b 3f e3 a4 89 bf
       0.19174312 0.108655274 0.54545325 -1.0753444
000050 ff ed 09 3f 92 fb d6 be 03 e0 35 bf 03 49 cd be
       0.5387878 -0.41988808 -0.7104494 -0.40094766
000060 42 a6 f7 3e 19 16 3d 3e d2 53 fe be 93 1a 09 bf
       0.48369032 0.18465461 -0.49673325 -0.53556174
000070 49 6b 68 3e 1f 95 0a 3f 98 65 cb 3e 8f 30 e1 be
       0.22697176 0.5413379 0.39725947 -0.4398236
000080 af b7 f1 be 72 93 20 be e8 0d 24 3d 01 eb ce 3e
       -0.47210452 -0.15681246 0.040052325 0.4041367
000090 53 69 08 3e 17 43 d0 3d fa cb d5 be 95 76 60 bf
       0.13321428 0.10169046 -0.41757184 -0.8768094

bias f4 [2]
000000 82 48 8b 3d e1 94 b0 bb
       0.06800939 -0.0053888415
