models_version2/2UAVs_89120/c_t0.pt (torch_old, 28013 bytes, 15 tensors)

weight f4 [50, 68]
0.4486627 -0.18046388 -0.004229746 -0.011645694 0.02362777 0.089924216 0.22452064 0.037197027
0.0023816046 0.11216194 0.018648222 0.12266795 0.19359767 0.1381253 0.116886884 -0.14923097
0.01114893 -0.012985508 -0.08523655 -0.051534638 -0.052680507 -0.05058941 -0.057481423 0.032680452
-0.14037742 0.10718761 0.073694795 -0.06526323 -0.12115856 0.15683095 -0.059672683 0.10774257
-0.07019503 -0.08762109 0.32808813 -0.16552241 0.023221418 -0.11974244 0.11298612 0.08234311
0.06503007 -0.05050293 -0.13256246 -0.030037092 0.034728546 -0.0837071 0.25836262 0.15137298
0.1831647 -0.025227914 -0.007614473 -0.07407112 -0.030824287 -0.0919057 -0.10335224 -0.06709069
0.01724186 -0.02416782 0.008153894 -0.014293944 0.08380692 -0.08153442 -0.07678074 0.18940465
-0.033405483 -0.043251738 -0.071924746 0.061558895 -0.51409394 -0.5734556 0.100850895 0.03881619
0.03338658 -0.07623399 0.2927569 0.056336306 -0.06417521 0.08709656 0.07292181 -0.023203867
0.045241915 0.096249186 0.077486195 0.102367856 0.038759936 0.057822425 0.10552023 0.1086087
-0.04311641 0.033925354 -0.06847802 -0.0038345824 0.013313658 0.028347088 -0.06824169 0.06283678
-0.0864967 0.15073594 -0.062087584 -0.14638123 -0.0029647045 0.095523216 -0.36634743 -0.5362986
-0.039659947 0.010445444 0.040401094 -0.0173636 0.14392047 0.03883625 -0.013302723 0.12397991
0.11497705 0.13489686 0.08965173 0.011484149 0.077927455 0.11237257 0.07402276 -0.030245405
-0.0762375 0.04846647 -0.07177875 0.09986673 0.044543624 -0.042754646 0.057428923 0.118970186
-0.117849976 0.030051708 0.0904911 0.046840414 0.09632572 -0.12603356 0.10316779 -0.055761673
-0.030264452 0.2021216 0.119415864 -0.04162399 -0.071419366 0.039154723 0.23456013 0.0433696
0.11753383 0.06703996 0.04051182 0.100131884 0.015674805 -0.061962876 0.10616587 -0.035544522
-0.117690906 0.030877287 -0.05029872 0.049832158 -0.01959312 0.11956081 0.10031317 -0.0012705094
0.04648485 0.05314268 -0.09528087 0.10831709 -0.026547682 -0.025373034 -0.11524265 0.07092593
-0.013395577 -0.13879141 -0.011510526 0.24791887 0.0042951694 -0.02717045 -0.11241149 0.007447548
0.12824434 -0.036927324 -0.090891 0.015479573 0.13758588 0.04275473 -0.0999649 0.018896505
0.21232 -0.14750046 0.07055332 -0.053779878 0.08842043 0.042630054 0.054170977 0.07326299
0.026355274 0.1397473 -0.062005438 0.103823386 0.026703246 -0.027489876 -0.01990128 0.073494084
0.064782426 -0.039437093 -0.04917363 0.028673928 -0.18542638 -0.57912725 0.10002879 0.08116204
0.037205275 0.028322103 -0.07372683 0.13758722 0.010751005 -0.08189831 0.06832147 -0.04467871
-0.02060265 -0.08034565 -0.07930442 -0.10225439 -0.0033965642 -0.062010147 -0.09455102 -0.13389806
-0.06392349 0.0010528426 0.08327019 0.10497857 0.13730274 0.052324712 -0.06246026 0.16164151
0.04851699 0.030159792 7.337788e-06 -0.089213155 -0.05567116 0.030205848 -0.372162 -0.4138133
-0.01853694 0.09990806 -0.039764766 0.017560404 0.056137316 0.014753318 0.15641555 -0.04613469
0.042631414 -0.07169481 0.020184854 -0.09908845 -0.06787788 -0.004189839 0.023214726 0.052693892
00000000: 1eb7 e53e 86cb 38be ae99 8abb 95cd 3ebc
00000010: 068f c13c 302a b83d bde8 653e e95b 183d
00000020: b214 1c3b 29b5 e53d 28c4 983c 5639 fb3d
00000030: 783e 463e b870 0d3e 6462 ef3d 01d0 18be
00000040: 00aa 363c 2bc1 54bc 8090 aebd fc15 53bd
00000050: 84c7 57bd d736 4fbd a471 6bbd f0db 053d
00000060: 19bf 0fbe 2d85 db3d 4ced 963d baa8 85bd
00000070: fb21 f8bd 4b98 203e 586b 74bd 23a8 dc3d
00000080: 69c2 8fbd b072 b3bd 2bfb a73e b57e 29be
00000090: d83a be3c 863b f5bd 4465 e73d 81a3 a83d
000000a0: 7c2e 853d 29dc 4ebd 74be 07be 5910 f6bc
000000b0: 853f 0e3d a16e abbd 1b48 843e 8501 1b3e
000000c0: 878f 3b3e c5aa cebc d482 f9bb 99b2 97bd
000000d0: 3783 fcbc 0e39 bcbd 57aa d3bd d866 89bd
000000e0: cd3e 8d3c 98fb c5bc e997 053c 2631 6abc
000000f0: f6a2 ab3d 85fb a6bd 383f 9dbd 4bf3 413e
00000100: 30d4 08bd bc28 31bd 484d 93bd 2e25 7c3d
00000110: a99b 03bf fccd 12bf ea8a ce3d bafd 1e3d
00000120: 5ec0 083d 9120 9cbd 3be4 953e e6c0 663d
00000130: 4b6e 83bd ae5f b23d 0858 953d 0916 bebc
00000140: 964f 393d 4b1e c53d 15b1 9e3d 3da6 d13d
00000150: bdc2 1e3d 35d7 6c3d fe1a d83d 3d6e de3d
00000160: d59a 30bd 50f5 0a3d 343e 8cbd 9e4d 7bbb
00000170: 8721 5a3c 2738 e83c 4dc2 8bbd 92b0 803d
00000180: 2f25 b1bd 865a 1a3e 8d4f 7ebd f6e4 15be
00000190: 7d4b 42bb ada1 c33d e491 bbbe dd4a 09bf
000001a0: 7872 22bd 5e23 2b3c 9e7b 253d 1c3e 8ebc
000001b0: e35f 133e c212 1f3d aaf3 59bc 2ee9 fd3d
000001c0: 1679 eb3d 6722 0a3e 549b b73d 0328 3c3c
000001d0: 6e98 9f3d 9723 e63d 3f99 973d 36c5 f7bc
000001e0: 6822 9cbd c784 463d bd00 93bd ee86 cc3d
000001f0: 6073 363d 7f1f 2fbd 973a 6b3d a4a6 f33d
00000200: 545b f1bd 002f f63c 6653 b93d bcdb 3f3d
00000210: 6b46 c53d f10e 01be a249 d33d 5a66 64bd
00000220: 28ed f7bc f7f8 4e3e 4e90 f43d eb7d 2abd
00000230: 5144 92bd b460 203d 8830 703e 52a4 313d
00000240: 94b5 f03d 3f4c 893d b9ef 253d f211 cd3d
00000250: 7368 803c c9cc 7dbd 7e6d d93d 2297 11bd
00000260: ee07 f1bd 5df2 fc3c 0806 4ebd ce1c 4c3d
00000270: c081 a0bc 4cdc f43d fe70 cd3d 3987 a6ba
00000280: e666 3e3d 24ac 593d 9e22 c3bd 5ad5 dd3d
00000290: 867a d9bc 1cdb cfbc 5704 ecbd 9d41 913d
000002a0: 1f79 5bbc 561f 0ebe a596 3cbc 72de 7d3e
000002b0: 7ebe 8c3b 9094 debc ff37 e6bd 900a f43b
000002c0: 7c52 033e 1b41 17bd 1025 babd 099e 7d3c
000002d0: 50e3 0c3e 951f 2f3d 66ba ccbd d8cc 9a3c
000002e0: 6a6a 593e 5c0a 17be 427e 903d 4a48 5cbd
000002f0: c515 b53d da9c 2e3d 63e2 5d3d e80a 963d
00000300: 04e7 d73c eb19 0f3e 6af9 7dbd 5ba1 d43d
00000310: c4c0 da3c 7332 e1bc 0208 a3bc 1184 963d
00000320: a6ac 843d ca88 21bd 4a6a 49bd 96e5 ea3c
00000330: 6ae0 3dbe af41 14bf e5db cc3d 4938 a63d
00000340: 8f64 183d c103 e83c 18fe 96bd aae3 0c3e
00000350: fc24 303c 4dba a7bd 20ec 8b3d 0601 37bd
00000360: e3c6 a8bc 438c a4bd 5b6a a2bd c06a d1bd
00000370: e498 5ebb 5afe 7dbd f7a3 c1bd 931c 09be
00000380: 52ea 82bd 89ff 893a 9089 aa3d 01ff d63d
00000390: 1799 0c3e 7052 563d 54d6 7fbd 5a85 253e
000003a0: c0b9 463d ab11 f73c 1e37 f636 63b5 b6bd
000003b0: 7107 64bd 4172 f73c 058c bebe 56df d3be
000003c0: c8da 97bc 999c cc3d 61e0 22bd d6da 8f3c
000003d0: 3ef0 653d e7b7 713c 662b 203e bbf7 3cbd
000003e0: 479e 2e3d bbd4 92bd b55a a53c e3ee cabd
000003f0: 8f03 8bbd eb4a 89bb cf2c be3c 8dd5 573d

bias f4 [50]
0.015331604 0.14899369 0.22953421 0.0054441127 -0.027542757 -0.0030692078 0.0466156 -0.03828074
0.08012202 0.2245268 0.09946726 0.005548945 0.2550419 0.21091796 0.26272485 0.16972719
0.12820175 -0.10959119 0.07405609 0.25867173 0.028949272 0.03613765 0.33166307 0.027497318
-0.21506897 0.15747459 0.10071534 0.20561293 0.083108485 -0.1107854 0.14365885 0.3329003
0.22654535 0.24240525 -0.02989539 0.21236795 0.07726516 0.19956557 -0.031840444 0.17488585
0.14381477 -0.03690708 -0.10993753 0.20165671 0.21796209 0.08451496 0.18148163 0.0042741075
0.20487131 0.3155746
00000000: 6831 7b3c cd91 183e 040b 6b3e 8764 b23b
00000010: 59a1 e1bc c324 49bb 00f0 3e3d 44cc 1cbd
00000020: 0317 a43d 5aea 653e 7eb5 cb3d edd3 b53b
00000030: da94 823e e1fa 573e df83 863e f7cc 2d3e
00000040: 5247 033e 5971 e0bd b8aa 973d 9f70 843e
00000050: 0627 ed3c 1305 143d becf a93e 0e42 e13c
00000060: 0a3b 5cbe 0541 213e d843 ce3d 328c 523e
00000070: c834 aa3d 75e3 e2bd 4e1b 133e e871 aa3e
00000080: 81fb 673e 1539 783e 2de7 f4bc fc76 593e
00000090: 323d 9e3d eb5a 4c3e 206b 02bd 4715 333e
000000a0: 2e44 133e e12b 17bd ed26 e1bd 197f 4e3e
000000b0: 7431 5f3e 2e16 ad3d 52d6 393e d00d 8c3b
000000c0: c9c9 513e fe92 a13e

weight f4 [50, 4]
0.015965939 -0.14801544 0.30672613 0.49696088 0.55460477 -0.6049195 0.122720435 0.115131
0.50142395 0.02619826 -0.38076675 -0.013341086 -0.41296136 -0.26585165 -0.12624279 0.1826622
-0.327187 -0.5043471 0.16691364 -0.25268713 -0.5592494 0.10908722 0.29582554 -0.46846786
-0.124245904 -0.35016382 -0.33209944 -0.08139649 -0.49590757 0.50928205 0.27048892 0.5604925
0.09445715 0.0947217 0.3499113 -0.3124696 0.34951267 0.697093 -0.0026624154 -0.3181495
-0.4375944 -0.33858514 -0.1092347 -0.060703423 -0.4495605 -0.2510161 -0.3995824 -0.38951913
0.43934384 -0.4378093 0.10502887 0.048510008 0.2715891 0.14435759 -0.19865838 -0.30734715
0.23589686 0.41436327 -0.0878602 -0.21408953 -0.42502153 -0.5247991 -0.12742421 0.25432685
0.4160574 0.5343254 0.14335112 0.19961075 0.03896433 0.13936725 0.32059357 -0.33321822
0.16798219 -0.5798727 0.09748161 0.38489145 -0.12839626 0.6818843 0.28103676 -0.012696218
0.14044249 0.10002126 -0.36163703 0.32513723 0.11500933 -0.54161334 -0.11138504 -0.19548665
0.4135382 -0.27046126 0.40597823 -0.4834477 0.3215995 -0.18349628 0.30273753 0.42103446
-0.2457711 -0.4612166 0.10723316 -0.0128121935 0.16089763 -0.34050328 -0.12866837 -0.30080655
-0.36377978 0.046268385 -0.51894426 -0.44696254 0.68136936 0.13807201 -0.509118 0.14943159
-0.515515 -0.71171004 0.14397208 -0.327595 0.2774018 -0.59228426 -0.34773216 0.29189608
-0.55417794 -0.1165432 -0.0069679446 0.19056602 -0.55205184 -0.03706911 0.051957317 -0.12919122
0.06443878 -0.5562999 -0.26711753 0.052513406 -0.30264595 0.25571886 0.31325814 -0.11275655
0.27743292 0.3776961 0.1725906 0.37004977 -0.4465723 -0.16102517 0.18839954 0.1677257
-0.08319345 -0.70868 0.23076025 -0.08604848 0.6544471 0.15189983 0.25973862 0.35785675
0.30296054 -0.2215163 -0.40351126 0.35908222 -0.16003434 -0.4849841 -0.05358233 -0.2699488
-0.65624595 0.46665025 -0.12631157 -0.2661104 -0.5685838 0.32374462 0.16308579 0.31597325
0.17132378 0.19699606 0.14906923 -0.46085158 0.13359483 0.37599364 0.18255672 0.45057976
-0.55454934 0.44660878 -0.3673491 0.46435657 0.4084371 -0.30153567 0.24952528 0.4343642
-0.39921683 -0.50202334 0.41371635 -0.21328883 0.0056899074 -0.45314837 -0.17433502 0.10783235
-0.2996803 -0.3965917 -0.24203317 0.18723843 -0.025077354 0.09799122 0.39007422 0.27165946
00000000: 00cb 823c 5c91 17be 350b 9d3e a871 fe3e
00000010: 94fa 0d3f 01dc 1abf da54 fb3d cdc9 eb3d
00000020: 525d 003f bc9d d63c dcf3 c2be 9294 5abc
00000030: ac6f d3be b51d 88be ca45 01be cd0b 3b3e
00000040: 0e85 a7be e41c 01bf 69eb 2a3e 3560 81be
00000050: f82a 0fbf 1f69 df3d 7276 973e 05db efbe
00000060: a374 febd ac48 b3be f008 aabe 34b3 a6bd
00000070: 99e7 fdbe 4f60 023f 867d 8a3e 707c 0f3f
00000080: c072 c13d 73fd c13d 9327 b33e 04fc 9fbe
00000090: 53f3 b23e b074 323f eb7b 2ebb 7ee4 a2be
000000a0: 600c e0be 085b adbe 71b6 dfbd 27a4 78bd
000000b0: cb2c e6be 2f85 80be 1096 ccbe 0d6f c7be
000000c0: adf1 e03e 8a28 e0be 6019 d73d 6eb2 463d
000000d0: ba0d 8b3e 7ad2 133e 1a6d 4bbe 9b5c 9dbe
000000e0: f28e 713e 6c27 d43e 0cf0 b3bd 493a 5bbe
000000f0: 6c9c d9be 3c59 06bf 7e7b 02be 2137 823e
00000100: 7a05 d53e 8dc9 083f a3ca 123e c366 4c3e
00000110: 1099 1f3d 4ab6 0e3e d724 a43e 949b aabe
00000120: 8603 2c3e 8a72 14bf 70a4 c73d 7e10 c53e
00000130: 4f7a 03be f88f 2e3f 0de4 8f3e cc03 50bc
00000140: 28d0 0f3e f2d7 cc3d 7d28 b9be 6378 a63e
00000150: 038a eb3d 2ca7 0abf d71d e4bd a72d 48be
00000160: 47bb d33e e679 8abe 61dc cf3e 7586 f7be
00000170: b1a8 a43e 73e6 3bbe 6a00 9b3e d491 d73e
00000180: 6bab 7bbe 9524 ecbe 0f9d db3d 3cea 51bc
00000190: 59c2 243e 7256 aebe a4c1 03be 5103 9abe
000001a0: 5841 babe eb83 3d3d 88d9 04bf 46d8 e4be
000001b0: 396e 2e3f c062 0d3e 8f55 02bf 9804 193e
000001c0: cbf8 03bf a132 36bf 6b6d 133e 88ba a7be
000001d0: 9c07 8e3e f19f 17bf f309 b2be 6773 953e
000001e0: 9bde 0dbf 34ae eebd 5b53 e4bb bd23 433e
000001f0: 4553 0dbf c7d5 17bd 32d1 543d b44a 04be
00000200: 7bf8 833d ac69 0ebf a1c3 88be 4c18 573d
00000210: 69f4 9abe 95ed 823e 5f63 a03e e8ec e6bd
00000220: b00b 8e3e 6261 c13e 97bb 303e 2a77 bd3e
00000230: 20a5 e4be c8e3 24be cfeb 403e 49c0 2b3e
00000240: 5461 aabd 0d6c 35bf 6a4c 6c3e 2f3a b0bd
00000250: d889 273f a18b 1b3e 76fc 843e 0039 b73e
00000260: a51d 9b3e 2bd5 62be 0799 cebe a0d9 b73e
00000270: 0be0 23be d64f f8be 2579 5bbd bb36 8abe
00000280: bcff 27bf c8ec ee3e d257 01be 9f3f 88be
00000290: b58e 11bf dbc1 a53e f6ff 263e 3fc7 a13e
000002a0: 806f 2f3e 56b9 493e 9ba5 183e bdf4 ebbe
000002b0: 15cd 083e 3d82 c03e 26f0 3a3e 64b2 e63e
000002c0: f2f6 0dbf e8a9 e43e 2e15 bcbe 25c0 ed3e
000002d0: ab1e d13e e262 9abe 8e83 7f3e fc64 de3e
000002e0: 2666 ccbe 9a84 00bf a1d2 d33e 6368 5abe
000002f0: 6772 ba3b 1003 e8be e184 32be 35d7 dc3d
00000300: b26f 99be 110e cbbe 8bd7 77be 6ebb 3f3e
00000310: 066f cdbc 9faf c83d cfb7 c73e f316 8b3e

bias f4 [50]
-0.44795823 0.101414695 0.6116729 0.26982138 0.70956534 -0.29806972 -0.06471956 0.3576643
0.13180815 -0.326621 -0.051996663 0.14627957 0.073717855 0.42309833 0.35714477 0.023336481
-0.22828281 0.36108643 0.15417428 0.17778842 0.110460065 -0.24278322 -0.36010373 -0.34960854
0.3361516 -0.124354325 -0.20374216 0.08385929 -0.20722093 0.53293705 0.24311267 0.2725751
0.14922054 -0.22369415 0.35451356 -0.048729938 -0.15432155 0.15879212 0.10048175 0.23316447
0.20798491 0.6437367 -0.31479385 0.059713583 0.2618593 -0.19972138 -0.35824534 -0.10461983
0.27111316 0.31310305
00000000: c85a e5be 82b2 cf3d 9896 1c3f 0726 8a3e
00000010: 13a6 353f 989c 98be b08b 84bd c61f b73e
00000020: b7f8 063e de3a a7be 74fa 54bd 50ca 153e
00000030: 63f9 963d 58a0 d83e aedb b63e 262c bf3c
00000040: f8c2 69be 52e0 b83e dddf 1d3e 2b0e 363e
00000050: e338 e23d 2a9c 78be 845f b8be e4ff b2be
00000060: 101c ac3e 7bad febd c9a1 50be 6bbe ab3d
00000070: b931 54be 906e 083f 87f2 783e f78e 8b3e
00000080: 45cd 183e 1410 65be cd82 b53e 0b99 47bd
00000090: 7806 1ebe 679a 223e 60c9 cd3d abc2 6e3e
000000a0: fff9 543e eecb 243f a92c a1be 3b96 743d
000000b0: 6c12 863e c383 4cbe ef6b b7be ec42 d6bd
000000c0: 58cf 8a3e 0b4f a03e

weight f4 [50]
1.0 1.0 1.0 1.0 1.0 1.0 1.0 1.0
1.0 1.0 1.0 1.0 1.0 1.0 1.0 1.0
1.0 1.0 1.0 1.0 1.0 1.0 1.0 1.0
1.0 1.0 1.0 1.0 1.0 1.0 1.0 1.0
1.0 1.0 1.0 1.0 1.0 1.0 1.0 1.0
1.0 1.0 1.0 1.0 1.0 1.0 1.0 1.0
1.0 1.0
00000000: 0000 803f 0000 803f 0000 803f 0000 803f
00000010: 0000 803f 0000 803f 0000 803f 0000 803f
00000020: 0000 803f 0000 803f 0000 803f 0000 803f
00000030: 0000 803f 0000 803f 0000 803f 0000 803f
00000040: 0000 803f 0000 803f 0000 803f 0000 803f
00000050: 0000 803f 0000 803f 0000 803f 0000 803f
00000060: 0000 803f 0000 803f 0000 803f 0000 803f
00000070: 0000 803f 0000 803f 0000 803f 0000 803f
00000080: 0000 803f 0000 803f 0000 803f 0000 803f
00000090: 0000 803f 0000 803f 0000 803f 0000 803f
000000a0: 0000 803f 0000 803f 0000 803f 0000 803f
000000b0: 0000 803f 0000 803f 0000 803f 0000 803f
000000c0: 0000 803f 0000 803f

bias f4 [50]
0.0 0.0 0.0 0.0 0.0 0.0 0.0 0.0
0.0 0.0 0.0 0.0 0.0 0.0 0.0 0.0
0.0 0.0 0.0 0.0 0.0 0.0 0.0 0.0
0.0 0.0 0.0 0.0 0.0 0.0 0.0 0.0
0.0 0.0 0.0 0.0 0.0 0.0 0.0 0.0
0.0 0.0 0.0 0.0 0.0 0.0 0.0 0.0
0.0 0.0
00000000: 0000 0000 0000 0000 0000 0000 0000 0000
00000010: 0000 0000 0000 0000 0000 0000 0000 0000
00000020: 0000 0000 0000 0000 0000 0000 0000 0000
00000030: 0000 0000 0000 0000 0000 0000 0000 0000
00000040: 0000 0000 0000 0000 0000 0000 0000 0000
00000050: 0000 0000 0000 0000 0000 0000 0000 0000
00000060: 0000 0000 0000 0000 0000 0000 0000 0000
00000070: 0000 0000 0000 0000 0000 0000 0000 0000
00000080: 0000 0000 0000 0000 0000 0000 0000 0000
00000090: 0000 0000 0000 0000 0000 0000 0000 0000
000000a0: 0000 0000 0000 0000 0000 0000 0000 0000
000000b0: 0000 0000 0000 0000 0000 0000 0000 0000
000000c0: 0000 0000 0000 0000

running_mean f4 [50]
0.0 0.0 0.0 0.0 0.0 0.0 0.0 0.0
0.0 0.0 0.0 0.0 0.0 0.0 0.0 0.0
0.0 0.0 0.0 0.0 0.0 0.0 0.0 0.0
0.0 0.0 0.0 0.0 0.0 0.0 0.0 0.0
0.0 0.0 0.0 0.0 0.0 0.0 0.0 0.0
0.0 0.0 0.0 0.0 0.0 0.0 0.0 0.0
0.0 0.0
00000000: 0000 0000 0000 0000 0000 0000 0000 0000
00000010: 0000 0000 0000 0000 0000 0000 0000 0000
00000020: 0000 0000 0000 0000 0000 0000 0000 0000
00000030: 0000 0000 0000 0000 0000 0000 0000 0000
00000040: 0000 0000 0000 0000 0000 0000 0000 0000
00000050: 0000 0000 0000 0000 0000 0000 0000 0000
00000060: 0000 0000 0000 0000 0000 0000 0000 0000
00000070: 0000 0000 0000 0000 0000 0000 0000 0000
00000080: 0000 0000 0000 0000 0000 0000 0000 0000
00000090: 0000 0000 0000 0000 0000 0000 0000 0000
000000a0: 0000 0000 0000 0000 0000 0000 0000 0000
000000b0: 0000 0000 0000 0000 0000 0000 0000 0000
000000c0: 0000 0000 0000 0000

running_var f4 [50]
1.0 1.0 1.0 1.0 1.0 1.0 1.0 1.0
1.0 1.0 1.0 1.0 1.0 1.0 1.0 1.0
1.0 1.0 1.0 1.0 1.0 1.0 1.0 1.0
1.0 1.0 1.0 1.0 1.0 1.0 1.0 1.0
1.0 1.0 1.0 1.0 1.0 1.0 1.0 1.0
1.0 1.0 1.0 1.0 1.0 1.0 1.0 1.0
1.0 1.0
00000000: 0000 803f 0000 803f 0000 803f 0000 803f
00000010: 0000 803f 0000 803f 0000 803f 0000 803f
00000020: 0000 803f 0000 803f 0000 803f 0000 803f
00000030: 0000 803f 0000 803f 0000 803f 0000 803f
00000040: 0000 803f 0000 803f 0000 803f 0000 803f
00000050: 0000 803f 0000 803f 0000 803f 0000 803f
00000060: 0000 803f 0000 803f 0000 803f 0000 803f
00000070: 0000 803f 0000 803f 0000 803f 0000 803f
00000080: 0000 803f 0000 803f 0000 803f 0000 803f
00000090: 0000 803f 0000 803f 0000 803f 0000 803f
000000a0: 0000 803f 0000 803f 0000 803f 0000 803f
000000b0: 0000 803f 0000 803f 0000 803f 0000 803f
000000c0: 0000 803f 0000 803f

weight f4 [20, 100]
0.04881481 0.16180512 -0.11967617 0.34487966 0.43167183 -0.3298865 -0.3011267 0.015381599
-0.04917002 0.15604532 -0.24176468 -0.4446184 0.08000869 -0.0732895 0.12828146 -0.28834015
-0.30217016 -0.07798465 -0.027083414 -0.12100937 0.25528556 -0.17794693 -0.030566774 -0.16113076
-0.16324498 -0.17419702 -0.3079385 0.1429105 -0.024654089 0.08154347 0.20537744 0.0059453095
-0.13931403 0.15339532 0.09068818 0.19134592 -0.025608784 -0.08210193 0.32893768 -0.2104344
-0.062594794 -0.326493 -0.0004945066 -0.04632136 -0.095408365 0.24065202 0.05879003 -0.0028809523
0.076251335 -0.053208437 0.023545405 0.20851068 -0.026460055 0.14537413 0.11544232 0.008505808
0.19093508 -0.037076328 -0.043693896 -0.13093737 0.21956453 0.13872044 0.18629265 -0.18166362
-0.37029797 0.25511724 0.023311118 -0.076600365 0.23982716 -0.16302615 -0.108282134 0.25293046
0.10658601 0.11952488 0.14362565 0.10956267 -0.08599895 -0.03184681 0.12530147 0.037826642
0.14560609 -0.016909571 0.19389856 -0.10397319 -0.14238155 0.07894222 0.24764942 -0.095027134
0.017694393 0.19096142 -0.085246906 -0.13806906 -0.07696965 -0.19003658 -0.25025496 0.028692003
0.1276599 0.14999297 0.046239305 0.017378608 -0.21429902 -0.03529325 -0.034844723 0.25201538
0.04529156 0.2548831 0.1228613 0.06951577 0.35175863 -0.21251237 0.036739033 0.20742808
0.035542097 -0.13079284 -0.033473816 -0.4683484 0.1454079 0.09493739 0.06783126 0.14441995
0.09268866 -0.08363546 -0.010096804 -0.06864189 -0.26251552 0.17309876 -0.23246802 -0.32766345
0.014388308 0.034239955 -0.21527207 0.00821078 0.1356819 -0.1136807 0.07815332 0.048386164
-0.09550201 -0.13460903 -0.449567 0.19000712 0.26097172 -0.03804624 0.0038899865 -0.1409316
-0.16239823 -0.3099519 0.05750829 -0.251777 0.012903626 0.17054915 -0.024067169 -0.19714183
-0.16951354 0.17152965 -0.032668035 0.11129278 0.056679413 0.14461367 -0.023528865 0.11882756
0.1586178 0.1267725 -0.34632868 -0.061317034 0.08361831 0.100056544 0.017835123 0.055482104
-0.11476177 0.07660284 0.09333313 -0.19206499 -0.12656538 -0.043171503 0.022974351 -0.23506382
0.2225632 -0.027623707 -0.035364777 -0.20213519 0.1984367 0.12925503 -0.04707039 0.26658052
0.015546163 0.074120305 -0.09583728 -0.12787817 -0.047364317 0.032229938 0.26877397 0.17279626
0.12552266 0.0020958618 0.1534143 -0.09877058 0.11686507 -0.12278457 -0.04100934 -0.025143033
0.1497618 0.007165224 0.05167096 -0.3651399 0.07536665 0.07109804 0.014128945 -0.034632012
0.14340721 0.14214465 0.11801009 0.09632436 0.13899893 0.1480215 0.053813756 0.20429657
0.090305224 -0.056333005 0.0348288 0.06321188 0.20295566 0.03548151 0.13588409 0.09292447
-0.15502803 0.13275865 0.07280615 0.17470178 -0.036480464 0.06381913 0.115086064 0.1046022
0.21176983 0.014608063 -0.0054794187 0.14874153 -0.033288714 -0.036472637 -0.04590297 -0.00026566756
0.11186878 0.12961939 -0.052054837 0.13726284 0.040107243 -0.0045073275 0.108518325 -0.11837422
0.045572296 0.09306264 -0.068135835 0.10200111 0.024259621 0.12287327 0.14109632 -0.14903685
00000000: 0af2 473d 3eb0 253e c818 f5bd 1194 b03e
00000010: 1704 dd3e e2e6 a8be 472d 9abe 1a03 7c3c
00000020: 8166 49bd 58ca 1f3e 2991 77be 06a5 e3be
00000030: 99db a33d ce18 96bd 375c 033e 52a1 93be
00000040: 0cb6 9abe 6bb6 9fbd 09de ddbc c3d3 f7bd
00000050: cab4 823e b837 36be 2c67 fabc 76ff 24be
00000060: b129 27be b460 32be 1daa 9dbe 2157 123e
00000070: 5ff7 c9bc 4300 a73d 774e 523e dfd0 c23b
00000080: 56a8 0ebe aa13 1d3e b9ba b93d 2ff0 433e
00000090: 83c9 d1bc 0f25 a8bd 856a a83e 1e7c 57be
000000a0: b331 80bd 172a a7be c7a1 01ba 77bb 3dbd
000000b0: 7665 c3bd 7c6d 763e d1cd 703d 5cce 3cbb
000000c0: a929 9c3d 17f1 59bd 4be2 c03c d383 553e
000000d0: c2c2 d8bc f5dc 143e 066d ec3d f25b 0b3c
000000e0: 7c84 433e 59dd 17bd 5ff8 32bd 7214 06be
000000f0: 86d5 603e bb0c 0e3e 80c3 3e3e 0706 3abe
00000100: b297 bdbe ba9e 823e f5f6 be3c a7e0 9cbd
00000110: 4095 753e 54f0 26be 06c3 ddbd 1a80 813e
00000120: c449 da3d 76c9 f43d 9a12 133e 6562 e03d
00000130: 3820 b0bd cd71 02bd 074f 003e 1cf0 1a3d
00000140: c319 153e f185 8abc 588d 463e e5ef d4bd
00000150: 78cc 11be 75ac a13d cf97 7d3e 969d c2bd
00000160: d5f3 903c 648b 433e ee95 aebd fa61 0dbe
00000170: 44a2 9dbd f398 42be 6b21 80be 7e0b eb3c
00000180: 47b9 023e c297 193e 6d65 3d3d 955d 8e3c
00000190: 3471 5bbe a88f 10bd 57b9 0ebd 2908 813e
000001a0: a583 393d 0a80 823e b59e fb3d 495e 8e3d
000001b0: b519 b43e d89c 59be ab7b 163d 0768 543e
000001c0: 9794 113d 8fee 05be d71b 09bd 5dcb efbe
000001d0: cfe5 143e 896e c23d 1eeb 8a3d d3e2 133e
000001e0: 8dd3 bd3d 1149 abbd 116d 25bc 1f94 8cbd
000001f0: 6f68 86be cd40 313e 190c 6ebe 81c3 a7be
00000200: f0bc 6b3c 323f 0c3d 4870 5cbe 8286 063c
00000210: 32f0 0a3e 6dd1 e8bd d90e a03d 9230 463d
00000220: 8f96 c3bd f3d6 09be a52d e6be 3a91 423e
00000230: 169e 853e 60d6 1bbd 25ef 7e3b 6050 10be
00000240: b94b 26be 04b2 9ebe d08d 6b3d eae8 80be
00000250: bb69 533c 70a4 2e3e 8328 c5bc 8cdf 49be
00000260: f594 2dbe 78a5 2f3e ebce 05bd 78ed e33d
00000270: ac28 683d 9b15 143e 9bbf c0bc dd5b f33d
00000280: b46c 223e a6d0 013e fe51 b1be 9227 7bbd
00000290: 1440 ab3d 72ea cc3d f71a 923c 3441 633d
000002a0: 3808 ebbd f3e1 9c3d 7125 bf3d afac 44be
000002b0: 5b9a 01be 9ad4 30bd b534 bc3c 92b4 70be
000002c0: 9ce7 633e 1d4b e2bc a8da 10bd 87fc 4ebe
000002d0: fe32 4b3e 6e5b 043e e2cc 40bd 3e7d 883e
000002e0: 55b5 7e3c 63cc 973d 5646 c4bd 7ff2 02be
000002f0: 1601 42bd 8a03 043d be9c 893e 81f1 303e
00000300: 0389 003e ba5a 093b a318 1d3e 3b48 cabd
00000310: f456 ef3d 7a76 fbbd 69f9 27bd c3f8 cdbc
00000320: 285b 193e 41ca ea3b eea4 533d 9ef3 babe
00000330: d559 9a3d d99b 913d 177d 673c 4cda 0dbd
00000340: 57d9 123e 5e8e 113e 46af f13d b545 c53d
00000350: bc55 0e3e f392 173e d06b 5c3d 1f33 513e
00000360: f2f1 b83d 70bd 66bd a5a8 0e3d 3b75 813d
00000370: 9cd3 4f3e 0f55 113d 3325 0b3e 2f4f be3d
00000380: abbf 1ebe e2f1 073e 641b 953d 06e5 323e
00000390: 8a6c 15bd 9bb3 823d 3eb2 eb3d ae39 d63d
000003a0: 31da 583e a856 6f3c b28c b3bb b34f 183e
000003b0: bf59 08bd 5564 15bd c104 3cbd 4c49 8bb9
000003c0: 751b e53d f2ba 043e 7437 55bd a18e 0c3e
000003d0: 7e47 243d 34b2 93bb db3e de3d 2f6e f2bd
000003e0: 04aa 3a3d a097 be3d cd8a 8bbd f5e5 d03d
000003f0: 1dbc c63c fba4 fb3d 8e7b 103e 1e9d 18be

bias f4 [20]
0.07221237 0.04755207 0.2708962 0.0120029 -0.13369134 0.28763908 0.16625927 -0.06246587
0.06764527 0.19381174 0.007361609 -0.16308022 -0.054453783 0.27661332 0.1878986 -0.012525919
0.30551377 0.0032755926 -0.15762486 -0.033793375
00000000: 14e4 933d f6c5 423d e8b2 8a3e d0a7 443c
00000010: 62e6 08be 6e45 933e df3f 2a3e 36dc 7fbd
00000020: 9a89 8a3d 9676 463e a739 f13b 80fe 26be
00000030: ee0a 5fbd 43a0 8d3e 7e68 403e 8339 4dbc
00000040: 4d6c 9c3e 53ab 563b 6968 21be ec6a 0abd

weight f4 [20]
1.0 1.0 1.0 1.0 1.0 1.0 1.0 1.0
1.0 1.0 1.0 1.0 1.0 1.0 1.0 1.0
1.0 1.0 1.0 1.0
00000000: 0000 803f 0000 803f 0000 803f 0000 803f
00000010: 0000 803f 0000 803f 0000 803f 0000 803f
00000020: 0000 803f 0000 803f 0000 803f 0000 803f
00000030: 0000 803f 0000 803f 0000 803f 0000 803f
00000040: 0000 803f 0000 803f 0000 803f 0000 803f

bias f4 [20]
0.0 0.0 0.0 0.0 0.0 0.0 0.0 0.0
0.0 0.0 0.0 0.0 0.0 0.0 0.0 0.0
0.0 0.0 0.0 0.0
00000000: 0000 0000 0000 0000 0000 0000 0000 0000
00000010: 0000 0000 0000 0000 0000 0000 0000 0000
00000020: 0000 0000 0000 0000 0000 0000 0000 0000
00000030: 0000 0000 0000 0000 0000 0000 0000 0000
00000040: 0000 0000 0000 0000 0000 0000 0000 0000

running_mean f4 [20]
0.0 0.0 0.0 0.0 0.0 0.0 0.0 0.0
0.0 0.0 0.0 0.0 0.0 0.0 0.0 0.0
0.0 0.0 0.0 0.0
00000000: 0000 0000 0000 0000 0000 0000 0000 0000
00000010: 0000 0000 0000 0000 0000 0000 0000 0000
00000020: 0000 0000 0000 0000 0000 0000 0000 0000
00000030: 0000 0000 0000 0000 0000 0000 0000 0000
00000040: 0000 0000 0000 0000 0000 0000 0000 0000

running_var f4 [20]
1.0 1.0 1.0 1.0 1.0 1.0 1.0 1.0
1.0 1.0 1.0 1.0 1.0 1.0 1.0 1.0
1.0 1.0 1.0 1.0
00000000: 0000 803f 0000 803f 0000 803f 0000 803f
00000010: 0000 803f 0000 803f 0000 803f 0000 803f
00000020: 0000 803f 0000 803f 0000 803f 0000 803f
00000030: 0000 803f 0000 803f 0000 803f 0000 803f
00000040: 0000 803f 0000 803f 0000 803f 0000 803f

weight f4 [1, 20]
-1.2139273 -0.5759513 0.16858613 -0.91425276 -1.0284255 0.20592806 0.2904754 -1.1992884
-0.8991995 0.22820982 -0.98007715 -0.5276359 -0.48760998 0.25319687 0.27836078 -0.66693825
0.31383628 -0.15752554 -0.2989237 -0.42197114
00000000: f861 9bbf 8b71 13bf d8a1 2c3e 780c 6abf
00000010: 72a3 83bf cede 523e 31b9 943e 4882 99bf
00000020: f031 66bf d6af 693e 56e6 7abf 2513 07bf
00000030: 04a8 f9be 05a3 813e 4e85 8e3e 77bc 2abf
00000040: 26af a03e 604e 21be 870c 99be 9a0c d8be
