models_version4/2UAVs_60673/c_c0.pt (torch_old, 28024 bytes, 15 tensors)

weight f4 [50, 68]
00000000: e289 c93c cc6f a93e 7e7c 0a3d 62da 46bc
00000010: 9233 5fbd cf83 d13d b2af 833d 0027 acbd
00000020: d125 ca3b 9b59 7f3d 2006 47bd 9c40 a73d
00000030: 57f3 d13d 19f6 9ebd 59fb cbbc a6bf 7abd
00000040: 0682 aa3d 4233 b4bd 8fc4 22bd d73c 33bd
00000050: 4d17 7c3d 4a5c 013e 616a 1dbd 65b5 9a3c
00000060: 9df8 b83c 92ca 793d c6e5 ae3d e7ae d43c
00000070: db22 b03d 6abf 8fbd 4330 1a3d 90e2 d33d
00000080: f167 ffbc 23b3 7dbd 2db2 033e bbb3 323e
00000090: 89a4 04bd e1dd 293d 84d4 a9bd a3b7 d9bd
000000a0: a271 a23d 8266 8d3d 9e59 963c 676a 89bd
000000b0: da86 82bd 8e6a dc3d e2a7 8b3d 1a60 0ebc
000000c0: 1b6c b8bc 88db db3d 9764 88bd c015 8e3d
000000d0: b440 dd3c d4de a9bc 7184 743d 9a9b 5c3d
000000e0: 51fc 073d 71e2 793d c4fd 0dbd 1978 183d
000000f0: fca5 afbd 0775 5ebc e96e a33d de60 a23d
00000100: e794 c93d c7be 613d 3b6c 033d 4be6 6a3d
00000110: 642b 92bd 92ea 66be edb9 063e b354 8d3d
00000120: 118c c0bd ee14 9fbd 1dc9 c0bd d459 833d
00000130: fef7 2d3d 04b0 013d 9bc2 8fbd 8f30 403d
00000140: ca2a 30bd 18af 8b3c e614 d6bd 89be 793d
00000150: 44b3 023e ab7d a53d e18b aebd d824 4fbb
00000160: 5801 ae3c 1125 c5bd d76b d9bd 7a64 10bd
00000170: 30ca 003d cb8f 5e3d 66c1 b43c cda3 1a3c
00000180: a6e2 ef3d 1e4e e03d babb b63d 9125 2f3d
00000190: 0787 303d 2494 e73d f149 693d f09f 4fbe
000001a0: cbf8 773d 3ee6 013e f75d 923d 9cab 9c3d
000001b0: d0d7 5c3c 9c44 adbc 84c9 933d 3cd9 0dbc
000001c0: 3114 603d 3c5e c6bb b348 28bc 4def 9a3d
000001d0: faa3 b13d 5c3e c2bd fc06 fd3c fce3 05be
000001e0: f230 62bd c5a5 e93c 4ec5 0cbd 02e7 bc3b
000001f0: 6273 f4ba 0753 923d 5f4a 593d 3b5f fb3c
00000200: 9c6f 90bd 97fe b2bc 8a91 ca3c 383c ee3d
00000210: 78c3 6fbc 69f3 73bc 3ffc e1bc 63f1 233d
00000220: 709a 803e 6655 c2be 05bc f0bd 6208 83bd
00000230: 38c9 c93c 916a d1bd 9c5f c3ba b455 593d
00000240: 0f06 f43b d561 f43c 0c14 afbc bce4 663a
00000250: b4d7 58bd c895 813d a278 a1bd 681a cc3d
00000260: 8825 ac3d 2abb 253d 6938 ea3d 1453 c53d
00000270: b03e 8a3d 2cfd 7bbd bf56 f23d 8956 463d
00000280: 51e0 b2bc 1572 113d 6a61 72bd c4dc 323d
00000290: 2813 993c af77 013e 97fd ad3d 82ec 7fbd
000002a0: 11de 5b3d 9754 18bc 128f e03d 775f ccbe
000002b0: 992f fb37 a975 20bd bd16 4c3d 3337 f53d
000002c0: 7f99 b73d 9a3c 6f3d 905b 98bc 3106 bcbd
000002d0: 311c 5fbd 305b c23d 6ec4 543d 17b0 b3bd
000002e0: 1508 be39 5ebc b8bd 02d8 8cbd b2f4 063e
000002f0: d149 f03d c3dd 583d 7511 4a3c a895 2e3b
00000300: aa5e 853c e3fd 25bd 0f14 63bd d04d 96bd
00000310: 0115 b13d 0c22 413d 824d 8ebd 636e a13d
00000320: 6fa7 99bc 7d1c 383c 0675 083b ea70 073e
00000330: 42de c4bd 58fe a2be 20c0 4b3c b603 d0bd
00000340: 164c 223a aa60 1d3d 71c2 ea3d 2771 a2bd
00000350: d87c d73c 6e62 1fbd ef9f d23d ccd6 2abd
00000360: 3dea 123d 7517 3b3d 3648 01bd d571 993d
00000370: a90d 94bd 8c50 d83b 7dee be3c 8271 d4bc
00000380: 2968 c63d 76be 3bbb 338d 373d 25f8 cc3d
00000390: 45f1 6fbd d7fe 50bd 2f3c a63d 9171 eebc
000003a0: fded d23d 138e 30bd 8215 813c 16bb 9fbd
000003b0: abcb f63c 5992 b9bd 799e 9ebb 33b3 80be
000003c0: 4063 913d 7e66 acbd 69ac f53c 8153 693d
000003d0: a6bb 513d f6f4 a53c 37da 223d ffd7 a23d
000003e0: 8ad8 11bd 44d3 cabb 1c58 6f3d c81e 5e3c
000003f0: 1bad 033e d49b a63c 9cbd 5d3d f10b 1abc
0.02460188 0.33093107 0.03381013 -0.012137027 -0.05449254 0.102302186 0.064299956 -0.08405876
0.006169059 0.062341314 -0.048589826 0.0816662 0.102514915 -0.07761783 -0.024900125 -0.061217926
0.08325581 -0.08798839 -0.039738234 -0.043759193 0.06154566 0.12632862 -0.03843153 0.018885324
0.022579486 0.0609842 0.085399196 0.025962306 0.08600398 -0.07018931 0.037643682 0.10345948
-0.031177493 -0.061938416 0.12860937 0.17451374 -0.032383475 0.041471366 -0.08292487 -0.10630729
0.0793183 0.069043174 0.01835328 -0.06709748 -0.06373377 0.10762511 0.068191305 -0.008689905
-0.022512486 0.10735232 -0.06659811 0.06937742 0.027008392 -0.020736136 0.05969662 0.05385933
0.033199612 0.061006967 -0.034665838 0.03722391 -0.08576581 -0.013577706 0.07980139 0.07928632
0.09842854 0.05511358 0.03208564 0.05734853 -0.07137182 -0.22550419 0.13156863 0.06900921
-0.094017155 -0.07767664 -0.09413359 0.06413618 0.042472832 0.031662002 -0.0701954 0.04692131
-0.043009557 0.017051265 -0.10453205 0.060972724 0.12763697 0.0808061 -0.085227735 -0.0031607654
0.021240875 -0.096262105 -0.10616272 -0.035252072 0.03144282 0.05433635 0.022064876 0.009438467
0.11713152 0.109524 0.08922525 0.042760435 0.043097522 0.113075525 0.05695528 -0.20275855
0.06054 0.12685487 0.071468286 0.076499194 0.013479188 -0.02115088 0.072161704 -0.00865775
0.054706756 -0.006053714 -0.010271239 0.07565174 0.08673854 -0.0948455 0.03088712 -0.1307525
-0.05522246 0.028521428 -0.034367852 0.005764843 -0.0018650109 0.071447425 0.05304944 0.030685058
-0.07052538 -0.021849914 0.024727602 0.116325796 -0.014634006 -0.0148895765 -0.0275861 0.040025126
0.25117826 -0.3795578 -0.11754612 -0.06398083 0.024632081 -0.10225404 -0.0014905813 0.05306025
0.0074470113 0.029831806 -0.021371864 0.0008807888 -0.052940086 0.06327397 -0.07884337 0.09965974
0.08405596 0.040461697 0.11436541 0.096349865 0.06750238 -0.06152074 0.11832952 0.04842237
-0.021835478 0.035509188 -0.059174933 0.04366757 0.018685892 0.12643312 0.08495634 -0.06248141
0.053678576 -0.009297512 0.109647885 -0.39916584 2.9943696e-05 -0.03917471 0.049826372 0.11973419
0.08964824 0.058407404 -0.018598348 -0.091808684 -0.054470245 0.09490049 0.051945142 -0.08773821
0.00036245646 -0.09020303 -0.06877138 0.13179281 0.11732829 0.052945863 0.012333264 0.0026639495
0.01628049 -0.04052533 -0.05543905 -0.0733906 0.08646584 0.04715161 -0.06948377 0.07882383
-0.018756596 0.011237261 0.0020821705 0.13226667 -0.09612705 -0.31834674 0.012435943 -0.10156958
0.0006191147 0.038422264 0.11462868 -0.07931738 0.026304647 -0.03891223 0.10284411 -0.041708753
0.03586792 0.045676667 -0.031563006 0.07492415 -0.07229168 0.006601399 0.02330708 -0.025933031
0.09687836 -0.002864746 0.044812392 0.10008267 -0.058579702 -0.051024284 0.08116948 -0.029106887
0.10299299 -0.043104243 0.015757326 -0.07799356 0.030126413 -0.09061117 -0.0048406688 -0.25136718
0.070990086 -0.08417986 0.029989438 0.0569644 0.051204346 0.020258408 0.039758887 0.07951354
-0.0356069 -0.0061897356 0.058433637 0.0135571435 0.12859003 0.020337977 0.054135904 -0.009402261

bias f4 [50]
00000000: 48b6 94bd 1774 353e 96fc 4b3d ba90 2f3e
00000010: 1790 483e 5828 fa3c 0f80 043c 89d4 c13d
00000020: ddc3 153e 78d3 c13c c87e dcbd 3425 613e
00000030: f9d7 c53d f226 2f3c 497d 883d 48af 213e
00000040: 081c 043e 5b28 bc3d 4859 6fbd e4da f43c
00000050: 4fb0 e03d ac2f 063e 6892 ff3d c857 06bd
00000060: 1cbc c0bd af89 99bd 383b 423d 7e4e 453e
00000070: 875a 163e ab13 9e3d d3c1 2f3d d952 a4bc
00000080: fe50 cd3d 1969 4a3e 1e2a 673d fd4a 83bd
00000090: 00ad 3b3e 2202 e43d fdd9 2f3d 3c24 cf3c
000000a0: 699e 7dbd ee89 ab3c fafa 663c 3ec1 0f3d
000000b0: b381 ca3d 098c 04be 3437 acbd cc48 7a3d
000000c0: b897 c7bd 07dd f9bc
-0.0726133 0.17720066 0.04980143 0.17145053 0.19586216 0.030536816 0.008087172 0.09464366
0.14625497 0.023660406 -0.10766369 0.21986848 0.09660334 0.010690438 0.06664521 0.1578952
0.12901318 0.09187385 -0.058434755 0.029889531 0.10971128 0.13104123 0.12479097 -0.03279856
-0.09410879 -0.07496964 0.047419757 0.19268224 0.14682971 0.07718595 0.042909455 -0.020059036
0.10025214 0.19766654 0.05643665 -0.06410787 0.18327713 0.11133219 0.0429325 0.025285833
-0.06191865 0.020939793 0.014097923 0.0350964 0.098880194 -0.12944044 -0.08408967 0.06110458
-0.09745735 -0.030500902

weight f4 [50, 4]
00000000: a6c6 ac3d 440a 12be 979c b8bd d1dc bbbe
00000010: 0214 8fbc d9c4 f4be 8c74 95be 545f 153e
00000020: 8ac9 303d 45e6 fbbe 0122 833d 352e c4be
00000030: a627 63be 29d8 993e 747d 5cbe 09e7 9c3d
00000040: ecf1 8bbd d504 6dbe 8691 5c3e 9e77 d5bb
00000050: 67ee 0d3e 1789 debe 482e 803e 43a1 d0be
00000060: f891 a0be 65ef 0cbf b680 d13e b08a 023f
00000070: b0ab 403e 6a3a fcbe fb62 533e d1f6 f73c
00000080: 7569 b3bd dca5 a63e 6888 903d 96e6 863d
00000090: 41a4 953d 911b 58be dcf7 8a3e 7c5e 16be
000000a0: f592 bf3e 1f6f 15bf 44cc 77bd 397e bb3b
000000b0: 7c66 8a3e 1a81 f1be df29 1bbe ee1b a8be
000000c0: 2ffd 5b3e e969 5e3e 35c4 a6be f73f bbbe
000000d0: da5b 01bf 3eaa 083f 5ade 5bbe ea88 213e
000000e0: 7514 b33e 126d f5be a17f 2cbd b37d 633e
000000f0: dd30 a83e 00a7 b4bd 9844 ee3d 4441 1b3e
00000100: 1ff9 1a3e 332f de3e da43 d43e aafe 983d
00000110: 23ae 8bbd 38ab 49ba f5f8 7abe cd28 503e
00000120: 75bf b43d e71e fcbe c229 9ebe 6607 64bd
00000130: da6f a33e cff1 f3be c1c7 8a3e 7817 823e
00000140: 5be9 1dbe 0f97 d93e afe0 49bd 3e04 753e
00000150: 4a4e c6be 17ed 80be 9253 aa3e 3233 593e
00000160: 9dde e1be f2d4 eb3e c0e1 bbbd a252 b9be
00000170: c5ab d13d b958 8a3e 15ff 243c 74cb 64be
00000180: f04b fc3d 465d 85be 75d2 93be a0d3 b2be
00000190: 91ac a73d aa7b a03e 4af1 953e 95bd c7bd
000001a0: 4ed2 5e3e 84f1 e7be 4854 e1be 8e4a ad3d
000001b0: 8a8e 113e 731f 13be 7a83 aebe 8fc4 96be
000001c0: c165 e8bd 5ee8 fdbe 59f8 90be c838 4b3c
000001d0: e726 f03e 2191 4f3e a081 43be 8916 963e
000001e0: 38b1 243e 9a61 10bf 84be 28bd f0fe cebe
000001f0: 274e 83be 85c7 f0be 9f60 e0be 644a ad3e
00000200: cc78 14be bdb4 42be ccbb 013b 17bb c0be
00000210: 90d4 e3be 4fb9 173e 0b5b e43e 8723 ac3e
00000220: 3fc1 3f3e 707c e1be a66c 5e3e 4418 a2bd
00000230: eade fe3d 5100 9a3e e1ec 8ebe 0b34 9fbe
00000240: 5c5f afbe 586c 853e e42e e63d 594e b23e
00000250: a924 d23e 48bf ffbe 0e1e 683e 5d72 603e
00000260: 5db4 943e 3ba9 db3e 7409 70be 4e34 0cbe
00000270: a7a7 88be 4995 09bf e63b 38be 6060 093d
00000280: 004d a5be 4ec4 883e 5a42 d03e 49f5 ff3e
00000290: 10f0 1abf 9432 993d fbaa 9e3d 9475 cc3d
000002a0: ea76 d83c 57dd 493e 9b71 413e d9f5 963e
000002b0: 0249 bd3e 6772 d6be cb1b 97be 74b3 033c
000002c0: bab2 1c3e e418 c83e 6517 a83e 923f 453e
000002d0: 9024 073f 51b0 e13d 4299 27bd 7264 afbd
000002e0: efa8 b9bc 86dd 6e3e 8764 62be 49ee e63e
000002f0: b93d 8ebe 8ece a6be 6cdd 66be fe10 3fbe
00000300: e664 f1be 8860 323d aac4 913e cb25 eabb
00000310: 5bfe bd3e c35f 8abe a89f 213e 7557 813d
0.08436327 -0.14261729 -0.09014242 -0.36691907 -0.017465595 -0.47806433 -0.2919048 0.14587146
0.043160953 -0.4919912 0.0640297 -0.38316503 -0.22183093 0.3004773 -0.21532232 0.07661254
-0.06833252 -0.23146375 0.21539888 -0.0065145036 0.13860475 -0.43463966 0.2503531 -0.40748033
-0.31361365 -0.5505279 0.4091851 0.5099287 0.18815494 -0.49263316 0.20643227 0.030269058
-0.08760349 0.32548416 0.070572674 0.065869495 0.073067196 -0.21104266 0.27142227 -0.1468448
0.37416807 -0.5837268 -0.060497537 0.005721834 0.27031314 -0.4716881 -0.15152691 -0.3283381
0.214833 0.21720089 -0.3257157 -0.3657224 -0.5053078 0.5338477 -0.21471539 0.15774885
0.34976545 -0.47934777 -0.042113904 0.22215919 0.3284978 -0.08820915 0.11634177 0.15161616
0.15134095 0.43395385 0.41458017 0.07470448 -0.06820323 -0.0007693055 -0.24509032 0.20328064
0.0882558 -0.49242327 -0.30891234 -0.05567112 0.31921273 -0.47645423 0.27105525 0.2540853
-0.1542105 0.4249806 -0.04928654 0.239274 -0.38731605 -0.25180885 0.33266884 0.21210936
-0.44115153 0.46060902 -0.09173918 -0.36195856 0.102378406 0.27020815 0.010070582 -0.22343236
0.123191714 -0.26047724 -0.28871503 -0.34927082 0.08187211 0.31344348 0.2928565 -0.09752957
0.21759912 -0.4530145 -0.44009614 0.08461486 0.1421453 -0.14367466 -0.34084684 -0.29446837
-0.11347533 -0.49591345 -0.28314474 0.012403674 0.4690468 0.20270206 -0.19092417 0.29314068
0.16083229 -0.5639893 -0.041197315 -0.40428877 -0.25645563 -0.4702722 -0.43823716 0.33845818
-0.14499205 -0.19014259 0.0019795774 -0.37642738 -0.4449811 0.14816783 0.4460071 0.33620855
0.18726061 -0.4404025 0.21721134 -0.079147846 0.12444861 0.30078366 -0.279151 -0.31094393
-0.3425244 0.26059222 0.112394124 0.348254 0.41043594 -0.49950624 0.22667715 0.21918626
0.29043856 0.4290255 -0.23441106 -0.13691828 -0.2669041 -0.53743416 -0.179916 0.033539176
-0.3228531 0.2671227 0.40675622 0.49991825 -0.60522556 0.0748035 0.07747456 0.09983364
0.02642389 0.1971334 0.18890993 0.29484442 0.36969763 -0.41884157 -0.29513392 0.00803839
0.15302554 0.3908149 0.3283035 0.19262531 0.52790165 0.11019958 -0.040917642 -0.0856408
-0.022663562 0.23326692 -0.2210866 0.45103672 -0.27781466 -0.32579464 -0.22545403 -0.18658826
-0.47147292 0.04354909 0.28470355 -0.0071456186 0.3710812 -0.27026185 0.1578356 0.06315509

bias f4 [50]
00000000: 5e2d 8dbe 10cf 6cbe 65f7 8e3e 3b4a 0a3f
00000010: c2b3 a2be 884c d33e 831e cabe 5269 613e
00000020: 3ade c33e babb f33e 62a9 d23e 7a2e 2ebe
00000030: f0e0 eabb 20b5 803e 26f6 943e 7100 153d
00000040: cad7 ab3c a569 cc3e f25b 5bbe 45fd d93e
00000050: 8521 8abe c8cc 8f3e cc9b 83be 0f33 8c3e
00000060: cccf d2be b38a 3a3e 792b c6bd fe4d 89be
00000070: ce06 72be dca3 ce3e 54e2 eebe 93b6 b43e
00000080: d05e afbe b144 02be 39e1 65bd c75d 803e
00000090: c2c6 433e 96cd 0bbc 7937 bcbe d360 933e
000000a0: 7c37 fe3e 2ba7 3a3e 7aa4 853e e8ce 133e
000000b0: dcb4 e7be f087 143e 4c1a 203e 5cac f53e
000000c0: 39e9 043f 2234 c6be
-0.27573675 -0.23125863 0.27923122 0.54019517 -0.3177777 0.41269326 -0.39476404 0.22012833
0.38255483 0.47604162 0.41144854 -0.17009917 -0.007167928 0.25138187 0.29094046 0.036377374
0.02097692 0.3992435 -0.21421793 0.42576042 -0.26978698 0.28085923 -0.257048 0.27382705
-0.4117416 0.18216972 -0.096762605 -0.26817316 -0.23635408 0.4035939 -0.4665705 0.35295543
-0.34252024 -0.12721516 -0.056122992 0.25071546 0.19118789 -0.008532902 -0.36761072 0.2878481
0.49651706 0.18227832 0.26102048 0.14434397 -0.45255172 0.14504981 0.15635031 0.47983062
0.5191837 -0.3871165

weight f4 [50]
00000000: 0000 803f 0000 803f 0000 803f 0000 803f
00000010: 0000 803f 0000 803f 0000 803f 0000 803f
00000020: 0000 803f 0000 803f 0000 803f 0000 803f
00000030: 0000 803f 0000 803f 0000 803f 0000 803f
00000040: 0000 803f 0000 803f 0000 803f 0000 803f
00000050: 0000 803f 0000 803f 0000 803f 0000 803f
00000060: 0000 803f 0000 803f 0000 803f 0000 803f
00000070: 0000 803f 0000 803f 0000 803f 0000 803f
00000080: 0000 803f 0000 803f 0000 803f 0000 803f
00000090: 0000 803f 0000 803f 0000 803f 0000 803f
000000a0: 0000 803f 0000 803f 0000 803f 0000 803f
000000b0: 0000 803f 0000 803f 0000 803f 0000 803f
000000c0: 0000 803f 0000 803f
1.0 1.0 1.0 1.0 1.0 1.0 1.0 1.0
1.0 1.0 1.0 1.0 1.0 1.0 1.0 1.0
1.0 1.0 1.0 1.0 1.0 1.0 1.0 1.0
1.0 1.0 1.0 1.0 1.0 1.0 1.0 1.0
1.0 1.0 1.0 1.0 1.0 1.0 1.0 1.0
1.0 1.0 1.0 1.0 1.0 1.0 1.0 1.0
1.0 1.0

bias f4 [50]
00000000: 0000 0000 0000 0000 0000 0000 0000 0000
00000010: 0000 0000 0000 0000 0000 0000 0000 0000
00000020: 0000 0000 0000 0000 0000 0000 0000 0000
00000030: 0000 0000 0000 0000 0000 0000 0000 0000
00000040: 0000 0000 0000 0000 0000 0000 0000 0000
00000050: 0000 0000 0000 0000 0000 0000 0000 0000
00000060: 0000 0000 0000 0000 0000 0000 0000 0000
00000070: 0000 0000 0000 0000 0000 0000 0000 0000
00000080: 0000 0000 0000 0000 0000 0000 0000 0000
00000090: 0000 0000 0000 0000 0000 0000 0000 0000
000000a0: 0000 0000 0000 0000 0000 0000 0000 0000
000000b0: 0000 0000 0000 0000 0000 0000 0000 0000
000000c0: 0000 0000 0000 0000
0.0 0.0 0.0 0.0 0.0 0.0 0.0 0.0
0.0 0.0 0.0 0.0 0.0 0.0 0.0 0.0
0.0 0.0 0.0 0.0 0.0 0.0 0.0 0.0
0.0 0.0 0.0 0.0 0.0 0.0 0.0 0.0
0.0 0.0 0.0 0.0 0.0 0.0 0.0 0.0
0.0 0.0 0.0 0.0 0.0 0.0 0.0 0.0
0.0 0.0

running_mean f4 [50]
00000000: 0000 0000 0000 0000 0000 0000 0000 0000
00000010: 0000 0000 0000 0000 0000 0000 0000 0000
00000020: 0000 0000 0000 0000 0000 0000 0000 0000
00000030: 0000 0000 0000 0000 0000 0000 0000 0000
00000040: 0000 0000 0000 0000 0000 0000 0000 0000
00000050: 0000 0000 0000 0000 0000 0000 0000 0000
00000060: 0000 0000 0000 0000 0000 0000 0000 0000
00000070: 0000 0000 0000 0000 0000 0000 0000 0000
00000080: 0000 0000 0000 0000 0000 0000 0000 0000
00000090: 0000 0000 0000 0000 0000 0000 0000 0000
000000a0: 0000 0000 0000 0000 0000 0000 0000 0000
000000b0: 0000 0000 0000 0000 0000 0000 0000 0000
000000c0: 0000 0000 0000 0000
0.0 0.0 0.0 0.0 0.0 0.0 0.0 0.0
0.0 0.0 0.0 0.0 0.0 0.0 0.0 0.0
0.0 0.0 0.0 0.0 0.0 0.0 0.0 0.0
0.0 0.0 0.0 0.0 0.0 0.0 0.0 0.0
0.0 0.0 0.0 0.0 0.0 0.0 0.0 0.0
0.0 0.0 0.0 0.0 0.0 0.0 0.0 0.0
0.0 0.0

running_var f4 [50]
00000000: 0000 803f 0000 803f 0000 803f 0000 803f
00000010: 0000 803f 0000 803f 0000 803f 0000 803f
00000020: 0000 803f 0000 803f 0000 803f 0000 803f
00000030: 0000 803f 0000 803f 0000 803f 0000 803f
00000040: 0000 803f 0000 803f 0000 803f 0000 803f
00000050: 0000 803f 0000 803f 0000 803f 0000 803f
00000060: 0000 803f 0000 803f 0000 803f 0000 803f
00000070: 0000 803f 0000 803f 0000 803f 0000 803f
00000080: 0000 803f 0000 803f 0000 803f 0000 803f
00000090: 0000 803f 0000 803f 0000 803f 0000 803f
000000a0: 0000 803f 0000 803f 0000 803f 0000 803f
000000b0: 0000 803f 0000 803f 0000 803f 0000 803f
000000c0: 0000 803f 0000 803f
1.0 1.0 1.0 1.0 1.0 1.0 1.0 1.0
1.0 1.0 1.0 1.0 1.0 1.0 1.0 1.0
1.0 1.0 1.0 1.0 1.0 1.0 1.0 1.0
1.0 1.0 1.0 1.0 1.0 1.0 1.0 1.0
1.0 1.0 1.0 1.0 1.0 1.0 1.0 1.0
1.0 1.0 1.0 1.0 1.0 1.0 1.0 1.0
1.0 1.0

weight f4 [20, 100]
00000000: cc14 debb d06c d13c 6049 2f3d 0362 03bb
00000010: ff7e 8b3d 838c b1bd d604 c13d 4a86 b13d
00000020: 9e29 c03d 0ec8 8fbd 1cb5 efbd 8420 be3d
00000030: a892 87bc a92e ed3d 7730 9bbb 07a8 9e3d
00000040: 29d8 8a3c e025 563d d9ae 273c 6701 a6bc
00000050: f9fa b83d df88 ed3d 288e 9d3c 370a f13b
00000060: 89b7 0e3c b83d 26bd f197 c5bd f262 19bd
00000070: bd5d 883d 5ba8 ad3d 5e3c 633d 5dcf f73b
00000080: 65aa 36bd 815f c83d 8bbc 65bc ab73 42bd
00000090: cf16 3d3d 77a2 123e b585 6cbd dbaa 933d
000000a0: 19dd 02bc 37e7 0a3b 10d6 c03b 3095 81bd
000000b0: b48a c13d 4c62 eabc 9b56 adbd 7999 d3bd
000000c0: 2e58 f8bd 6019 583c d9ed 53bd 996c febd
000000d0: 466b 77bd 63e4 ee3d 2912 84bc f2d8 f33c
000000e0: 7f92 f0bd bc34 48bd dd07 fd3d c8f5 e93d
000000f0: 8676 83bc 1dce 4ebd 9022 6d3d 6ecb b4bc
00000100: 4d7f 9dbd 7a51 1e3d 00b5 0a3d f60c ce3d
00000110: cb53 c8bd 2003 4ebd c1b6 95bd 8c3f 613d
00000120: 84cc 9a3c bff2 a43d 2ea9 64bc 43d0 f4bc
00000130: b5b8 493c b2bd 02bd 03f6 10bd aa61 b53c
00000140: 94ed 41bb d077 5abd 7104 ffbb a56f 56bc
00000150: 6de9 8fbd 977b 063e 5888 b43c 6722 413d
00000160: b39c 883c 3f86 063d 8f5f 303d c41b 51bd
00000170: c72e f33d 70b1 db3d 6e84 2bbd eb37 ef3c
00000180: 3e46 a83c 07c3 12bd ab0f 3fbd 4bd4 a8bb
00000190: b185 89bd 1936 093e 1681 b13d db8f 4b3e
000001a0: 57da 413e e4ca 83bd 1262 cd3a 87b8 b13e
000001b0: 451f c8bd 1c0c b4bd 0dd8 5cbe ae2c 1a3e
000001c0: 10d6 5ebe f11c 43bd c4a6 b43d 7e28 16be
000001d0: 05de e8bd 4c0a 663e 8dbe 9bbd 6a89 b73e
000001e0: 38cf 3dbe 87fd 32be 1320 5b3d 0ae2 bb3d
000001f0: 82af 0fbe 747e 89be bd58 77bd 4aed 00bd
00000200: ff90 00bd 7970 0dbe bf21 51be 884c dbbd
00000210: 549e 77bd 552f 8f3c 3c95 6e3e fd5b 4cbd
00000220: c5f4 91bd a8b6 32be 66b4 123e 4240 513e
00000230: 9f0d fcbd 60ca 21bd 46cb 423e d727 863c
00000240: ab23 a23c e157 963c 1868 adbd 4bef 843d
00000250: ecf9 2bbe 6e4d 4c3d 7932 b1bc e889 0d3e
00000260: 250d 203e b35c 73bd 4e63 e93d b452 15bc
00000270: e4b1 763d 053e b33c a50e dcbd 6c69 3a3d
00000280: 1009 c13d e1bd 313d 1905 63bd 086a bc3d
00000290: 28bb e5bb 2a15 583d a778 86bd 7bd6 8a3d
000002a0: ae6b 8d3d 33d0 5b3d f47d d63d 7be1 1a3e
000002b0: 507c 533e fa1c e9bd 6421 54bd 987b 8cbd
000002c0: dcc5 183c b64d 55bd 6bfb 1b3e c9f2 4cbc
000002d0: 41ca db3d ccad 8d3c 381d b23d 3064 d63c
000002e0: db5d 1b3e 0979 ecbd 52c5 0e3d 429f 193c
000002f0: cb00 c9bc 9c2d 4a3e c351 01bd 1d48 073e
00000300: 1236 e8bd 1e1f 593d 4d64 03be d1ea 05be
00000310: 2cfd dabb 18dc dc3c 6635 fa3d 36d2 d23d
00000320: 89a4 dcbd 0e17 b33d 426f 263e 8029 973d
00000330: d485 2c3e db7f ccbc e1c7 09bd 3ec7 6e3e
00000340: 2b72 f73c ba07 75bd f272 adbd d145 313e
00000350: bbe5 91bd d46a 223b 71a9 1ebe d304 38be
00000360: d1fa 40be c287 773e 4bb8 eebd 3c6b 2a3e
00000370: 478b 69bc b9ac 69be c2d6 2e3e edd0 8f3d
00000380: 6b8c eebd 8c80 17be 7539 47be 6423 21be
00000390: e16e ecbd c421 34be 78dc 85bd 82f9 57be
000003a0: 512c 45bd 1e0c 0e3d 515e c13c 60e7 aa3d
000003b0: 9830 53bc f673 70be 54fc 143e 706b 3d3e
000003c0: f99b 61be 514c 593e 1dd4 383e bb6d c2bd
000003d0: 3bb1 283e 84a8 c13d 841b de3d 2672 793d
000003e0: 02fd 38be 97fb 823e a469 bf3d f388 ff3d
000003f0: c3bc 0e3e 960c 92bd 7585 0e3e b46d 1d3c
-0.0067773815 0.025564581 0.042794585 -0.0020047433 0.06811332 -0.086693786 0.094247505 0.08668192
0.09382938 -0.07020579 -0.11704466 0.092835456 -0.016549423 0.11581165 -0.004736002 0.077468924
0.016948776 0.052282214 0.010234558 -0.02026434 0.09032244 0.11598372 0.019232824 0.007355954
0.00871075 -0.040586203 -0.09648121 -0.037447877 0.06658504 0.08479377 0.055477493 0.0075625614
-0.044596095 0.09783841 -0.014022003 -0.04747359 0.04616433 0.14319788 -0.0577447 0.072103225
-0.007987284 0.0021194944 0.0058848932 -0.063272834 0.09450284 -0.028611325 -0.08463784 -0.10332007
-0.12126194 0.013189644 -0.0517405 -0.12423057 -0.06040504 0.11664655 -0.01612194 0.029766534
-0.11746692 -0.048878416 0.123550154 0.11423832 -0.016047727 -0.050489534 0.05789429 -0.02206966
-0.07690296 0.03865192 0.03386402 0.10061066 -0.09781607 -0.05029595 -0.07310248 0.054992244
0.018896349 0.08054113 -0.013956351 -0.029884463 0.012312104 -0.03191919 -0.035390865 0.022141296
-0.002959107 -0.05333692 -0.007782512 -0.013088142 -0.07026944 0.13133083 0.02203767 0.04715195
0.016676283 0.03284287 0.04305988 -0.05105187 0.118741564 0.10727203 -0.04187434 0.029201468
0.020541307 -0.035830524 -0.0466458 -0.0051522604 -0.06714953 0.13399543 0.08667199 0.19879095
0.18930946 -0.06435183 0.0015669486 0.34711096 -0.09771589 -0.08791372 -0.21566792 0.15056106
-0.21761346 -0.047635023 0.088208705 -0.14663884 -0.11370472 0.22464865 -0.07604704 0.35847026
-0.18536079 -0.17479526 0.053497385 0.09173973 -0.14031795 -0.2685429 -0.06038736 -0.031476296
-0.03138828 -0.13812436 -0.2042303 -0.107079566 -0.060453728 0.017478624 0.23299116 -0.049892414
-0.07126764 -0.1745249 0.14326629 0.20434669 -0.123072855 -0.03949964 0.19022855 0.016376419
0.019792398 0.01835245 -0.0846712 0.06490954 -0.16794556 0.04987853 -0.021630513 0.13822138
0.15630014 -0.059414577 0.11395894 -0.009113956 0.060228243 0.02188016 -0.10744981 0.045510694
0.09425557 0.043393973 -0.055424783 0.09199911 -0.007010836 0.05275456 -0.06565981 0.0677919
0.06905304 0.05366535 0.104732424 0.15125076 0.2065289 -0.1138248 -0.051789656 -0.06859511
0.009324517 -0.052076064 0.15232627 -0.012509056 0.10731936 0.017294787 0.08696979 0.02617082
0.15172522 -0.11546523 0.034856148 0.009376349 -0.02453651 0.19743961 -0.031572115 0.13211103
-0.11338438 0.05300819 -0.1283123 -0.13077857 -0.0066830125 0.026960418 0.12217216 0.10294001
-0.1077357 0.08744632 0.16253379 0.07380962 0.16847926 -0.02496331 -0.033637885 0.23318192
0.030205807 -0.05982182 -0.0846919 0.17311789 -0.07123896 0.0024782913 -0.15494324 -0.1797059
-0.18845679 0.24172881 -0.11656245 0.16642469 -0.014254398 -0.22819795 0.17074111 0.07022271
-0.11647876 -0.1479513 -0.19455512 -0.15736157 -0.11544586 -0.17591006 -0.06536192 -0.21091273
-0.048137967 0.034679525 0.023604544 0.083449125 -0.012890004 -0.23481736 0.1454938 0.18498015
-0.22032155 0.21220519 0.18049665 -0.09493586 0.16473858 0.0945597 0.10845092 0.060899876
-0.18065265 0.25582573 0.09346321 0.12477293 0.13939194 -0.07131307 0.13918097 0.009608675

bias f4 [20]
00000000: 74ed 113e 779d 88bd a19b 8dbd 4cb1 403d
00000010: 478e 0fbd 29f7 9f3c 4350 c63d 6d2e e93d
00000020: 17f3 453d 773f cd3c ac4f f43b fb35 8bbd
00000030: aeac bebd 7a44 fbbd f9f9 3c3e 0572 403d
00000040: ad69 65bd da0b aebd 1994 843d ac57 b93d
0.14250737 -0.06670659 -0.069144495 0.047044083 -0.035047796 0.019527035 0.096832775 0.11385808
0.04832753 0.025054676 0.0074557867 -0.06797405 -0.0931028 -0.1226892 0.18454732 0.046983737
-0.056008983 -0.08498354 0.0647356 0.09049925

weight f4 [20]
00000000: 0000 803f 0000 803f 0000 803f 0000 803f
00000010: 0000 803f 0000 803f 0000 803f 0000 803f
00000020: 0000 803f 0000 803f 0000 803f 0000 803f
00000030: 0000 803f 0000 803f 0000 803f 0000 803f
00000040: 0000 803f 0000 803f 0000 803f 0000 803f
1.0 1.0 1.0 1.0 1.0 1.0 1.0 1.0
1.0 1.0 1.0 1.0 1.0 1.0 1.0 1.0
1.0 1.0 1.0 1.0

bias f4 [20]
00000000: 0000 0000 0000 0000 0000 0000 0000 0000
00000010: 0000 0000 0000 0000 0000 0000 0000 0000
00000020: 0000 0000 0000 0000 0000 0000 0000 0000
00000030: 0000 0000 0000 0000 0000 0000 0000 0000
00000040: 0000 0000 0000 0000 0000 0000 0000 0000
0.0 0.0 0.0 0.0 0.0 0.0 0.0 0.0
0.0 0.0 0.0 0.0 0.0 0.0 0.0 0.0
0.0 0.0 0.0 0.0

running_mean f4 [20]
00000000: 0000 0000 0000 0000 0000 0000 0000 0000
00000010: 0000 0000 0000 0000 0000 0000 0000 0000
00000020: 0000 0000 0000 0000 0000 0000 0000 0000
00000030: 0000 0000 0000 0000 0000 0000 0000 0000
00000040: 0000 0000 0000 0000 0000 0000 0000 0000
0.0 0.0 0.0 0.0 0.0 0.0 0.0 0.0
0.0 0.0 0.0 0.0 0.0 0.0 0.0 0.0
0.0 0.0 0.0 0.0

running_var f4 [20]
00000000: 0000 803f 0000 803f 0000 803f 0000 803f
00000010: 0000 803f 0000 803f 0000 803f 0000 803f
00000020: 0000 803f 0000 803f 0000 803f 0000 803f
00000030: 0000 803f 0000 803f 0000 803f 0000 803f
00000040: 0000 803f 0000 803f 0000 803f 0000 803f
1.0 1.0 1.0 1.0 1.0 1.0 1.0 1.0
1.0 1.0 1.0 1.0 1.0 1.0 1.0 1.0
1.0 1.0 1.0 1.0

weight f4 [1, 20]
00000000: 4986 3b3e b2ec 10bf dd43 3abf 24b4 3d3e
00000010: 9ac7 00bf c24b 45be 29fe 7a3e d69b 873d
00000020: e634 133e f241 943d 955b 023e be8f dbbe
00000030: 8aa0 cebe bd14 8dbe 5090 283e 2f7b 0cbf
00000040: a76f c6be 93a2 fbbe cc05 6e3e 829e 1f3e
0.18312944 -0.5661117 -0.727598 0.1852575 -0.5030457 -0.1926718 0.24511017 0.0662152
0.14375648 0.072391406 0.12730248 -0.42883104 -0.40356857 -0.27554885 0.16461301 -0.54875463
-0.3875706 -0.49147472 0.23244399 0.1558781
