models_version4/2UAVs_48830/c_t0.pt (torch_old, 28024 bytes, 15 tensors)

weight f4 [50, 68]
00000000: 7508 02bc 9eb5 8f3e f35b 113d 08d6 6abc
00000010: ea61 42bd 013a e13d 85b6 8c3d 95b2 b4bd
00000020: c501 63bc e99b 853d a5c1 83bd 50e5 8e3d
00000030: e7ae de3d 7f92 b7bd bbdf b2bc 5767 34bd
00000040: 432a ae3d a049 b0bd a74e 3abd 0a8a 3fbd
00000050: 4c9c 733d ee9b e93d f57e c8bc 1be7 e53c
00000060: cdd2 723c 2eac 9b3d b0ab 983d 1334 103d
00000070: e012 b13d b785 85bd 6762 cf3c f97b da3d
00000080: ac75 0cbd 80c4 80bd ebc0 c43d fd7e fe3d
00000090: 568a fbbc 13df 203d 9d6b 9bbd 8a01 cabd
000000a0: 7478 ab3d 06db 843d 5a0b dbba 397b 83bd
000000b0: 71c5 a2bd 400f c43d 7063 983d 9da1 a9bc
000000c0: 7850 9fbc c507 ff3d 5abc 84bd 74ff 913d
000000d0: 8c2c ae3c 5479 c2bc 6009 6c3d 6462 2a3d
000000e0: 3927 413d bdbd 8f3d 6cc5 2dbd 2406 563d
000000f0: 22e0 c5bd 8305 8ebb ed5e a43d a59a ac3d
00000100: 7855 b03d 80f1 6e3d 1c55 ed3c 7410 673d
00000110: 4b41 6cbd ab32 4dbe 641d f33d 34ae 8f3d
00000120: bbc3 a9bd eefe 88bd 809a b2bd 65b2 803d
00000130: d49f 0c3d 0d53 b43c 9a97 a6bd 1041 c43c
00000140: 8155 7ebd fe8a 42b9 6881 cfbd dd09 7c3d
00000150: bc36 023e 2d21 883d 0a11 bfbd bc39 c13b
00000160: 7c8f 113d 127f fbbd 93da debd 5de7 49bd
00000170: 5a05 ea3c 55ca 343d 6ce6 7b3c 40b1 bd3b
00000180: 381e e53d a663 c13d 3145 bf3d 1390 243d
00000190: 9ea5 663d d2d0 ff3d ceaf 903d 0ae8 35be
000001a0: 084c 433d 1d13 033e 6126 a93d b0c1 b23d
000001b0: 3727 a73c 92e2 b7bc 611d 833d 99f9 95bc
000001c0: 406a 323d beb7 edbc a179 f0bc a444 6f3d
000001d0: 9037 b83d ce18 c1bd 4e22 f93c 2892 14be
000001e0: aa9d 81bd 7bec 193d 296d a4bc ce2d aabc
000001f0: ae05 94bb 4423 6b3d ff82 4d3d 81d4 a73c
00000200: 2a23 9ebd 12e4 d0bc ea7f 9f3c bf51 cf3d
00000210: 4878 2bbc e024 8fbc 337e 6bbc 366a 543d
00000220: aab1 503e e147 a7be 2d2d d4bd ec50 3fbd
00000230: ccbf 003d d61a babd 89cf 233c b227 843d
00000240: fbec ab3c 40e2 043d 30e3 bbbc 2a42 f13a
00000250: 4248 1bbd 824b a63d 7329 89bd 30d6 ed3d
00000260: 5644 ce3d 1358 2b3c f081 ab3d ed9c d83d
00000270: f44b 953d d2f7 6abd 23cf 013e 9e6f 943c
00000280: c7e9 13bc 7d54 483d e506 00bd 980b 413d
00000290: 6091 b63c 94fa 0e3e 2eab c53d 37cc 3fbd
000002a0: 56fc 393d 30d1 67bc b010 7f3d f251 b1be
000002b0: 49f4 643c 946b b3bc fcf1 673d 9443 063e
000002c0: ef20 cf3d 171b 8f3d b6bf a5bb 7dad b6bd
000002d0: d583 65bd 6e52 c43d 002a 893d 6cfa 8ebd
000002e0: 4c6a 483c af00 97bd 6e72 55bd f376 d03d
000002f0: 5f93 b13d 6971 7f3d ae3d 913c b976 df3b
00000300: 6b7c ca3c 630e 91bd 4a9e 2ebd 6fb9 75bd
00000310: 3742 ea3d e550 4f3d ffed 86bd 1e74 bc3d
00000320: 55c3 ebbb 014f dc3c 79d3 cabb 1379 023e
00000330: cea1 acbd 72a4 99be 7764 8bb9 e8f1 dcbd
00000340: a7ca 21bc b392 e23c 759e e13d d141 9dbd
00000350: 8220 283d cc64 4cbd 4088 dd3d 3689 30bd
00000360: c0a1 c63c 64d3 293d bc24 06bd c131 433d
00000370: 2bb5 9cbd 5207 15bc 6462 5f3c dd55 edbc
00000380: 4078 c73d 767d 0bbc 3944 f53c d71b b23d
00000390: a906 72bd b4cd 83bd f285 8a3d 0812 38bd
000003a0: 0ae7 c33d bb24 48bd 2ebf 203c 7a6e b0bd
000003b0: 97ee 003d 3c73 bebd f429 e53b 90b2 6ebe
000003c0: c5bf 6e3d a854 b9bd d0b4 9f3c 3c3c 3d3d
000003d0: be73 3f3d ccb2 ba3c 5e3c 5f3d c656 8c3d
000003e0: 0010 f8bc c666 f8bb e0be 3f3d 900e 193c
000003f0: fd75 023e 1d20 e3bb ae6e 4c3d cc9d cdbc
-0.007936587 0.2806825 0.03548808 -0.014333256 -0.04745666 0.109973915 0.0687075 -0.08823124
-0.013855402 0.06523878 -0.06433419 0.06977332 0.10873204 -0.08963489 -0.021835199 -0.044043865
0.085041545 -0.08607793 -0.045485165 -0.046762504 0.05947523 0.11406694 -0.0244746 0.028064301
0.014820767 0.076012 0.07454622 0.03520591 0.08646178 -0.06519645 0.025315477 0.10668177
-0.03429191 -0.062874794 0.09607109 0.12426565 -0.030705612 0.03927524 -0.07588885 -0.09863575
0.08372584 0.06487088 -0.0016711757 -0.06419987 -0.07947815 0.09573221 0.07440841 -0.020706946
-0.01944755 0.12452654 -0.06481238 0.07128802 0.021261476 -0.023739494 0.05762613 0.04159774
0.047156546 0.070186116 -0.042424604 0.05225195 -0.096618906 -0.004334153 0.08025918 0.084279336
0.08610052 0.05833578 0.028971247 0.056412175 -0.057679456 -0.2003886 0.1187084 0.070156485
-0.08289286 -0.06689249 -0.08720875 0.06284026 0.03433211 0.022012258 -0.081343845 0.023956805
-0.06209326 -0.0001855306 -0.10132104 0.061532844 0.12716192 0.06646953 -0.09329422 0.005896775
0.035537228 -0.12280096 -0.108815335 -0.04929291 0.028567005 0.04413827 0.015374761 0.005788952
0.111874044 0.094428346 0.09339369 0.040176462 0.05631029 0.12491001 0.07064782 -0.17764297
0.04767993 0.1280026 0.08259273 0.08728349 0.020404441 -0.022446904 0.06402088 -0.018307494
0.04355836 -0.02901828 -0.029354872 0.05841507 0.08994973 -0.09428559 0.030411866 -0.14508879
-0.063289 0.03757904 -0.020071583 -0.020773795 -0.0045172786 0.05740668 0.050173756 0.020487072
-0.07721551 -0.025499377 0.019470174 0.10123014 -0.010465689 -0.017473638 -0.01437335 0.051859103
0.20380273 -0.32672027 -0.10360179 -0.046708032 0.03143291 -0.0908715 0.009998211 0.06452884
0.020987025 0.03244233 -0.02293548 0.0018406559 -0.037910707 0.08119871 -0.06697359 0.11613119
0.10071628 0.01045801 0.08374393 0.10576806 0.072898775 -0.057365246 0.12676673 0.01811963
-0.009027905 0.0489087 -0.031256575 0.047130197 0.022286117 0.13962775 0.096517906 -0.046825614
0.045406662 -0.014148995 0.062271774 -0.34632832 0.013974258 -0.021901883 0.05662726 0.13111717
0.101137035 0.06987589 -0.005058254 -0.08919809 -0.056033928 0.09586035 0.06697464 -0.06981358
0.012232374 -0.07373177 -0.05211108 0.10178938 0.08670687 0.062364016 0.017729606 0.0068195728
0.02471753 -0.07082822 -0.042631425 -0.059991296 0.11438411 0.050614256 -0.06588363 0.09201835
-0.0071949163 0.02689314 -0.0061897603 0.12741499 -0.08429299 -0.30008274 -0.00026586998 -0.107883275
-0.009874976 0.027657842 0.110165514 -0.07678569 0.041046627 -0.049900815 0.10817003 -0.043099605
0.02424705 0.041461363 -0.032749876 0.04765487 -0.076517425 -0.009095984 0.013634298 -0.028971607
0.09739733 -0.008513799 0.029939758 0.08696716 -0.059088383 -0.06435719 0.06763829 -0.04493907
0.095655516 -0.048863154 0.009811206 -0.08614822 0.031477537 -0.09299323 0.0069935266 -0.23310304
0.058288354 -0.0904935 0.019495398 0.046200022 0.04674124 0.022790335 0.05450093 0.06852488
-0.030281067 -0.007580611 0.046812892 0.009341851 0.12740321 -0.0069313184 0.04991024 -0.025099657

bias f4 [50]
00000000: d0ab 84bd 069f 2f3e 3504 823d bf4f 213e
00000010: fee9 493e 72fb 283d f0c9 11bc d240 b03d
00000020: 62e6 103e 9bc2 cc3c cec4 d0bd 3cd1 593e
00000030: ef98 c13d 872f a13c 943f 3f3d 9a07 1c3e
00000040: f1bc f73d 742c a43d 0de0 68bd de06 003d
00000050: 93eb e93d e851 f93d b380 0c3e dd9b 2dbd
00000060: 4649 b5bd 2da5 8cbd a904 383d bede 3c3e
00000070: 0196 153e 3167 9a3d b2c4 493d c41d dbbc
00000080: 777c b93d 02bf 473e f150 303d 9624 83bd
00000090: d678 323e be9f de3d a7c0 1b3d 117b f33c
000000a0: ef01 73bd 007c 023d 021d 6d3c 5154 5d3d
000000b0: 4852 be3d 33c7 efbd a3c5 97bd 9f2d 2a3d
000000c0: 5845 c8bd 44bd c0bc
-0.06478083 0.17150506 0.06348459 0.15753077 0.19718167 0.041255422 -0.008898243 0.086061135
0.14150384 0.024995139 -0.101937875 0.21271223 0.09452998 0.019675983 0.046691492 0.15237275
0.120965846 0.08016291 -0.056854296 0.03125655 0.11421885 0.121738255 0.1372097 -0.04238497
-0.088518664 -0.06867442 0.04492632 0.18444344 0.14608003 0.075392134 0.04925985 -0.026747592
0.09056943 0.19506457 0.04304594 -0.064034626 0.17428908 0.10870312 0.038025524 0.029721769
-0.059328016 0.031856537 0.014472248 0.05403549 0.09293038 -0.11707916 -0.07410743 0.041547414
-0.09778851 -0.023527749

weight f4 [50, 4]
00000000: 458a 553d 8767 11be 28d9 dfbd 864b c0be
00000010: 1743 cdbc 5967 f2be 3162 8fbe 9968 1e3e
00000020: d0b3 3b3d 288d f5be 02c1 643d 4556 bcbe
00000030: ece3 6fbe 16b8 9a3e e8e1 5abe 9081 aa3d
00000040: 16f2 94bd 0166 56be 3c3d 663e 7af4 193c
00000050: 0c95 1d3e 0854 d7be 0b53 883e 1ff8 cdbe
00000060: 813d 9dbe add4 0abf ff5e d23e 8b65 033f
00000070: 4a1f 403e 3b54 f2be e7b2 533e 9000 ff3c
00000080: 6d67 cdbd 1c94 a43e 6389 b23d ccc7 963d
00000090: e34b 7a3d 2838 65be efe8 953e 8200 1ebe
000000a0: 05b4 ad3e 7ce9 0fbf 008f a9bd 3f0e a2bb
000000b0: 9efc 8d3e 050f e8be 663f 2cbe 07e6 acbe
000000c0: d2e5 393e bec1 583e fe84 a5be 2eea bfbe
000000d0: c9cc e1be 4c40 053f 3ab8 75be ed20 3e3e
000000e0: 4929 af3e 65ad e3be 6ca7 47bd bbd2 583e
000000f0: 8e3d 983e f016 bbbd 36dd bc3d 8d32 203e
00000100: d985 f23d 992f dd3e 1802 de3e d2bc 8e3d
00000110: 75d5 90bd 2309 cebb dd81 82be a40e 633e
00000120: b310 cf3d a6ea f3be b044 acbe bc36 e9bd
00000130: f49f a93e 1e7e e9be f980 863e 4772 8b3e
00000140: 5283 13be 2ca3 cf3e c865 89bd a762 803e
00000150: 1d91 bbbe b665 81be cc36 aa3e b8ec 7e3e
00000160: bfc0 dabe 2641 ec3e 74f8 8abd 0d55 c1be
00000170: ab66 c23d edc5 833e 9754 e43c af0c 7cbe
00000180: 4b1b e33d 6214 76be 631e 94be b152 c8be
00000190: 5c1f 513d a1dd 943e e61a a53e 78ab b3bd
000001a0: 1988 7a3e a045 e1be a303 ecbe e1be 043e
000001b0: 9882 ef3d 3e79 24be 1991 afbe 3a2a 91be
000001c0: 1963 dfbd dded f4be 6045 99be 2297 103d
000001d0: 63a7 f63e e25f 4f3e 335d 5fbe fc56 973e
000001e0: 7a7f 303e 82ba 0bbf af02 5dbd 8c17 d7be
000001f0: 96d9 83be 6374 e4be 1022 d8be 048d bf3e
00000200: 9b40 10be 2a4a 2abe af21 cc3b e29b bfbe
00000210: e6a9 e2be 9a10 f73d 2b35 e43e b14d b83e
00000220: bff6 1f3e 394d debe 4fca 563e 4072 9dbd
00000230: c56f c53d 6c2c 8a3e 69ad 96be 301c a8be
00000240: 8d29 9cbe 8461 783e de27 0a3e 9f7c c43e
00000250: ffce c83e ae55 f5be 08ae 6e3e 4454 7a3e
00000260: 191d 9c3e c481 d83e ae22 84be b05a 15be
00000270: 2145 76be 7c1c 0cbf 796d 21be 975d 5e3d
00000280: 5302 aebe 0efe 893e 9ad6 cf3e 1e67 f93e
00000290: 04dd 0fbf b605 8d3d ddfc a03d fb23 043e
000002a0: f7ec 323d 14b2 623e c90f 3d3e 60a5 913e
000002b0: ad54 bb3e 61da c5be 658a a2be 7f6e 84bc
000002c0: 134b 063e 8adf cd3e 3bc7 b73e bd39 113e
000002d0: 0588 0b3f 720f f83d 94a9 9ebd 6aa3 f2bd
000002e0: 6219 fbbc 3a5e 663e 079e 50be cf6f ea3e
000002f0: efbd 74be cc6f 9dbe 2695 62be 25ba 5cbe
00000300: 25b2 cbbe b14e 603d 61bd 973e 2132 e83c
00000310: f1e0 b33e 920f 6cbe 511d 2b3e ef4c af3d
0.052133817 -0.14199649 -0.10930091 -0.3755762 -0.025056405 -0.47344473 -0.28004602 0.15469588
0.04582578 -0.47959256 0.05584813 -0.36784568 -0.23426789 0.3021857 -0.21375239 0.08325493
-0.07272737 -0.20937349 0.22484297 0.009396667 0.15388888 -0.42056298 0.26625857 -0.40228364
-0.30710986 -0.5423077 0.410881 0.5132682 0.18761936 -0.47329888 0.20673715 0.031128198
-0.100294925 0.32144248 0.08717611 0.07362327 0.061107527 -0.22384703 0.29279277 -0.15429881
0.33926407 -0.56215644 -0.08279228 -0.004945546 0.27731794 -0.4532396 -0.1682106 -0.33769247
0.18154076 0.21167657 -0.32328027 -0.37483352 -0.4410155 0.52051234 -0.23996058 0.18567248
0.34211186 -0.44468227 -0.04874365 0.21174137 0.29734462 -0.09135234 0.0922188 0.15644284
0.11841936 0.43200377 0.43360972 0.06969608 -0.07071964 -0.0062877103 -0.25489703 0.22173554
0.10110607 -0.4763996 -0.33646154 -0.11387393 0.33129847 -0.45604032 0.26270273 0.27235624
-0.14405563 0.40554178 -0.06708866 0.25075266 -0.3663415 -0.25272912 0.33244932 0.24894989
-0.4272518 0.46143454 -0.0678567 -0.377602 0.094922386 0.25736943 0.027872367 -0.24614213
0.1108919 -0.24031213 -0.28929433 -0.3912559 0.051055297 0.2907534 0.32247084 -0.087729394
0.2446598 -0.43998432 -0.46096525 0.1296344 0.11694831 -0.16061875 -0.34290388 -0.2835253
-0.10907573 -0.47837725 -0.2993574 0.03530038 0.4817458 0.2025142 -0.21812896 0.2955855
0.17236128 -0.54581463 -0.053957637 -0.42010152 -0.25751942 -0.44620046 -0.42213488 0.37412274
-0.14087145 -0.16629854 0.0062296013 -0.37423617 -0.44270247 0.12063713 0.44571814 0.35996774
0.1562147 -0.4341829 0.20975612 -0.07687807 0.09640459 0.26987016 -0.29429176 -0.32834005
-0.3050045 0.2425595 0.1349177 0.38376328 0.39220425 -0.4791693 0.23308575 0.24446207
0.3049095 0.42286503 -0.25807709 -0.14585376 -0.24049808 -0.54730964 -0.15764417 0.054288473
-0.33986148 0.2695164 0.40593415 0.48711485 -0.5619662 0.06885855 0.0786073 0.1290435
0.04368302 0.22138244 0.18463053 0.28446484 0.3658804 -0.38643172 -0.31746212 -0.01616597
0.13114576 0.4020961 0.35894188 0.14182182 0.54504424 0.12112321 -0.07747188 -0.11847575
-0.030651752 0.22496882 -0.20372783 0.45788428 -0.23900579 -0.30749357 -0.22127208 -0.21555384
-0.3978435 0.054762546 0.29636672 0.028344216 0.35132554 -0.23052815 0.16710402 0.08559596

bias f4 [50]
00000000: 282a 87be 6e94 6bbe 4f8a 953e f483 063f
00000010: 82cd a8be 66fc ca3e fe5a d0be 0c78 623e
00000020: 4956 bf3e 4ea6 ed3e f444 d83e 30d3 30be
00000030: 03c2 08bd e72e 683e 12b4 9a3e 55ed be3c
00000040: db84 40bb 0550 c93e 2981 5cbe 937c de3e
00000050: 97c7 8fbe 6d6a 823e 1fab 83be e21a 853e
00000060: 91de cbbe 52bd 343e d818 b3bd 75de 88be
00000070: 92a9 71be ef62 c93e 3593 f2be 3b0d b43e
00000080: 3e2c b8be b51e e5bd 4005 38bd 0aef 823e
00000090: d887 373e 8382 b63b 3cbb b1be dc1b 8a3e
000000a0: 6bda ff3e b987 293e 1376 793e 91ed 023e
000000b0: 04f1 e4be 96c4 283e 46c4 143e bb98 f03e
000000c0: a0d6 073f ad35 d4be
-0.2639935 -0.2300584 0.29207084 0.52545094 -0.3296929 0.3964569 -0.40694422 0.22116107
0.37370518 0.46415943 0.42240107 -0.17268062 -0.03338815 0.22674142 0.30215508 0.023306528
-0.0029376063 0.39318863 -0.21533646 0.43454418 -0.28081962 0.2547182 -0.25716493 0.25997072
-0.39818242 0.17650345 -0.08744973 -0.2673222 -0.23599842 0.39333293 -0.47377935 0.35166344
-0.35971254 -0.111874975 -0.04492688 0.25572997 0.17922914 0.0055697574 -0.3471316 0.2697438
0.49971327 0.1655568 0.24361448 0.12785937 -0.4471513 0.16481242 0.14527997 0.46991524
0.53061867 -0.414472

weight f4 [50]
00000000: 0000 803f 0000 803f 0000 803f 0000 803f
00000010: 0000 803f 0000 803f 0000 803f 0000 803f
00000020: 0000 803f 0000 803f 0000 803f 0000 803f
00000030: 0000 803f 0000 803f 0000 803f 0000 803f
00000040: 0000 803f 0000 803f 0000 803f 0000 803f
00000050: 0000 803f 0000 803f 0000 803f 0000 803f
00000060: 0000 803f 0000 803f 0000 803f 0000 803f
00000070: 0000 803f 0000 803f 0000 803f 0000 803f
00000080: 0000 803f 0000 803f 0000 803f 0000 803f
00000090: 0000 803f 0000 803f 0000 803f 0000 803f
000000a0: 0000 803f 0000 803f 0000 803f 0000 803f
000000b0: 0000 803f 0000 803f 0000 803f 0000 803f
000000c0: 0000 803f 0000 803f
1.0 1.0 1.0 1.0 1.0 1.0 1.0 1.0
1.0 1.0 1.0 1.0 1.0 1.0 1.0 1.0
1.0 1.0 1.0 1.0 1.0 1.0 1.0 1.0
1.0 1.0 1.0 1.0 1.0 1.0 1.0 1.0
1.0 1.0 1.0 1.0 1.0 1.0 1.0 1.0
1.0 1.0 1.0 1.0 1.0 1.0 1.0 1.0
1.0 1.0

bias f4 [50]
00000000: 0000 0000 0000 0000 0000 0000 0000 0000
00000010: 0000 0000 0000 0000 0000 0000 0000 0000
00000020: 0000 0000 0000 0000 0000 0000 0000 0000
00000030: 0000 0000 0000 0000 0000 0000 0000 0000
00000040: 0000 0000 0000 0000 0000 0000 0000 0000
00000050: 0000 0000 0000 0000 0000 0000 0000 0000
00000060: 0000 0000 0000 0000 0000 0000 0000 0000
00000070: 0000 0000 0000 0000 0000 0000 0000 0000
00000080: 0000 0000 0000 0000 0000 0000 0000 0000
00000090: 0000 0000 0000 0000 0000 0000 0000 0000
000000a0: 0000 0000 0000 0000 0000 0000 0000 0000
000000b0: 0000 0000 0000 0000 0000 0000 0000 0000
000000c0: 0000 0000 0000 0000
0.0 0.0 0.0 0.0 0.0 0.0 0.0 0.0
0.0 0.0 0.0 0.0 0.0 0.0 0.0 0.0
0.0 0.0 0.0 0.0 0.0 0.0 0.0 0.0
0.0 0.0 0.0 0.0 0.0 0.0 0.0 0.0
0.0 0.0 0.0 0.0 0.0 0.0 0.0 0.0
0.0 0.0 0.0 0.0 0.0 0.0 0.0 0.0
0.0 0.0

running_mean f4 [50]
00000000: 0000 0000 0000 0000 0000 0000 0000 0000
00000010: 0000 0000 0000 0000 0000 0000 0000 0000
00000020: 0000 0000 0000 0000 0000 0000 0000 0000
00000030: 0000 0000 0000 0000 0000 0000 0000 0000
00000040: 0000 0000 0000 0000 0000 0000 0000 0000
00000050: 0000 0000 0000 0000 0000 0000 0000 0000
00000060: 0000 0000 0000 0000 0000 0000 0000 0000
00000070: 0000 0000 0000 0000 0000 0000 0000 0000
00000080: 0000 0000 0000 0000 0000 0000 0000 0000
00000090: 0000 0000 0000 0000 0000 0000 0000 0000
000000a0: 0000 0000 0000 0000 0000 0000 0000 0000
000000b0: 0000 0000 0000 0000 0000 0000 0000 0000
000000c0: 0000 0000 0000 0000
0.0 0.0 0.0 0.0 0.0 0.0 0.0 0.0
0.0 0.0 0.0 0.0 0.0 0.0 0.0 0.0
0.0 0.0 0.0 0.0 0.0 0.0 0.0 0.0
0.0 0.0 0.0 0.0 0.0 0.0 0.0 0.0
0.0 0.0 0.0 0.0 0.0 0.0 0.0 0.0
0.0 0.0 0.0 0.0 0.0 0.0 0.0 0.0
0.0 0.0

running_var f4 [50]
00000000: 0000 803f 0000 803f 0000 803f 0000 803f
00000010: 0000 803f 0000 803f 0000 803f 0000 803f
00000020: 0000 803f 0000 803f 0000 803f 0000 803f
00000030: 0000 803f 0000 803f 0000 803f 0000 803f
00000040: 0000 803f 0000 803f 0000 803f 0000 803f
00000050: 0000 803f 0000 803f 0000 803f 0000 803f
00000060: 0000 803f 0000 803f 0000 803f 0000 803f
00000070: 0000 803f 0000 803f 0000 803f 0000 803f
00000080: 0000 803f 0000 803f 0000 803f 0000 803f
00000090: 0000 803f 0000 803f 0000 803f 0000 803f
000000a0: 0000 803f 0000 803f 0000 803f 0000 803f
000000b0: 0000 803f 0000 803f 0000 803f 0000 803f
000000c0: 0000 803f 0000 803f
1.0 1.0 1.0 1.0 1.0 1.0 1.0 1.0
1.0 1.0 1.0 1.0 1.0 1.0 1.0 1.0
1.0 1.0 1.0 1.0 1.0 1.0 1.0 1.0
1.0 1.0 1.0 1.0 1.0 1.0 1.0 1.0
1.0 1.0 1.0 1.0 1.0 1.0 1.0 1.0
1.0 1.0 1.0 1.0 1.0 1.0 1.0 1.0
1.0 1.0

weight f4 [20, 100]
00000000: 7a22 d0bb 1b97 043d 11cb 313d f7a1 0bbc
00000010: abed 943d ce34 b6bd 739b bb3d 1c3b 9d3d
00000020: 334e cb3d f21a 53bd ac4c e9bd 6f11 d23d
00000030: e1d0 6dbc 618b ea3d 08e8 9d3a 6e1b a93d
00000040: a58f a03c 83fa 553d 5406 183c 0673 00bd
00000050: 88b6 c03d 5419 e13d 303e c73c 7482 f03b
00000060: c512 dc3c 8d53 11bd f60e bcbd ddaf 25bd
00000070: 8ad8 823d 3fa8 a93d 52e3 643d 11c5 183c
00000080: 7772 13bd b718 be3d ca13 4dbb 7d6f 42bd
00000090: c823 503d 0964 183e 3156 91bd 36f7 a43d
000000a0: 4d6c 6cbb 5427 113c 47ed 893b 2718 85bd
000000b0: 8759 de3d 7c4d bdbc ce99 abbd d7c0 0bbd
000000c0: 783c eebd 1436 043c 1d03 8cbd 1e94 09be
000000d0: a31a 74bd ae28 fb3d 00d2 f7bc 4951 df3c
000000e0: 3197 debd d908 44bd e446 043e 4fd4 e93d
000000f0: f2a3 bfbc 9e50 7bbd fb0d 8c3d 3494 f2bb
00000100: 56d3 b2bd b830 c43c 30c3 273d 4eb2 d23d
00000110: eb85 cdbd ef75 54bd d12f 6ebd cade 813d
00000120: 9c9b 0a3c f299 a53d c3b0 83bc 4c55 e5bc
00000130: a137 d2ba 4035 07bd cceb 0bbd 93d8 c93c
00000140: b987 a1bc c973 63bd c14b 963c 4a98 c4bb
00000150: 7765 a8bd e26a 0d3e ccb4 ed3c c732 1f3d
00000160: 5733 e43c 84a7 4c3d 9fa4 423d ab66 3dbd
00000170: f081 fa3d 11b6 c93d f24a 3cbd 8bcc 393d
00000180: 24cb 773c 4b2d 04bd ddde 38bd 193b 29bc
00000190: 13d0 68bd fdc0 113e 1800 ad3d 7b60 403e
000001a0: c721 383e 3d06 51bd 5ae6 163c 804c a63e
000001b0: 935d c3bd 125d 72bd 3633 45be 6403 213e
000001c0: ca54 43be 6f6d 2dbd 23b5 a03d 79d9 15be
000001d0: 6e11 e6bd c837 5c3e 3a25 82bd 4299 ad3e
000001e0: 9f7e 1ebe 8284 3abe e1fe 793d 1f01 9f3d
000001f0: 9ddc 05be b46c 84be 79b0 6abd 7826 dfbc
00000200: 3583 dabc e97b f3bd fc87 49be 41dc d8bd
00000210: 0857 74bd 30f2 d43b 6c75 493e 425c 4cbd
00000220: ee53 89bd 921c 2bbe 52ba 0b3e 6642 483e
00000230: b24e f0bd 86f6 87bc 2f1f 403e 8558 93bc
00000240: 944f ef3c 9d53 8f3c d689 7dbd 4fe8 163d
00000250: f28d 24be 0290 403d 43ad 093c c5a5 0a3e
00000260: 0fd6 1e3e 0d9b 92bd ca9d f73d 1a7c 08bc
00000270: 5de9 883d e1d7 b43c b0c8 05be 22ea 393d
00000280: 9b29 c43d c48e 3b3d 51ac 8ebc 48a0 703d
00000290: 1150 40bb 5620 753d 41e9 c2bd 6272 873d
000002a0: 8d82 803d 8d22 613d 5a0f 663d a164 113e
000002b0: 0e61 3e3e eb2e e1bd e179 b6bc abfa 9fbd
000002c0: 60bf da3b 4cda c4bc 20ab 173e f8dc 0f3b
000002d0: 9af2 e53d 9e81 883c f257 cc3d f637 653c
000002e0: 7412 123e 5281 bdbd 6fd0 a03c 1ec2 f13a
000002f0: 9262 18bc 9ee5 463e 26bf 2cbd d695 e33d
00000300: 4b6e e7bd dbf9 443d 5e42 21be 27c5 eebd
00000310: edbb 8abc ed97 c73c 091f de3d e6da bc3d
00000320: 161a cdbd f96f a43d 40f5 0f3e 3f3e 373d
00000330: a410 1e3e cee2 c3bc 3e7d c0bc 56cb 4d3e
00000340: fd96 183d f763 b0bd d575 92bd fc17 223e
00000350: 2bf0 7ebd e33a 673c 9967 0fbe 58e4 26be
00000360: b107 2bbe 165c 623e 2e16 e8bd dbc5 143e
00000370: 5f7e 46bc 2e2e 5abe 81a9 273e fd62 513d
00000380: 40de eabd b29c 0fbe d024 39be caee 12be
00000390: 96d7 d0bd eab9 1ebe 64fb 64bd 9cbc 47be
000003a0: 364b 2bbd 7f68 163d c854 103d 69e7 aa3d
000003b0: aa2c d53b 30d3 57be 4e96 fd3d a878 273e
000003c0: 074e 4fbe f0f2 383e 9b40 153e 57b8 e3bd
000003d0: ef4b 1e3e 63a1 8f3d c879 cd3d c314 733d
000003e0: 705b 2bbe 68cb 6b3e aac7 b13d 94cb cd3d
000003f0: d7ad 053e dba7 3abd fe2c fa3d d5f2 4e3b
-0.006351766 0.032370668 0.04340655 -0.008522502 0.07271894 -0.088967904 0.09160509 0.0767729
0.09927025 -0.05153937 -0.11391577 0.102572314 -0.014515133 0.11452366 0.00120473 0.08257185
0.019599745 0.05224086 0.0092788525 -0.031359695 0.09409815 0.10991159 0.024321645 0.00733977
0.026864419 -0.03548007 -0.09182541 -0.04045092 0.06388958 0.082840435 0.055880852 0.009324328
-0.035997834 0.09282058 -0.0031292313 -0.047469605 0.050815374 0.1488191 -0.07096518 0.08054964
-0.0036075294 0.008859474 0.004209194 -0.06498747 0.1085692 -0.023108236 -0.08378945 -0.034119453
-0.11632627 0.008069534 -0.06836531 -0.13435408 -0.059595715 0.122636184 -0.030251503 0.02726044
-0.10868681 -0.04786 0.12917668 0.11417448 -0.023393605 -0.06135618 0.06838604 -0.007402921
-0.087317154 0.023949012 0.04095763 0.10287915 -0.100353085 -0.051870283 -0.05815107 0.06341322
0.008459952 0.08086003 -0.016075497 -0.027994774 -0.0016038307 -0.033009768 -0.03416042 0.024639403
-0.019718038 -0.055530343 0.01834667 -0.0059995996 -0.08222478 0.13810304 0.029016875 0.038866784
0.027856512 0.049964443 0.047520276 -0.04624049 0.12231815 0.098491795 -0.04596991 0.045361083
0.015124116 -0.032269757 -0.045134414 -0.010329031 -0.05683906 0.14233775 0.084472835 0.18786804
0.17981635 -0.05103134 0.0092101935 0.3248024 -0.09539332 -0.05917079 -0.19257817 0.1572395
-0.19075313 -0.042340692 0.07847049 -0.1463374 -0.11233793 0.21505654 -0.06354757 0.3390599
-0.1547799 -0.1821461 0.061034087 0.07763886 -0.13072439 -0.25864184 -0.057297204 -0.027240023
-0.026673893 -0.11888868 -0.1968078 -0.10588885 -0.059653312 0.0064985976 0.19673699 -0.04989267
-0.067054614 -0.16710117 0.13645294 0.19556579 -0.1173376 -0.016597044 0.18761896 -0.017986545
0.02921275 0.017495925 -0.06189903 0.03684264 -0.16069773 0.047012337 0.008403125 0.13539799
0.15511344 -0.0715848 0.12090643 -0.008330369 0.066851355 0.022075595 -0.13064837 0.045389302
0.09578248 0.04579045 -0.017416151 0.058746606 -0.0029344598 0.05984529 -0.09517146 0.06613614
0.062749006 0.05496459 0.056166984 0.14198543 0.18591711 -0.10995277 -0.022274913 -0.07811483
0.0066756457 -0.024029873 0.14811373 0.0021951776 0.11227913 0.016663369 0.09977712 0.013990393
0.14264852 -0.092531815 0.019630639 0.0018444692 -0.009300845 0.1942353 -0.04217448 0.11112563
-0.113003336 0.048089843 -0.15747973 -0.116586976 -0.016935313 0.024364436 0.10845763 0.09221439
-0.10014741 0.080291696 0.14058399 0.044737097 0.15436035 -0.02391186 -0.02349722 0.20097098
0.03725337 -0.08612817 -0.07151381 0.15829462 -0.06224076 0.014113161 -0.14004363 -0.16298044
-0.16702153 0.2210544 -0.113323554 0.14528601 -0.01211509 -0.21306679 0.16373254 0.051119793
-0.11468172 -0.14024618 -0.18080449 -0.14348903 -0.1019737 -0.15500608 -0.055903807 -0.19505543
-0.041819774 0.03672075 0.035237104 0.08344919 0.0065055685 -0.21076655 0.12382184 0.1635462
-0.20244609 0.18061423 0.14575426 -0.111191444 0.15458654 0.07013204 0.100329936 0.05934597
-0.167341 0.23026812 0.08680661 0.10048595 0.13054596 -0.045570236 0.12215613 0.0031577845

bias f4 [20]
00000000: 8256 103e ff9b 8abd b423 82bd 8183 013d
00000010: 61f8 ffbc 67f7 9f3c 7676 c83d 0afb e63d
00000020: cb70 413d 52bc 843c a3e7 d03b 7f07 75bd
00000030: b23b 81bd 4d19 fabd 9fdc 3b3e 5bd4 3a3d
00000040: 82ca 59bd 6db7 b6bd 695e 6e3d a929 b73d
0.140955 -0.06768035 -0.06354466 0.031619553 -0.031246366 0.01952715 0.0978822 0.11278351
0.04722671 0.01620308 0.0063752695 -0.059821602 -0.06310214 -0.12211857 0.18345879 0.045612674
-0.053171642 -0.089217044 0.058195505 0.08943493

weight f4 [20]
00000000: 0000 803f 0000 803f 0000 803f 0000 803f
00000010: 0000 803f 0000 803f 0000 803f 0000 803f
00000020: 0000 803f 0000 803f 0000 803f 0000 803f
00000030: 0000 803f 0000 803f 0000 803f 0000 803f
00000040: 0000 803f 0000 803f 0000 803f 0000 803f
1.0 1.0 1.0 1.0 1.0 1.0 1.0 1.0
1.0 1.0 1.0 1.0 1.0 1.0 1.0 1.0
1.0 1.0 1.0 1.0

bias f4 [20]
00000000: 0000 0000 0000 0000 0000 0000 0000 0000
00000010: 0000 0000 0000 0000 0000 0000 0000 0000
00000020: 0000 0000 0000 0000 0000 0000 0000 0000
00000030: 0000 0000 0000 0000 0000 0000 0000 0000
00000040: 0000 0000 0000 0000 0000 0000 0000 0000
0.0 0.0 0.0 0.0 0.0 0.0 0.0 0.0
0.0 0.0 0.0 0.0 0.0 0.0 0.0 0.0
0.0 0.0 0.0 0.0

running_mean f4 [20]
00000000: 0000 0000 0000 0000 0000 0000 0000 0000
00000010: 0000 0000 0000 0000 0000 0000 0000 0000
00000020: 0000 0000 0000 0000 0000 0000 0000 0000
00000030: 0000 0000 0000 0000 0000 0000 0000 0000
00000040: 0000 0000 0000 0000 0000 0000 0000 0000
0.0 0.0 0.0 0.0 0.0 0.0 0.0 0.0
0.0 0.0 0.0 0.0 0.0 0.0 0.0 0.0
0.0 0.0 0.0 0.0

running_var f4 [20]
00000000: 0000 803f 0000 803f 0000 803f 0000 803f
00000010: 0000 803f 0000 803f 0000 803f 0000 803f
00000020: 0000 803f 0000 803f 0000 803f 0000 803f
00000030: 0000 803f 0000 803f 0000 803f 0000 803f
00000040: 0000 803f 0000 803f 0000 803f 0000 803f
1.0 1.0 1.0 1.0 1.0 1.0 1.0 1.0
1.0 1.0 1.0 1.0 1.0 1.0 1.0 1.0
1.0 1.0 1.0 1.0

weight f4 [1, 20]
00000000: 5d7d 443e 57d1 f5be c6cb 16bf 96fb 403e
00000010: 5d5c cfbe 0e4c 45be ea0b 833e 3b45 8c3d
00000020: d2e4 173e 7c1d 823d 83d8 083e 8c63 babe
00000030: ad6c 7dbe 8c84 78be 3cc9 2d3e b99b e6be
00000040: f02a 95be 678e b7be ae37 5a3e bbfb 213e
0.19188447 -0.48011276 -0.58904684 0.18845972 -0.40500155 -0.19267294 0.25595027 0.06849142
0.14833382 0.0635328 0.13363843 -0.36404073 -0.24748488 -0.24269313 0.16971296 -0.45040682
-0.2913432 -0.35850832 0.21310303 0.15818684
