models_version2/2UAVs_46925/a_t0.pt (torch_old, 16240 bytes, 14 tensors)

weight f4 [50, 34]
0.08708023 -0.2856965 -0.1510269 0.18628378 0.072571374 0.08470358 0.08228607 0.006202855
-0.0996993 0.094895445 0.039862886 -0.058765676 -0.034710027 -0.10254385 0.08468132 0.13787858
-0.12983872 -0.0065870695 0.008575835 -0.021442175 0.028025562 -0.044208173 -0.03717434 -0.16870128
-0.0125689255 0.12189565 0.009754461 0.15751697 0.15595117 0.10107589 -0.030236762 0.16784053
0.119988725 -0.0021118931 -0.01812193 0.2410036 0.10881455 -0.11360732 0.050354615 0.04520086
0.11103045 0.17524953 -0.120596185 -0.17141925 -0.090763696 -0.039522458 0.19342928 -0.12393286
0.092455685 0.07565868 0.041344967 -0.15266731 -0.019826485 -0.0127234375 0.020194033 0.12933569
0.11595544 0.21203014 -0.0047951383 -0.06380833 0.038970258 -0.10857922 -0.05603771 -0.109575935
-0.177984 0.022908576 -0.017880406 0.10636346 -0.24451412 0.0009202621 0.10606136 0.049081966
-0.0700076 0.0672815 -0.115143485 0.018451428 -0.14541534 0.029137073 -0.030904084 -0.20345476
0.13607313 0.09369075 0.1187678 0.044779006 0.07665301 0.17071123 0.18408501 -0.10595995
-7.8906654e-05 -0.1286438 0.07065536 0.10518558 -0.005340012 0.10598285 -0.1178432 0.12740697
0.12924203 0.07467896 0.070573725 0.0866327 0.0007712304 0.017912887 -0.24252643 0.32586688
-0.04747277 0.121373974 -0.135296 -0.103478536 -0.06463618 0.18842489 -0.09315166 -0.0076618604
-0.13369033 -0.03065218 0.08335105 0.14761579 0.029602468 0.1361892 -0.103533775 0.08677297
-0.018083246 0.09852448 -0.0186586 -0.14876622 0.21363068 -0.00063100073 -0.05902324 -0.035792585
0.1124933 -0.15398593 0.28595507 0.05533248 0.04796859 0.14102665 0.16089232 -0.009640483
-0.032231748 0.32858613 -0.11579789 -0.18691108 0.059183545 -0.07727005 0.0917089 0.18815397
0.0070171272 0.06524772 -0.06535734 -0.15991235 0.0040915865 -0.021948738 -0.05152005 0.15073797
0.05168358 0.10101939 -0.13990884 -0.14398634 -0.14254105 0.009008907 0.16183992 0.11943497
0.0025355937 0.07517312 -0.0019973128 -0.042682678 0.17477535 -0.07606662 0.025764335 0.015639493
0.19520608 -0.087182246 0.15527011 -0.1816838 -0.00213889 0.20899124 0.099215925 0.05604611
-0.1483263 -0.028389502 -0.06234084 0.17713144 0.09775342 -0.041341737 -0.038710177 -0.09342651
0.18311977 0.16085781 0.014978601 -0.11662997 -0.12934895 0.17519401 0.14133838 0.024378503
0.10839643 -0.03504832 -0.06302117 0.12718295 0.106950104 0.15839505 -0.16116628 0.093273126
-0.017662834 -5.701714e-05 -0.0050034635 -0.16834481 -0.109904304 0.023768028 -0.05622202 0.023483098
-0.019673944 -0.080900125 -0.1196069 -0.025447845 -0.08606435 -0.020203069 0.0658876 0.087822124
0.057813767 -0.099132404 -0.05980978 -0.10183321 -0.12453923 -0.09393536 -0.05145944 -0.14112936
0.14067729 0.13039063 -0.15905939 -0.16264032 -0.021443933 -0.011087969 -0.13766824 0.0009474009
-0.16350865 0.12807246 0.11243198 -0.14461745 -0.08659658 0.026369363 -0.030698946 0.03881759
-0.042325024 0.05938854 0.073068604 0.049651626 0.066796534 -0.10647061 -0.15396245 -0.096179254
-0.10042842 -0.19091974 0.09002761 0.036006235 -0.10443895 -0.09553152 0.13325234 0.097388506
00000000: 1f57 b23d d046 92be cca6 1abe 2dc1 3e3e
00000010: 4da0 943d 1279 ad3d 9985 a83d 5241 cb3b
00000020: 262f ccbd 8b58 c23d 4447 233d 47b4 70bd
00000030: 1a2c 0ebd 8302 d2bd 666d ad3d 0b30 0d3e
00000040: 71f4 04be 58d8 d7bb a981 0c3c 80a7 afbc
00000050: dd95 e53c a113 35bd 1f44 18bd 07c0 2cbe
00000060: e5ed 4dbc 6da4 f93d 2dd1 1f3c 214c 213e
00000070: aab1 1f3e e000 cf3d 16b3 f7bc 63de 2b3e
00000080: a6bc f53d b067 0abb 7174 94bc a6c9 763e
00000090: 2ada de3d f4aa e8bd a440 4e3d 8924 393d
000000a0: ef63 e33d 9d74 333e 22fb f6bd 8788 2fbe
000000b0: 51e2 b9bd 4de2 21bd 5312 463e 83d0 fdbd
000000c0: 6859 bd3d f0f2 9a3d 5759 293d d254 1cbe
000000d0: 276b a2bc f775 50bc f56d a53c 9370 043e
000000e0: 0c7a ed3d 6e1e 593e 8920 9dbb f1ad 82bd
000000f0: 479f 1f3d c85e debd cc87 65bd 5969 e0bd
00000100: 7041 36be c4aa bb3c ee79 92bc 16d5 d93d
00000110: e961 7abe be3d 713a b336 d93d 2c0a 493d
00000120: 2560 8fbd e2ca 893d 59d0 ebbd 7327 973c
00000130: c2e7 14be dfb0 ee3c 902a fdbc 7256 50be
00000140: c156 0b3e f0e0 bf3d 883c f33d 316a 373d
00000150: 41fc 9c3d edce 2e3e c880 3c3e 8801 d9bd
00000160: b07a a5b8 33bb 03be c2b3 903d 8a6b d73d
00000170: 44fb aebb 890d d93d c757 f1bd f976 023e
00000180: 0658 043e 48f1 983d f588 903d 7c6c b13d
00000190: 652c 4a3a 0cbe 923c d958 78be 06d8 a63e
000001a0: cf72 42bd eb92 f83d 098b 0abe 8eec d3bd
000001b0: f95f 84bd 74f2 403e 4cc6 bebd 5810 fbbb
000001c0: 1ee6 08be 481a fbbc f5b3 aa3d 9828 173e
000001d0: e080 f23c 2f75 0b3e 8409 d4bd 07b6 b13d
000001e0: 5123 94bc 34c7 c93d ecd9 98bc 2c56 18be
000001f0: 00c2 5a3e be69 25ba 5ac2 71bd 3f9b 12bd
00000200: e362 e63d 7dae 1dbe b468 923e 50a4 623d
00000210: b67a 443d 4a69 103e f5c0 243e 1ef3 1dbc
00000220: 7005 04bd 713c a83e 7227 edbd 9e65 3fbe
00000230: 726a 723d c33f 9ebd e0d1 bb3d 6fab 403e
00000240: eeef e53b 99a0 853d 12da 85bd 10c0 23be
00000250: b712 863b d7cd b3bc b006 53bd 0e5b 1a3e
00000260: 29b2 533d 41e3 ce3d 4344 0fbe 2871 13be
00000270: 48f6 11be 189a 133c 5db9 253e 529a f43d
00000280: 342c 263b 5df4 993d 59e5 02bb 08d4 2ebd
00000290: 4ff8 323e d1c8 9bbd ba0f d33c 651e 803c
000002a0: 1ae4 473e 9b8c b2bd 21ff 1e3e 510b 3abe
000002b0: 9f2c 0cbb cd01 563e b831 cb3d 9b90 653d
000002c0: d9e2 17be 1a91 e8bc 1c59 7fbd f261 353e
000002d0: f232 c83d f455 29bd 908e 1ebd 6656 bfbd
000002e0: c083 3b3e e9b7 243e ce68 753c b2db eebd
000002f0: 0d74 04be 0f66 333e 02bb 103e 6db5 c73c
00000300: f3fe dd3d d48e 0fbd 3e11 81bd 3f3c 023e
00000310: a808 db3d 5032 223e c608 25be fb05 bf3d
00000320: a6b1 90bc b025 6fb8 18f4 a3bb 9562 2cbe
00000330: 8215 e1bd 2bb5 c23c 1049 66bd a05f c03c
00000340: 402b a1bc f7ae a5bd 76f4 f4bd 0078 d0bc
00000350: 8242 b0bd e880 a5bc 14f0 863d 16dc b33d
00000360: 21ce 6c3d ee05 cbbd 1afb 74bd ee8d d0bd
00000370: 6c0e ffbd 2f61 c0bd 22c7 52bd 3784 10be
00000380: b50d 103e 1f85 053e 77e0 22be 2f8b 26be
00000390: 30ab afbc 50aa 35bc e7f8 0cbe 005b 783a
000003a0: d06e 27be 6d25 033e bd42 e63d 9916 14be
000003b0: 8c59 b1bd 9004 d83c 5b7c fbbc 31ff 1e3d
000003c0: 015d 2dbd 6641 733d fea4 953d 815f 4b3d
000003d0: 9fcc 883d 430d dabd 55a8 1dbe a1f9 c4bd
000003e0: 6aad cdbd 7780 43be 6560 b83d 467b 133d
000003f0: 17e4 d5bd 08a6 c3bd 4d73 083e a073 c73d

bias f4 [50]
-0.053747658 0.07233582 0.019626247 0.025459126 0.023615684 -0.0900799 0.08547379 0.012820114
-0.00848116 0.06480599 0.030749414 -0.12846379 -0.13761164 -0.1104825 -0.11563285 0.0045657586
-0.046392698 -0.115934126 0.0507816 0.08366499 -0.19218737 -0.013108958 -0.02880105 -0.11019451
0.1336891 -0.1249147 -0.081325784 -0.119421415 0.024826046 -0.119137265 -0.05281435 0.14548326
0.07404167 -0.054579526 0.07331622 -0.09537419 -0.14770004 0.1591109 0.16429447 0.17219886
-0.079236865 0.11743469 0.050309844 -0.021758908 -0.09847019 0.17778648 0.133203 -0.10618749
-0.12664476 0.13959366
00000000: 8126 5cbd cd24 943d 39c7 a03c a88f d03c
00000010: ae75 c13c d07b b8bd e20c af3d 750b 523c
00000020: 90f4 0abc 01b9 843d 32e6 fb3c 038c 03be
00000030: 11ea 0cbe a644 e2bd ead0 ecbd 5c9c 953b
00000040: 4506 3ebd df6e edbd 5e00 503d 8d58 ab3d
00000050: c4cc 44be f4c6 56bc 2ef0 ebbc a9ad e1bd
00000060: cce5 083e 47d3 ffbd 228e a6bd 3793 f4bd
00000070: fe5f cb3c 3dfe f3bd dc53 58bd 90f9 143e
00000080: 29a3 973d c88e 5fbd d026 963d 8b53 c3bd
00000090: ae3e 17be f8ed 223e cf3c 283e e654 303e
000000a0: f046 a2bd 9981 f03d b211 4e3d bd3f b2bc
000000b0: bdaa c9bd a90d 363e 5e66 083e d478 d9bd
000000c0: 2aaf 01be a4f1 0e3e

weight f4 [50]
1.0 1.0 1.0 1.0 1.0 1.0 1.0 1.0
1.0 1.0 1.0 1.0 1.0 1.0 1.0 1.0
1.0 1.0 1.0 1.0 1.0 1.0 1.0 1.0
1.0 1.0 1.0 1.0 1.0 1.0 1.0 1.0
1.0 1.0 1.0 1.0 1.0 1.0 1.0 1.0
1.0 1.0 1.0 1.0 1.0 1.0 1.0 1.0
1.0 1.0
00000000: 0000 803f 0000 803f 0000 803f 0000 803f
00000010: 0000 803f 0000 803f 0000 803f 0000 803f
00000020: 0000 803f 0000 803f 0000 803f 0000 803f
00000030: 0000 803f 0000 803f 0000 803f 0000 803f
00000040: 0000 803f 0000 803f 0000 803f 0000 803f
00000050: 0000 803f 0000 803f 0000 803f 0000 803f
00000060: 0000 803f 0000 803f 0000 803f 0000 803f
00000070: 0000 803f 0000 803f 0000 803f 0000 803f
00000080: 0000 803f 0000 803f 0000 803f 0000 803f
00000090: 0000 803f 0000 803f 0000 803f 0000 803f
000000a0: 0000 803f 0000 803f 0000 803f 0000 803f
000000b0: 0000 803f 0000 803f 0000 803f 0000 803f
000000c0: 0000 803f 0000 803f

bias f4 [50]
0.0 0.0 0.0 0.0 0.0 0.0 0.0 0.0
0.0 0.0 0.0 0.0 0.0 0.0 0.0 0.0
0.0 0.0 0.0 0.0 0.0 0.0 0.0 0.0
0.0 0.0 0.0 0.0 0.0 0.0 0.0 0.0
0.0 0.0 0.0 0.0 0.0 0.0 0.0 0.0
0.0 0.0 0.0 0.0 0.0 0.0 0.0 0.0
0.0 0.0
00000000: 0000 0000 0000 0000 0000 0000 0000 0000
00000010: 0000 0000 0000 0000 0000 0000 0000 0000
00000020: 0000 0000 0000 0000 0000 0000 0000 0000
00000030: 0000 0000 0000 0000 0000 0000 0000 0000
00000040: 0000 0000 0000 0000 0000 0000 0000 0000
00000050: 0000 0000 0000 0000 0000 0000 0000 0000
00000060: 0000 0000 0000 0000 0000 0000 0000 0000
00000070: 0000 0000 0000 0000 0000 0000 0000 0000
00000080: 0000 0000 0000 0000 0000 0000 0000 0000
00000090: 0000 0000 0000 0000 0000 0000 0000 0000
000000a0: 0000 0000 0000 0000 0000 0000 0000 0000
000000b0: 0000 0000 0000 0000 0000 0000 0000 0000
000000c0: 0000 0000 0000 0000

running_mean f4 [50]
0.0 0.0 0.0 0.0 0.0 0.0 0.0 0.0
0.0 0.0 0.0 0.0 0.0 0.0 0.0 0.0
0.0 0.0 0.0 0.0 0.0 0.0 0.0 0.0
0.0 0.0 0.0 0.0 0.0 0.0 0.0 0.0
0.0 0.0 0.0 0.0 0.0 0.0 0.0 0.0
0.0 0.0 0.0 0.0 0.0 0.0 0.0 0.0
0.0 0.0
00000000: 0000 0000 0000 0000 0000 0000 0000 0000
00000010: 0000 0000 0000 0000 0000 0000 0000 0000
00000020: 0000 0000 0000 0000 0000 0000 0000 0000
00000030: 0000 0000 0000 0000 0000 0000 0000 0000
00000040: 0000 0000 0000 0000 0000 0000 0000 0000
00000050: 0000 0000 0000 0000 0000 0000 0000 0000
00000060: 0000 0000 0000 0000 0000 0000 0000 0000
00000070: 0000 0000 0000 0000 0000 0000 0000 0000
00000080: 0000 0000 0000 0000 0000 0000 0000 0000
00000090: 0000 0000 0000 0000 0000 0000 0000 0000
000000a0: 0000 0000 0000 0000 0000 0000 0000 0000
000000b0: 0000 0000 0000 0000 0000 0000 0000 0000
000000c0: 0000 0000 0000 0000

running_var f4 [50]
1.0 1.0 1.0 1.0 1.0 1.0 1.0 1.0
1.0 1.0 1.0 1.0 1.0 1.0 1.0 1.0
1.0 1.0 1.0 1.0 1.0 1.0 1.0 1.0
1.0 1.0 1.0 1.0 1.0 1.0 1.0 1.0
1.0 1.0 1.0 1.0 1.0 1.0 1.0 1.0
1.0 1.0 1.0 1.0 1.0 1.0 1.0 1.0
1.0 1.0
00000000: 0000 803f 0000 803f 0000 803f 0000 803f
00000010: 0000 803f 0000 803f 0000 803f 0000 803f
00000020: 0000 803f 0000 803f 0000 803f 0000 803f
00000030: 0000 803f 0000 803f 0000 803f 0000 803f
00000040: 0000 803f 0000 803f 0000 803f 0000 803f
00000050: 0000 803f 0000 803f 0000 803f 0000 803f
00000060: 0000 803f 0000 803f 0000 803f 0000 803f
00000070: 0000 803f 0000 803f 0000 803f 0000 803f
00000080: 0000 803f 0000 803f 0000 803f 0000 803f
00000090: 0000 803f 0000 803f 0000 803f 0000 803f
000000a0: 0000 803f 0000 803f 0000 803f 0000 803f
000000b0: 0000 803f 0000 803f 0000 803f 0000 803f
000000c0: 0000 803f 0000 803f

weight f4 [20, 50]
-0.12550554 -0.060271718 -0.14013736 -0.12964396 0.058013067 -0.032165866 0.043916866 0.0348775
-0.094946355 -0.14153957 -0.019336231 0.053141873 -0.02970294 0.039297193 0.111765146 -0.109131366
-0.08242623 0.09031546 -0.0733991 -0.032053735 0.1059887 -0.09891289 -0.04336559 0.044698868
0.0077411835 0.10018544 0.081190914 0.041152015 -0.12194489 0.0023016145 -0.094471596 0.0066553536
0.014702571 0.12305353 0.1280376 -0.053917855 0.10465356 -0.059280045 0.09725289 0.031583227
-0.033135187 -0.046094365 -0.05716184 -0.02594006 0.0141130425 -0.10723296 -0.07238209 0.07835969
0.038084462 0.076948546 0.01986144 -0.025124026 -0.03691466 -0.011546827 0.124961995 -0.15554704
0.09160982 0.005841441 -0.06655094 0.072609745 -0.13470146 -0.003711755 -0.06189604 0.008806826
0.024844265 -0.017925633 0.03194596 -0.13226728 0.12415134 -0.011506844 0.00466609 -0.10209111
-0.1357679 -0.118946806 0.083955735 -0.09496465 -0.092535585 0.039018042 0.0075398264 -0.025991108
-0.17842203 0.06510646 -0.032022156 -0.09901268 -0.079817496 0.107016414 0.108569115 0.06618812
-0.081444815 0.06424484 -0.08346724 -0.10610706 -0.057971492 0.02376536 -0.07809272 0.10026711
-0.042012013 0.022465982 -0.008606686 0.016908742 0.02995672 -0.15147443 0.05683191 -0.117156826
-0.16570508 0.019276192 -0.11936997 0.04821803 0.1302151 0.11982626 0.1636286 0.03914595
0.06338668 -0.052013718 0.11734427 0.13337556 -0.11018545 -0.07366177 0.040083036 0.07729841
-0.13027228 -0.26326865 0.028503377 0.14260854 0.1633684 -0.089911215 0.2121135 0.26090598
0.15162754 -0.17683667 0.28027555 0.0014310569 -0.09499157 -0.037277535 0.08179385 0.2180692
-0.027555935 -0.0002830068 -0.009362634 0.031396933 0.04791521 0.025495281 -0.11298075 0.164063
0.056448672 -0.20252757 0.16047062 0.21759078 -0.022979334 -0.19700617 0.10575568 0.027069848
0.1428748 0.09849483 0.1793523 -0.05087386 0.022007927 0.14582351 -0.067115754 0.021274285
-0.121296644 -0.10512146 0.018639073 0.03200982 -0.09829497 0.00392868 -0.018934907 -0.040175155
0.04549608 -0.112195306 -0.016319385 0.080682814 0.17927833 0.14829662 -0.09626347 0.110574506
-0.1260907 -0.1099347 -0.16327685 0.10008869 -0.022220364 0.10881192 0.16754578 -0.07975084
0.12962948 0.03900199 0.09379802 0.09441021 0.070468694 -0.07317068 0.07353384 0.18540321
0.19748828 -0.16770099 -0.062052097 0.22438212 -0.06837144 0.0045351945 0.09371326 -0.061688356
-0.20298886 0.24926487 -0.011917267 0.2343747 0.16347958 -0.07156339 -0.096913636 0.10398849
-0.017167576 0.08739214 0.07589862 -0.03520608 -0.021285154 0.12166681 -0.12871042 0.082695805
0.018323505 0.083815336 -0.17429122 -0.012712069 -0.038933728 0.2582151 0.07212708 -0.065812744
-0.08566067 0.0053949677 -0.15188591 -0.046875503 -0.20323394 0.10683884 -0.021772897 0.13769524
-0.04232172 0.021270255 -0.13937819 -0.10093262 0.12274963 0.0046050996 0.04086003 -0.038189594
0.15404446 0.24135274 0.2398655 -0.18121715 0.11815614 0.11517364 0.014282288 0.037253566
0.020205162 0.12871648 0.052709434 -0.15365218 -0.075616896 -0.27015355 -0.15017855 0.035362117
00000000: 8684 00be 7adf 76bd 2b80 0fbe 63c1 04be
00000010: 1c9f 6d3d 5bc0 03bd 2ce2 333d b6db 0e3d
00000020: 3c73 c2bd c0ef 10be 0467 9ebc 4bab 593d
00000030: 9453 f3bc 18f6 203d 20e5 e43d 4480 dfbd
00000040: 15cf a8bd 50f7 b83d 4452 96bd c74a 03bd
00000050: 9b10 d93d d792 cabd 1ea0 31bd 2916 373d
00000060: c1a9 fd3b 062e cd3d 6c47 a63d 048f 283d
00000070: 3ebe f9bd afd6 163b 537a c1bd 2715 da3b
00000080: 0de3 703c 7d03 fc3d 4a1c 033e f8d8 5cbd
00000090: 9b54 d63d a2cf 72bd 862c c73d 6a5d 013d
000000a0: c3b8 07bd 72cd 3cbd 8922 6abd 4080 d4bc
000000b0: 643a 673c f49c dbbd 103d 94bd 0c7b a03d
000000c0: 74fe 1b3d 3397 9d3d 75b4 a23c e7d0 cdbc
000000d0: d433 17bd e72e 3dbc 13ec ff3d b947 1fbe
000000e0: ee9d bb3d 8f69 bf3b dc4b 88bd 6bb4 943d
000000f0: 2eef 09be ea40 73bb b486 7dbd 814a 103c
00000100: 3386 cb3c c7d8 92bc c4d9 023d 1371 07be
00000110: 0f43 fe3d 3487 3cbc 00e6 983b 2515 d1bd
00000120: be06 0bbe 629a f3bd fcf0 ab3d d47c c2bd
00000130: 4c83 bdbd 62d1 1f3d a610 f73b 4eeb d4bc
00000140: 44b4 36be 8956 853d aa29 03bd 29c7 cabd
00000150: 5b77 a3bd 6c2b db3d 7c59 de3d a38d 873d
00000160: 8acc a6bd cc92 833d dff0 aabd a94e d9bd
00000170: 8473 6dbd 92af c23c 13ef 9fbd d858 cd3d
00000180: ca14 2cbd 940a b83c 0f03 0dbc 3484 8a3c
00000190: cc67 f53c 1d1c 1bbe 94c8 683d ebef efbd
000001a0: 98ae 29be 1be9 9d3c 3e78 f4bd 4580 453d
000001b0: 1b57 053e 7867 f53d 418e 273e 8157 203d
000001c0: e0d0 813d 560c 55bd 3152 f03d 9a93 083e
000001d0: e9a8 e1bd fbdb 96bd 1c2e 243d a14e 9e3d
000001e0: 1966 05be 26cb 86be ea7f e93c f907 123e
000001f0: 0c4a 273e 5f23 b8bd 4834 593e 7895 853e
00000200: 4044 1b3e ac14 35be 4780 8f3e 4d92 bb3a
00000210: f18a c2bd 54b0 18bd 8983 a73d 884d 5f3e
00000220: fcbc e1bc 8860 94b9 bc65 19bc 129a 003d
00000230: bd42 443d 7bdb d03c 7462 e7bd 2200 283e
00000240: b936 673d 6363 4fbe 6952 243e 1ed0 5e3e
00000250: 283f bcbc fcbb 49be 6f96 d83d 96c1 dd3c
00000260: c64d 123e a8b7 c93d 21a8 373e 1c61 50bd
00000270: f849 b43c c252 153e fc73 89bd 6947 ae3c
00000280: 606a f8bd ec49 d7bd f8b0 983c bb1c 033d
00000290: e04e c9bd 28bc 803b 611d 9bbc b48e 24bd
000002a0: 195a 3a3d a7c6 e5bd 3bb0 85bc 083d a53d
000002b0: bd94 373e 12db 173e c825 c5bd e374 e23d
000002c0: ec1d 01be 7225 e1bd 0c32 27be 4dfb cc3d
000002d0: 7b07 b6bc c9d8 de3d 1f91 2b3e 6954 a3bd
000002e0: 97bd 043e 8dc0 1f3d 2d19 c03d 245a c13d
000002f0: e451 903d 82da 95bd e998 963d 57da 3d3e
00000300: 5e3a 4a3e cfb9 2bbe 572a 7ebd 6dc4 653e
00000310: 5306 8cbd f89b 943b bdec bf3d eeac 7cbd
00000320: 50dc 4fbe 4a3f 7f3e a440 43bc ecff 6f3e
00000330: 3167 273e d48f 92bd a87a c6bd ebf7 d43d
00000340: 04a3 8cbc a6fa b23d bc70 9b3d 4034 10bd
00000350: 345e aebc 732c f93d aacc 03be 6b5c a93d
00000360: 2d1b 963c 60a7 ab3d 6679 32be 4846 50bc
00000370: f978 1fbd c534 843e 5db7 933d d5c8 86bd
00000380: dd6e afbd 45c8 b03b fb87 1bbe 8700 40bd
00000390: 8f1c 50be 52ce da3d 135d b2bc fbff 0c3e
000003a0: 8a59 2dbd f53e ae3c 28b9 0ebe c3b5 cebd
000003b0: 2864 fb3d 60e6 963b d95c 273d b16c 1cbd
000003c0: d5bd 1d3e 2c25 773e 4d9f 753e fd90 39be
000003d0: d9fb f13d 28e0 eb3d 4200 6a3c 3297 183d
000003e0: 4c85 a53c 41ce 033e d9e5 573d ff56 1dbe
000003f0: 08dd 9abd 9151 8abe 68c8 19be ded7 103d

bias f4 [20]
-0.03921636 0.024008894 0.111257255 0.00094711164 -0.027161282 -0.08369225 0.051171344 0.10532543
0.10000737 -0.014253789 0.033267897 -0.049381725 -0.11243787 0.050917942 0.12340517 -0.0662342
0.03601585 0.1324563 -0.015089672 0.10741694
00000000: 55a1 20bd 4dae c43c d8da e33d 9647 783a
00000010: 5681 debc d866 abbd 0b99 513d dcb4 d73d
00000020: aad0 cc3d b988 69bc eb43 083d 7e44 4abd
00000030: d345 e6bd 558f 503d dabb fc3d cca5 87bd
00000040: 5b85 133d a0a2 073e ac3a 77bc 6afd db3d

weight f4 [20]
1.0 1.0 1.0 1.0 1.0 1.0 1.0 1.0
1.0 1.0 1.0 1.0 1.0 1.0 1.0 1.0
1.0 1.0 1.0 1.0
00000000: 0000 803f 0000 803f 0000 803f 0000 803f
00000010: 0000 803f 0000 803f 0000 803f 0000 803f
00000020: 0000 803f 0000 803f 0000 803f 0000 803f
00000030: 0000 803f 0000 803f 0000 803f 0000 803f
00000040: 0000 803f 0000 803f 0000 803f 0000 803f

bias f4 [20]
0.0 0.0 0.0 0.0 0.0 0.0 0.0 0.0
0.0 0.0 0.0 0.0 0.0 0.0 0.0 0.0
0.0 0.0 0.0 0.0
00000000: 0000 0000 0000 0000 0000 0000 0000 0000
00000010: 0000 0000 0000 0000 0000 0000 0000 0000
00000020: 0000 0000 0000 0000 0000 0000 0000 0000
00000030: 0000 0000 0000 0000 0000 0000 0000 0000
00000040: 0000 0000 0000 0000 0000 0000 0000 0000

running_mean f4 [20]
0.0 0.0 0.0 0.0 0.0 0.0 0.0 0.0
0.0 0.0 0.0 0.0 0.0 0.0 0.0 0.0
0.0 0.0 0.0 0.0
00000000: 0000 0000 0000 0000 0000 0000 0000 0000
00000010: 0000 0000 0000 0000 0000 0000 0000 0000
00000020: 0000 0000 0000 0000 0000 0000 0000 0000
00000030: 0000 0000 0000 0000 0000 0000 0000 0000
00000040: 0000 0000 0000 0000 0000 0000 0000 0000

running_var f4 [20]
1.0 1.0 1.0 1.0 1.0 1.0 1.0 1.0
1.0 1.0 1.0 1.0 1.0 1.0 1.0 1.0
1.0 1.0 1.0 1.0
00000000: 0000 803f 0000 803f 0000 803f 0000 803f
00000010: 0000 803f 0000 803f 0000 803f 0000 803f
00000020: 0000 803f 0000 803f 0000 803f 0000 803f
00000030: 0000 803f 0000 803f 0000 803f 0000 803f
00000040: 0000 803f 0000 803f 0000 803f 0000 803f

weight f4 [2, 20]
0.11887077 0.15124218 -0.16144666 0.18827824 0.19250953 -0.25399834 0.09267654 -0.15405786
0.09027021 0.057677176 0.07640126 -0.11651979 -0.14254414 -0.2574859 -0.16071776 0.08134066
-0.21185376 -0.15902378 -0.23420404 0.016862674 -0.07982224 -0.1764257 0.12315126 -0.031938996
-0.15521146 0.3216144 -0.32014558 -0.124331966 0.19925776 0.16133896 0.2755491 -0.16787872
-0.25736544 0.08902017 -0.2317558 0.11296458 -0.028460635 -0.15764455 0.11837667 -0.11695919
00000000: 8572 f33d 3bdf 1a3e 4652 25be 03cc 403e
00000010: 3821 453e 120c 82be 33cd bd3d 58c1 1dbe
00000020: 96df b83d e73e 6c3d 4478 9c3d eda1 eebd
00000030: 17f7 11be 31d5 83be 3293 24be ef95 a63d
00000040: 31f0 58be 21d7 22be 2fd3 6fbe 9723 8a3c
00000050: d879 a3bd f0a8 34be ba36 fc3d 77d2 02bd
00000060: c1ef 1ebe a5aa a43e 1fea a3be c2a1 febd
00000070: 3a0a 4c3e 0a36 253e c614 8d3e 66e8 2bbe
00000080: 67c5 83be 3550 b63d 6451 6dbe f959 e73d
00000090: 4726 e9bc 936d 21be 786f f23d 4d88 efbd

bias f4 [2]
0.17497796 -0.16715437
00000000: 6c2d 333e 842a 2bbe
