models_version4/2UAVs_85180/c_c0.pt (torch_old, 28024 bytes, 15 tensors)

weight f4 [50, 68]
0.041270208 0.41879347 0.04212049 -0.028313698 -0.05701791 0.100641884 0.04267676 -0.08942238
-0.00695607 0.030328976 -0.045525018 0.058828216 0.07123764 -0.064238586 -0.010425438 -0.05260909
0.08928899 -0.11315608 -0.095835835 -0.038245145 -0.08165352 0.13141224 -0.0025962756 -0.016801601
0.021163315 0.045117203 0.09969951 0.030577285 0.041862234 -0.075817786 0.055296782 0.09947164
-0.11645879 -0.13466966 0.14527786 0.26238 -0.024073677 0.025294492 -0.085450694 -0.10796759
0.0576953 0.06368006 0.005228247 -0.0991097 -0.060668714 0.084787056 0.03691454 0.004689335
-0.008037812 0.11596031 -0.060564477 0.044209376 -0.02908939 -0.015222089 -0.083502665 0.05894298
0.06903504 0.025319604 -0.03608191 0.021357166 -0.07146537 -0.008962709 0.035659637 0.07365749
0.116082005 0.051125012 -0.0531954 -0.015382761 -0.13569637 -0.31163338 0.10870812 0.06973109
-0.08110912 -0.07574048 -0.08853021 0.081528336 0.05572366 0.046548624 -0.0750661 0.06594134
-0.06545347 -0.009657821 -0.07679321 0.0736373 0.11333317 0.0976714 -0.036591016 -0.010429014
-0.016242303 -0.11440315 -0.07469689 0.006199584 0.024737643 0.050399493 0.034840703 -0.0007507778
0.09673686 0.14857118 0.091344014 0.037248824 0.09508416 0.15236504 -0.0073695895 -0.28888735
0.03767897 0.12757829 0.08437632 0.078435354 0.019082228 -0.003758352 0.085412025 0.0062291333
0.049835045 0.012966446 -0.03271511 0.048942972 0.11447738 -0.08218063 0.016582327 -0.11388797
-0.0065856706 0.02125323 -0.07185128 -0.012375964 0.029601622 0.11289971 0.04634446 0.026748052
-0.05774945 -0.032039225 0.0043334956 0.15537272 -0.012515698 -0.020401023 0.024400521 0.07931292
0.28017527 -0.44070113 -0.14661418 -0.07568189 0.026215179 -0.10087122 -0.02338919 0.027695736
-0.035820678 0.04255532 -0.028332694 0.021714117 -0.0936384 0.0836817 -0.056128126 0.09335994
0.06474735 0.0314414 0.122434236 0.08992759 0.13387991 -0.087044545 0.1263905 0.039238352
-0.08409121 0.04983807 -0.061654028 0.010160533 0.018305011 0.12800005 0.123427235 -0.07071796
0.04055566 0.011284518 0.13864602 -0.4603092 -0.029039057 -0.050876018 0.05140948 0.121117465
0.0677493 0.03304268 -0.061865762 -0.079085834 -0.061431278 0.11573321 0.011247911 -0.06733094
0.023077995 -0.09650337 -0.08808003 0.12277298 0.12539753 0.046523515 0.07871048 -0.022859534
0.024340998 -0.04971001 -0.11769458 -0.059061937 0.083986916 0.013644687 -0.06986423 0.080390014
0.01971415 0.0030004275 -0.011040619 0.15284875 -0.12679751 -0.3948605 -0.0076359655 -0.09299899
-0.0013192053 0.035477147 0.14222455 -0.045966983 0.048853498 -0.022095487 0.08495857 -0.022174802
0.05100312 0.026569089 -0.05218091 0.10608329 -0.08139592 0.003489176 0.044448625 -0.02503822
0.13292547 -0.022422053 0.054511853 0.12741673 -0.055457506 -0.062335007 0.09544473 -0.042254608
0.08289831 0.007933222 0.039763942 -0.07204708 0.08844207 -0.055185333 -0.035511497 -0.32788095
0.05091795 -0.075609274 0.028051348 0.05401913 0.078800425 0.053608134 0.062307663 0.0963304
-0.05349239 0.013344136 0.0735687 -0.005550697 0.107972875 0.051497027 0.045031495 -0.012514508
00000000: f30a 293d 196c d63e 8986 2c3d 21f2 e7bc
00000010: 9d8b 69bd 551d ce3d d4cd 2e3d 1523 b7bd
00000020: bfef e3bb 7974 f83c 7178 3abd dbf5 703d
00000030: 0ae5 913d 858f 83bd 75cf 2abc a17c 57bd
00000040: 25dd b63d 60be e7bd 9445 c4bd f1a6 1cbd
00000050: f639 a7bd ee90 063e 4726 2abb 83a3 89bc
00000060: b05e ad3c d1cc 383d 422f cc3d 377d fa3c
00000070: bc77 2b3d 5b46 9bbd e17e 623d cab7 cb3d
00000080: f281 eebd d8e6 09be b8c3 143e ac56 863e
00000090: 2936 c5bc 6536 cf3c c600 afbd 1d1e ddbd
000000a0: e851 6c3d b16a 823d b751 ab3b 07fa cabd
000000b0: c27f 78bd d6a4 ad3d b333 173d fea8 993b
000000c0: 07b1 03bc 997c ed3d 7512 78bd e414 353d
000000d0: df4c eebc 1266 79bc 7203 abbd 326e 713d
000000e0: 3e62 8d3d 0f6b cf3c a0ca 13bd 39f5 ae3c
000000f0: 705c 92bd 54d8 12bc d70f 123d bdd9 963d
00000100: 67bc ed3d 7668 513d 6be3 59bd fa07 7cbc
00000110: fdf3 0abe 698e 9fbe 5da2 de3d 2ccf 8e3d
00000120: 8a1c a6bd d31d 9bbd 544f b5bd 54f8 a63d
00000130: 7e3e 643d c5a9 3e3d 41bc 99bd 410c 873d
00000140: 780c 86bd d63b 1ebc c245 9dbd 27cf 963d
00000150: 391b e83d f107 c83d 76e0 15bd 75de 2abc
00000160: 940e 85bc 334c eabd affa 98bd e125 cb3b
00000170: 99a6 ca3c b36f 4e3d 20b5 0e3d d8cf 44ba
00000180: fa1d c63d 0b23 183e 9212 bb3d 3992 183d
00000190: 7cbb c23d 9505 1c3e 997c f1bb 0be9 93be
000001a0: 4355 1a3d e2a3 023e 7ecd ac3d b7a2 a03d
000001b0: 5552 9c3c af4e 76bb 80ec ae3d c21d cc3b
000001c0: d51f 4c3d 3771 543c 4700 06bd 6d78 483d
000001d0: 1e73 ea3d 514e a8bd a9d7 873c 193e e9bd
000001e0: 9ccc d7bb 411b ae3c c426 93bd 8ec4 4abc
000001f0: 1a7f f23c f737 e73d b0d3 3d3d bb1e db3c
00000200: b08a 6cbd 903b 03bd ffff 8d3b 071a 1f3e
00000210: a40e 4dbc 0c20 a7bc 9ae3 c73c d06e a23d
00000220: 2273 8f3e 94a3 e1be 0722 16be 1bff 9abd
00000230: 37c1 d63c 9295 cebd b09a bfbc 2be2 e23c
00000240: b4b8 12bd 7d4e 2e3d f719 e8bc cee1 b13c
00000250: 7dc5 bfbd 5061 ab3d 9be6 65bd 7f33 bf3d
00000260: 429a 843d b3c8 003d cdbe fa3d f52b b83d
00000270: d117 093e 6944 b2bd 836c 013e 65b8 203d
00000280: 0338 acbd 0123 4c3d ef88 7cbd 5d78 263c
00000290: 64f4 953c 7212 033e 6bc7 fc3d 94d4 90bd
000002a0: b11d 263d b3e2 383c 39f9 0d3e a6ad ebbe
000002b0: 51e3 edbc 5f63 50bd bf92 523d 6f0c f83d
000002c0: 25c0 8a3d c357 073d f466 7dbd c1f7 a1bd
000002d0: 5d9f 7bbd 8905 ed3d 2849 383c cee4 89bd
000002e0: 100e bd3c 8fa3 c5bd 4e63 b4bd 6670 fb3d
000002f0: 3668 003e 718f 3e3d f632 a13d eb43 bbbc
00000300: c666 c73c b99c 4bbd db09 f1bd eeea 71bd
00000310: 5501 ac3d f78d 5f3c fa14 8fbd 85a3 a43d
00000320: 927f a13c d2a2 443b b6e3 34bc 6284 1c3e
00000330: 35d7 01be 282b cabe 1f37 fabb 4176 bebd
00000340: 2fe9 acba 7c50 113d 50a3 113e e047 3cbd
00000350: 9b1a 483d 9801 b5bc c2fe ad3d eea7 b5bc
00000360: a6e8 503d 6ba7 d93c a6bb 55bd 3242 d93d
00000370: e7b2 a6bd a9aa 643b c30f 363d f41c cdbc
00000380: 9d1d 083e 74ae b7bc d247 5f3d 8879 023e
00000390: 6927 63bd fe52 7fbd 8778 c33d 2b13 2dbd
000003a0: 97c6 a93d 58fa 013c 84df 223d 6b8d 93bd
000003b0: 1e21 b53d 040a 62bd 8174 11bd 03e0 a7be
000003c0: 578f 503d 09d9 9abd f1cb e53c 2a43 5d3d
000003d0: 1e62 a13d 3494 5b3d 5236 7f3d df48 c53d
000003e0: d61a 5bbd 5da1 5a3c 30ab 963d 9fe2 b5bb
000003f0: e220 dd3d 8cee 523d f272 383d a709 4dbc

bias f4 [50]
-0.090370916 0.19266175 0.034129195 0.18960883 0.21536535 -0.009838292 0.018148147 0.11222641
0.18077534 0.016874446 -0.13194369 0.2260872 0.048500814 -0.008299402 0.08680315 0.17933512
0.148193 0.115909755 -0.070613064 0.07140695 0.078113265 0.1666253 0.1518334 -0.00079886604
-0.10850863 -0.09133031 0.057733584 0.21617278 0.17480557 0.07813277 0.019281462 0.0067174383
0.1213803 0.21067138 0.09889966 -0.06410787 0.19066706 0.12418311 0.0734105 0.0132700205
-0.10925442 -0.007324052 0.020353494 0.014716223 0.06926932 -0.12935635 -0.123331 0.07899468
-0.11103281 -0.07578853
00000000: 6314 b9bd 1f49 453e 0ecb 0b3d d128 423e
00000010: bc88 5c3e ca30 21bc 6cab 943c f6d6 e53d
00000020: 2c1d 393e 473c 8a3c 3f1c 07be 6783 673e
00000030: caa8 463d 37fa 07bc dac5 b13d a0a3 373e
00000040: e8bf 173e 1862 ed3d 959d 90bd cf3d 923d
00000050: d9f9 9f3d d39f 2a3e 377a 1b3e fe6a 51ba
00000060: c639 debd 630b bbbd 0d7a 6c3d 665c 5d3e
00000070: 3b00 333e 1304 a03d 28f4 9d3c f51d dc3b
00000080: 3c96 f83d 3dba 573e e88b ca3d fd4a 83bd
00000090: 3a3e 433e b753 fe3d 3f58 963d 806a 593c
000000a0: c8c0 dfbd 9afe efbb 5fbc a63c 501c 713c
000000b0: 13dd 8d3d fe75 04be f794 fcbd f6c7 a13d
000000c0: 2b65 e3bd 0437 9bbd

weight f4 [50, 4]
0.18498133 -0.07993216 -0.13174203 -0.39484432 0.0058221733 -0.48453102 -0.27553207 0.1588931
0.099714175 -0.49383545 0.055914257 -0.37768564 -0.3103582 0.28989738 -0.2270803 0.063845366
-0.117374875 -0.2508988 0.23005499 -0.03850673 0.21555363 -0.41994506 0.22270541 -0.4096876
-0.29478168 -0.54062665 0.38266784 0.50836587 0.29494846 -0.5052808 0.24615674 0.011372679
-0.14144829 0.300485 0.057775073 0.06518889 0.022063775 -0.21664956 0.2616115 -0.14968671
0.336884 -0.5737566 -0.05556297 -0.019524869 0.39881077 -0.39792016 -0.13558817 -0.29168865
0.19531856 0.18314448 -0.28443438 -0.32962123 -0.59249055 0.56013364 -0.20849949 0.15188347
0.30877686 -0.4798716 -0.0075644795 0.21998067 0.39669165 -0.095675394 0.12332828 0.19042899
0.22900027 0.42411298 0.45119956 0.11476378 -0.0329605 0.010209611 -0.23512688 0.19080763
-0.02319291 -0.45742285 -0.4123328 -0.0049690427 0.28267357 -0.42328605 0.22418268 0.23424385
-0.18938689 0.4337408 -0.029199138 0.3649659 -0.37941587 -0.22191869 0.3212445 0.15806003
-0.527992 0.44716993 -0.097185664 -0.3556711 0.11109217 0.26045805 0.010228672 -0.20383556
0.20713428 -0.21925956 -0.3204608 -0.34263328 -0.006484268 0.24505158 0.34085107 -0.033552956
0.17424765 -0.4623276 -0.48252687 0.0566822 0.11906033 -0.18304971 -0.33541477 -0.25493592
-0.13949604 -0.48371676 -0.25579098 -0.02277685 0.47471088 0.19173509 -0.1210388 0.31674188
0.15740685 -0.44930115 0.17588802 -0.27611506 -0.33863127 -0.4675726 -0.4477933 0.32000855
-0.3858148 -0.287782 -0.052580744 -0.4432051 -0.39871547 0.13856252 0.47835246 0.3317805
0.15687598 -0.44330332 0.24991159 -0.09002893 0.12879813 0.29674706 -0.29904464 -0.30435586
-0.34965414 0.25861132 0.09716484 0.31863382 0.42509514 -0.5281022 0.205953 0.20718214
0.393674 0.48883343 -0.21325652 -0.09152339 -0.20647351 -0.5075872 -0.18230079 0.004716963
-0.3101376 0.26928124 0.39454228 0.5044694 -0.57224214 0.13235009 0.06665417 0.12085091
-0.059492745 0.18918742 0.20858891 0.3164356 0.38594815 -0.47279832 -0.19693293 0.040090423
0.21137813 0.50825614 0.3367475 0.09977044 0.5248448 0.10020379 -0.0012896315 -0.06162942
0.024806278 0.27716574 -0.24395362 0.4310982 -0.22636464 -0.30840576 -0.22583403 -0.17283802
-0.45155394 0.05083461 0.19391409 -0.038411558 0.36060768 -0.24963586 0.16932242 0.061340287
00000000: bf6b 3d3e 79b3 a3bd 62e7 06be 0929 cabe
00000010: eec7 be3b 7314 f8be 8a12 8dbe dfb4 223e
00000020: f236 cc3d 00d8 fcbe 5906 653d 0360 c1be
00000030: 45e7 9ebe 6e6d 943e bd87 68be 5cc1 823d
00000040: 3d62 f0bd cf75 80be 8993 6b3e 3cb9 1dbd
00000050: 17ba 5c3e 0a03 d7be e30c 643e 93c2 d1be
00000060: a0ed 96be 8266 0abf 0aed c33e 4424 023f
00000070: 7c03 973e 155a 01bf 8310 7c3e 7954 3a3c
00000080: d2d7 10be 2bd9 993e 8ea5 6c3d c181 853d
00000090: 17bf b43c 62d9 5dbe f1f1 853e 7947 19be
000000a0: 0f7c ac3e b6e1 12bf ff95 63bd 9ef2 9fbc
000000b0: ed30 cc3e 31bc cbbe a0d7 0abe 3758 95be
000000c0: 9701 483e 3a8a 3b3e 62a1 91be 1dc4 a8be
000000d0: 76ad 17bf eb64 0f3f e480 55be 5787 1b3e
000000e0: 0018 9e3e bbb1 f5be 74df f7bb 9d42 613e
000000f0: 2b1b cb3e 76f1 c3bd 8a93 fc3d d1ff 423e
00000100: 0c7f 6a3e 5625 d93e a103 e73e 4609 eb3d
00000110: 9701 07bd 3646 273c 1ac5 70be 1363 433e
00000120: 0fff bdbc 5433 eabe 491d d3be 5ad3 a2bb
00000130: 97ba 903e f3b8 d8be 2590 653e 9fdd 6f3e
00000140: a3ee 41be 4613 de3e 0833 efbc cfdc ba3e
00000150: cc42 c2be a73e 63be 297a a43e 7dda 213e
00000160: 7c2a 07bf 75f3 e43e 4709 c7bd 861a b6be
00000170: 4b84 e33d c25a 853e 2996 273c 45ba 50be
00000180: 021b 543e 9485 60be 7013 a4be a16d afbe
00000190: fb79 d4bb cdee 7a3e 0884 ae3e d36e 09bd
000001a0: fa6d 323e 34b6 ecbe c30d f7be 982b 683d
000001b0: e7d5 f33d 6271 3bbe 7cbb abbe f686 82be
000001c0: 0dd8 0ebe b9a9 f7be 09f7 82be 8496 babc
000001d0: 4e0d f33e 3456 443e 31e3 f7bd fe2b a23e
000001e0: 432f 213e cd0a e6be fd1b 343e f45e 8dbe
000001f0: 1461 adbe ad65 efbe 2a45 e5be 29d8 a33e
00000200: 8489 c5be 2a58 93be e85e 57bd c7eb e2be
00000210: 6f24 ccbe 55e3 0d3e 9dea f43e 22df a93e
00000220: 19a4 203e a7f8 e2be d3e8 7f3e 1661 b8bd
00000230: a8e3 033e 3bef 973e 611c 99be 88d4 9bbe
00000240: de05 b3be b468 843e 5cfe c63d f923 a33e
00000250: 12a6 d93e b531 07bf 58e5 523e 8e27 543e
00000260: a38f c93e 6048 fa3e eb5f 5abe 9d70 bbbd
00000270: cb6d 53be 3cf1 01bf 0fad 3abe c190 9a3b
00000280: 5bca 9ebe 3bdf 893e 7201 ca3e e824 013f
00000290: 767e 12bf c886 073e fb81 883d af80 f73d
000002a0: aaae 73bd 59ba 413e 5598 553e d903 a23e
000002b0: ff9a c53e 9f12 f2be c9a8 49be db35 243d
000002c0: 8273 583e 131d 023f 2b6a ac3e 7254 cc3d
000002d0: 3b5c 063f a537 cd3d da08 a9ba 216f 7cbd
000002e0: 8936 cb3c abe8 8d3e face 79be e7b8 dc3e
000002f0: 22cc 67be 5ce7 9dbe 0941 67be 73fc 30be
00000300: 1432 e7be f437 503d 6a91 463e 7055 1dbd
00000310: 92a1 b83e 8ba0 7fbe db62 2d3e f43f 7b3d

bias f4 [50]
-0.24989891 -0.24920776 0.2850519 0.55991936 -0.34038758 0.42497608 -0.43162686 0.16622429
0.4178465 0.49557966 0.43213138 -0.23110335 -0.06406193 0.24915543 0.2891329 0.057670962
0.097727075 0.4213518 -0.23235026 0.46419287 -0.19054586 0.290129 -0.19828348 0.28108865
-0.40903264 0.21505319 0.010183554 -0.3010614 -0.28165942 0.4412938 -0.5954537 0.38606367
-0.1713164 -0.17188367 -0.100251876 0.23612317 0.20065519 0.01120166 -0.4406962 0.30691358
0.4878781 0.19331671 0.26663882 0.17164616 -0.4318236 0.17614153 0.08708024 0.51307315
0.57982475 -0.43134737
00000000: 80e5 7fbe 5230 7fbe 53f2 913e e056 0f3f
00000010: 4847 aebe 7796 d93e 32fe dcbe b336 2a3e
00000020: faef d53e 9ebc fd3e 5340 dd3e 5ba6 6cbe
00000030: e732 83bd 9a22 7f3e 3a09 943e 6338 6c3d
00000040: 2225 c83d 6cbb d73e 3aed 6dbe b0aa ed3e
00000050: 741e 43be ca8b 943e d30a 4bbe daea 8f3e
00000060: ba6c d1be e736 5c3e ecd8 263c b824 9abe
00000070: aa35 90be 43f1 e13e a76f 18bf 23aa c53e
00000080: 916d 2fbe 4602 30be db50 cdbd 46ca 713e
00000090: 8e78 4d3e 2b87 373c efa2 e1be c723 9d3e
000000a0: 29cb f93e d1f4 453e e284 883e 03c4 2f3e
000000b0: fc17 ddbe 725e 343e 2057 b23d c358 033f
000000c0: 656f 143f 90d9 dcbe

weight f4 [50]
1.0 1.0 1.0 1.0 1.0 1.0 1.0 1.0
1.0 1.0 1.0 1.0 1.0 1.0 1.0 1.0
1.0 1.0 1.0 1.0 1.0 1.0 1.0 1.0
1.0 1.0 1.0 1.0 1.0 1.0 1.0 1.0
1.0 1.0 1.0 1.0 1.0 1.0 1.0 1.0
1.0 1.0 1.0 1.0 1.0 1.0 1.0 1.0
1.0 1.0
00000000: 0000 803f 0000 803f 0000 803f 0000 803f
00000010: 0000 803f 0000 803f 0000 803f 0000 803f
00000020: 0000 803f 0000 803f 0000 803f 0000 803f
00000030: 0000 803f 0000 803f 0000 803f 0000 803f
00000040: 0000 803f 0000 803f 0000 803f 0000 803f
00000050: 0000 803f 0000 803f 0000 803f 0000 803f
00000060: 0000 803f 0000 803f 0000 803f 0000 803f
00000070: 0000 803f 0000 803f 0000 803f 0000 803f
00000080: 0000 803f 0000 803f 0000 803f 0000 803f
00000090: 0000 803f 0000 803f 0000 803f 0000 803f
000000a0: 0000 803f 0000 803f 0000 803f 0000 803f
000000b0: 0000 803f 0000 803f 0000 803f 0000 803f
000000c0: 0000 803f 0000 803f

bias f4 [50]
0.0 0.0 0.0 0.0 0.0 0.0 0.0 0.0
0.0 0.0 0.0 0.0 0.0 0.0 0.0 0.0
0.0 0.0 0.0 0.0 0.0 0.0 0.0 0.0
0.0 0.0 0.0 0.0 0.0 0.0 0.0 0.0
0.0 0.0 0.0 0.0 0.0 0.0 0.0 0.0
0.0 0.0 0.0 0.0 0.0 0.0 0.0 0.0
0.0 0.0
00000000: 0000 0000 0000 0000 0000 0000 0000 0000
00000010: 0000 0000 0000 0000 0000 0000 0000 0000
00000020: 0000 0000 0000 0000 0000 0000 0000 0000
00000030: 0000 0000 0000 0000 0000 0000 0000 0000
00000040: 0000 0000 0000 0000 0000 0000 0000 0000
00000050: 0000 0000 0000 0000 0000 0000 0000 0000
00000060: 0000 0000 0000 0000 0000 0000 0000 0000
00000070: 0000 0000 0000 0000 0000 0000 0000 0000
00000080: 0000 0000 0000 0000 0000 0000 0000 0000
00000090: 0000 0000 0000 0000 0000 0000 0000 0000
000000a0: 0000 0000 0000 0000 0000 0000 0000 0000
000000b0: 0000 0000 0000 0000 0000 0000 0000 0000
000000c0: 0000 0000 0000 0000

running_mean f4 [50]
0.0 0.0 0.0 0.0 0.0 0.0 0.0 0.0
0.0 0.0 0.0 0.0 0.0 0.0 0.0 0.0
0.0 0.0 0.0 0.0 0.0 0.0 0.0 0.0
0.0 0.0 0.0 0.0 0.0 0.0 0.0 0.0
0.0 0.0 0.0 0.0 0.0 0.0 0.0 0.0
0.0 0.0 0.0 0.0 0.0 0.0 0.0 0.0
0.0 0.0
00000000: 0000 0000 0000 0000 0000 0000 0000 0000
00000010: 0000 0000 0000 0000 0000 0000 0000 0000
00000020: 0000 0000 0000 0000 0000 0000 0000 0000
00000030: 0000 0000 0000 0000 0000 0000 0000 0000
00000040: 0000 0000 0000 0000 0000 0000 0000 0000
00000050: 0000 0000 0000 0000 0000 0000 0000 0000
00000060: 0000 0000 0000 0000 0000 0000 0000 0000
00000070: 0000 0000 0000 0000 0000 0000 0000 0000
00000080: 0000 0000 0000 0000 0000 0000 0000 0000
00000090: 0000 0000 0000 0000 0000 0000 0000 0000
000000a0: 0000 0000 0000 0000 0000 0000 0000 0000
000000b0: 0000 0000 0000 0000 0000 0000 0000 0000
000000c0: 0000 0000 0000 0000

running_var f4 [50]
1.0 1.0 1.0 1.0 1.0 1.0 1.0 1.0
1.0 1.0 1.0 1.0 1.0 1.0 1.0 1.0
1.0 1.0 1.0 1.0 1.0 1.0 1.0 1.0
1.0 1.0 1.0 1.0 1.0 1.0 1.0 1.0
1.0 1.0 1.0 1.0 1.0 1.0 1.0 1.0
1.0 1.0 1.0 1.0 1.0 1.0 1.0 1.0
1.0 1.0
00000000: 0000 803f 0000 803f 0000 803f 0000 803f
00000010: 0000 803f 0000 803f 0000 803f 0000 803f
00000020: 0000 803f 0000 803f 0000 803f 0000 803f
00000030: 0000 803f 0000 803f 0000 803f 0000 803f
00000040: 0000 803f 0000 803f 0000 803f 0000 803f
00000050: 0000 803f 0000 803f 0000 803f 0000 803f
00000060: 0000 803f 0000 803f 0000 803f 0000 803f
00000070: 0000 803f 0000 803f 0000 803f 0000 803f
00000080: 0000 803f 0000 803f 0000 803f 0000 803f
00000090: 0000 803f 0000 803f 0000 803f 0000 803f
000000a0: 0000 803f 0000 803f 0000 803f 0000 803f
000000b0: 0000 803f 0000 803f 0000 803f 0000 803f
000000c0: 0000 803f 0000 803f

weight f4 [20, 100]
-0.023576776 0.023627993 0.05088458 0.022356749 0.10713623 -0.11040877 0.14478572 0.12214956
0.10362921 -0.06333335 -0.13939758 0.07995819 -0.053023316 0.09427221 0.04987943 0.079633705
0.067462 0.08970824 -0.051231865 -0.051877365 0.059912514 0.15174179 0.0014293495 -0.03362374
-0.12279886 -0.059090417 -0.10783667 -0.04460911 0.08568882 0.085977875 0.11244741 0.060019005
-0.040986013 0.10375044 -0.19434439 -0.04747359 0.08324883 0.13833046 -0.19885278 0.024858572
-0.0008715209 -0.037442874 -0.068631835 -0.08462253 -0.0422829 -0.18558374 -0.12618892 -0.13963719
-0.1206162 -0.03292511 -0.04612609 -0.13763216 -0.07353576 0.13621147 -0.058099587 0.02251207
-0.12283009 -0.056485794 0.139988 0.11972955 -0.02735901 -0.07043587 0.060528684 0.03007759
-0.0789742 -0.016214645 0.022634165 0.11128649 -0.1578113 -0.05109078 -0.09945988 0.06706366
-0.002320885 0.075178556 -0.05047827 -0.034342766 -0.027050257 -0.056167707 0.02902451 0.03582324
-0.047696196 -0.040433787 0.023924334 -0.0050540585 -0.09389343 0.12646884 0.03138943 0.011644493
0.01377922 0.034709517 0.05289641 -0.039398193 0.12903903 0.066818 -0.025098616 0.021832773
-0.0074852975 -0.034678 -0.030498145 0.10751373 -0.07357802 0.13655874 0.080553174 0.20737673
0.19250955 -0.06873528 0.0061144824 0.35527098 -0.105681226 -0.083340295 -0.23172635 0.15129408
-0.2255934 -0.05309129 0.07179059 -0.1687957 -0.12391799 0.238577 -0.082135275 0.37756
-0.1943938 -0.17967212 0.045887228 0.100956395 -0.16198619 -0.27921602 -0.083049625 -0.053632595
-0.044812553 -0.16198899 -0.21879876 -0.11537242 -0.0723658 0.008711702 0.27142128 -0.049892414
-0.09370003 -0.19495457 0.14526232 0.18690705 -0.14967233 -0.02674415 0.23996662 0.050210558
0.021237377 0.021368448 -0.09222186 0.087583445 -0.18013436 0.054357998 -0.041572355 0.14037205
0.15131839 -0.07622894 0.13419536 -0.011258949 0.07228713 0.027113095 -0.11107457 0.046281327
0.09651181 -0.0058510313 -0.08957341 0.058865402 -0.0032209135 0.03442507 -0.08141727 0.057169747
0.061825015 0.056952473 0.08773351 0.15756808 0.18544458 -0.16709019 -0.06415577 -0.06858669
-0.0049503483 -0.06559913 0.14287744 -0.05288825 0.089332215 0.019748868 0.03404331 0.025313504
0.1686489 -0.14970875 0.035688456 0.021907983 -0.038276922 0.19870591 -0.02897532 0.13100389
-0.12013702 0.04710489 -0.16123436 -0.16472445 -0.0304823 0.020097738 0.12704751 0.070018694
-0.12573013 0.099909134 0.16934499 0.09866595 0.1836585 -0.036679238 -0.040151384 0.28213435
0.028187953 -0.09003314 -0.10927067 0.18493135 -0.10631972 0.009614444 -0.1445547 -0.18541947
-0.19347775 0.27503863 -0.1338735 0.21371885 -0.04339774 -0.28111443 0.1768923 0.09995114
-0.20358148 -0.16209345 -0.2086335 -0.16662528 -0.12492007 -0.20167659 -0.08035871 -0.21993808
-0.06255595 0.039048616 0.030565046 0.083449125 -0.016687352 -0.24998698 0.19909428 0.2183338
-0.23313689 0.20201364 0.19120003 -0.107943356 0.1787955 0.08817432 0.0851009 0.06047419
-0.19458188 0.27217814 0.06584013 0.13770255 0.14762989 -0.078550026 0.15548934 0.016581692
00000000: 1524 c1bc 7e8f c13c 596c 503d 8025 b73c
00000010: 3d6a db3d fe1d e2bd b542 143e 8c29 fa3d
00000020: 8d3b d43d eab4 81bd 3dbe 0ebe 1fc1 a33d
00000030: fa2e 59bd ca11 c13d 604e 4c3d ff16 a33d
00000040: 8429 8a3d f4b8 b73d 81d8 51bd 5c7d 54bd
00000050: d366 753d 3362 1b3e 0359 bb3a 0cb9 09bd
00000060: f87d fbbd cb08 72bd 79d9 dcbd 0bb8 36bd
00000070: 9f7d af3d 2b15 b03d d44a e63d 7dd6 753d
00000080: f3e0 27bd 1c7b d43d 3702 47be ab73 42bd
00000090: 5d7e aa3d 80a6 0d3e 10a0 4bbe 34a4 cb3c
000000a0: c776 64ba b35d 19bd d98e 8cbd 944e adbd
000000b0: d630 2dbd aa09 3ebe ab37 01be 0dfd 0ebe
000000c0: a005 f7bd 7bdc 06bd b6ee 3cbd 72ef 0cbe
000000d0: eb99 96bd 057b 0b3e d5f9 6dbd 3c6b b83c
000000e0: 588e fbbd a65d 67bd 0459 0f3e c434 f53d
000000f0: 0120 e0bc ae40 90bd edec 773d 4765 f63c
00000100: 3abd a1bd 93d4 84bc 496b b93c 2cea e33d
00000110: 4999 21be 9144 51bd 9fb1 cbbd ac58 893d
00000120: fd19 18bb 37f7 993d 4dc2 4ebd 00ab 0cbd
00000130: 8098 ddbc 1c10 66bd cfc4 ed3c 64bb 123d
00000140: 165d 43bd e69d 25bd f7fc c33c 849c a5bb
00000150: 334b c0bd 0c81 013e 3492 003d 8bc8 3e3c
00000160: 3dc2 613c 912b 0e3d e8a9 583d 0060 21bd
00000170: cf22 043e e0d7 883d 9d9b cdbc a5da b23c
00000180: 3a47 f5bb 850a 0ebd 3fd7 f9bc 2930 dc3d
00000190: 13b0 96bd 0ed6 0b3e 10f9 a43d 915a 543e
000001a0: 3921 453e 15c5 8cbd ff5b c83b 14e6 b53e
000001b0: 666f d8bd 51ae aabd ac49 6dbe d6ec 1a3e
000001c0: f501 67be 4176 59bd f206 933d c8d8 2cbe
000001d0: b7c8 fdbd 874d 743e 8a36 a8bd 8b4f c13e
000001e0: 2b0f 47be f8fb 37be 3ff4 3b3d 3ac2 ce3d
000001f0: b5df 25be 67f5 8ebe ec15 aabd daad 5bbd
00000200: 5e8d 37bd 71e0 25be c80c 60be 6048 ecbd
00000210: 8534 94bd 87bb 0e3c bbf7 8a3e fd5b 4cbd
00000220: cde5 bfbd 2ca2 47be a5bf 143e 9064 3f3e
00000230: b443 19be 8c16 dbbc cfb9 753e 96a9 4d3d
00000240: 02fa ad3c e20c af3c d1de bcbd f35e b33d
00000250: 2475 38be 7ea6 5e3d c647 2abd b1bd 0f3e
00000260: 35f3 1a3e eb1d 9cbd 826a 093e 7477 38bc
00000270: 460b 943d 481c de3c 107b e3bd 7d91 3d3d
00000280: fca7 c53d 02ba bfbb 4472 b7bd d91c 713d
00000290: f615 53bb 4d01 0d3d 19be a6bd d32a 6a3d
000002a0: 3a3c 7d3d ff46 693d a0ad b33d 8759 213e
000002b0: 2fe5 3d3e b119 2bbe 1a64 83bd 2e77 8cbd
000002c0: 8836 a2bb d658 86bd 774e 123e 5aa1 58bd
000002d0: cff3 b63d 61c8 a13c ff70 0b3d 445e cf3c
000002e0: 4cb2 2c3e 404d 19be 0f2e 123d 5f78 b33c
000002f0: 43c8 1cbd 9079 4b3e a65d edbc e225 063e
00000300: 660a f6bd 0ff1 403d 9f1a 25be 87ad 28be
00000310: 04b6 f9bc 03a4 a43c be18 023e f665 8f3d
00000320: 66bf 00be 299d cc3d c668 2d3e 6011 ca3d
00000330: f910 3c3e f83c 16bd c775 24bd ea73 903e
00000340: 6cea e63c 4b63 b8bd 4dc9 dfbd a55e 3d3e
00000350: 27be d9bd e785 1d3c 2606 14be 9ade 3dbe
00000360: 081f 46be ddd1 8c3e 2316 09be 1dd9 5a3e
00000370: d4c1 31bd 3bee 8fbe 4123 353e 2fb3 cc3d
00000380: aa77 50be d3fb 25be 05a4 55be d19f 2abe
00000390: 18d6 ffbd 4f84 4ebe 1b93 a4bd 7337 61be
000003a0: 551d 80bd 71f1 1f3d 8c63 fa3c 60e7 aa3d
000003b0: eab3 88bc 96fc 7fbe 5fdf 4b3e e592 5f3e
000003c0: 70bb 6ebe aadc 4e3e f1c9 433e 6811 ddbd
000003d0: 2b16 373e bd94 b43d 6149 ae3d c9b3 773d
000003e0: 7940 47be ef5a 8b3e 31d7 863d e601 0d3e
000003f0: 4a2c 173e d6de a0bd 9938 1f3e 54d6 873c

bias f4 [20]
0.15493716 -0.074844085 -0.06995382 0.044049833 -0.023412164 0.019527035 0.11625516 0.13202678
0.066777915 0.045406368 0.025881257 -0.078119725 -0.11032557 -0.15744816 0.20304117 0.028042283
-0.08947777 -0.076768875 0.08856773 0.10903787
00000000: d9a7 1e3e db47 99bd f343 8fbd 996d 343d
00000010: deca bfbc 29f7 9f3c 2f17 ee3d 0732 073e
00000020: dcc2 883d 07fc 393d ee04 d43c 3cfd 9fbd
00000030: 5ff2 e1bd 173a 21be 06ea 4f3e eeb8 e53c
00000040: 1f40 b7bd 0039 9dbd ff62 b53d 3f4f df3d

weight f4 [20]
1.0 1.0 1.0 1.0 1.0 1.0 1.0 1.0
1.0 1.0 1.0 1.0 1.0 1.0 1.0 1.0
1.0 1.0 1.0 1.0
00000000: 0000 803f 0000 803f 0000 803f 0000 803f
00000010: 0000 803f 0000 803f 0000 803f 0000 803f
00000020: 0000 803f 0000 803f 0000 803f 0000 803f
00000030: 0000 803f 0000 803f 0000 803f 0000 803f
00000040: 0000 803f 0000 803f 0000 803f 0000 803f

bias f4 [20]
0.0 0.0 0.0 0.0 0.0 0.0 0.0 0.0
0.0 0.0 0.0 0.0 0.0 0.0 0.0 0.0
0.0 0.0 0.0 0.0
00000000: 0000 0000 0000 0000 0000 0000 0000 0000
00000010: 0000 0000 0000 0000 0000 0000 0000 0000
00000020: 0000 0000 0000 0000 0000 0000 0000 0000
00000030: 0000 0000 0000 0000 0000 0000 0000 0000
00000040: 0000 0000 0000 0000 0000 0000 0000 0000

running_mean f4 [20]
0.0 0.0 0.0 0.0 0.0 0.0 0.0 0.0
0.0 0.0 0.0 0.0 0.0 0.0 0.0 0.0
0.0 0.0 0.0 0.0
00000000: 0000 0000 0000 0000 0000 0000 0000 0000
00000010: 0000 0000 0000 0000 0000 0000 0000 0000
00000020: 0000 0000 0000 0000 0000 0000 0000 0000
00000030: 0000 0000 0000 0000 0000 0000 0000 0000
00000040: 0000 0000 0000 0000 0000 0000 0000 0000

running_var f4 [20]
1.0 1.0 1.0 1.0 1.0 1.0 1.0 1.0
1.0 1.0 1.0 1.0 1.0 1.0 1.0 1.0
1.0 1.0 1.0 1.0
00000000: 0000 803f 0000 803f 0000 803f 0000 803f
00000010: 0000 803f 0000 803f 0000 803f 0000 803f
00000020: 0000 803f 0000 803f 0000 803f 0000 803f
00000030: 0000 803f 0000 803f 0000 803f 0000 803f
00000040: 0000 803f 0000 803f 0000 803f 0000 803f

weight f4 [1, 20]
0.2396327 -0.70468396 -0.94342005 1.105007 -0.6228123 -0.1926718 0.36184797 0.08197225
0.1569814 0.07979584 0.13877314 -0.53336924 -0.45492873 -0.30651775 0.18281943 -0.71833503
-0.79952747 -0.45000777 0.2833468 0.17772803
00000000: 4662 753e 2b66 34bf fa83 71bf df70 8d3f
00000010: a070 1fbf c24b 45be 2344 b93e 11e1 a73d
00000020: bbbf 203e 006c a33d 8c1a 0e3e e38a 08bf
00000030: 6bec e8be e5ef 9cbe 0435 3b3e cee4 37bf
00000040: d5ad 4cbf 6b67 e6be d512 913e 56fe 353e
