results_6/models/2UAVs_12772/c_c0.pt (torch_old, 110956 bytes, 15 tensors)

weight f4 [128, 68]
0	0xbe56eba1	-0.20988323
1	0xbe65f2b9	-0.22455873
2	0xbd3e5809	-0.046470676
3	0x3e5d092b	0.21585529
4	0xbc15c0d6	-0.009140214
5	0xbe1293e2	-0.14314225
6	0x3ded6e3d	0.11593292
7	0xbdd3706d	-0.10324178
8	0xbd06af45	-0.032881994
9	0x3df9774e	0.12180959
10	0xbd242c86	-0.040081523
11	0x3de2cbe1	0.11074043
12	0xbe3724c7	-0.17885123
13	0x3b7f4839	0.003895296
14	0x3e104557	0.14088951
15	0xbe2a7086	-0.16644487
16	0xbe6778f0	-0.22604728
17	0x3c73ee00	0.014888287
18	0x3b9e7945	0.004836234
19	0xbdef918c	-0.11697683
20	0xbe040695	-0.12893136
21	0xbd2b30b2	-0.041794486
22	0x3c208da3	0.009799394
23	0xbe8acead	-0.27110806
24	0xbbd81e6d	-0.006595424
25	0x3d1569cc	0.03647785
26	0xbe98956d	-0.29801503
27	0xbd86e1e2	-0.065860525
28	0x3dbe37f5	0.09288017
29	0x3e199bcb	0.15000837
30	0xbd0837fc	-0.033256516
31	0xbe14dc44	-0.1453715
32	0x3d976c22	0.073936716
33	0x3c980c80	0.018560648
34	0xbe26db5a	-0.16294613
35	0xbdbee381	-0.09320737
36	0xbaf03888	-0.0018327395
37	0xbe4ce5ad	-0.2000949
38	0xbdadd0af	-0.08487069
39	0xbdd3caea	-0.10341437
40	0x3da1d809	0.079025336
41	0x3db94931	0.09047163
42	0x3d00f37f	0.031482216
43	0xbd8df42e	-0.06931339
44	0xbccc7c35	-0.02496157
45	0x3d056683	0.032568466
46	0xbd739c90	-0.05947548
47	0xbd7f38db	-0.06231008
48	0xbdba8af8	-0.091085374
49	0xbd99274c	-0.074781984
50	0xbd8f5221	-0.06998087
51	0x3e673886	0.22580156
52	0xbd0a7df1	-0.033811513
53	0xbe39b40d	-0.1813509
54	0xbdabec0e	-0.08394633
55	0x3ab6d0d8	0.0013947738
56	0xbcc08739	-0.02350198
57	0xbe07524f	-0.13214992
58	0xbca69983	-0.020336872
59	0xb85a0117	-5.1976265e-05
60	0xbe9c99ed	-0.30586186
61	0x3d940356	0.07227199
62	0xbe0e59a9	-0.1390139
63	0x3e1df23b	0.15424435
64	0x3b651708	0.0034956355
65	0x3cd6487a	0.026157606
66	0xbd4e73a4	-0.050403252
67	0x3d8207bf	0.06349134
68	0x3e2a0243	0.16602425
69	0x3f737297	0.95096725
70	0xbd7cf33a	-0.061755396
71	0xbe901ef2	-0.2814861
72	0x3d360971	0.044442598
73	0x3c889f18	0.016677424
74	0x3d331db2	0.04372949
75	0xbdd2a18e	-0.1028472
76	0x3d0e02c0	0.03467059
77	0x3db43915	0.0879995
78	0x3e2499e2	0.16074327
79	0x3dde56f6	0.1085643
80	0x3d0afc7e	0.0339322
81	0x3bd12d23	0.0063835545
82	0x3c41b9de	0.011824099
83	0xbc65de38	-0.014030032
84	0x3e285344	0.16438013
85	0x3e001e2d	0.12511511
86	0xbbb8251e	-0.005619659
87	0xbdaeecc6	-0.08541255
88	0x3d606274	0.054781392
89	0x3d8ca8f4	0.06868163
90	0xbd06ae96	-0.032881342
91	0x3d801693	0.06254306
92	0x3dfba380	0.122870445
93	0x3e2849ee	0.16434452
94	0x3dac50a6	0.0841382
95	0x3dbe9b3d	0.09306953
96	0x3c1fa499	0.009743833
97	0xbd5ce412	-0.053928442
98	0x3c678560	0.01413092
99	0xbde38ed5	-0.111112274
100	0x3d40673c	0.046973452
101	0xbdee5e78	-0.11639112
102	0x3dc03742	0.093855396
103	0x3f13f810	0.5780039
104	0xbbeb1162	-0.007173703
105	0x3e8819f0	0.2658229
106	0x3dccc41a	0.09998341
107	0xbd12798e	-0.035760455
108	0xbd47270e	-0.04862123
109	0x3d66f32e	0.056384258
110	0xbd430c9d	-0.04761945
111	0x3df2419d	0.11828921
112	0x3d800a7c	0.06252
113	0x3dc2fb76	0.095206186
114	0x3d9a83ad	0.075446464
115	0xbb021ac0	-0.001985237
116	0x3d94daae	0.07268272
117	0xbbf88a15	-0.00758482
118	0x3ce4e27d	0.02794003
119	0xbd4c6dc4	-0.04990937
120	0xbd3afd2b	-0.045651596
121	0x3d141489	0.036152396
122	0xbde0f6f9	-0.10984606
123	0xbdcd0414	-0.100105435
124	0xbde3af18	-0.11117381
125	0xbd8adda0	-0.06780553
126	0xbcfe3761	-0.031032266
127	0x3cb6ed4f	0.022329954
128	0x3dd672b0	0.10471094
129	0x3e050e25	0.12993677
130	0xbd759a0d	-0.059961367
131	0x3df5114c	0.1196619
132	0x3df22b65	0.11824683
133	0x3d5f38f8	0.05449769
134	0xbd870862	-0.06593396
135	0x3d8631f4	0.065524966
136	0xbf38afa6	-0.7214302
137	0xbe0d9118	-0.1382488
138	0x3e410d99	0.18852843
139	0x3e24a2fc	0.16077799
140	0x3d9e2abf	0.07722997
141	0x3d7ba43f	0.061435934
142	0x3dbca606	0.09211354
143	0xbd3a5849	-0.04549435
144	0x3da0545a	0.07828589
145	0x3d93358d	0.071879484
146	0xbd985c24	-0.074394494
147	0x3d496e94	0.04917772
148	0xbc40e386	-0.011772996
149	0x3dd3a89d	0.10334895
150	0xbd7c8041	-0.06164575
151	0xbd9c0559	-0.076182075
152	0x3d0e2e57	0.034712162
153	0x3c9ab1d0	0.018883616
154	0x3e254974	0.16141301
155	0x3e0a0472	0.13478258
156	0x3e044d62	0.12920144
157	0xbdd6988d	-0.104783155
158	0x3e06853d	0.13136764
159	0xbcd1b8f0	-0.02560088
160	0x3d1cf8ad	0.038323093
161	0xbd8770f8	-0.06613344
162	0xba02d90e	-0.000499145
163	0xbdb04d64	-0.08608511
164	0xbd7b0f9d	-0.061294187
165	0xbd801081	-0.06253148
166	0x3d0bd6f8	0.034140557
167	0x3da0fe13	0.07860961
168	0x3d96dbec	0.073661655
169	0xbc686381	-0.01418388
170	0xbddf0a55	-0.108906426
171	0xbe020f2f	-0.12701105
172	0xbdad3457	-0.08457249
173	0x3d1e776c	0.03868811
174	0x3dab24bd	0.08356617
175	0xbd10f177	-0.03538653
176	0x3d8b425a	0.06799765
177	0x3e114d05	0.14189537
178	0x3ddfa120	0.10919404
179	0xbd807ec2	-0.06274177
180	0x3e07494f	0.13211559
181	0x3de512a5	0.11185197
182	0x3dca898f	0.098895185
183	0x3d6c3ebc	0.057677016
184	0x3dab7caa	0.08373387
185	0xbde2c647	-0.11072975
186	0xbcc866fd	-0.024463171
187	0x3e20362a	0.15645662
188	0x3dcb1614	0.099163204
189	0x3e222e89	0.15838064
190	0x3c57e78f	0.013177766
191	0xbdf95745	-0.121748485
192	0xbd9c937e	-0.076453194
193	0x3dd13a82	0.102162376
194	0xbcb9feb4	-0.02270446
195	0x3dfcab23	0.12337329
196	0xbe287f6f	-0.16454862
197	0xbd96dcc0	-0.073663235
198	0xbbb2f33d	-0.005461125
199	0x3dc4c05f	0.096070044
200	0x3d6943dd	0.056949485
201	0xbd8be3c4	-0.06830552
202	0x3de608ef	0.11232173
203	0xbb8442a1	-0.004036263
204	0x3e8585f5	0.26078764
205	0x3e90825b	0.28224453
206	0x3ddb9650	0.10722029
207	0x3d4bdb41	0.049769644
208	0xbd144f1a	-0.03620825
209	0x3df33168	0.11874658
210	0xbe1e5083	-0.154604
211	0x3dabd2b1	0.083897956
212	0x3d30e982	0.04319144
213	0xbe1234f1	-0.14278008
214	0x3cdb454d	0.026766444
215	0xbd031dac	-0.03201072
216	0xbcf95eae	-0.030440655
217	0xbbcf2883	-0.006321968
218	0xbe041c78	-0.12901485
219	0x3de1e846	0.11030631
220	0x3a6b8dee	0.0008985688
221	0x3e1a0d3d	0.15044113
222	0xbc08fc68	-0.00836096
223	0x3d50e18a	0.05099634
224	0x3d8232de	0.063573584
225	0xbda1ffe0	-0.079101324
226	0xbd3fd0db	-0.04683004
227	0xbb2390c1	-0.0024958106
228	0x3e14b486	0.14521989
229	0xbd9be92b	-0.07612833
230	0xbd81a81b	-0.06330892
231	0xbdac5305	-0.08414272
232	0x3d87a8e3	0.066240095
233	0x3cb546a6	0.022128414
234	0x3dcabd7a	0.09899421
235	0x3e05b7e4	0.1305843
236	0x3d2d0e95	0.042250235
237	0x3ce2edc7	0.027701272
238	0xbc1d8f03	-0.009616616
239	0x3d749ce3	0.05971993
240	0x3d4f40b5	0.05059882
241	0x3d8a4dc4	0.06753114
242	0x3c451b66	0.012030458
243	0xbde26db2	-0.11056079
244	0x3b3c616e	0.0028744596
245	0xbe02a140	-0.12756824
246	0x3d738c1a	0.059459783
247	0xbdefbad5	-0.11705557
248	0x3d4926ef	0.049109396
249	0x3d3d10b9	0.046158526
250	0xbcc1f034	-0.023674108
251	0xbdfc9305	-0.12332729
252	0xbe20acb8	-0.15690887
253	0x3dc1341a	0.09433766
254	0xbc81c64f	-0.015841631
255	0x3cce0f2c	0.025153719

bias f4 [128]
0	0xbdeed106	-0.11660962
1	0x3caac367	0.020845128
2	0xbe384039	-0.17993249
3	0x3d53a0b9	0.05166695
4	0xbe212b59	-0.15739192
5	0x3ea2e224	0.31813157
6	0x3e6f9d41	0.23399831
7	0x3e126746	0.14297208
8	0x3e5f21d4	0.21790248
9	0x3def182c	0.11674532
10	0xbdfd23bf	-0.12360334
11	0x3deddb0e	0.11614047
12	0x3e67db03	0.2264214
13	0x3e3a1a4d	0.18174095
14	0x3d49d97c	0.049279675
15	0xbde41b1d	-0.11137984
16	0xbe8b9ad4	-0.27266562
17	0xbe4e4df4	-0.20146924
18	0x3cf7fc7c	0.030271761
19	0xbe032158	-0.12805688
20	0x3d958e43	0.07302525
21	0x3d093a97	0.03350314
22	0x3e9dcda4	0.30820954
23	0x3d088173	0.033326577
24	0x3e26c13a	0.16284648
25	0x3da7cd6e	0.081934795
26	0x3e4437e7	0.1916195
27	0xbd36ff3f	-0.044677015
28	0x3ced0a64	0.028935619
29	0x3d056335	0.032565314
30	0xbdbdf9e9	-0.09276182
31	0x3e005953	0.12534074
32	0x3e583895	0.21115334
33	0x3d830bad	0.06398711
34	0x3e37f00b	0.17962663
35	0x3e77671c	0.24160427
36	0xbda43046	-0.0801702
37	0xbe59584a	-0.21225086
38	0x3e24462b	0.16042392
39	0xbccfdfda	-0.025375295
40	0x3e29599a	0.16538087
41	0x3d9d2812	0.076736584
42	0x3e0ba332	0.13636473
43	0x3dc5d820	0.09660363
44	0x3de07d4d	0.10961399
45	0x3b6d96a4	0.003625312
46	0xbe438e1a	-0.19097176
47	0x3e0b229d	0.13587423
48	0x3e115a08	0.141945
49	0x3d8f24c8	0.06989437
50	0x3e23a2f6	0.15980133
51	0x3d3778f2	0.044793077
52	0xbe48affc	-0.19598383
53	0xbdceaf96	-0.10092084
54	0xbca03ed2	-0.019561205
55	0xbe33c684	-0.17556196
56	0x3e043896	0.12912211
57	0x3d64cc90	0.05585915
58	0xbe19eb97	-0.15031277
59	0xbc0a6eeb	-0.0084492965
60	0x3cb46c04	0.022024162
61	0xbcf6fa3d	-0.03014862
62	0x3cfd316d	0.030907357
63	0xbe8b81d2	-0.27247483
64	0xbd236391	-0.039889876
65	0xbe70d11a	-0.23517266
66	0x3e6951cb	0.22785108
67	0x3d5dea29	0.05417839
68	0xbdba8499	-0.09107322
69	0xbc750060	-0.014953703
70	0x3dcf31b8	0.10116905
71	0x3ce5e213	0.028061902
72	0x3e804a59	0.25056723
73	0xbc306a84	-0.010767583
74	0xbd9ab8ef	-0.075548045
75	0x3e492cbe	0.19645974
76	0xbe19e3b3	-0.15028267
77	0x3d982768	0.07429391
78	0xbe1d8423	-0.15382437
79	0x3e691a30	0.22763896
80	0x3e1336c7	0.14376365
81	0x3e0c98ef	0.13730215
82	0xbdffc80b	-0.12489327
83	0x3ddc2fbb	0.10751291
84	0x3e7308cd	0.23733826
85	0x3df1ada5	0.11800698
86	0xbd9d8e69	-0.07693178
87	0xbcfce61b	-0.030871442
88	0x3dd75bc4	0.1051555
89	0x3d38e697	0.045141783
90	0xbd862be1	-0.06551338
91	0x3e43d82a	0.19125429
92	0x3e80749b	0.25088963
93	0xbda82882	-0.08210851
94	0xbe459ed5	-0.19298871
95	0x3e0a62ac	0.13514203
96	0xbd639c2a	-0.05556885
97	0x3e5ea69b	0.21743242
98	0x3e015cc4	0.12633044
99	0x3e3b1797	0.18270718
100	0xbe0696d3	-0.13143472
101	0xbe05d3f7	-0.1306914
102	0x3e6f383a	0.23361292
103	0x3e4ff0b1	0.2030666
104	0xbd8d02d9	-0.06885309
105	0x3cad0074	0.02111838
106	0x3d9bd394	0.07608715
107	0xbda6770e	-0.08128177
108	0x3e5d0b54	0.21586353
109	0x3d71fc53	0.059078526
110	0x3dc607d1	0.096694596
111	0x3d8b7594	0.068095356
112	0x3e8753e7	0.264312
113	0x3d30ef0d	0.043196727
114	0xba2be9e3	-0.0006557984
115	0x3d95f5d8	0.073222816
116	0x3c42b210	0.011883274
117	0x3dc1acbc	0.094567746
118	0x3d9692bb	0.07352205
119	0xbdcd5659	-0.10026235
120	0x3db4a601	0.08820725
121	0x3dd54815	0.10414139
122	0x3d957d6e	0.072993144
123	0x3d0c1b04	0.03420545
124	0xbd9312d8	-0.071813285
125	0x3e3bdc81	0.18345834
126	0x3e27945f	0.16365193
127	0x3e027b1e	0.12742278

weight f4 [128, 4]
0	0xbd6ac032	-0.057312198
1	0x3e9ff79f	0.31243607
2	0xbe8defad	-0.2772192
3	0x3e542621	0.2071767
4	0xbe8d5955	-0.27607217
5	0x3f142549	0.5786939
6	0xbdcf5cce	-0.10125123
7	0xbeb5c4f0	-0.35501814
8	0x3e4ec068	0.20190585
9	0xbed35df1	-0.4128261
10	0x3eb78e1b	0.35850605
11	0xbecdb624	-0.40178025
12	0x3d452507	0.048131015
13	0x3ec67714	0.38762724
14	0xbd9e1e80	-0.07720661
15	0xbd9a77fb	-0.07542416
16	0xbe9bacf2	-0.30405384
17	0xbf0c0b1a	-0.5470444
18	0xbe7f9877	-0.24960504
19	0xbdc0d292	-0.09415163
20	0x3e37fb00	0.17966843
21	0x3c64b4be	0.013959108
22	0x3eb24fea	0.34826595
23	0x3e40e0be	0.18835732
24	0xbf10a81b	-0.5650651
25	0xbe9def83	-0.30846795
26	0xbceadecf	-0.028670697
27	0xbe828b02	-0.2549668
28	0x3e19df56	0.15026602
29	0x3e85538e	0.2604031
30	0x3dc728b0	0.097245574
31	0xbebdb929	-0.37055328
32	0xbe1e8151	-0.15479018
33	0xbdb70913	-0.08937278
34	0x3e8a9cb5	0.27072683
35	0x3de30997	0.110858135
36	0x3e56aeb6	0.20965084
37	0xbf0fbcf3	-0.5614769
38	0xbcb188f0	-0.021671742
39	0x3e8f8706	0.28032702
40	0x3e40a189	0.18811621
41	0xbf1d106b	-0.61353177
42	0xbc131419	-0.00897696
43	0xbdc36bc6	-0.095420405
44	0x3d1185a6	0.035527848
45	0x3ecde614	0.40214598
46	0xbdcf942b	-0.10135683
47	0xbda9eb9a	-0.082968906
48	0xbeebc344	-0.46047413
49	0x3e29e44f	0.16590999
50	0x3e8b6c2b	0.27230963
51	0xbb65af75	-0.0035047207
52	0x3db85f47	0.09002548
53	0xbe27d9a6	-0.1639162
54	0xbea53e04	-0.32273877
55	0xbe970df2	-0.29502827
56	0x3da871e9	0.08224852
57	0xbe885740	-0.26629066
58	0xbe66fa2d	-0.22556372
59	0x3e8a0551	0.2695718
60	0x3d905717	0.07047861
61	0xbeabdc19	-0.3356636
62	0x3c042363	0.0080650775
63	0xbd7f44d5	-0.062321503
64	0xbf111323	-0.56669825
65	0x3eb95a0e	0.3620152
66	0x3e19e771	0.15029694
67	0xbdfc7ea2	-0.12328841
68	0xbd185918	-0.03719434
69	0xbe2bc2c3	-0.16773514
70	0xbec9fe48	-0.39451814
71	0xbd879df5	-0.06621925
72	0xbe12be31	-0.14330365
73	0xbeaffdc9	-0.3437331
74	0x3e6f2fbc	0.23358053
75	0x3e391598	0.18074644
76	0xbee9eb2a	-0.45687228
77	0x3f0069ee	0.50161636
78	0x3eb38392	0.35061318
79	0x3ef8c0c3	0.48584566
80	0x3d97ce75	0.074124254
81	0x3e0450d3	0.12921457
82	0x3eb0b75c	0.34514892
83	0xbccd37de	-0.025051054
84	0x3eaba0c0	0.3352108
85	0xbf0a9ac8	-0.5414243
86	0x3e0ef8b6	0.13962063
87	0x3dbf4e2c	0.09341082
88	0xbdcdee81	-0.10055257
89	0x3d8077f7	0.062728815
90	0x3ed98295	0.4248244
91	0xbeac7302	-0.33681494
92	0xbc9b677b	-0.018970242
93	0xbd616b5a	-0.05503402
94	0x3e2ac441	0.16676427
95	0xbe9b3b3c	-0.3031863
96	0xbc6021b5	-0.013679911
97	0xbed46507	-0.41483328
98	0x3e63a072	0.22229174
99	0x3d7e6057	0.062103596
100	0xbebaea3f	-0.3650684
101	0x3e64cfb6	0.2234486
102	0xbd24bcf0	-0.040219247
103	0x3e9299f2	0.28633076
104	0x3e3b5c85	0.18297012
105	0xbe9324c8	-0.28739
106	0xbe49ea4d	-0.19718285
107	0x3e8fa622	0.28056437
108	0x3e78c63d	0.24294372
109	0x3c986f68	0.01860781
110	0x3ec910e6	0.39270705
111	0x3ca36914	0.019947566
112	0x3d06b4d5	0.0328873
113	0xbed003e8	-0.4062798
114	0x3e31cec4	0.17364031
115	0x3e5dfdc5	0.21678837
116	0x3d319495	0.04335459
117	0x3e03c9cf	0.12869953
118	0xbeba309d	-0.36365214
119	0x3d7be31f	0.061495896
120	0x3e740f33	0.23833923
121	0x3f1933cc	0.5984466
122	0x3e3c6ac0	0.18400097
123	0x3e4b9eee	0.19884846
124	0x3eb1ca6d	0.3472475
125	0xbed51ff4	-0.4162594
126	0xbe3efd01	-0.18651201
127	0xbea63dce	-0.32469028
128	0x3e979c1c	0.2961129
129	0xbe127b72	-0.14304903
130	0x3ea7c0ae	0.3276419
131	0x3de2850f	0.11060535
132	0xbd62ca96	-0.055368982
133	0xbe58df41	-0.21178915
134	0xbddb7b65	-0.10716895
135	0x3e9ed649	0.31022862
136	0xbe54f9d9	-0.20798434
137	0xbe71a51e	-0.23598143
138	0xbdf7bbb2	-0.12096347
139	0x3e90cda2	0.28281885
140	0x3e8ebf37	0.2788026
141	0x3deb65a1	0.114939936
142	0x3e1c310c	0.15253085
143	0xbe3ff690	-0.187464
144	0xbedbc6fa	-0.42925245
145	0xbdaf4cda	-0.0855958
146	0x3dda7c72	0.10668267
147	0x3e861f77	0.2619588
148	0xbc3f7fab	-0.011688153
149	0xbee88078	-0.45410514
150	0xbd65b906	-0.056084655
151	0xbee045e1	-0.43803313
152	0xbe20e802	-0.15713504
153	0x3e0ca594	0.13735038
154	0x3e4b5e39	0.19860162
155	0x3e6fb3fb	0.23408501
156	0xbecb41d7	-0.3969867
157	0x3ebea7e6	0.3723747
158	0x3dfed0b6	0.12442152
159	0x3e0dde9b	0.13854448
160	0x3ebdac05	0.37045303
161	0xbe6c2e92	-0.2306464
162	0x3e8c05fa	0.2734831
163	0xbe6a7dad	-0.22899504
164	0xbe12a19b	-0.1431946
165	0xbeb30ca1	-0.34970573
166	0xbe71d057	-0.23614632
167	0x3ebaf86b	0.36517653
168	0x3d42dff2	0.047576852
169	0xbf0883b0	-0.5332594
170	0xbd5ee9a4	-0.054422036
171	0xbdbf6dc9	-0.09347112
172	0xbf01e99b	-0.5074708
173	0xbba200b0	-0.0049439296
174	0x3a35969a	0.00069270434
175	0x3e560d9e	0.20903632
176	0xbed7f85f	-0.4218168
177	0x3ea1f9b1	0.31635812
178	0xbe6311fd	-0.2217483
179	0xbe04e29b	-0.12977068
180	0x3ecce94f	0.4002175
181	0xba780e57	-0.0009462586
182	0x3d85e073	0.06536951
183	0x3d3eb8e4	0.046563044
184	0xbf00e60a	-0.5035101
185	0x3e599c0d	0.21250935
186	0xbe2a33b7	-0.1662129
187	0x3d908237	0.070560865
188	0xbefc09c5	-0.49226204
189	0x3e46d02c	0.19415349
190	0x3e6af33c	0.22944349
191	0xbe445583	-0.19173245
192	0xbe21e2a9	-0.1580912
193	0x3e275f5a	0.16344967
194	0x3db20dee	0.08694063
195	0x3e53f61b	0.2069935
196	0x3e402088	0.1876241
197	0x3e7e0414	0.24806243
198	0x3dad2632	0.08454551
199	0xbec7b613	-0.390061
200	0xbea3ec8b	-0.32016405
201	0xbe2e5849	-0.17025866
202	0xbd89ce28	-0.06728774
203	0xbe0ef049	-0.13958849
204	0xbe833e73	-0.25633582
205	0xbec69713	-0.38787135
206	0xbe537fc9	-0.20654215
207	0x3e7d4e59	0.24736919
208	0x3eaa4345	0.33254448
209	0x3f198921	0.5997487
210	0xbe2126dd	-0.15737481
211	0x3e443990	0.19162583
212	0xbed90d7e	-0.42393106
213	0xbe05afa0	-0.13055277
214	0x3eb574c3	0.35440645
215	0xbe9b30fd	-0.30310813
216	0xbedea780	-0.43487167
217	0x3e8c800a	0.27441436
218	0x3e9aaf5b	0.3021191
219	0x3e895643	0.26823625
220	0x3ec592da	0.385886
221	0x3edf57a0	0.4362154
222	0x3d55fc99	0.05224285
223	0xbe6b5e9c	-0.2298531
224	0xbe3fae17	-0.18718754
225	0xbf097b99	-0.5370422
226	0x3d0fceb7	0.035109248
227	0x3e37b499	0.17939986
228	0xbef19834	-0.47186434
229	0xbeb9295a	-0.3616436
230	0xbe0343b7	-0.128188
231	0x3e956923	0.29181775
232	0xbee411be	-0.44544786
233	0xbe9f1636	-0.31071633
234	0xbe1d2611	-0.15346552
235	0x3d9e2281	0.07721425
236	0x3e54a11c	0.20764583
237	0x3c583bda	0.0131978635
238	0xbeb1053e	-0.34574312
239	0xbe5f2f16	-0.21795306
240	0x3e44881c	0.19192547
241	0x3f23b65c	0.63950133
242	0x3e78965b	0.24276106
243	0xbec3cca1	-0.38242057
244	0x3ee2830a	0.442406
245	0x3e4d45fd	0.2004623
246	0x3de9db8b	0.114188276
247	0x3e1bab52	0.15202072
248	0xbda6308c	-0.08114728
249	0x3e5e137e	0.21687123
250	0xbee0bce8	-0.43894124
251	0xbeaffe98	-0.34373927
252	0x3edd8935	0.43268743
253	0xbe784343	-0.24244408
254	0x3e8938f3	0.2680126
255	0xbd1dd789	-0.03853563

bias f4 [128]
0	0x3bfd05ea	0.0077216523
1	0x3ed8c189	0.42335156
2	0xbdf556af	-0.11979424
3	0xbecb4271	-0.39699128
4	0xbf092beb	-0.5358264
5	0xbec52ed1	-0.3851228
6	0xbeb630df	-0.3558416
7	0x3da32685	0.079663314
8	0x3eadb61d	0.33928004
9	0x3ef858cc	0.48505247
10	0x3ea7a815	0.32745424
11	0xbe82e284	-0.25563443
12	0xbee97012	-0.45593315
13	0x3ede62ec	0.43434846
14	0xbef491a5	-0.47767368
15	0x3ed41061	0.41418746
16	0xbd3e0b62	-0.046397574
17	0xbee47ebd	-0.44627944
18	0xbf1005fc	-0.5625913
19	0xbf13ec03	-0.57782
20	0x3ed9bafb	0.42525467
21	0xbec0b930	-0.37641287
22	0x3e518935	0.20462497
23	0x3f02d42a	0.51104987
24	0x3edfd075	0.43713728
25	0x3e552389	0.20814337
26	0x3ec84b3f	0.39119908
27	0x3f20a7f2	0.62756264
28	0x3ed0417d	0.40674964
29	0x3f1f276e	0.6216954
30	0x3f0739fc	0.5282285
31	0x3ec0d036	0.37658852
32	0x3f35055a	0.7071129
33	0xbe849174	-0.25892222
34	0x3ec94c36	0.39315957
35	0x3b040195	0.0020142545
36	0x3ef251af	0.47327945
37	0xbea7a691	-0.32744268
38	0x3e940a53	0.28914127
39	0xbebbe60b	-0.36698946
40	0xbf108662	-0.5645505
41	0xbeb108a9	-0.3457692
42	0x3cf4d9ba	0.029888976
43	0xbee800a7	-0.45312998
44	0xbf01ac7d	-0.5065382
45	0x3eb81cb5	0.35959402
46	0xbd50b823	-0.050956856
47	0x3ea0dbdf	0.31417748
48	0x3f20c6db	0.6280343
49	0xbd9d7799	-0.07688827
50	0x3e986d92	0.29771096
51	0xbdbd513e	-0.09244011
52	0xbf0f59c6	-0.5599636
53	0x3ec8df7a	0.39233
54	0xbe38799d	-0.18015142
55	0xbf04e1b2	-0.51906884
56	0x3ef61260	0.48060894
57	0x3e6e524e	0.23273584
58	0x3e9203cb	0.2851852
59	0xbef59370	-0.47964048
60	0x3ed6bbb2	0.41940075
61	0xbec3fe70	-0.38280058
62	0x3f1b9cb0	0.6078596
63	0xbf05fc5c	-0.52338195
64	0xbeb68e55	-0.35655466
65	0xbf2e4cfc	-0.6808622
66	0x3ec7a7fa	0.38995343
67	0x3ef3b554	0.4759928
68	0xbef5568b	-0.4791759
69	0x3ef5f1c6	0.4803602
70	0xbe945dac	-0.28977716
71	0xbe4862e5	-0.19568975
72	0xbece0bde	-0.4024343
73	0xbeabb7be	-0.33538622
74	0xbe725d79	-0.2366847
75	0x3efb99c6	0.49140757
76	0xbdbe9208	-0.09305197
77	0xbec784c6	-0.38968486
78	0x3ea4e96d	0.3220934
79	0x3f080485	0.53131896
80	0x3ee4ddc7	0.44700453
81	0xbe7836aa	-0.24239603
82	0x3eb5e5b1	0.35526803
83	0x3ee4bef3	0.44676933
84	0xbebef6ed	-0.37297764
85	0x3effaf3e	0.49938387
86	0x3ed3281d	0.41241542
87	0x3dad03a6	0.084479615
88	0x3e9699c9	0.29414204
89	0x3ef23b86	0.47311038
90	0xbea5080f	-0.3223271
91	0x3d1cd132	0.03828544
92	0x3dd95635	0.10612146
93	0xbe972315	-0.29518953
94	0x3e5fc6d4	0.2185319
95	0xbefca505	-0.4934465
96	0xbed80004	-0.42187512
97	0xbe0c8de7	-0.13726006
98	0x3ea0d647	0.3141348
99	0xbe3c7311	-0.1840327
100	0x3d9677e9	0.0734709
101	0xbec0731f	-0.3758783
102	0xbe90192d	-0.28144208
103	0xbeb560ea	-0.35425502
104	0x3ee45d89	0.44602612
105	0xbe8f1685	-0.2794687
106	0xbed188f5	-0.40924802
107	0x3f138b30	0.5763426
108	0x3e7c2268	0.246225
109	0x3eda037a	0.42580777
110	0xbdb80c9c	-0.0898678
111	0xbee20462	-0.4414397
112	0xbc9cd851	-0.019146116
113	0x3efa675a	0.48906976
114	0x3ca91216	0.020638507
115	0xbf007f2b	-0.5019404
116	0xbed3d1a9	-0.41370896
117	0xbf10f9c3	-0.56631106
118	0xbee2896c	-0.4424547
119	0x3edd494a	0.43219978
120	0x3ec97cf3	0.3935314
121	0x3ef3076a	0.47466594
122	0x3f028bc6	0.5099453
123	0xbefe77bb	-0.49700722
124	0x3f05da86	0.52286565
125	0x3e657bc3	0.22410493
126	0xbd227de7	-0.03967085
127	0x3e408535	0.18800814

weight f4 [128]
0	0x3f800000	1.0
1	0x3f800000	1.0
2	0x3f800000	1.0
3	0x3f800000	1.0
4	0x3f800000	1.0
5	0x3f800000	1.0
6	0x3f800000	1.0
7	0x3f800000	1.0
8	0x3f800000	1.0
9	0x3f800000	1.0
10	0x3f800000	1.0
11	0x3f800000	1.0
12	0x3f800000	1.0
13	0x3f800000	1.0
14	0x3f800000	1.0
15	0x3f800000	1.0
16	0x3f800000	1.0
17	0x3f800000	1.0
18	0x3f800000	1.0
19	0x3f800000	1.0
20	0x3f800000	1.0
21	0x3f800000	1.0
22	0x3f800000	1.0
23	0x3f800000	1.0
24	0x3f800000	1.0
25	0x3f800000	1.0
26	0x3f800000	1.0
27	0x3f800000	1.0
28	0x3f800000	1.0
29	0x3f800000	1.0
30	0x3f800000	1.0
31	0x3f800000	1.0
32	0x3f800000	1.0
33	0x3f800000	1.0
34	0x3f800000	1.0
35	0x3f800000	1.0
36	0x3f800000	1.0
37	0x3f800000	1.0
38	0x3f800000	1.0
39	0x3f800000	1.0
40	0x3f800000	1.0
41	0x3f800000	1.0
42	0x3f800000	1.0
43	0x3f800000	1.0
44	0x3f800000	1.0
45	0x3f800000	1.0
46	0x3f800000	1.0
47	0x3f800000	1.0
48	0x3f800000	1.0
49	0x3f800000	1.0
50	0x3f800000	1.0
51	0x3f800000	1.0
52	0x3f800000	1.0
53	0x3f800000	1.0
54	0x3f800000	1.0
55	0x3f800000	1.0
56	0x3f800000	1.0
57	0x3f800000	1.0
58	0x3f800000	1.0
59	0x3f800000	1.0
60	0x3f800000	1.0
61	0x3f800000	1.0
62	0x3f800000	1.0
63	0x3f800000	1.0
64	0x3f800000	1.0
65	0x3f800000	1.0
66	0x3f800000	1.0
67	0x3f800000	1.0
68	0x3f800000	1.0
69	0x3f800000	1.0
70	0x3f800000	1.0
71	0x3f800000	1.0
72	0x3f800000	1.0
73	0x3f800000	1.0
74	0x3f800000	1.0
75	0x3f800000	1.0
76	0x3f800000	1.0
77	0x3f800000	1.0
78	0x3f800000	1.0
79	0x3f800000	1.0
80	0x3f800000	1.0
81	0x3f800000	1.0
82	0x3f800000	1.0
83	0x3f800000	1.0
84	0x3f800000	1.0
85	0x3f800000	1.0
86	0x3f800000	1.0
87	0x3f800000	1.0
88	0x3f800000	1.0
89	0x3f800000	1.0
90	0x3f800000	1.0
91	0x3f800000	1.0
92	0x3f800000	1.0
93	0x3f800000	1.0
94	0x3f800000	1.0
95	0x3f800000	1.0
96	0x3f800000	1.0
97	0x3f800000	1.0
98	0x3f800000	1.0
99	0x3f800000	1.0
100	0x3f800000	1.0
101	0x3f800000	1.0
102	0x3f800000	1.0
103	0x3f800000	1.0
104	0x3f800000	1.0
105	0x3f800000	1.0
106	0x3f800000	1.0
107	0x3f800000	1.0
108	0x3f800000	1.0
109	0x3f800000	1.0
110	0x3f800000	1.0
111	0x3f800000	1.0
112	0x3f800000	1.0
113	0x3f800000	1.0
114	0x3f800000	1.0
115	0x3f800000	1.0
116	0x3f800000	1.0
117	0x3f800000	1.0
118	0x3f800000	1.0
119	0x3f800000	1.0
120	0x3f800000	1.0
121	0x3f800000	1.0
122	0x3f800000	1.0
123	0x3f800000	1.0
124	0x3f800000	1.0
125	0x3f800000	1.0
126	0x3f800000	1.0
127	0x3f800000	1.0

bias f4 [128]
0	0x00000000	0.0
1	0x00000000	0.0
2	0x00000000	0.0
3	0x00000000	0.0
4	0x00000000	0.0
5	0x00000000	0.0
6	0x00000000	0.0
7	0x00000000	0.0
8	0x00000000	0.0
9	0x00000000	0.0
10	0x00000000	0.0
11	0x00000000	0.0
12	0x00000000	0.0
13	0x00000000	0.0
14	0x00000000	0.0
15	0x00000000	0.0
16	0x00000000	0.0
17	0x00000000	0.0
18	0x00000000	0.0
19	0x00000000	0.0
20	0x00000000	0.0
21	0x00000000	0.0
22	0x00000000	0.0
23	0x00000000	0.0
24	0x00000000	0.0
25	0x00000000	0.0
26	0x00000000	0.0
27	0x00000000	0.0
28	0x00000000	0.0
29	0x00000000	0.0
30	0x00000000	0.0
31	0x00000000	0.0
32	0x00000000	0.0
33	0x00000000	0.0
34	0x00000000	0.0
35	0x00000000	0.0
36	0x00000000	0.0
37	0x00000000	0.0
38	0x00000000	0.0
39	0x00000000	0.0
40	0x00000000	0.0
41	0x00000000	0.0
42	0x00000000	0.0
43	0x00000000	0.0
44	0x00000000	0.0
45	0x00000000	0.0
46	0x00000000	0.0
47	0x00000000	0.0
48	0x00000000	0.0
49	0x00000000	0.0
50	0x00000000	0.0
51	0x00000000	0.0
52	0x00000000	0.0
53	0x00000000	0.0
54	0x00000000	0.0
55	0x00000000	0.0
56	0x00000000	0.0
57	0x00000000	0.0
58	0x00000000	0.0
59	0x00000000	0.0
60	0x00000000	0.0
61	0x00000000	0.0
62	0x00000000	0.0
63	0x00000000	0.0
64	0x00000000	0.0
65	0x00000000	0.0
66	0x00000000	0.0
67	0x00000000	0.0
68	0x00000000	0.0
69	0x00000000	0.0
70	0x00000000	0.0
71	0x00000000	0.0
72	0x00000000	0.0
73	0x00000000	0.0
74	0x00000000	0.0
75	0x00000000	0.0
76	0x00000000	0.0
77	0x00000000	0.0
78	0x00000000	0.0
79	0x00000000	0.0
80	0x00000000	0.0
81	0x00000000	0.0
82	0x00000000	0.0
83	0x00000000	0.0
84	0x00000000	0.0
85	0x00000000	0.0
86	0x00000000	0.0
87	0x00000000	0.0
88	0x00000000	0.0
89	0x00000000	0.0
90	0x00000000	0.0
91	0x00000000	0.0
92	0x00000000	0.0
93	0x00000000	0.0
94	0x00000000	0.0
95	0x00000000	0.0
96	0x00000000	0.0
97	0x00000000	0.0
98	0x00000000	0.0
99	0x00000000	0.0
100	0x00000000	0.0
101	0x00000000	0.0
102	0x00000000	0.0
103	0x00000000	0.0
104	0x00000000	0.0
105	0x00000000	0.0
106	0x00000000	0.0
107	0x00000000	0.0
108	0x00000000	0.0
109	0x00000000	0.0
110	0x00000000	0.0
111	0x00000000	0.0
112	0x00000000	0.0
113	0x00000000	0.0
114	0x00000000	0.0
115	0x00000000	0.0
116	0x00000000	0.0
117	0x00000000	0.0
118	0x00000000	0.0
119	0x00000000	0.0
120	0x00000000	0.0
121	0x00000000	0.0
122	0x00000000	0.0
123	0x00000000	0.0
124	0x00000000	0.0
125	0x00000000	0.0
126	0x00000000	0.0
127	0x00000000	0.0

running_mean f4 [128]
0	0x00000000	0.0
1	0x00000000	0.0
2	0x00000000	0.0
3	0x00000000	0.0
4	0x00000000	0.0
5	0x00000000	0.0
6	0x00000000	0.0
7	0x00000000	0.0
8	0x00000000	0.0
9	0x00000000	0.0
10	0x00000000	0.0
11	0x00000000	0.0
12	0x00000000	0.0
13	0x00000000	0.0
14	0x00000000	0.0
15	0x00000000	0.0
16	0x00000000	0.0
17	0x00000000	0.0
18	0x00000000	0.0
19	0x00000000	0.0
20	0x00000000	0.0
21	0x00000000	0.0
22	0x00000000	0.0
23	0x00000000	0.0
24	0x00000000	0.0
25	0x00000000	0.0
26	0x00000000	0.0
27	0x00000000	0.0
28	0x00000000	0.0
29	0x00000000	0.0
30	0x00000000	0.0
31	0x00000000	0.0
32	0x00000000	0.0
33	0x00000000	0.0
34	0x00000000	0.0
35	0x00000000	0.0
36	0x00000000	0.0
37	0x00000000	0.0
38	0x00000000	0.0
39	0x00000000	0.0
40	0x00000000	0.0
41	0x00000000	0.0
42	0x00000000	0.0
43	0x00000000	0.0
44	0x00000000	0.0
45	0x00000000	0.0
46	0x00000000	0.0
47	0x00000000	0.0
48	0x00000000	0.0
49	0x00000000	0.0
50	0x00000000	0.0
51	0x00000000	0.0
52	0x00000000	0.0
53	0x00000000	0.0
54	0x00000000	0.0
55	0x00000000	0.0
56	0x00000000	0.0
57	0x00000000	0.0
58	0x00000000	0.0
59	0x00000000	0.0
60	0x00000000	0.0
61	0x00000000	0.0
62	0x00000000	0.0
63	0x00000000	0.0
64	0x00000000	0.0
65	0x00000000	0.0
66	0x00000000	0.0
67	0x00000000	0.0
68	0x00000000	0.0
69	0x00000000	0.0
70	0x00000000	0.0
71	0x00000000	0.0
72	0x00000000	0.0
73	0x00000000	0.0
74	0x00000000	0.0
75	0x00000000	0.0
76	0x00000000	0.0
77	0x00000000	0.0
78	0x00000000	0.0
79	0x00000000	0.0
80	0x00000000	0.0
81	0x00000000	0.0
82	0x00000000	0.0
83	0x00000000	0.0
84	0x00000000	0.0
85	0x00000000	0.0
86	0x00000000	0.0
87	0x00000000	0.0
88	0x00000000	0.0
89	0x00000000	0.0
90	0x00000000	0.0
91	0x00000000	0.0
92	0x00000000	0.0
93	0x00000000	0.0
94	0x00000000	0.0
95	0x00000000	0.0
96	0x00000000	0.0
97	0x00000000	0.0
98	0x00000000	0.0
99	0x00000000	0.0
100	0x00000000	0.0
101	0x00000000	0.0
102	0x00000000	0.0
103	0x00000000	0.0
104	0x00000000	0.0
105	0x00000000	0.0
106	0x00000000	0.0
107	0x00000000	0.0
108	0x00000000	0.0
109	0x00000000	0.0
110	0x00000000	0.0
111	0x00000000	0.0
112	0x00000000	0.0
113	0x00000000	0.0
114	0x00000000	0.0
115	0x00000000	0.0
116	0x00000000	0.0
117	0x00000000	0.0
118	0x00000000	0.0
119	0x00000000	0.0
120	0x00000000	0.0
121	0x00000000	0.0
122	0x00000000	0.0
123	0x00000000	0.0
124	0x00000000	0.0
125	0x00000000	0.0
126	0x00000000	0.0
127	0x00000000	0.0

running_var f4 [128]
0	0x3f800000	1.0
1	0x3f800000	1.0
2	0x3f800000	1.0
3	0x3f800000	1.0
4	0x3f800000	1.0
5	0x3f800000	1.0
6	0x3f800000	1.0
7	0x3f800000	1.0
8	0x3f800000	1.0
9	0x3f800000	1.0
10	0x3f800000	1.0
11	0x3f800000	1.0
12	0x3f800000	1.0
13	0x3f800000	1.0
14	0x3f800000	1.0
15	0x3f800000	1.0
16	0x3f800000	1.0
17	0x3f800000	1.0
18	0x3f800000	1.0
19	0x3f800000	1.0
20	0x3f800000	1.0
21	0x3f800000	1.0
22	0x3f800000	1.0
23	0x3f800000	1.0
24	0x3f800000	1.0
25	0x3f800000	1.0
26	0x3f800000	1.0
27	0x3f800000	1.0
28	0x3f800000	1.0
29	0x3f800000	1.0
30	0x3f800000	1.0
31	0x3f800000	1.0
32	0x3f800000	1.0
33	0x3f800000	1.0
34	0x3f800000	1.0
35	0x3f800000	1.0
36	0x3f800000	1.0
37	0x3f800000	1.0
38	0x3f800000	1.0
39	0x3f800000	1.0
40	0x3f800000	1.0
41	0x3f800000	1.0
42	0x3f800000	1.0
43	0x3f800000	1.0
44	0x3f800000	1.0
45	0x3f800000	1.0
46	0x3f800000	1.0
47	0x3f800000	1.0
48	0x3f800000	1.0
49	0x3f800000	1.0
50	0x3f800000	1.0
51	0x3f800000	1.0
52	0x3f800000	1.0
53	0x3f800000	1.0
54	0x3f800000	1.0
55	0x3f800000	1.0
56	0x3f800000	1.0
57	0x3f800000	1.0
58	0x3f800000	1.0
59	0x3f800000	1.0
60	0x3f800000	1.0
61	0x3f800000	1.0
62	0x3f800000	1.0
63	0x3f800000	1.0
64	0x3f800000	1.0
65	0x3f800000	1.0
66	0x3f800000	1.0
67	0x3f800000	1.0
68	0x3f800000	1.0
69	0x3f800000	1.0
70	0x3f800000	1.0
71	0x3f800000	1.0
72	0x3f800000	1.0
73	0x3f800000	1.0
74	0x3f800000	1.0
75	0x3f800000	1.0
76	0x3f800000	1.0
77	0x3f800000	1.0
78	0x3f800000	1.0
79	0x3f800000	1.0
80	0x3f800000	1.0
81	0x3f800000	1.0
82	0x3f800000	1.0
83	0x3f800000	1.0
84	0x3f800000	1.0
85	0x3f800000	1.0
86	0x3f800000	1.0
87	0x3f800000	1.0
88	0x3f800000	1.0
89	0x3f800000	1.0
90	0x3f800000	1.0
91	0x3f800000	1.0
92	0x3f800000	1.0
93	0x3f800000	1.0
94	0x3f800000	1.0
95	0x3f800000	1.0
96	0x3f800000	1.0
97	0x3f800000	1.0
98	0x3f800000	1.0
99	0x3f800000	1.0
100	0x3f800000	1.0
101	0x3f800000	1.0
102	0x3f800000	1.0
103	0x3f800000	1.0
104	0x3f800000	1.0
105	0x3f800000	1.0
106	0x3f800000	1.0
107	0x3f800000	1.0
108	0x3f800000	1.0
109	0x3f800000	1.0
110	0x3f800000	1.0
111	0x3f800000	1.0
112	0x3f800000	1.0
113	0x3f800000	1.0
114	0x3f800000	1.0
115	0x3f800000	1.0
116	0x3f800000	1.0
117	0x3f800000	1.0
118	0x3f800000	1.0
119	0x3f800000	1.0
120	0x3f800000	1.0
121	0x3f800000	1.0
122	0x3f800000	1.0
123	0x3f800000	1.0
124	0x3f800000	1.0
125	0x3f800000	1.0
126	0x3f800000	1.0
127	0x3f800000	1.0

weight f4 [64, 256]
0	0x3d0cf908	0.034417182
1	0xbcdcf6f0	-0.026973218
2	0xbd095591	-0.033528868
3	0x3babb776	0.005240376
4	0xbd74c4c2	-0.059757955
5	0x3bef3158	0.0072995834
6	0x3be056c4	0.006846281
7	0xbd36c2de	-0.044619434
8	0x3cc7a618	0.024371192
9	0xbd54f44e	-0.0519908
10	0x3c863de1	0.016386928
11	0x3d2a3035	0.04154988
12	0xbd1a59be	-0.03768324
13	0x3cde414e	0.02713075
14	0xbd555a1d	-0.05208789
15	0xbadd66b6	-0.0016891572
16	0xbd2ba231	-0.041902725
17	0xbb7304f7	-0.0037081817
18	0xbd65c17e	-0.05609273
19	0x3ca44881	0.020054104
20	0xbadc81e3	-0.0016823377
21	0x3d08421e	0.03326618
22	0x3c7d6896	0.01546683
23	0x3b4a9e6b	0.0030917178
24	0x3d28ff74	0.041259244
25	0x3d419c08	0.047267944
26	0x3d4345c3	0.04767395
27	0xbd6da33d	-0.058017004
28	0x3d27c181	0.040956024
29	0xbd8da173	-0.069155596
30	0xbcd71b78	-0.026258215
31	0x3cbcc34b	0.023042342
32	0x3c1e6e29	0.009669819
33	0xbc2130ed	-0.009838325
34	0xbd821123	-0.06350925
35	0x3cadb907	0.021206392
36	0x3c8cb7a2	0.017177407
37	0x3d03ae97	0.032148924
38	0xbd8f7adc	-0.070058554
39	0x3b9c0b91	0.004762121
40	0xbbb2c405	-0.0054554963
41	0xbd365569	-0.044515047
42	0x3d5bc50d	0.05365472
43	0x3cb980c1	0.022644402
44	0xbcb3395e	-0.02187794
45	0xbc56cb00	-0.013109922
46	0x3d46fe08	0.048582107
47	0xbd4aa67c	-0.049475178
48	0xbc3828a8	-0.011240162
49	0x3d1d5976	0.038415395
50	0xbd38ffcd	-0.045165826
51	0xbd2c57a4	-0.042075768
52	0x3c6499e2	0.013952704
53	0xbcb27ba5	-0.021787474
54	0x3d18c18e	0.037293963
55	0x3c63adde	0.013896434
56	0x3aa29205	0.0012403136
57	0x3ab75cc9	0.0013989444
58	0xbd89ffb4	-0.067382246
59	0xbcf481e9	-0.029847102
60	0x3d047da9	0.0323464
61	0x3c2aa2f7	0.01041483
62	0xbd921e61	-0.071347006
63	0xbd83dd01	-0.064386375
64	0xbcd455ca	-0.025919814
65	0xbca864ff	-0.020555971
66	0xbd2bddcb	-0.041959565
67	0x3c84f6c7	0.016230954
68	0xbd88df4b	-0.06683215
69	0xbc44d23a	-0.012013013
70	0x3d4b0131	0.049561683
71	0xbd34aa86	-0.044107936
72	0xbd83b643	-0.06431248
73	0x3d0ce5e6	0.034398936
74	0xbce2c198	-0.027680203
75	0x3cac7ded	0.02105614
76	0x3d375911	0.044762675
77	0x3b9a8b2a	0.0047162967
78	0x3c928c1d	0.017889077
79	0x3c5a4bdf	0.013323753
80	0x3bc8ef2a	0.006132026
81	0xbd89c928	-0.06727821
82	0xbd1d06cc	-0.03833656
83	0x3d4b6bae	0.04966324
84	0x3d0b67a1	0.034034375
85	0x3c165010	0.009174362
86	0xba3fcd0b	-0.00073166256
87	0xbd3ce2b6	-0.046114646
88	0x3c81b535	0.015833477
89	0xbc43b818	-0.011945747
90	0xbc83ed83	-0.016104465
91	0x3c97c0f6	0.018524628
92	0xbd6eb957	-0.058282223
93	0xbb01d5d8	-0.0019811299
94	0xbd77f2cd	-0.060534287
95	0x3c171d8d	0.009223354
96	0x3cc6ed3d	0.024283046
97	0x3ca17348	0.01970829
98	0x3c4db351	0.012554959
99	0x3b30d29a	0.0026980997
100	0xbce17368	-0.02752085
101	0xbd36ef1b	-0.044661622
102	0xbd7aaf6e	-0.06120246
103	0xbc0674b9	-0.00820654
104	0x3cc68856	0.024234932
105	0xbd2538e2	-0.04033745
106	0x3d065ccc	0.03280334
107	0xbd1d1c0e	-0.038356833
108	0x3c691d2e	0.014228148
109	0xbcb43b40	-0.022000909
110	0x3cd99e7b	0.026564827
111	0xbc62cadf	-0.013842314
112	0xbccf1b99	-0.025281714
113	0xbd8ed7ce	-0.06974755
114	0xbd436032	-0.04769916
115	0xbd48ebb3	-0.049052905
116	0xbd3e1d7e	-0.046414845
117	0x3d5563b2	0.05209703
118	0xbd5b806c	-0.05358927
119	0x3c182f5f	0.009288638
120	0xbd55ede5	-0.052228827
121	0xbd82fc01	-0.06395722
122	0xbd77e1da	-0.060518123
123	0xbcd41ab1	-0.025891634
124	0xbd2f4d9c	-0.042798623
125	0xbd7ba3fa	-0.061435677
126	0xbd84cb77	-0.0648412
127	0xbc1c1c84	-0.009528283
128	0x3d02dda0	0.03194964
129	0xbc92ac1f	-0.01790434
130	0x3c3cc4fe	0.011521576
131	0xbd87427c	-0.06604478
132	0xbc981ad3	-0.018567478
133	0xbce91c4b	-0.028455874
134	0x3bf9f4f9	0.00762808
135	0xbd58bb50	-0.05291301
136	0xbcba6a83	-0.022755867
137	0x3d590eb0	0.052992523
138	0xbd07b33d	-0.03312992
139	0x3c33bd93	0.010970491
140	0xbbf93e50	-0.007606305
141	0xbc29bbf6	-0.010359755
142	0x3d29593f	0.041344877
143	0xbd8cd486	-0.06876473
144	0xbd35afba	-0.04435704
145	0x3cc369fb	0.023854246
146	0x3c68fefd	0.01422095
147	0xbd4f2d62	-0.05058039
148	0xbd6e9820	-0.058250546
149	0x3ca160f8	0.019699559
150	0xbd83b0ce	-0.06430207
151	0x3d2e4847	0.042549398
152	0x3cee8c82	0.029119734
153	0xbc901966	-0.017590236
154	0xbc133ae9	-0.008986213
155	0xbc4bfa25	-0.012449776
156	0x3d41fd26	0.04736056
157	0x3c28ffac	0.010314863
158	0xbd8054de	-0.06266187
159	0x3d0d0687	0.034430053
160	0xbcdff65d	-0.027339155
161	0xbd0d3e39	-0.03448317
162	0xbd6b8032	-0.057495303
163	0x3c8bfdb7	0.017088754
164	0xbd2819b0	-0.041040123
165	0x3b746da2	0.0037296792
166	0x3d30986c	0.04311411
167	0x3d2ef240	0.042711496
168	0xbc09c655	-0.008409102
169	0xbd037f4a	-0.032103814
170	0x3bdb86c3	0.0066994145
171	0xbcd3aa02	-0.025837902
172	0xbcdfeaa3	-0.027333563
173	0xbd69a6af	-0.057043727
174	0xbd5ff4ea	-0.054676928
175	0xbd6b9a41	-0.057520155
176	0xbcdddf6a	-0.027084071
177	0xbcd26d41	-0.025686862
178	0xbd4b6ee3	-0.049666297
179	0x3cc5f514	0.024164714
180	0xbc11781f	-0.008878737
181	0x3d59443a	0.05304358
182	0xbd2f9261	-0.042864207
183	0x3d06485f	0.032783862
184	0xbd2989a9	-0.04139105
185	0xbd8d78f7	-0.06907838
186	0xbd85b89a	-0.065293506
187	0x3d02216c	0.031770155
188	0xbc8aeb6e	-0.016957965
189	0xbd3c9990	-0.046044886
190	0x3c07cd05	0.008288627
191	0x3b5854e2	0.0033009578
192	0x3cb5cd37	0.02219258
193	0xbd5dbc11	-0.054134432
194	0x3ce9ec16	0.028554957
195	0xbcba6c50	-0.022756726
196	0xbd40cd38	-0.04707071
197	0xbc72ae67	-0.014812089
198	0xbd4d1e72	-0.050077863
199	0x3d04fe4b	0.032469075
200	0xbc930c9c	-0.017950349
201	0xbc25f16c	-0.01012836
202	0xbd81f880	-0.06346226
203	0xbcb3826b	-0.021912774
204	0xbcb128c9	-0.021625893
205	0x3c61ff83	0.013793829
206	0x3d50c0eb	0.05096523
207	0xbd7fb308	-0.062426597
208	0xbd309694	-0.043112352
209	0xbc8cd6ed	-0.017192328
210	0x3d1b20fa	0.037873246
211	0xbd794a4f	-0.06086188
212	0xbd3acd27	-0.045605805
213	0xbc54ca85	-0.012987738
214	0x3caac164	0.020844169
215	0xbd7e8d8c	-0.06214671
216	0xbd581243	-0.05275179
217	0x3d0c1bf8	0.03420636
218	0xbd20229c	-0.039095506
219	0xbc137fdc	-0.009002652
220	0x3d05ddc2	0.032682188
221	0x3d201cd9	0.03909001
222	0x3d4aa756	0.04947599
223	0x3cd19544	0.02558387
224	0xbd4e19fb	-0.050317746
225	0x3b382a29	0.0028101301
226	0x3cfc9c06	0.030836117
227	0xbcfc2eff	-0.030784128
228	0x3d1f5f21	0.03890908
229	0x3d23a35e	0.03995072
230	0xbce19bf7	-0.02754019
231	0x3bee05a2	0.007263855
232	0xbbbd5164	-0.005777525
233	0xbd7224d0	-0.05911714
234	0xbd70b4e8	-0.058766276
235	0xbb5d8938	-0.0033803713
236	0xbcc5f792	-0.024165902
237	0xbd3de105	-0.046357173
238	0xbd363693	-0.04448564
239	0x3ce675c2	0.028132323
240	0x3c4c7b3f	0.012480556
241	0xbd6f8428	-0.058475643
242	0xbd694094	-0.056946352
243	0xbd082874	-0.033241704
244	0x3ca64338	0.020295724
245	0xbcc2c87a	-0.023777235
246	0x3d5c5968	0.053796202
247	0xbcd98a83	-0.026555305
248	0xbc93888a	-0.018009443
249	0x3cd09b5e	0.02546471
250	0xbbba84eb	-0.0056921146
251	0xbd0699e9	-0.032861624
252	0xbd2e05a6	-0.042485856
253	0x3d0fc33b	0.035098296
254	0x3ca1fd27	0.019774033
255	0xbd281ee0	-0.04104507

bias f4 [64]
0	0x3d28abb9	0.041179392
1	0xbd14781f	-0.03624737
2	0xbbb77935	-0.005599166
3	0xbd85dc66	-0.06536178
4	0x3da0bd4d	0.07848606
5	0xbe277260	-0.16352224
6	0xbc0457e0	-0.008077592
7	0x3da8b3cf	0.08237421
8	0x3e39a8db	0.1813082
9	0xbdf59f9d	-0.119933344
10	0xbe041068	-0.12896883
11	0xbc0579d7	-0.008146725
12	0x3d40d84c	0.047081277
13	0x3df2f7b2	0.118636504
14	0x3e1c2ced	0.15251513
15	0x3e2f68ec	0.17129868
16	0x3aff7f5a	0.001949291
17	0x3d28f382	0.041247852
18	0x3ab8154e	0.0014044435
19	0x3d1d8532	0.038457103
20	0xbd02bc44	-0.031917825
21	0xbd364b14	-0.044505194
22	0x3e1956f6	0.14974579
23	0x3e00d6cf	0.12581943
24	0xbacca5b1	-0.0015613345
25	0x3e3fd925	0.18735178
26	0x3ddcba85	0.10777763
27	0xbc84b803	-0.016201025
28	0x3e2e48a0	0.17019892
29	0xbd352ac6	-0.044230245
30	0x3da55387	0.08072572
31	0xbd88a830	-0.06672704
32	0xbd8577e8	-0.06517011
33	0xbe255f0e	-0.16149542
34	0x3d555826	0.052086018
35	0x3e0e7c08	0.13914502
36	0xbd971923	-0.07377841
37	0x3dc90099	0.09814567
38	0xbd31a0f7	-0.0433664
39	0x3e283011	0.16424586
40	0xbc8fe398	-0.01756458
41	0x3cfb7798	0.030696675
42	0x3d9768af	0.07393014
43	0x3e2f66ca	0.17129055
44	0x3e2fd8fb	0.17172615
45	0x3c75ba8c	0.0149980895
46	0x3e1b3d9e	0.15160224
47	0x3e48770c	0.19576663
48	0x3e18ff35	0.14941104
49	0xbcc3add7	-0.023886604
50	0xbd86612b	-0.06561502
51	0x3e1dc241	0.15406133
52	0xbe0c357f	-0.13692282
53	0x3e16f233	0.14740829
54	0xbdc1ecee	-0.09469019
55	0xbcbb24f9	-0.022844778
56	0x3da095dc	0.078410834
57	0x3e40f3e9	0.18843044
58	0x3d8cc591	0.0687362
59	0xbd417bbc	-0.047237143
60	0x3e0d1a9d	0.13779683
61	0xbe06354f	-0.13106273
62	0xbda82619	-0.082103916
63	0x3dc37fbb	0.09545847

weight f4 [64]
0	0x3f800000	1.0
1	0x3f800000	1.0
2	0x3f800000	1.0
3	0x3f800000	1.0
4	0x3f800000	1.0
5	0x3f800000	1.0
6	0x3f800000	1.0
7	0x3f800000	1.0
8	0x3f800000	1.0
9	0x3f800000	1.0
10	0x3f800000	1.0
11	0x3f800000	1.0
12	0x3f800000	1.0
13	0x3f800000	1.0
14	0x3f800000	1.0
15	0x3f800000	1.0
16	0x3f800000	1.0
17	0x3f800000	1.0
18	0x3f800000	1.0
19	0x3f800000	1.0
20	0x3f800000	1.0
21	0x3f800000	1.0
22	0x3f800000	1.0
23	0x3f800000	1.0
24	0x3f800000	1.0
25	0x3f800000	1.0
26	0x3f800000	1.0
27	0x3f800000	1.0
28	0x3f800000	1.0
29	0x3f800000	1.0
30	0x3f800000	1.0
31	0x3f800000	1.0
32	0x3f800000	1.0
33	0x3f800000	1.0
34	0x3f800000	1.0
35	0x3f800000	1.0
36	0x3f800000	1.0
37	0x3f800000	1.0
38	0x3f800000	1.0
39	0x3f800000	1.0
40	0x3f800000	1.0
41	0x3f800000	1.0
42	0x3f800000	1.0
43	0x3f800000	1.0
44	0x3f800000	1.0
45	0x3f800000	1.0
46	0x3f800000	1.0
47	0x3f800000	1.0
48	0x3f800000	1.0
49	0x3f800000	1.0
50	0x3f800000	1.0
51	0x3f800000	1.0
52	0x3f800000	1.0
53	0x3f800000	1.0
54	0x3f800000	1.0
55	0x3f800000	1.0
56	0x3f800000	1.0
57	0x3f800000	1.0
58	0x3f800000	1.0
59	0x3f800000	1.0
60	0x3f800000	1.0
61	0x3f800000	1.0
62	0x3f800000	1.0
63	0x3f800000	1.0

bias f4 [64]
0	0x00000000	0.0
1	0x00000000	0.0
2	0x00000000	0.0
3	0x00000000	0.0
4	0x00000000	0.0
5	0x00000000	0.0
6	0x00000000	0.0
7	0x00000000	0.0
8	0x00000000	0.0
9	0x00000000	0.0
10	0x00000000	0.0
11	0x00000000	0.0
12	0x00000000	0.0
13	0x00000000	0.0
14	0x00000000	0.0
15	0x00000000	0.0
16	0x00000000	0.0
17	0x00000000	0.0
18	0x00000000	0.0
19	0x00000000	0.0
20	0x00000000	0.0
21	0x00000000	0.0
22	0x00000000	0.0
23	0x00000000	0.0
24	0x00000000	0.0
25	0x00000000	0.0
26	0x00000000	0.0
27	0x00000000	0.0
28	0x00000000	0.0
29	0x00000000	0.0
30	0x00000000	0.0
31	0x00000000	0.0
32	0x00000000	0.0
33	0x00000000	0.0
34	0x00000000	0.0
35	0x00000000	0.0
36	0x00000000	0.0
37	0x00000000	0.0
38	0x00000000	0.0
39	0x00000000	0.0
40	0x00000000	0.0
41	0x00000000	0.0
42	0x00000000	0.0
43	0x00000000	0.0
44	0x00000000	0.0
45	0x00000000	0.0
46	0x00000000	0.0
47	0x00000000	0.0
48	0x00000000	0.0
49	0x00000000	0.0
50	0x00000000	0.0
51	0x00000000	0.0
52	0x00000000	0.0
53	0x00000000	0.0
54	0x00000000	0.0
55	0x00000000	0.0
56	0x00000000	0.0
57	0x00000000	0.0
58	0x00000000	0.0
59	0x00000000	0.0
60	0x00000000	0.0
61	0x00000000	0.0
62	0x00000000	0.0
63	0x00000000	0.0

running_mean f4 [64]
0	0x00000000	0.0
1	0x00000000	0.0
2	0x00000000	0.0
3	0x00000000	0.0
4	0x00000000	0.0
5	0x00000000	0.0
6	0x00000000	0.0
7	0x00000000	0.0
8	0x00000000	0.0
9	0x00000000	0.0
10	0x00000000	0.0
11	0x00000000	0.0
12	0x00000000	0.0
13	0x00000000	0.0
14	0x00000000	0.0
15	0x00000000	0.0
16	0x00000000	0.0
17	0x00000000	0.0
18	0x00000000	0.0
19	0x00000000	0.0
20	0x00000000	0.0
21	0x00000000	0.0
22	0x00000000	0.0
23	0x00000000	0.0
24	0x00000000	0.0
25	0x00000000	0.0
26	0x00000000	0.0
27	0x00000000	0.0
28	0x00000000	0.0
29	0x00000000	0.0
30	0x00000000	0.0
31	0x00000000	0.0
32	0x00000000	0.0
33	0x00000000	0.0
34	0x00000000	0.0
35	0x00000000	0.0
36	0x00000000	0.0
37	0x00000000	0.0
38	0x00000000	0.0
39	0x00000000	0.0
40	0x00000000	0.0
41	0x00000000	0.0
42	0x00000000	0.0
43	0x00000000	0.0
44	0x00000000	0.0
45	0x00000000	0.0
46	0x00000000	0.0
47	0x00000000	0.0
48	0x00000000	0.0
49	0x00000000	0.0
50	0x00000000	0.0
51	0x00000000	0.0
52	0x00000000	0.0
53	0x00000000	0.0
54	0x00000000	0.0
55	0x00000000	0.0
56	0x00000000	0.0
57	0x00000000	0.0
58	0x00000000	0.0
59	0x00000000	0.0
60	0x00000000	0.0
61	0x00000000	0.0
62	0x00000000	0.0
63	0x00000000	0.0

running_var f4 [64]
0	0x3f800000	1.0
1	0x3f800000	1.0
2	0x3f800000	1.0
3	0x3f800000	1.0
4	0x3f800000	1.0
5	0x3f800000	1.0
6	0x3f800000	1.0
7	0x3f800000	1.0
8	0x3f800000	1.0
9	0x3f800000	1.0
10	0x3f800000	1.0
11	0x3f800000	1.0
12	0x3f800000	1.0
13	0x3f800000	1.0
14	0x3f800000	1.0
15	0x3f800000	1.0
16	0x3f800000	1.0
17	0x3f800000	1.0
18	0x3f800000	1.0
19	0x3f800000	1.0
20	0x3f800000	1.0
21	0x3f800000	1.0
22	0x3f800000	1.0
23	0x3f800000	1.0
24	0x3f800000	1.0
25	0x3f800000	1.0
26	0x3f800000	1.0
27	0x3f800000	1.0
28	0x3f800000	1.0
29	0x3f800000	1.0
30	0x3f800000	1.0
31	0x3f800000	1.0
32	0x3f800000	1.0
33	0x3f800000	1.0
34	0x3f800000	1.0
35	0x3f800000	1.0
36	0x3f800000	1.0
37	0x3f800000	1.0
38	0x3f800000	1.0
39	0x3f800000	1.0
40	0x3f800000	1.0
41	0x3f800000	1.0
42	0x3f800000	1.0
43	0x3f800000	1.0
44	0x3f800000	1.0
45	0x3f800000	1.0
46	0x3f800000	1.0
47	0x3f800000	1.0
48	0x3f800000	1.0
49	0x3f800000	1.0
50	0x3f800000	1.0
51	0x3f800000	1.0
52	0x3f800000	1.0
53	0x3f800000	1.0
54	0x3f800000	1.0
55	0x3f800000	1.0
56	0x3f800000	1.0
57	0x3f800000	1.0
58	0x3f800000	1.0
59	0x3f800000	1.0
60	0x3f800000	1.0
61	0x3f800000	1.0
62	0x3f800000	1.0
63	0x3f800000	1.0

weight f4 [1, 64]
0	0xbd98becf	-0.07458269
1	0xbe80046e	-0.2500338
2	0xbb9c4eb4	-0.0047701243
3	0xbdb1e103	-0.08685496
4	0x3e04b19e	0.1295838
5	0xbfab6049	-1.3388759
6	0xbf778e1f	-0.96701235
7	0x3e1915d4	0.14949733
8	0x3e1adf36	0.1512421
9	0xbeb42edf	-0.3519201
10	0xbe24cc53	-0.16093569
11	0xbf6b647e	-0.91950214
12	0xbd422f6a	-0.0474085
13	0x3e59dd41	0.21275808
14	0x3e0a78ca	0.1352264
15	0x3e00fbd9	0.12596072
16	0xbc9e5f41	-0.01933253
17	0x3bba19e0	0.005679354
18	0xbf864fac	-1.0493064
19	0x3df5752a	0.11985238
20	0xbe812816	-0.25225896
21	0x3dbc3854	0.09190431
22	0x3e6d28bd	0.23160072
23	0x3dae6b2f	0.085165374
24	0xbc3d7dce	-0.011565639
25	0x3db12f7b	0.08651634
26	0x3d88d5b0	0.06681383
27	0xbd9f33dd	-0.07773564
28	0x3e03388c	0.1281454
29	0xbb1c3b89	-0.0023839197
30	0x3e47bf4e	0.1950657
31	0xbdd7767d	-0.10520647
32	0xbdbe0225	-0.09277753
33	0xbfb03af7	-1.3767995
34	0xbd15e6f9	-0.036597226
35	0x3e0c5684	0.13704878
36	0xbd869496	-0.06571309
37	0x3df5bb59	0.11998624
38	0xbdb1032f	-0.08643185
39	0x3e14bcab	0.14525096
40	0xbf8f6b3d	-1.1204602
41	0xbd6ffb61	-0.058589343
42	0x3e0b6b6b	0.13615195
43	0x3dbc1c6e	0.0918511
44	0x3e0674c7	0.13130485
45	0xbf919ce6	-1.1376007
46	0x3e1f037f	0.15528677
47	0x3e2535fc	0.16133875
48	0x3df89436	0.12137644
49	0xbd1d05a0	-0.038335443
50	0xbd592b3b	-0.053019743
51	0x3e13cc9a	0.14433518
52	0xbed0da9d	-0.4079179
53	0x3e1d1583	0.15340237
54	0xbe72e446	-0.23719892
55	0xbde01716	-0.10941903
56	0x3df71bd0	0.12065852
57	0x3e414ad7	0.18876205
58	0x3e21a12f	0.15784143
59	0xbf48e252	-0.7847034
60	0x3d7a0fcf	0.061050232
61	0xbe9ea4ba	-0.3098505
62	0xbfbda6bd	-1.481651
63	0x3e05b41a	0.13056985
