models_version4/2UAVs_71202/a_c1.pt (torch_old, 16251 bytes, 14 tensors)

weight f4 [50, 34]
000000 b3 aa f8 3c bc 1a ca 3d ad 5a 93 3e a9 3b 18 3f
       0.030354833 0.098683804 0.28780118 0.59466034
000010 b4 1c 85 bd 53 68 7b bd 39 db 83 3d bf 6d 04 3e
       -0.06499615 -0.06137879 0.06438298 0.1293249
000020 ec cc 02 3e 8e 33 4c be 95 56 d6 bd d4 9f c2 bc
       0.12773484 -0.19941542 -0.10465733 -0.023757853
000030 d9 51 b9 3d 7d 78 ff bd 9c 76 28 3e 2f db 96 3d
       0.09048814 -0.12474153 0.16451496 0.07366025
000040 b7 de 97 3c 64 af 33 bd ed 5f c7 bc d1 47 f9 bb
       0.018538816 -0.043868437 -0.024337733 -0.007607438
000050 d4 73 d4 bd 63 80 e7 3d e0 4d 52 3d 73 d0 68 bc
       -0.10373655 0.11303785 0.0513438 -0.014209854
000060 a1 2c d1 3e 7e c1 40 bc 56 be d4 bd 26 b2 07 3d
       0.40854362 -0.011764882 -0.10387866 0.03312888
000070 8d 6d d0 bd 9b a3 13 3e 8a 00 10 3e 10 23 9c 3c
       -0.10177145 0.1441788 0.14062706 0.019059688
000080 5e 8a 72 bb b5 15 a1 bd ee 14 f7 bd 1b 29 b0 bd
       -0.0037008743 -0.078654684 -0.12064539 -0.0860159
000090 f3 e0 59 3f 44 f5 16 be 43 7f 07 3d d1 3f b1 bc
       0.8510887 -0.14741999 0.03308035 -0.021636875
0000a0 fe 38 92 3d 76 9c d7 3b d7 9e 2d 3e e7 98 df 3d
       0.07139777 0.006579931 0.16955124 0.10917836
0000b0 d5 f7 6e bd 12 56 fa 3c 05 63 d0 3c af d7 37 3d
       -0.05834182 0.03055862 0.025437841 0.044883426
0000c0 70 2f 0d 3d 39 b0 75 3d 67 41 5a 3e 9f 26 cd 3d
       0.034469068 0.059982512 0.21314012 0.10017132
0000d0 21 c1 d3 bd 08 0f eb bd d1 29 db 3c eb ee 67 be
       -0.10339571 -0.11477476 0.026753338 -0.22649734
0000e0 f0 36 b1 bd 6f 7d 02 3d ae f8 2a 3e 1f a7 55 3e
       -0.086530566 0.031857904 0.16696426 0.20864533
0000f0 28 dd 21 3e 47 83 2c 3e 8c b0 9a 3d 8a 0f 30 3d
       0.1580702 0.16846953 0.07553205 0.04298357
000100 a4 a5 95 bc 73 f7 bb bc 51 54 c6 3d 55 8c b4 bc
       -0.01826746 -0.022945141 0.09684051 -0.022039572
000110 50 07 58 3e b4 60 4c 3d 79 b9 b8 be 12 6a fd be
       0.2109654 0.04989691 -0.36079004 -0.49494988
000120 10 bc 91 bd a7 5b e5 bd e2 2a 4a 3e 5d 60 31 3d
       -0.07115948 -0.11199122 0.19742921 0.04330479
000130 a8 c5 e9 bd f8 97 8d 3d 07 dc 07 be 69 01 82 bb
       -0.11414653 0.06913751 -0.13267528 -0.0039674533
000140 a1 47 d9 3b 83 b9 a1 bd 19 1a 5e bd 25 7a 3e 3d
       0.0066308533 -0.07896712 -0.054224107 0.046503205
000150 4d 3c 4a 3e ae b5 27 be 01 50 a4 bd 20 ac e0 bc
       0.19749565 -0.16377899 -0.08023072 -0.027425826
000160 7e 2f 37 3d 3c 26 35 bd 69 56 69 bd d3 96 00 3e
       0.044723026 -0.044225916 -0.056967173 0.12557535
000170 00 f6 48 be a8 68 95 3c d4 c9 c0 3d 0e 83 21 be
       -0.19625092 0.01823838 0.09413496 -0.1577265
000180 21 43 9f 3c 1f e8 11 3e 63 c7 b8 3b 6b b6 f5 bc
       0.01944119 0.14248703 0.005639003 -0.02999421
000190 90 ab c8 bc 7a cb 2b 3d e4 dd c6 bc 23 0f 37 3d
       -0.02449587 0.041942097 -0.024275728 0.04469217
0001a0 db ad 34 bf fb 93 78 3c 04 d5 00 3e 00 20 23 3e
       -0.7057778 0.015172 0.12581259 0.15930176
0001b0 04 78 fb bc 0c 5e b7 bd a5 a4 10 be 79 5c 86 bd
       -0.030696876 -0.08953485 -0.14125307 -0.065606065
0001c0 98 33 da 3d d0 94 60 3e 86 18 14 bd 19 61 5d bc
       0.10654372 0.21931767 -0.0361562 -0.013511919
0001d0 1b a2 80 3c aa c3 96 3b 30 18 a8 bb 47 5b 11 3d
       0.015702298 0.0046009617 -0.0051298365 0.03548744
0001e0 73 70 3b be c7 f5 3e bc f3 f9 d0 3b 0f f6 85 3e
       -0.18304615 -0.011655278 0.0063774525 0.2616429
0001f0 de de 30 3d 63 9d 5c bd 2d 09 1a be 74 29 eb bd
       0.043181293 -0.053861033 -0.15042563 -0.11482516
000200 c0 97 0b 3d fb c9 b1 bd e5 76 c1 3d 7d 0a d3 bd
       0.034080267 -0.08681103 0.094465055 -0.10304735
000210 e1 2d ce bc ac ed 30 3d a0 2c 40 be 5d 46 c5 3d
       -0.025168361 0.04319541 -0.18767023 0.09632561
000220 eb ce 85 3d 69 d8 6b 3e d9 c3 b1 3e cd ec 49 be
       0.06533607 0.23031773 0.34719732 -0.19719239
000230 6a ac 0b bd a6 94 6a 3e 9e 39 6b 3e dc 80 d3 bd
       -0.034099974 0.22908267 0.22971198 -0.10327312
000240 91 d8 fb bd 62 d8 95 3d 71 e8 f9 bd 58 2a 57 3e
       -0.12297166 0.07316662 -0.12202538 0.21012247
000250 89 b8 41 3e 20 f6 d1 3d a8 b8 bf bd 45 3b 0a be
       0.18918051 0.10252023 -0.09361392 -0.13499172
000260 ee 4d 78 3d 95 1d 0d be c9 56 6f 3d 89 04 18 3e
       0.060621195 -0.13780816 0.058432374 0.1484548
000270 d9 7f da 3d 32 fb 8c bd 9b 47 ac bd 47 e2 35 3e
       0.10668916 -0.06883849 -0.08412095 0.17762099
000280 6b 82 07 be 1c c2 25 be 5f fc 0b bd 25 7c 42 3d
       -0.13233344 -0.16187328 -0.034176227 0.047481675
000290 0e ae 36 3d d6 b3 28 3e 48 cd 56 3d b7 87 8e 3e
       0.044599585 0.16474852 0.052441865 0.27837917
0002a0 09 15 a9 bd 9a 01 e7 bd 80 e4 30 3e 05 78 ee 3d
       -0.08255965 -0.11279602 0.17274666 0.11643986
0002b0 32 81 02 3f 74 e1 d6 be 8a a2 f8 3d 61 c3 0a 3e
       0.50978386 -0.41968882 0.12140377 0.13551094
0002c0 9e 5a 5c 3e 10 ff 5c bd ea 35 80 be c4 8e 95 bc
       0.21518943 -0.053954184 -0.25041133 -0.018256553
0002d0 1f a8 8b 3c c8 09 61 3e 82 f3 00 3e 61 f6 41 bc
       0.01704794 0.21976388 0.12592891 -0.011838526
0002e0 e0 12 ec 3d 00 36 cf 3a 56 4d 05 bd 67 a9 e4 bd
       0.115270376 0.001580894 -0.032544456 -0.111651234
0002f0 a4 14 a3 3d 68 34 d2 3c 10 4d bf 3d e4 b6 9d bd
       0.07962921 0.025659755 0.093408704 -0.07700899
000300 47 d1 4c bc 71 be 29 3e 52 d9 94 bd e9 cf f9 3d
       -0.0125010675 0.16576554 -0.07268013 0.12197859
000310 48 01 f4 3d f5 31 d9 3c bc 1f 08 3e 1e de 12 be
       0.11914307 0.02651308 0.13293356 -0.14342543
000320 dd d4 a0 3d 57 44 69 bd 93 02 6f 3d cd 6e ab bc
       0.078531004 -0.05694994 0.058352064 -0.020926857
000330 73 e2 23 bd 6f f7 dc 3d 19 ee 10 bf 12 65 8c be
       -0.04001088 0.10789382 -0.5661331 -0.2742086
000340 34 d1 08 3e f5 c4 16 3e 0d 06 2d 3e ba 83 fb 3d
       0.13361055 0.1472357 0.1689684 0.12280984
000350 4d 22 2a be 00 e1 7e bc 53 b8 c0 3d da 18 16 3d
       -0.16614647 -0.015556574 0.09410157 0.036644794
000360 ad a9 28 3e 81 d0 86 3d 41 1c 10 3d 3b a3 c5 3d
       0.16470976 0.06582738 0.035183195 0.09650274
000370 a8 21 b5 bd 66 88 e7 3c 55 c6 f8 3c 91 e8 ea 3d
       -0.0884431 0.028263282 0.03036801 0.1147014
000380 15 ac 71 bd 8d 31 6d 3e 84 7b fb bc 5c 25 d7 bd
       -0.059002 0.23163433 -0.030698545 -0.105051726
000390 d0 1e c0 bd f3 b4 eb 3d 36 60 d7 bc 14 76 9e 3d
       -0.09380877 0.11509123 -0.026290994 0.07737365
0003a0 8d c1 21 3e 7d c1 f6 3d 64 fc 8d bd 3e f4 ef bd
       0.1579649 0.12048624 -0.06932905 -0.117165074
0003b0 20 4b d4 3d 24 f4 e0 3d ce d0 14 be 77 4f a4 3d
       0.103658915 0.10984066 -0.14532778 0.08022969
0003c0 f9 e8 d9 3e 90 ff dc 3e 5d 92 0e 3e ff f6 8a bd
       0.42560557 0.4316373 0.1392302 -0.06785392
0003d0 87 77 e6 3d 4c e7 d4 3d 5b 72 73 3e ef 1f 2f bb
       0.11253267 0.10395679 0.23774092 -0.0026721915
0003e0 7f 7b fe 3c 7c ed 7a be da a5 8e 3c d9 d8 28 3d
       0.031064747 -0.24504656 0.017413069 0.041222427
0003f0 d9 46 20 bd 51 39 18 3e f0 a6 2f bd 7e 82 38 bd
       -0.039130066 0.14865614 -0.042883813 -0.045046322

bias f4 [50]
000000 3f 7b 0b 3d 95 0c 8f bb c9 ea 9d 3e 1f cd a7 3d
       0.034053084 -0.0043655136 0.3084319 0.081934206
000010 64 ed 09 3e e1 8d 3a 3d 74 04 0b 3e d6 1b fe bd
       0.13469464 0.045545463 0.13575917 -0.12407653
000020 fb a6 50 3c e5 b7 b9 3c 1e 44 f4 bc 56 33 2e 3d
       0.012735124 0.022670696 -0.029817637 0.042529427
000030 ab 78 31 bd 48 ec 7e 3e 7f 53 f9 3d 48 93 70 3d
       -0.04332797 0.24894822 0.12174129 0.05873421
000040 c8 43 a8 3d 57 98 3c 3e da b7 01 bd 67 74 68 3e
       0.08216053 0.18417488 -0.031669475 0.22700654
000050 76 e2 f9 3d e4 ec ca 3d a1 b8 2c 3e 39 f4 84 3e
       0.12201397 0.099084646 0.16867305 0.25967577
000060 41 05 e8 bd c3 a2 07 be be fb ad 3d 8a af 6f 37
       -0.11329127 -0.13245682 0.08495282 1.4286381e-05
000070 31 44 75 3d b3 4f 1a 3e 29 7f 36 3e 9d 5c 97 3d
       0.059879486 0.15069465 0.17821945 0.073907115
000080 1e 0c f5 3d 86 1c a1 bd d4 81 09 be 78 5a 7a be
       0.11965202 -0.078667685 -0.13428432 -0.24448574
000090 ef 44 c6 3c b2 5d 6d 3e 5f 32 5b be a6 f5 30 3e
       0.024202792 0.23180273 -0.21405934 0.17281207
0000a0 0b 20 0d 3e 79 9b 39 3d 1b 7a 3c 3e a5 e5 f6 3d
       0.13781755 0.045314286 0.18405955 0.1205552
0000b0 eb 5b 00 3d 4b cd e3 3c a7 79 09 3d cf 70 9c 3d
       0.03133766 0.027807852 0.033563282 0.07638704
0000c0 67 3b 8a 3d 89 a6 c1 3c
       0.06749611 0.02363898

weight f4 [50]
000000 00 00 80 3f 00 00 80 3f 00 00 80 3f 00 00 80 3f
       1.0 1.0 1.0 1.0
000010 00 00 80 3f 00 00 80 3f 00 00 80 3f 00 00 80 3f
       1.0 1.0 1.0 1.0
000020 00 00 80 3f 00 00 80 3f 00 00 80 3f 00 00 80 3f
       1.0 1.0 1.0 1.0
000030 00 00 80 3f 00 00 80 3f 00 00 80 3f 00 00 80 3f
       1.0 1.0 1.0 1.0
000040 00 00 80 3f 00 00 80 3f 00 00 80 3f 00 00 80 3f
       1.0 1.0 1.0 1.0
000050 00 00 80 3f 00 00 80 3f 00 00 80 3f 00 00 80 3f
       1.0 1.0 1.0 1.0
000060 00 00 80 3f 00 00 80 3f 00 00 80 3f 00 00 80 3f
       1.0 1.0 1.0 1.0
000070 00 00 80 3f 00 00 80 3f 00 00 80 3f 00 00 80 3f
       1.0 1.0 1.0 1.0
000080 00 00 80 3f 00 00 80 3f 00 00 80 3f 00 00 80 3f
       1.0 1.0 1.0 1.0
000090 00 00 80 3f 00 00 80 3f 00 00 80 3f 00 00 80 3f
       1.0 1.0 1.0 1.0
0000a0 00 00 80 3f 00 00 80 3f 00 00 80 3f 00 00 80 3f
       1.0 1.0 1.0 1.0
0000b0 00 00 80 3f 00 00 80 3f 00 00 80 3f 00 00 80 3f
       1.0 1.0 1.0 1.0
0000c0 00 00 80 3f 00 00 80 3f
       1.0 1.0

bias f4 [50]
000000 00 00 00 00 00 00 00 00 00 00 00 00 00 00 00 00
       0.0 0.0 0.0 0.0
000010 00 00 00 00 00 00 00 00 00 00 00 00 00 00 00 00
       0.0 0.0 0.0 0.0
000020 00 00 00 00 00 00 00 00 00 00 00 00 00 00 00 00
       0.0 0.0 0.0 0.0
000030 00 00 00 00 00 00 00 00 00 00 00 00 00 00 00 00
       0.0 0.0 0.0 0.0
000040 00 00 00 00 00 00 00 00 00 00 00 00 00 00 00 00
       0.0 0.0 0.0 0.0
000050 00 00 00 00 00 00 00 00 00 00 00 00 00 00 00 00
       0.0 0.0 0.0 0.0
000060 00 00 00 00 00 00 00 00 00 00 00 00 00 00 00 00
       0.0 0.0 0.0 0.0
000070 00 00 00 00 00 00 00 00 00 00 00 00 00 00 00 00
       0.0 0.0 0.0 0.0
000080 00 00 00 00 00 00 00 00 00 00 00 00 00 00 00 00
       0.0 0.0 0.0 0.0
000090 00 00 00 00 00 00 00 00 00 00 00 00 00 00 00 00
       0.0 0.0 0.0 0.0
0000a0 00 00 00 00 00 00 00 00 00 00 00 00 00 00 00 00
       0.0 0.0 0.0 0.0
0000b0 00 00 00 00 00 00 00 00 00 00 00 00 00 00 00 00
       0.0 0.0 0.0 0.0
0000c0 00 00 00 00 00 00 00 00
       0.0 0.0

running_mean f4 [50]
000000 00 00 00 00 00 00 00 00 00 00 00 00 00 00 00 00
       0.0 0.0 0.0 0.0
000010 00 00 00 00 00 00 00 00 00 00 00 00 00 00 00 00
       0.0 0.0 0.0 0.0
000020 00 00 00 00 00 00 00 00 00 00 00 00 00 00 00 00
       0.0 0.0 0.0 0.0
000030 00 00 00 00 00 00 00 00 00 00 00 00 00 00 00 00
       0.0 0.0 0.0 0.0
000040 00 00 00 00 00 00 00 00 00 00 00 00 00 00 00 00
       0.0 0.0 0.0 0.0
000050 00 00 00 00 00 00 00 00 00 00 00 00 00 00 00 00
       0.0 0.0 0.0 0.0
000060 00 00 00 00 00 00 00 00 00 00 00 00 00 00 00 00
       0.0 0.0 0.0 0.0
000070 00 00 00 00 00 00 00 00 00 00 00 00 00 00 00 00
       0.0 0.0 0.0 0.0
000080 00 00 00 00 00 00 00 00 00 00 00 00 00 00 00 00
       0.0 0.0 0.0 0.0
000090 00 00 00 00 00 00 00 00 00 00 00 00 00 00 00 00
       0.0 0.0 0.0 0.0
0000a0 00 00 00 00 00 00 00 00 00 00 00 00 00 00 00 00
       0.0 0.0 0.0 0.0
0000b0 00 00 00 00 00 00 00 00 00 00 00 00 00 00 00 00
       0.0 0.0 0.0 0.0
0000c0 00 00 00 00 00 00 00 00
       0.0 0.0

running_var f4 [50]
000000 00 00 80 3f 00 00 80 3f 00 00 80 3f 00 00 80 3f
       1.0 1.0 1.0 1.0
000010 00 00 80 3f 00 00 80 3f 00 00 80 3f 00 00 80 3f
       1.0 1.0 1.0 1.0
000020 00 00 80 3f 00 00 80 3f 00 00 80 3f 00 00 80 3f
       1.0 1.0 1.0 1.0
000030 00 00 80 3f 00 00 80 3f 00 00 80 3f 00 00 80 3f
       1.0 1.0 1.0 1.0
000040 00 00 80 3f 00 00 80 3f 00 00 80 3f 00 00 80 3f
       1.0 1.0 1.0 1.0
000050 00 00 80 3f 00 00 80 3f 00 00 80 3f 00 00 80 3f
       1.0 1.0 1.0 1.0
000060 00 00 80 3f 00 00 80 3f 00 00 80 3f 00 00 80 3f
       1.0 1.0 1.0 1.0
000070 00 00 80 3f 00 00 80 3f 00 00 80 3f 00 00 80 3f
       1.0 1.0 1.0 1.0
000080 00 00 80 3f 00 00 80 3f 00 00 80 3f 00 00 80 3f
       1.0 1.0 1.0 1.0
000090 00 00 80 3f 00 00 80 3f 00 00 80 3f 00 00 80 3f
       1.0 1.0 1.0 1.0
0000a0 00 00 80 3f 00 00 80 3f 00 00 80 3f 00 00 80 3f
       1.0 1.0 1.0 1.0
0000b0 00 00 80 3f 00 00 80 3f 00 00 80 3f 00 00 80 3f
       1.0 1.0 1.0 1.0
0000c0 00 00 80 3f 00 00 80 3f
       1.0 1.0

weight f4 [20, 50]
000000 4b 0a 7c bd 1e 3a a1 3e ad 4c 2f 3e 33 0b 3b bd
       -0.061533254 0.31489652 0.17119093 -0.045664977
000010 0a 42 30 3c 6d a9 71 3e ac fb 6e bd 36 08 dd 3d
       0.010757932 0.23599787 -0.05834548 0.10792582
000020 67 bc be 3d cd 81 45 3e 0e 94 e0 bd 86 04 fd 3d
       0.09313279 0.19287796 -0.10965739 0.123543784
000030 51 6c 4b bd c8 83 11 3e 6e d3 2b bd f6 ab 17 3e
       -0.049663845 0.14210427 -0.041949682 0.14811692
000040 f5 90 81 3c cc fa cd 3e c6 5d b1 be 13 c9 3e 3e
       0.015816191 0.40230405 -0.34641856 0.18631391
000050 a4 40 63 3c f6 2c 99 be db 62 83 3e c2 74 00 3f
       0.013870392 -0.29917115 0.25661358 0.5017816
000060 9d 1e 9c bd 54 91 70 3d fb 10 92 be 13 13 96 bd
       -0.076230265 0.058732346 -0.2852858 -0.07327857
000070 b5 b6 00 be 57 09 5c 3e f8 7f ef bd 70 01 d1 3c
       -0.12569697 0.21487938 -0.1169433 0.02551338
000080 4c 5f d6 ba 33 73 3b 3e dd f6 1b be 89 3b 93 3e
       -0.0016355305 0.18305664 -0.1523089 0.2875636
000090 b4 43 84 bd 7f f6 ab 3d eb 8e 3a 3e a4 df 5c 3e
       -0.06458226 0.08396625 0.18218581 0.21569687
0000a0 fa 1c 9f bd 75 18 27 3d fe eb af be 9f ab 48 3e
       -0.07769199 0.04079481 -0.34359735 0.19596718
0000b0 0b d6 40 3e 28 61 3a 3d 0d cc 07 be 74 ab 49 3e
       0.18831651 0.04550281 -0.13261433 0.1969431
0000c0 e0 ac cc bc 35 14 2e be 3a 05 2b be 61 67 7e 3c
       -0.024984777 -0.16999896 -0.16701213 0.015527577
0000d0 da 9e 27 3f 62 2c c9 3d dc b6 32 3e d4 69 e7 3d
       0.65476763 0.098229185 0.17452568 0.11299482
0000e0 3a bf 92 3e bd 6a ca bd 05 a5 57 3e 86 33 09 3e
       0.2866152 -0.0988364 0.21059044 0.13398561
0000f0 f5 44 92 3d 9a e2 9a be 19 8a 68 be 02 cb 4f 3e
       0.07142059 -0.30251008 -0.2270893 0.20292285
000100 37 20 81 3e c8 f1 af 3e b5 2e 90 bd ea b2 cc bd
       0.2521989 0.34364152 -0.07040159 -0.09995063
000110 44 44 7a bd 90 41 89 3e 33 15 88 be c2 bc a7 bd
       -0.06110026 0.26807833 -0.26578674 -0.081902996
000120 6d 47 06 3d 8a 94 1d 3e c1 cb 2a 3e 2e 8f 8d be
       0.03278296 0.15388694 0.16679288 -0.276483
000130 a3 29 7b 3e 9f cb 87 3d 1d 17 23 3e 53 b9 81 bb
       0.24527602 0.066306345 0.15926786 -0.00395886
000140 2b 56 4a 3e 4f 08 35 be cb 7c f4 be fb 78 89 be
       0.19759433 -0.1767895 -0.4775146 -0.26850113
000150 eb f3 ac be cc 4b 50 3d 79 65 6c be 86 7c ab 3d
       -0.33779845 0.050853536 -0.23085584 0.0837336
000160 50 f4 45 3e af ec 53 3d fc 24 9f 3e f9 2e 8e be
       0.19331479 0.05173939 0.31082904 -0.27770212
000170 08 9d 20 3e 4b 20 ec 3d 5d d4 9c bc a5 97 20 3e
       0.15684903 0.11529597 -0.019144231 0.15682848
000180 7c a1 07 3e 69 aa 30 3e d7 3e 5c be 89 c6 29 3d
       0.13245195 0.17252506 -0.21508346 0.041449104
000190 1d 17 e6 bd 11 9f 30 be 9b b0 e0 3d f2 f6 0d be
       -0.11234877 -0.17248179 0.10971185 -0.13863733
0001a0 d6 5e d6 bc b7 ca 75 bb 20 84 92 3d ba 92 c0 3d
       -0.026168268 -0.003750486 0.07154107 0.09402986
0001b0 fd d8 99 bd 5d e4 9b bd 34 6a db bc 7e ed f1 bc
       -0.0751209 -0.07611916 -0.02678404 -0.02953219
0001c0 54 af 5a bd c5 bc c7 3d 34 ba a0 bb c8 b9 96 bd
       -0.053389862 0.09752802 -0.0049050096 -0.07359654
0001d0 be 88 9e bd 66 c4 0b be e6 eb 06 be e7 36 00 be
       -0.07740925 -0.13649139 -0.13175926 -0.12520944
0001e0 b8 c9 ab bc 7c 50 ea bc de 6e af bc 61 b2 04 be
       -0.02097021 -0.028602831 -0.02141517 -0.12958671
0001f0 c8 ad 11 3d db 7c 15 bd f3 44 ce bc e5 cc 3d 3d
       0.03556612 -0.036496025 -0.025179362 0.04633798
000200 0d 07 3b 3d 34 12 ba 3d df 56 8f 3c 2c 70 a7 bd
       0.04566102 0.09085503 0.017497478 -0.08175692
000210 a8 60 1d bc c8 0e de bd 8f c8 8d bd 88 96 0b 3d
       -0.009605564 -0.10842663 -0.06923019 0.034079105
000220 ae 44 a1 bd 96 0b 6f 3d 6c 9b bd 3b 46 24 0e bd
       -0.07874428 0.05836066 0.00578635 -0.03470256
000230 34 3d 33 bd be e1 f0 bd 36 95 c7 bc 40 89 40 be
       -0.04375954 -0.11761807 -0.024363142 -0.18802357
000240 4b 89 0b be 33 b1 88 bb 86 9c c3 3b dc 1d b0 3d
       -0.13626592 -0.0041715144 0.005969587 0.08599445
000250 1b 1b 2c 3d c4 ef b8 bd e7 6e 03 be 82 93 9e 3e
       0.042018037 -0.09030107 -0.12835275 0.30971915
000260 3f a2 f9 3d 7c 8c b4 bd 35 4c ce 3c ba 2b 8f 3e
       0.12189149 -0.08815858 0.025182823 0.27963048
000270 76 a0 18 bd af eb 28 3c 81 94 03 3e 75 32 8f 3e
       -0.037262402 0.010310098 0.12849618 0.27968183
000280 77 5e 47 be eb b9 f7 bd 3b 52 a2 be 8a 93 ad 3e
       -0.19469629 -0.12096008 -0.31703362 0.33901626
000290 0f 29 fe 3c 09 da 82 3e 44 f8 42 3d 6a b2 09 3e
       0.031025438 0.25556973 0.047600046 0.13446966
0002a0 44 ec a3 be 49 db 41 3e 61 a8 ac bd e4 f4 e3 bd
       -0.32016194 0.18931307 -0.08430553 -0.111306936
0002b0 7c 92 8e 3e 05 c6 ab 3e 38 f8 f9 bd 99 68 0a bd
       0.27846134 0.33549514 -0.12205547 -0.03379116
0002c0 b4 6f b3 be 4d 3a ff bd bc ba a5 3d cf c6 35 3e
       -0.3504616 -0.12462292 0.080922574 0.1775162
0002d0 00 7f bc 3c ff b9 00 bd 04 19 1a bd de ac ba bd
       0.023009777 -0.03142738 -0.037621513 -0.09115003
0002e0 17 58 29 be eb 00 92 3e b7 79 33 be 48 6d 33 3e
       -0.1653751 0.28516325 -0.175269 0.17522156
0002f0 0f ff 50 3e 1a 2c 5d 3e 3c dd fb 3d cf d5 f1 3b
       0.20409797 0.21598855 0.122980565 0.0073802243
000300 ac b4 33 bd aa 17 87 3e ee e6 78 3e 9e 17 27 3d
       -0.043873474 0.26385242 0.24306843 0.040794007
000310 9d a2 97 be 87 ad 5b 3e a5 6f 2b be 8c b4 82 be
       -0.29616252 0.21452914 -0.16741808 -0.2552837
000320 f8 db a5 bd 2d 6a 8a bd c0 0e 89 3c e2 b8 e4 3d
       -0.08098596 -0.06758533 0.016730666 0.11168076
000330 ea 10 d2 bd 70 69 84 bd 90 b3 64 bd 18 de 3c 3d
       -0.10257132 -0.06465423 -0.055835307 0.046110243
000340 c0 e4 3f bc 5a b7 f9 bd 00 15 06 3d b4 af 61 bd
       -0.011712253 -0.12193175 0.03273487 -0.055099204
000350 2c 3d 66 bd 18 99 87 bd 00 e7 b9 bd d0 09 82 3c
       -0.05621068 -0.06620997 -0.09077263 0.01587382
000360 f6 e0 b8 3d 40 56 3b 3c 20 2f 0c 3d 24 1e ae bd
       0.09027283 0.011434138 0.03422463 -0.085018426
000370 1c 3e b0 bd e3 0d a1 bd e2 08 78 bd 30 c4 02 be
       -0.086055964 -0.07863977 -0.060555346 -0.12770152
000380 d9 aa e1 bd a0 1b b3 bd ef cc fc bd 44 95 45 3d
       -0.11018915 -0.087455034 -0.123437755 0.048238054
000390 39 68 bd bd 62 6e d0 3d 1c 95 00 be 60 3e 06 be
       -0.092483945 0.10177304 -0.1255688 -0.13109732
0003a0 c6 02 e9 3d 31 21 0e be 34 7b c5 bd 08 1e 41 3d
       0.11377482 -0.13879849 -0.0964264 0.04714778
0003b0 0d 98 0c 3e cb 00 e7 bd 5c 53 2d 3d ab 3a 90 bd
       0.13729878 -0.11279448 0.042315826 -0.0704244
0003c0 d8 5e 9c bc e0 a2 0f 3d b4 c9 aa bd f6 d2 d7 3d
       -0.019088194 0.03506744 -0.08339253 0.105382845
0003d0 e2 1c c8 3d 42 89 0e be a2 46 fa 3d 61 e0 9a bd
       0.09771134 -0.13919547 0.122205034 -0.07562328
0003e0 07 ee f0 bd 09 06 07 3e af ac d5 3e c4 b0 da 3e
       -0.1176415 0.13185896 0.4173331 0.42712986
0003f0 29 86 d0 be 8d 4f 4a be 68 7f 5a 3e df 9f 70 3e
       -0.40727356 -0.19756909 0.21337664 0.23498486

bias f4 [20]
000000 64 ae 4b 3e 7c b5 a6 bc bb a8 9d 3d 6b d7 86 3b
       0.19890743 -0.02035021 0.076981984 0.0041150353
000010 78 23 59 bd f1 4b 2d 3e eb 6b 54 3c 09 2f c5 bd
       -0.05301234 0.169235 0.012965183 -0.09628112
000020 e4 b8 44 bd e9 be 5c 3e c0 d7 03 bd b8 c9 37 3e
       -0.048027888 0.21557201 -0.032188177 0.17948043
000030 85 ff 40 3e 42 06 2f 3e d7 6b 04 bc 02 da 8e bd
       0.18847473 0.17092231 -0.008082352 -0.069751754
000040 eb 23 db 3d 82 35 85 bd 50 cf ee bc f0 5c 1e 3d
       0.1070021 -0.065043464 -0.029151589 0.03866285

weight f4 [20]
000000 00 00 80 3f 00 00 80 3f 00 00 80 3f 00 00 80 3f
       1.0 1.0 1.0 1.0
000010 00 00 80 3f 00 00 80 3f 00 00 80 3f 00 00 80 3f
       1.0 1.0 1.0 1.0
000020 00 00 80 3f 00 00 80 3f 00 00 80 3f 00 00 80 3f
       1.0 1.0 1.0 1.0
000030 00 00 80 3f 00 00 80 3f 00 00 80 3f 00 00 80 3f
       1.0 1.0 1.0 1.0
000040 00 00 80 3f 00 00 80 3f 00 00 80 3f 00 00 80 3f
       1.0 1.0 1.0 1.0

bias f4 [20]
000000 00 00 00 00 00 00 00 00 00 00 00 00 00 00 00 00
       0.0 0.0 0.0 0.0
000010 00 00 00 00 00 00 00 00 00 00 00 00 00 00 00 00
       0.0 0.0 0.0 0.0
000020 00 00 00 00 00 00 00 00 00 00 00 00 00 00 00 00
       0.0 0.0 0.0 0.0
000030 00 00 00 00 00 00 00 00 00 00 00 00 00 00 00 00
       0.0 0.0 0.0 0.0
000040 00 00 00 00 00 00 00 00 00 00 00 00 00 00 00 00
       0.0 0.0 0.0 0.0

running_mean f4 [20]
000000 00 00 00 00 00 00 00 00 00 00 00 00 00 00 00 00
       0.0 0.0 0.0 0.0
000010 00 00 00 00 00 00 00 00 00 00 00 00 00 00 00 00
       0.0 0.0 0.0 0.0
000020 00 00 00 00 00 00 00 00 00 00 00 00 00 00 00 00
       0.0 0.0 0.0 0.0
000030 00 00 00 00 00 00 00 00 00 00 00 00 00 00 00 00
       0.0 0.0 0.0 0.0
000040 00 00 00 00 00 00 00 00 00 00 00 00 00 00 00 00
       0.0 0.0 0.0 0.0

running_var f4 [20]
000000 00 00 80 3f 00 00 80 3f 00 00 80 3f 00 00 80 3f
       1.0 1.0 1.0 1.0
000010 00 00 80 3f 00 00 80 3f 00 00 80 3f 00 00 80 3f
       1.0 1.0 1.0 1.0
000020 00 00 80 3f 00 00 80 3f 00 00 80 3f 00 00 80 3f
       1.0 1.0 1.0 1.0
000030 00 00 80 3f 00 00 80 3f 00 00 80 3f 00 00 80 3f
       1.0 1.0 1.0 1.0
000040 00 00 80 3f 00 00 80 3f 00 00 80 3f 00 00 80 3f
       1.0 1.0 1.0 1.0

weight f4 [2, 20]
000000 08 ca 8f be d6 f4 ab 3e ee c6 c5 bd 04 da da be
       -0.28083825 0.33585232 -0.096570835 -0.42744458
000010 08 b8 51 be 38 25 dd be 2b a5 00 bf 89 51 2e 3f
       -0.20480359 -0.43192458 -0.50252026 0.6809316
000020 34 b8 08 3f a5 bd f9 3d c1 3b fb 3e d3 42 60 be
       0.5340607 0.12194375 0.49069026 -0.21900491
000030 ba b5 cc be e4 ed 21 3f 12 61 f3 3d a9 2c 2e be
       -0.39982396 0.6325362 0.11883749 -0.17009224
000040 3e 23 7f 3e f0 38 26 bc 4e c0 36 3f 17 d9 8f 3e
       0.24915788 -0.010145411 0.71387184 0.28095314
000050 69 1e b2 3d 4a 3f 38 3f e3 6f 00 be f3 06 bf 3e
       0.086972065 0.7197157 -0.12542681 0.3730999
000060 00 df 7c bd 5b f0 92 be 16 5a 22 3d 86 01 c5 bd
       -0.061736107 -0.28699002 0.039636694 -0.09619431
000070 3b 34 92 3e 3e d9 e6 3e 5c 19 05 3f c7 20 21 3f
       0.28555474 0.45087618 0.5199182 0.6294064
000080 56 94 b6 3e e9 fa 0b 3f 3f 13 cd be 3f 3f 14 3e
       0.35660046 0.54679734 -0.40053746 0.14477251
000090 de d7 9a be ae 9e 54 3e 42 3d de 3e 9f 04 e8 be
       -0.3024282 0.20763656 0.4340611 -0.45316026

bias f4 [2]
000000 18 03 87 be 6c 12 7a be
       -0.26369548 -0.2442109
