models/2UAVs_142782/c_c0.pt (torch_old, 28024 bytes, 15 tensors)

weight f4 [50, 68]
00000000: 6b9e 1dbd 8481 d7bd 7dd2 7dbe 83f5 963d
00000010: bee8 6a3d 12c2 bdbd 4b4e 66bc cd83 f03d
00000020: ef64 33bd 6328 a9bd c600 3f3d b63b 93bd
00000030: b5d4 c03d 9862 d93d 0ba6 923d 8bc1 84bd
00000040: 5cbc 4dbd 9c2c 95bd 7101 d03d f1c3 db3c
00000050: 150c 903d b2e4 08bd 5716 0c3e f734 373d
00000060: a573 2fbd 1757 88bd 1a1a 833d 2a95 ba3c
00000070: ab2c 97bd 27e8 08bd 1ca8 c1bc d6e1 ed3c
00000080: fb8c fcbd 0ba6 cebd 85b0 8dbc 3b90 e63d
00000090: 7b77 3a3e 27fc 983d 946e 36bc 3205 3f3d
000000a0: 62e6 433d 8ebc 413c a87b c23d 397c f63d
000000b0: 21e6 1a3d d490 11be dac7 09be 4e14 1dbd
000000c0: 8344 d4bc fca6 0d3e 3410 87bd de96 8e3d
000000d0: 1551 0bbd 329d 12bd 85ea c1bd cbbb 2fbe
000000e0: 386b 63bc 7152 3a3c 7f3c 4b3d 7c00 133d
000000f0: e6fa d1bc 0dc4 61bd af02 893d e8dd 893d
00000100: 1b97 b1bc 82a5 49bd c144 b93b 1d18 b8bd
00000110: db95 7abd a69d b73c 1190 16be c5dc b73c
00000120: f4a3 eb3b 9b85 93bd d83c 953d 0363 7dbc
00000130: 1eef 9bbd 5729 a03d 2770 1ebe 364e c6bd
00000140: 1201 103d c75e 15bc d2bf 08bc 19bb 893c
00000150: 14e2 48bd 1cdc 90bc 5863 d8bd 6302 8cbd
00000160: cb23 15be 57db 4dbd 754f 7dbd 3039 3c3d
00000170: ae57 f5bc fb74 823d 4828 5b3c 4d90 94bd
00000180: fa86 02be 186d bb3d 2d73 52bd 3f12 94bb
00000190: a16c e2bb 6167 b13d 59e6 ae3d 6707 f53d
000001a0: 2d65 2d3e f349 84bd 21e4 ad3b 0ce4 46bd
000001b0: 7a05 d83d 1e21 bcbd 4382 193d 4789 be3d
000001c0: 7e69 a6bc 3e72 9b3d c222 49bd f11b dabd
000001d0: 87b2 243c 0b99 323d 5ebf 5ebd 06d8 473d
000001e0: a7b1 f7bd cb0d 5a3d a922 1fbe 7944 15bc
000001f0: 395a 7ebc 4034 24bd 5487 8d3c c8d1 edbb
00000200: 980c 04bc 9213 d4bd 02e9 2cbe 4a9d 973d
00000210: 388d 83bd 0291 87bd ff03 033d 24a7 903d
00000220: 57a8 2f3d 6100 1abe 0c58 5d3a 6b74 713c
00000230: e6a9 54bd 9ce5 2abd 6da1 2cbd dd8b a03d
00000240: 695e c8bd 1d62 6b3c 6696 27bd 356f 94bd
00000250: 52e2 bd3d e4d9 3b3d 1362 c93d f219 0fbe
00000260: 0729 ce3d 683e 463d 0116 043d 0e66 6ebd
00000270: ed72 ae3d d881 9ebd b1fe 573d 228a b83d
00000280: 2875 13bc c755 30bc 5c83 cdbd 7107 c23d
00000290: 70e8 423d e490 2dbd d85f a0bc c771 d23c
000002a0: 6ae8 2dbd 2adf a5bd a7f6 423d abe0 4dbe
000002b0: 622f 0b3d 7ab8 25be 874f 5f3a 7d9e febc
000002c0: 9fb4 1f3e 3667 893d 936e d1bd 9d25 cc3c
000002d0: e7e4 41bc a37e f0bc 1afb 1f3c ae63 98bc
000002e0: 77df d43d 45e6 e7bc 0d36 063e 63a0 b2bd
000002f0: 34eb b13d 183c b83c 77cd cabd 722f ec3d
00000300: d3fc acbd 295f 853c 7bbc 65bc de0a c83d
00000310: 9c77 a4bc e5f9 e63d 55b8 32bc 47db 813d
00000320: b9d0 1c3d f7c7 943c 9062 fd3d d788 e9bc
00000330: 8991 52be 4aa5 4f3d 390d a83c cd49 fbbb
00000340: 8f72 9f3d bf8f cd3d 86ac 3c3d 6d32 c43d
00000350: c111 38bd 4cd5 363a f7e7 2cbd a5e8 efbd
00000360: 80f7 d83c abef a33d 505a ca3d 5dcb a23d
00000370: ea50 9b3d 863e a2bd 2c42 51bd 70c5 76bd
00000380: 4e87 5dbd a04b 6abd 3b55 c8bd 03e8 b03d
00000390: 353c f2bc 161d 3e3d b49f adbd f8c8 f0bd
000003a0: fd93 9dbd a1df 4fbd 27b0 99bd 9cd1 59bd
000003b0: 8d0a 3cbc 1e4b c9bd 4b6a 97bd c62a 00bd
000003c0: 6464 5ebe 5f3e cb3d b3a3 cf3c eee6 33bc
000003d0: 6cf7 3a3d 2b37 753d 6027 84bc 57e8 873c
000003e0: d069 f9bd 7c6f cc3c 807b dbbd 63b0 a13d
000003f0: feb8 a3bd 698e e13c 1dbc ad3c 6696 9a3d
-0.038481157 -0.1052275 -0.24787326 0.073710464 0.057350866 -0.092655316 -0.014056752 0.11743889
-0.04379743 -0.08259656 0.046631597 -0.07189123 0.09415571 0.106145084 0.071605764 -0.06482228
-0.05022846 -0.07283899 0.10156525 0.02682683 0.070335545 -0.033421226 0.13680397 0.044728246
-0.042834897 -0.06657236 0.06401463 0.022776205 -0.073815666 -0.033424523 -0.023639731 0.029038351
-0.123315774 -0.10090264 -0.017296085 0.112579785 0.1820964 0.07469969 -0.011134762 0.046635814
0.047827132 0.01182474 0.09496242 0.12035412 0.037817124 -0.14215404 -0.13455144 -0.038349442
-0.025911575 0.1383323 -0.065948874 0.069623694 -0.034012873 -0.035794444 -0.09468559 -0.17161481
-0.013880543 0.011372195 0.04961824 0.035889134 -0.025632333 -0.05511861 0.06689965 0.067317784
-0.021678498 -0.049230106 0.005653948 -0.08988974 -0.06117807 0.02241404 -0.14703394 0.022444138
0.0071911756 -0.072032176 0.07286996 -0.015465501 -0.07613967 0.07820385 -0.1547247 -0.09682886
0.03515727 -0.009116835 -0.008346515 0.016812848 -0.04904373 -0.017683081 -0.10565823 -0.06836393
-0.14564435 -0.050258007 -0.061843354 0.045952976 -0.029949035 0.063699685 0.013376303 -0.07254086
-0.12746802 0.09151667 -0.05137937 -0.0045187767 -0.006909922 0.08662296 0.08540029 0.119643025
0.16933127 -0.06459417 0.005306736 -0.048557326 0.105479196 -0.09186004 0.037477743 0.09303527
-0.020313974 0.07590149 -0.049105413 -0.10649861 0.01005233 0.043602984 -0.05438172 0.04879
-0.12094431 0.05323581 -0.15540566 -0.009110563 -0.01552444 -0.040088892 0.017276444 -0.007257674
-0.008059643 -0.10355295 -0.1688576 0.074030474 -0.0642342 -0.06619455 0.031986233 0.070631295
0.04288515 -0.15039207 0.0008443601 0.014737229 -0.05191984 -0.04172288 -0.042146135 0.07839177
-0.09783632 0.014366654 -0.040914916 -0.072477736 0.09271683 0.045862094 0.09833159 -0.13974741
0.10066419 0.04839936 0.032247547 -0.058202796 0.08518014 -0.077396095 0.052733127 0.09010722
-0.0090001 -0.010762638 -0.100348204 0.094740756 0.04758495 -0.042374507 -0.019576952 0.025689019
-0.042457975 -0.08099206 0.047598507 -0.20105235 0.033980735 -0.16183653 0.00085186254 -0.031081432
0.15596245 0.06709139 -0.102261685 0.02492028 -0.01183436 -0.02935726 0.009764457 -0.018602218
0.10394185 -0.028308043 0.13106556 -0.087219976 0.086874396 0.022489592 -0.099024706 0.11532487
-0.0844666 0.016280727 -0.014021988 0.09767698 -0.020076565 0.11278132 -0.010908206 0.06340652
0.03828499 0.018161757 0.12372315 -0.028507633 -0.2056333 0.05069474 0.020514118 -0.00766871
0.07785522 0.10037183 0.04606297 0.095799305 -0.044938806 0.0006974533 -0.042213406 -0.11714295
0.026485205 0.080046974 0.09880507 0.07948945 0.075837925 -0.07922082 -0.051088497 -0.060246885
-0.054084115 -0.057201028 -0.097818814 0.08638003 -0.029569725 0.046414457 -0.084777266 -0.11757082
-0.07694242 -0.05075038 -0.075043015 -0.053178415 -0.011477125 -0.098287806 -0.07393321 -0.031290792
-0.21717983 0.09924006 0.025346613 -0.010980351 0.045646116 0.059867065 -0.016132057 0.01659028
-0.12178385 0.024955504 -0.10716915 0.07894971 -0.07994269 0.027533727 0.021207863 0.075482175

bias f4 [50]
00000000: aaab 30bd 3dfa ac3d b189 d03d c40b 163e
00000010: df4f 8e3d d1f3 123e be03 6f3d d33c ca3d
00000020: 9291 ad3d 15d0 e9bc 80a7 32bd 2fec 653c
00000030: f612 9dbd 94d5 503d 01e5 9b3d 0f6c fbbd
00000040: aaf6 eb3d 5054 483d 534b 8fbd 64f9 8fbd
00000050: 9096 aa3d 0832 06be eb40 0d3e 390e 423c
00000060: 5a9d c73c 8080 b93d c0bf 47bd e73a aabd
00000070: b8db 3ebd 6b7c 45bc 0ff2 d23d 1d5d 313d
00000080: 4651 c13d 47a6 5ebd 06e2 a33c 3085 b83d
00000090: 2708 db3d 4032 053d 8504 523d d9bd 30bd
000000a0: adb7 58bc a45e f93c a021 16bd 22ac a63c
000000b0: 393c ae3d 7f2e ef3d 7b8f e0bd 71c3 243b
000000c0: fa7b 983d 0be1 6ebd
-0.04313246 0.08446167 0.101825126 0.14652926 0.06948828 0.14350821 0.05835318 0.098748825
0.08475031 -0.028541604 -0.04361677 0.014033361 -0.07669632 0.050984934 0.076120384 -0.1227647
0.11521657 0.04890853 -0.06996789 -0.07029989 0.08329499 -0.13105023 0.13794295 0.011844211
0.024367023 0.090577126 -0.04876685 -0.08312016 -0.04659626 -0.012053589 0.10300075 0.04330169
0.0943933 -0.054357793 0.020005237 0.090097785 0.10694914 0.032518625 0.05127384 -0.043149803
-0.0132273855 0.030440636 -0.03665316 0.020345751 0.0850758 0.1167879 -0.10964867 0.0025140906
0.07445522 -0.058320086

weight f4 [50, 4]
00000000: 27a6 6c3e 3f04 47bd cf4a e73e b2bb aebe
00000010: 5724 103e 90cc 0ebf be2b 9dbe 2d45 8b3e
00000020: 8df1 d43d 305c 883e 348e d4be afc8 943e
00000030: e29b c5bd 3d5f 46be 08ad 8dbe 4827 7c3e
00000040: f9bd 393e 7eef 12bf 5d31 0d3f 2d24 5e3d
00000050: 6db6 9cbe 095d a93e fda5 4fbd b87e df3e
00000060: 03af 74be 2641 c7be 7876 dcbd 7a3d cbbe
00000070: de93 39be a0d2 e1be e678 b03e 0dd0 3b3e
00000080: a475 9f3d 74c4 bebe 768f 02bf 9b62 ab3e
00000090: 16cc a53d b35c f03d bd78 043e 570c ba3d
000000a0: 81d2 0fbe 2039 10be b6cb 113e dba8 c3be
000000b0: 2c03 743e abde ccbc f3b2 61be 991a ce3e
000000c0: b2a1 843e 2a83 e0be 295a 8c3d 13f5 9abe
000000d0: 6416 6f3d 0a04 c5be bd57 4d3e 7431 053d
000000e0: 6703 a2be 760e 83be d905 5ebd 9602 a83e
000000f0: 30ec b5be 74a5 62be b7be 02bd 7dec a03e
00000100: 227f e4be cc3e 94be 79f0 4ebe 7271 d83e
00000110: aae3 81be 79c8 06be 2bf8 f43e 9ce2 d7be
00000120: 9639 a3bd 7145 753e 4a84 a9bd e11c d53e
00000130: 86a1 bfbe dcf6 933e 1da4 aa3e 1597 af3e
00000140: 5b83 b3bd 8551 f4be d277 693e bdb9 ad3e
00000150: c2a8 313e 0772 d0be 4778 253e 6ba3 a0be
00000160: fc43 9a3d ca52 e3be cebb f4bd 395b 5d3c
00000170: 13d5 de3e 7228 aebd 7b92 cfbe fa83 943d
00000180: 05a0 b9be 8300 99be 1da1 c73e 8840 f0be
00000190: 81c4 aebe a0ca 083d cd5f b23e e895 7abe
000001a0: 5a20 18be cd01 e13e 8966 9dbd 16ef 80be
000001b0: 31f4 4ebe 7bf0 343d 1242 09bf 7826 073e
000001c0: 8615 de3e 04e2 803e a3a4 24be 703b ef3e
000001d0: b5b8 41be d07c 443e bf59 863e 34f4 a73e
000001e0: e6f1 e03e 38d8 76be a180 44be 4895 a5be
000001f0: 36a8 5e3e 44b3 833d 8d7d 6bbd 9537 8c3e
00000200: 198e 18be b420 7e3c 685d da3e 74a0 95be
00000210: 3222 75be bb88 bf3d 4050 e0be 5ab5 443c
00000220: c25d 223e 3f79 9b3e 84fb 8cbe f5a9 a6be
00000230: 0e5d bdbe 49c6 753e 1f87 b3be a6d6 953d
00000240: 76fd ff3e 1c02 a7be d774 b73e 44c8 cd3e
00000250: 1586 9f3e 03a0 383e 5486 e6be 9cb2 9b3e
00000260: 8a3d 733e 819d a7be e917 be3e 14e2 8a3e
00000270: c136 403e 73c8 19bd fdf6 f93c b6e6 d6bd
00000280: 283e 59be 7000 f4bc 3f45 453e a585 933e
00000290: f4ae e0be c066 f73e 86eb bdbd cbf4 39be
000002a0: b711 023e c31f babe 7e3c 94be ff3f 413e
000002b0: b922 c13e d56f 32bd 1c60 3abe db11 f3bd
000002c0: 2141 ac3e c5bc dc3e cfbf cb3e b451 9d3e
000002d0: 8ce5 25be a134 b93d fb4d 4bbe d885 b03e
000002e0: 489c 533e e0c4 9b3e 3b1f f03e c9bc 2c3d
000002f0: b620 e23e 7238 f03d ff61 6a3e b3aa 8fbc
00000300: 61b4 f0bd afa6 f03e ede9 903e cffc 99be
00000310: ff73 74be 5628 b13e 9534 0f3d a8c8 fc3d
0.23110257 -0.048588034 0.45174262 -0.34127575 0.14076363 -0.5578089 -0.30697435 0.27201214
0.10397635 0.26632833 -0.41514742 0.2905936 -0.09648873 -0.19372268 -0.27671075 0.2462436
0.18138875 -0.57396686 0.5515345 0.05423372 -0.3060793 0.33078793 -0.050695408 0.43651366
-0.23894887 -0.38916892 -0.107647836 -0.3969534 -0.18122813 -0.44106007 0.34467238 0.18341084
0.0778611 -0.37259257 -0.51000154 0.33473668 0.08095567 0.11736431 0.12936683 0.09084385
-0.14045145 -0.14084291 0.14237866 -0.38214764 0.23829335 -0.02500852 -0.2204092 0.40254667
0.25904614 -0.4385007 0.06853134 -0.30265102 0.058370963 -0.38479644 0.20053001 0.032517865
-0.3164322 -0.2559697 -0.054204796 0.32814473 -0.3553176 -0.22133428 -0.03192016 0.31430426
-0.44628245 -0.2895416 -0.2020892 0.42274052 -0.25369006 -0.13162412 0.47845587 -0.42165077
-0.07969968 0.23952271 -0.08277185 0.41623595 -0.3742792 0.28899276 0.33328333 0.34294954
-0.087652884 -0.47718444 0.22799614 0.3393077 0.17349532 -0.40711996 0.16159163 -0.31374678
0.07532498 -0.443991 -0.119498834 0.013510519 0.43521938 -0.08503808 -0.40541443 0.07251735
-0.36254898 -0.29883203 0.38990107 -0.46924233 -0.34134296 0.033396363 0.34838715 -0.24471247
-0.14856091 0.43946686 -0.07685573 -0.25182408 -0.20210339 0.044174653 -0.5361644 0.13198268
0.43375796 0.25172436 -0.16078429 0.46725035 -0.18918116 0.19188237 0.26240346 0.328035
0.43934554 -0.24105918 -0.19189693 -0.32340455 0.21743855 0.064306766 -0.05749278 0.27386156
-0.14897956 0.015510727 0.42649388 -0.2922398 -0.23938826 0.09352251 -0.43811226 0.012006128
0.15856078 0.3036594 -0.2753564 -0.32551542 -0.36985058 0.24001421 -0.35064027 0.073163316
0.49998063 -0.32618797 0.3583133 0.40191853 0.31156984 0.1802979 -0.4502436 0.30409706
0.23753944 -0.32737353 0.37127617 0.2712561 0.18770887 -0.03754468 0.030513281 -0.10493223
-0.21215117 -0.029785365 0.19264697 0.288129 -0.4388348 0.4832058 -0.09273438 -0.18159787
0.1270207 -0.36352357 -0.28952402 0.18872069 0.37721804 -0.043563683 -0.18200725 -0.1186864
0.3364344 0.4311277 0.39794776 0.30726397 -0.16200846 0.09043241 -0.19853966 0.34477115
0.20665085 0.3042364 0.46898827 0.042172227 0.4416558 0.11729516 0.22888945 -0.01753745
-0.117531545 0.4700217 0.2830347 -0.3007569 -0.23872374 0.34601086 0.034962256 0.1234296

bias f4 [50]
00000000: 1547 b9be c4dc 8fbe 81ba 68be d166 5cbe
00000010: cd86 3bbe 03be 993e b55c 0abf 6c84 78be
00000020: dc86 73be 2135 f73e b4bd cf3e d5fd 18be
00000030: 7e11 41be 6368 eb3c d1d7 5a3e 6ef2 263e
00000040: c8a8 d23e 1b9d c5bd 1b66 dbbe 5149 71bd
00000050: 1f0b 743e 15e4 783e a65a ebbc dd36 e23e
00000060: c1e6 283e b144 c9be 6a37 1bbe d447 c6be
00000070: 57f1 8e3e c835 a9be 8607 df3e e0b6 03bd
00000080: f65c 9cbd d647 8b3e c034 c3be f924 6b3d
00000090: c161 be3e 370c a4be 70ef 92be b18d febd
000000a0: dd9a c23e 02bd dc3d 4d6c 4f3e 6ace 15bd
000000b0: 4691 e8be 13cc 1ebd a7f3 3b3d d34a 15be
000000c0: fe3d 953e 27e0 adbd
-0.36187044 -0.28098118 -0.22727396 -0.21523596 -0.18313141 0.3002778 -0.5404771 -0.24269265
-0.23781914 0.48282722 0.4057442 -0.14940579 -0.18854329 0.028736299 0.2137139 0.16303417
0.41144395 -0.09649106 -0.42851338 -0.05890781 0.23832367 0.24305756 -0.028729748 0.44182482
0.16494276 -0.3931022 -0.15157858 -0.38726676 0.27918503 -0.33048844 0.43560427 -0.032156825
-0.076349184 0.27203244 -0.38126183 0.057408307 0.37183955 -0.3204057 -0.286983 -0.12429369
0.38008776 0.10778238 0.20256157 -0.036573805 -0.45423335 -0.03876884 0.04588666 -0.14579324
0.2914886 -0.08490019

weight f4 [50]
00000000: 0000 803f 0000 803f 0000 803f 0000 803f
00000010: 0000 803f 0000 803f 0000 803f 0000 803f
00000020: 0000 803f 0000 803f 0000 803f 0000 803f
00000030: 0000 803f 0000 803f 0000 803f 0000 803f
00000040: 0000 803f 0000 803f 0000 803f 0000 803f
00000050: 0000 803f 0000 803f 0000 803f 0000 803f
00000060: 0000 803f 0000 803f 0000 803f 0000 803f
00000070: 0000 803f 0000 803f 0000 803f 0000 803f
00000080: 0000 803f 0000 803f 0000 803f 0000 803f
00000090: 0000 803f 0000 803f 0000 803f 0000 803f
000000a0: 0000 803f 0000 803f 0000 803f 0000 803f
000000b0: 0000 803f 0000 803f 0000 803f 0000 803f
000000c0: 0000 803f 0000 803f
1.0 1.0 1.0 1.0 1.0 1.0 1.0 1.0
1.0 1.0 1.0 1.0 1.0 1.0 1.0 1.0
1.0 1.0 1.0 1.0 1.0 1.0 1.0 1.0
1.0 1.0 1.0 1.0 1.0 1.0 1.0 1.0
1.0 1.0 1.0 1.0 1.0 1.0 1.0 1.0
1.0 1.0 1.0 1.0 1.0 1.0 1.0 1.0
1.0 1.0

bias f4 [50]
00000000: 0000 0000 0000 0000 0000 0000 0000 0000
00000010: 0000 0000 0000 0000 0000 0000 0000 0000
00000020: 0000 0000 0000 0000 0000 0000 0000 0000
00000030: 0000 0000 0000 0000 0000 0000 0000 0000
00000040: 0000 0000 0000 0000 0000 0000 0000 0000
00000050: 0000 0000 0000 0000 0000 0000 0000 0000
00000060: 0000 0000 0000 0000 0000 0000 0000 0000
00000070: 0000 0000 0000 0000 0000 0000 0000 0000
00000080: 0000 0000 0000 0000 0000 0000 0000 0000
00000090: 0000 0000 0000 0000 0000 0000 0000 0000
000000a0: 0000 0000 0000 0000 0000 0000 0000 0000
000000b0: 0000 0000 0000 0000 0000 0000 0000 0000
000000c0: 0000 0000 0000 0000
0.0 0.0 0.0 0.0 0.0 0.0 0.0 0.0
0.0 0.0 0.0 0.0 0.0 0.0 0.0 0.0
0.0 0.0 0.0 0.0 0.0 0.0 0.0 0.0
0.0 0.0 0.0 0.0 0.0 0.0 0.0 0.0
0.0 0.0 0.0 0.0 0.0 0.0 0.0 0.0
0.0 0.0 0.0 0.0 0.0 0.0 0.0 0.0
0.0 0.0

running_mean f4 [50]
00000000: 0000 0000 0000 0000 0000 0000 0000 0000
00000010: 0000 0000 0000 0000 0000 0000 0000 0000
00000020: 0000 0000 0000 0000 0000 0000 0000 0000
00000030: 0000 0000 0000 0000 0000 0000 0000 0000
00000040: 0000 0000 0000 0000 0000 0000 0000 0000
00000050: 0000 0000 0000 0000 0000 0000 0000 0000
00000060: 0000 0000 0000 0000 0000 0000 0000 0000
00000070: 0000 0000 0000 0000 0000 0000 0000 0000
00000080: 0000 0000 0000 0000 0000 0000 0000 0000
00000090: 0000 0000 0000 0000 0000 0000 0000 0000
000000a0: 0000 0000 0000 0000 0000 0000 0000 0000
000000b0: 0000 0000 0000 0000 0000 0000 0000 0000
000000c0: 0000 0000 0000 0000
0.0 0.0 0.0 0.0 0.0 0.0 0.0 0.0
0.0 0.0 0.0 0.0 0.0 0.0 0.0 0.0
0.0 0.0 0.0 0.0 0.0 0.0 0.0 0.0
0.0 0.0 0.0 0.0 0.0 0.0 0.0 0.0
0.0 0.0 0.0 0.0 0.0 0.0 0.0 0.0
0.0 0.0 0.0 0.0 0.0 0.0 0.0 0.0
0.0 0.0

running_var f4 [50]
00000000: 0000 803f 0000 803f 0000 803f 0000 803f
00000010: 0000 803f 0000 803f 0000 803f 0000 803f
00000020: 0000 803f 0000 803f 0000 803f 0000 803f
00000030: 0000 803f 0000 803f 0000 803f 0000 803f
00000040: 0000 803f 0000 803f 0000 803f 0000 803f
00000050: 0000 803f 0000 803f 0000 803f 0000 803f
00000060: 0000 803f 0000 803f 0000 803f 0000 803f
00000070: 0000 803f 0000 803f 0000 803f 0000 803f
00000080: 0000 803f 0000 803f 0000 803f 0000 803f
00000090: 0000 803f 0000 803f 0000 803f 0000 803f
000000a0: 0000 803f 0000 803f 0000 803f 0000 803f
000000b0: 0000 803f 0000 803f 0000 803f 0000 803f
000000c0: 0000 803f 0000 803f
1.0 1.0 1.0 1.0 1.0 1.0 1.0 1.0
1.0 1.0 1.0 1.0 1.0 1.0 1.0 1.0
1.0 1.0 1.0 1.0 1.0 1.0 1.0 1.0
1.0 1.0 1.0 1.0 1.0 1.0 1.0 1.0
1.0 1.0 1.0 1.0 1.0 1.0 1.0 1.0
1.0 1.0 1.0 1.0 1.0 1.0 1.0 1.0
1.0 1.0

weight f4 [20, 100]
00000000: 5907 06be 0d0d a23d 45ea 83bd 3a9c 18bd
00000010: 2107 da3d cf8d ea3c 91d5 003d dadc 7c3d
00000020: 86b4 023e 4214 b23d 215d 2abe 5533 6bbc
00000030: b541 f63b 8ded 06be e8b0 2cbe 93a9 a4bd
00000040: 6e47 0e3d 4ca3 f83c 0143 9e3d 584c dbbc
00000050: 09d2 bcbd e2ae 9f3d f402 84bd 7bb5 0cbe
00000060: 59ac 8e3d a75f 6b3b 62fd f4bd e573 d2bd
00000070: 8eb7 9bbd 02bc 6cbd d09f f6bd 166d 253d
00000080: 7ced c3bd 18cb e5bc 76cf c3bd e9fc 10be
00000090: d2bc 95bb 4a29 113c 42fe 2ebd 93cf 06be
000000a0: f0b3 58be 606b 9c3c 547b 62bd 5842 cd3b
000000b0: 45bf 533c 04fd af3d d0d8 1fbd c59f 2ebd
000000c0: dfb9 1dbe b9d3 213e d2c0 dcbb ff19 aa3d
000000d0: 9a14 7a3c 4c34 8fbd cee2 a63d 664a ea3c
000000e0: 4bb6 143e 8786 cd3c c156 dfbc d033 07bd
000000f0: 2fa4 adbd 8b3f cabc 66c0 943d 507a 6dbd
00000100: a02c 563c ebd2 b23c cd8f 0bbd 9ed9 abbb
00000110: 5c85 373d 76a2 3e3d 3556 9b3c 3b0c 623c
00000120: a19a 4a3d e7d9 4c3d 7aca c03d 4704 aa3d
00000130: 76be acbc 5b4a fd3c ced3 9e3d 105b ab3d
00000140: 3c6d 2fbd 8882 7dbc 50aa 67bd 85e4 b83d
00000150: c904 25bc 67b2 8d3a 6a7a 433d 6fcc 733d
00000160: cb83 86bd 9029 073e 73a9 a4bb 5155 933c
00000170: d3df cf3c 68a7 b9bd 3918 dc3d 64b8 79bd
00000180: d642 883b 91db 74bd cdeb 603c 3dfc c43d
00000190: 451d 98bd 8fd0 dc3c 8c95 aabd 3560 c7bc
000001a0: db5c 8c3d 0274 ac3d 699c 843b 9288 04bd
000001b0: 9632 f53c 3879 66bc 9922 bf3d 04c1 dfbc
000001c0: ec5a 8c3c d5bd cdbc a3fa dc3c 2933 3cbb
000001d0: 9b7c 1f3d b1bd 8a3c 3f8d 6b3d 2376 b3bd
000001e0: 6f02 823d a2eb b83b a28f d3bc cc5c 51bb
000001f0: 9bef d2bd 8064 0c3c 5caf a0bd 33d3 b0bd
00000200: 5376 a63d e586 823d a8cb b5bd 3734 273d
00000210: 305b 803d 355c a53d d02c 9fbd f731 e73c
00000220: fd59 01bd 2a8a 70bc 78b6 cbbd 73a7 2bbd
00000230: 4240 71bd 921d a4bd f4b9 0bbd 2d36 cc3d
00000240: 6e26 973d 5063 313d ea31 b1bd ac31 b03d
00000250: 1f25 02bc da6a fb3c 1b39 f03c 5fbe a83d
00000260: 662a f23c 8392 a83d 585c 513d 8c2a 9a3c
00000270: c620 263d 9e42 2cbd 974c d2bc fa13 1dbc
00000280: 9409 9abd b626 84bd 71f6 b7bd 250b 3b3d
00000290: eade 103b c82b 983c bac9 f83c 682c 203d
000002a0: ffd4 263d fb79 dd3c 0f34 93bd 9d84 b9bd
000002b0: 469c 3c3c 7bee b53d 4ca8 7f3d 1bae 9abd
000002c0: 267e 813c 06f9 9fbd 90b2 80bd 65fb f9ba
000002d0: d0dc 8cbd 990a 82bc c056 c6bd 1c20 0dbd
000002e0: 3b96 b03c 7730 cabd b02d 83bb 2861 3d3d
000002f0: c846 073c 9513 ff3b 1d63 d2bd e4a2 3abd
00000300: 44fb a33b ca9d 8b3c 77db 9f3d 9486 e2bc
00000310: 3d15 6cbc 1115 eb3c d9f3 89bd 8344 81bd
00000320: b579 273d 3124 a6bd 3cc4 443c e8b8 01bd
00000330: 649a 8f3d ae47 40bd f5c9 83bd f62c d0bd
00000340: 38ce d5bd 9b95 85bd 1bde 133c b432 7dbd
00000350: ebd2 a2bd 95d7 9abd 9b26 ccbd f2b3 093d
00000360: e2f0 333d 1237 9abc 1c59 9e3a b5f7 33bd
00000370: 2d59 c1bc ebb8 a4bd c13c 203d f3a7 523d
00000380: 78ef 943d e54c 69bd 6898 bcbd 0864 8fbd
00000390: 4325 a0bc a5d7 8fba 9cf8 503d cf12 883c
000003a0: d089 0ebd 46c5 3f3d 5572 cbbd 22b0 b03d
000003b0: 94f9 863d 949b 98bc 9d92 64bd 9691 5b3d
000003c0: 95af 853d 989f 57bd 54c8 82bd 7cef d33c
000003d0: c1ff b1bd c0bf 5bbb 7891 1c3d 5e83 ea3c
000003e0: daf4 723d 5f40 b13d 1ead 1fbd d0a9 adbd
000003f0: d081 d4bd 95ac 9ebd 5409 c43c 56eb 17bd
-0.1308874 0.079126455 -0.06441168 -0.037258364 0.10645891 0.028632073 0.031453673 0.061734058
0.12764177 0.0869527 -0.16637088 -0.0143555 0.007515157 -0.13176556 -0.1686436 -0.08040156
0.03473609 0.030351304 0.07727624 -0.026769802 -0.092197485 0.07797028 -0.06445876 -0.13741104
0.069664665 0.0035915168 -0.119623914 -0.102760114 -0.0760337 -0.057796486 -0.120422006 0.040387236
-0.09566781 -0.028050944 -0.095610544 -0.14158978 -0.0045696283 0.008859942 -0.042722948 -0.13165121
-0.2116239 0.01909417 -0.055293396 0.0062640123 0.01292402 0.08593181 -0.039025128 -0.042632837
-0.15402935 0.15803422 -0.006736853 0.083057396 0.015263701 -0.06992397 0.08148728 0.028599929
0.14522664 0.025088562 -0.027263047 -0.033008397 -0.08478581 -0.024688503 0.072632596 -0.057977974
0.013072163 0.02182909 -0.034072686 -0.005244448 0.044804916 0.046541654 0.018962005 0.013796861
0.049463872 0.050012495 0.09413619 0.08301597 -0.021086913 0.030919245 0.07755242 0.08366978
-0.042828783 -0.015473016 -0.056558907 0.09027962 -0.010071942 0.0010810614 0.047724165 0.059521135
-0.06568106 0.13199449 -0.0050250827 0.017985018 0.025375282 -0.09065133 0.107468076 -0.060966864
0.004158358 -0.059779707 0.013728094 0.09618423 -0.07427458 0.026954917 -0.08329305 -0.024337867
0.06853648 0.08420564 0.004046966 -0.032356806 0.029931348 -0.014066987 0.09332771 -0.027313717
0.017133199 -0.025114933 0.026974982 -0.0028717017 0.038937192 0.016936155 0.05750775 -0.08762767
0.063481204 0.005643324 -0.025825325 -0.003194618 -0.10299607 0.008568883 -0.07845947 -0.08634033
0.08128037 0.06373385 -0.08876735 0.04082128 0.06267393 0.08074228 -0.07772219 0.028222067
-0.03157996 -0.014681378 -0.099469125 -0.04190774 -0.05889917 -0.080134526 -0.034112886 0.09971271
0.07380377 0.043307602 -0.086520985 0.08603224 -0.007943421 0.0306906 0.029324105 0.082394354
0.029561233 0.0823107 0.051113456 0.018819116 0.0405586 -0.04205572 -0.025671287 -0.009587282
-0.07521358 -0.06452696 -0.08982552 0.045664925 0.0022105523 0.018575564 0.030369628 0.03910485
0.040730473 0.027035704 -0.07187664 -0.09058497 0.011511868 0.08883377 0.06241636 -0.07552739
0.015807223 -0.07811169 -0.06284058 -0.0019072114 -0.06878054 -0.015874194 -0.09684515 -0.03445445
0.02155601 -0.09872525 -0.004003249 0.046235234 0.008256622 0.007784317 -0.102728106 -0.0455655
0.0050043184 0.017043013 0.078055315 -0.027652062 -0.0144093605 0.028696569 -0.067359634 -0.06311896
0.040887553 -0.08112372 0.012009677 -0.03167048 0.070118695 -0.04694336 -0.064350046 -0.101648256
-0.10439724 -0.065226756 0.009025122 -0.061815932 -0.07950386 -0.0756065 -0.09968301 0.033618875
0.043930896 -0.018825088 0.0012081 -0.043937404 -0.023602093 -0.08043083 0.03912044 0.0514297
0.072722375 -0.056958098 -0.09208757 -0.07001501 -0.019549018 -0.0010974301 0.051018342 0.016610531
-0.034799397 0.046818994 -0.099339165 0.08627345 0.06590572 -0.018628873 -0.055803884 0.05360564
0.0652763 -0.052642435 -0.06385866 0.025871031 -0.08691359 -0.003353104 0.038224667 0.028627094
0.05931554 0.08654856 -0.038983457 -0.08479655 -0.10376322 -0.07747761 0.02393023 -0.03708967

bias f4 [20]
00000000: 89e2 21bd 2b18 28bd 3967 123d 22c7 883d
00000010: 19ab 30bd 0d47 cb3c 4cf8 403c c056 813d
00000020: 650e aebd 692c 36bd 1a9e c2bd 97e8 15bd
00000030: 55e8 00bd dc81 f3bb 1d7e 983d 86cf 773d
00000040: b595 a63d 1a37 943d 13f0 9d3c 227f 333d
-0.03952268 -0.041038673 0.035742972 0.066786066 -0.04313192 0.024814153 0.011777949 0.063153744
-0.08498839 -0.044475947 -0.09502812 -0.036598768 -0.03147157 -0.007431252 0.07445929 0.060500644
0.08134023 0.07237072 0.019279515 0.043822415

weight f4 [20]
00000000: 0000 803f 0000 803f 0000 803f 0000 803f
00000010: 0000 803f 0000 803f 0000 803f 0000 803f
00000020: 0000 803f 0000 803f 0000 803f 0000 803f
00000030: 0000 803f 0000 803f 0000 803f 0000 803f
00000040: 0000 803f 0000 803f 0000 803f 0000 803f
1.0 1.0 1.0 1.0 1.0 1.0 1.0 1.0
1.0 1.0 1.0 1.0 1.0 1.0 1.0 1.0
1.0 1.0 1.0 1.0

bias f4 [20]
00000000: 0000 0000 0000 0000 0000 0000 0000 0000
00000010: 0000 0000 0000 0000 0000 0000 0000 0000
00000020: 0000 0000 0000 0000 0000 0000 0000 0000
00000030: 0000 0000 0000 0000 0000 0000 0000 0000
00000040: 0000 0000 0000 0000 0000 0000 0000 0000
0.0 0.0 0.0 0.0 0.0 0.0 0.0 0.0
0.0 0.0 0.0 0.0 0.0 0.0 0.0 0.0
0.0 0.0 0.0 0.0

running_mean f4 [20]
00000000: 0000 0000 0000 0000 0000 0000 0000 0000
00000010: 0000 0000 0000 0000 0000 0000 0000 0000
00000020: 0000 0000 0000 0000 0000 0000 0000 0000
00000030: 0000 0000 0000 0000 0000 0000 0000 0000
00000040: 0000 0000 0000 0000 0000 0000 0000 0000
0.0 0.0 0.0 0.0 0.0 0.0 0.0 0.0
0.0 0.0 0.0 0.0 0.0 0.0 0.0 0.0
0.0 0.0 0.0 0.0

running_var f4 [20]
00000000: 0000 803f 0000 803f 0000 803f 0000 803f
00000010: 0000 803f 0000 803f 0000 803f 0000 803f
00000020: 0000 803f 0000 803f 0000 803f 0000 803f
00000030: 0000 803f 0000 803f 0000 803f 0000 803f
00000040: 0000 803f 0000 803f 0000 803f 0000 803f
1.0 1.0 1.0 1.0 1.0 1.0 1.0 1.0
1.0 1.0 1.0 1.0 1.0 1.0 1.0 1.0
1.0 1.0 1.0 1.0

weight f4 [1, 20]
00000000: c2d6 e8bd d026 dfbb 66da 0bbe 1f1f a9be
00000010: e82c 16bf b26a b2bd 325b d93d a624 5e3e
00000020: 2f14 12bd 2c55 40be 3c47 45be aefb a33d
00000030: d614 01bf 0aa2 15bf b4d0 583e 458d c83d
00000040: 7f07 6b3e 195a 6d3e 7618 ebbd 4666 6c3e
-0.11369087 -0.0068100467 -0.13657531 -0.33031556 -0.5866227 -0.08711757 0.10613097 0.21693668
-0.03566378 -0.1878249 -0.19265455 0.080069885 -0.5042242 -0.58450377 0.21173364 0.0979257
0.22952078 0.23178901 -0.11479275 0.23085889
