models_version2/2UAVs_69578/a_c0.pt (torch_old, 16240 bytes, 14 tensors)

weight f4 [50, 34]
000000 79 2e fd 3d 38 82 23 3f b8 f6 17 be cf 37 4c be
       0.123623796 0.63870573 -0.1484021 -0.19943164
000010 2c 1c 78 bd 6b 29 17 3e 88 da 06 be f3 fe 2e 3c
       -0.06057374 0.14761893 -0.131693 0.010680902
000020 0d a7 6f 3d 3c bf a3 bd 13 29 08 3e e0 45 97 bd
       0.05850892 -0.079954594 0.13296919 -0.073863745
000030 e4 48 3c 3e 97 a5 5c 3d 7a 80 f5 bd 9f 6f f5 3d
       0.1838718 0.053868856 -0.119873956 0.11984181
000040 03 5f 70 bd ed fb ed 3c 09 60 bb 3d da 95 51 3d
       -0.05868436 0.029050792 0.091491766 0.0511683
000050 4c ea 49 be 6e d1 70 3d 46 7b 6d bd 6e 4e 09 3d
       -0.19718283 0.058793478 -0.05797889 0.033522062
000060 89 3f ee 3c 0c d1 99 bc 9a a7 67 3e 13 ea a8 bd
       0.02908303 -0.01877644 0.22622529 -0.08247771
000070 3a 1f 12 3c 3b 50 51 3e 04 c0 21 be 48 6c 61 3d
       0.008918578 0.20440762 -0.15795904 0.055034906
000080 d7 84 5a bd 50 cf e1 bd 3c 25 04 bf 25 b8 5a be
       -0.053349342 -0.1102587 -0.51619315 -0.21359308
000090 0a 02 16 3e 28 a8 0c bd 87 ca e5 3d ca a8 46 3e
       0.14649215 -0.034340054 0.1122027 0.19400325
0000a0 53 26 3f 3d 18 ff 07 3e 1b 83 64 bd 6b 57 8d 3d
       0.04666741 0.13280904 -0.055789094 0.06901439
0000b0 8a 30 73 3d d7 d9 33 3e 83 c8 eb bd 09 f2 02 be
       0.059372462 0.17563568 -0.11512854 -0.12787642
0000c0 b2 b6 72 3d f0 53 cf bd 3a 31 d1 3d 10 77 3f 3d
       0.059256263 -0.10123432 0.10214467 0.046744406
0000d0 8f 8f 06 3d 7f 96 2f 3e 82 90 50 bd 4d 22 25 bc
       0.032851752 0.17147253 -0.050919063 -0.010078979
0000e0 35 bc af bd 1b 7e 15 3e a3 65 b3 bd 7c 22 ee 3d
       -0.085808195 0.14598887 -0.0875962 0.11627671
0000f0 9c 7f 23 be d7 f6 29 3e 06 7c ea 3d 73 14 2d 3d
       -0.15966648 0.16598068 0.11449437 0.04225583
000100 4e 2e 7d bd b2 51 90 bc 83 fa 99 bc de a0 33 bd
       -0.061811738 -0.01761708 -0.018796211 -0.043854587
000110 52 3c 13 bf 73 f2 d9 be 27 6a 02 3e ca ca 89 3d
       -0.57513916 -0.42567787 0.12735806 0.06728132
000120 74 73 23 bd 6d b3 f8 3d 81 46 d1 bd c8 67 0a be
       -0.039905027 0.12143598 -0.10218526 -0.13516152
000130 c2 d2 69 bd 72 37 f6 3d 1c 88 c0 bc 47 b1 a4 3b
       -0.05708576 0.12022294 -0.023502402 0.005026016
000140 50 24 36 3d 21 d9 9b bc 38 d0 ea 3d 27 4e 5d 3d
       0.044468224 -0.019024434 0.11465496 0.05402961
000150 61 57 10 3e 10 ba 3b 3e e3 27 2a 3e 05 48 80 3e
       0.14095832 0.18332696 0.16616778 0.25054947
000160 52 6d 02 3e a2 c4 df 3c 3b 70 e7 3c bb 17 0a 3d
       0.12737015 0.027315442 0.028251758 0.033714037
000170 c9 d8 e1 bd b2 8d 21 3e d6 48 ef bd 51 0a 17 be
       -0.110276766 0.15776709 -0.11683814 -0.14750029
000180 e4 a8 fc 3d 00 2e d0 3d b8 4d b1 bd 18 10 32 bc
       0.12336901 0.10165024 -0.08657402 -0.010868095
000190 45 72 a1 3d e7 cf fa 3d 93 5e 29 be db 20 98 3e
       0.07883123 0.122466855 -0.16539983 0.29712567
0001a0 ac 6c eb 3d 8a c6 b6 bb 53 44 b7 3d b2 61 2a 3d
       0.11495337 -0.005577867 0.08948579 0.041597076
0001b0 50 89 4e 3d f0 f0 cc 3d ae 06 53 bd 8c 7e de 3c
       0.05042392 0.10006893 -0.051520042 0.027159952
0001c0 20 28 10 be 7e 2c 2c 3e 01 1b 16 3e f6 78 42 be
       -0.14077806 0.16813847 0.14658739 -0.18991455
0001d0 20 01 34 be 0d 48 ee 3c 4c 51 e4 bd 26 07 85 3d
       -0.17578554 0.02908709 -0.11148319 0.06495504
0001e0 e9 0b 49 be 9d fd c5 bd 89 12 ca bd 58 83 e5 bd
       -0.1963345 -0.096675135 -0.098668166 -0.112066925
0001f0 b0 5d 99 bd 41 da 9e 3c 13 9d aa bd 61 92 45 3d
       -0.074885726 0.019391181 -0.08330741 0.0482353
000200 f6 58 12 be e9 29 48 3d 70 cb 70 3c 04 e2 eb 3d
       -0.14291748 0.048868094 0.014696941 0.115177184
000210 3e 2b 82 be 2a da fd 3d 9a 6b 0a be 56 39 9c bc
       -0.25423616 0.12395127 -0.13517609 -0.019070309
000220 80 94 d3 3e 74 b7 c4 bd 19 d0 26 bd d7 bf 79 bd
       0.41324234 -0.096053034 -0.0407258 -0.06097397
000230 0a 0d a9 bd ab 95 09 3c f6 00 37 3d 18 94 06 be
       -0.0825444 0.0083975 0.04467865 -0.13142431
000240 d9 f8 12 3e e6 98 b0 3d 62 27 69 3d f4 8e de bd
       0.1435274 0.08622913 0.056922324 -0.1086711
000250 1c 78 e7 3d a0 7b 5e 3e a9 9a e3 3d 00 ce 58 3c
       0.11302206 0.21726847 0.111134835 0.013232708
000260 78 97 02 3e 1b 59 ad 3d ea 1c 2c be 25 a7 ef bb
       0.12753093 0.08464261 -0.16807905 -0.0073136264
000270 2e bb ef bc b3 48 13 3d 97 e2 99 bd c6 1d f0 bd
       -0.029264059 0.035958003 -0.07513922 -0.11724429
000280 f6 ff c7 3c a6 8f a8 3c 0d db 51 3c 15 fc ab 3d
       0.024414044 0.02057631 0.012808573 0.0839769
000290 f7 76 27 be 35 18 0f 3e 2d 5b 59 bc 01 fa 06 3e
       -0.16353975 0.13974078 -0.013266367 0.13181306
0002a0 02 60 35 be 78 24 7e 3c 34 54 3f 3e 1b 7b 0f bf
       -0.17712405 0.0155116245 0.18684465 -0.5604722
0002b0 57 d1 34 3e d1 b6 98 bc 34 75 2a 3e 3d 57 5e bd
       0.17657982 -0.018641861 0.16646272 -0.054282416
0002c0 fe d2 0e be a6 43 3d bd 41 65 58 bd c7 ef 27 bd
       -0.13947675 -0.046207093 -0.05283094 -0.041000154
0002d0 6a 3d 66 bd 08 6c 4a 3e 11 22 95 3d e5 ca 39 3d
       -0.056210913 0.19767773 0.07281888 0.04535951
0002e0 44 df b4 bc 63 60 c0 bd 6e 56 c6 bd 56 2d 3e be
       -0.022079118 -0.09393384 -0.09684454 -0.18571982
0002f0 63 55 26 be 76 5d 2b 3d 72 a6 15 3d c2 ae 69 3e
       -0.1624351 0.04183718 0.036535688 0.22820571
000300 1e f7 82 3d e7 b3 51 be 9c a8 47 3e f6 a8 39 3e
       0.0639479 -0.20478784 0.19497913 0.1813086
000310 9d 4a d0 bd dc f7 d7 3d 34 95 46 3e d0 45 9d bd
       -0.10170481 0.10545322 0.19392854 -0.07679331
000320 1c 12 aa 3d b3 bf b7 3c 3e b4 df bd d7 a7 0b 3e
       0.08304235 0.022430276 -0.1092305 0.13638245
000330 b2 e5 b8 be 89 4a 0b bf 26 34 c3 3d 36 7e b5 3d
       -0.36112744 -0.54410607 0.09531431 0.088619635
000340 06 37 d2 3d 4f 45 73 bd c4 8b 06 3e 20 1e 1c 3e
       0.10264401 -0.05939227 0.13139254 0.15245867
000350 24 08 6d bc ee c9 35 3d df b9 90 3d 89 af 06 3d
       -0.014467273 0.04438203 0.07066702 0.032882247
000360 60 a9 a6 bd 86 cd bc bd ee 4e 7a 3d 2c b7 08 be
       -0.081377745 -0.09218888 0.06111043 -0.13351125
000370 54 e9 58 3e c9 28 05 bd 52 c4 1e 3e 23 d0 9f bb
       0.21182758 -0.0325096 0.15504578 -0.0048771068
000380 20 30 8c 3d da 4c 1d 3c 37 be 35 bd 5e 07 df 3c
       0.068451166 0.009600842 -0.044370856 0.027225193
000390 ea 5a b0 3d d6 d1 03 3e 7e 8b 11 be 05 8a a4 3d
       0.086110905 0.12873015 -0.14213368 0.08034138
0003a0 be 7b 14 3e b4 f9 29 3d 89 8e 1c 3b 2b 88 a8 3d
       0.14500329 0.0414979 0.0023888669 0.08229097
0003b0 51 af 0e be 08 d9 f7 3d ab 08 b8 be da 75 cf be
       -0.13934065 0.12101942 -0.35944113 -0.405196
0003c0 9f 8d e8 3d da 52 d4 bc e8 65 ae bd c6 fa a5 3d
       0.11355137 -0.025918413 -0.08515531 0.08104472
0003d0 1e 73 32 3d 44 55 f9 3d f4 8a f1 3d 79 b7 8b 3d
       0.043566816 0.12174466 0.11794081 0.06822104
0003e0 8e 8f be 3c 04 8b 2d 3e 7f 9e 63 3b d1 0b bf 3c
       0.023261812 0.16947562 0.0034731922 0.023321064
0003f0 87 b0 ba 3d f1 fc 04 3d 05 3b bb 3d 66 7e 56 3c
       0.09115701 0.032467786 0.091421165 0.013091659

bias f4 [50]
000000 17 49 0f 3e 32 40 96 3d 03 c3 ca 3d af f2 f8 3c
       0.13992725 0.07336463 0.09900477 0.030389158
000010 db 4e 15 be 0a 7b 4f 3e 7b 2a 35 3c ac 34 e7 3d
       -0.14580862 0.2026178 0.011057491 0.11289343
000020 f5 e4 08 be f2 4b 39 3e 73 d6 e4 bd 1c ce 17 3d
       -0.1336859 0.18095377 -0.111737154 0.037061796
000030 5b 84 28 3e 4e 8f f5 3b 42 26 55 3d 50 04 93 bd
       0.1645674 0.00749389 0.05203844 -0.07178557
000040 5d 8b ab bd f8 83 13 bd 73 25 39 3e 3b ea f1 bc
       -0.08376191 -0.036014527 0.18080692 -0.029530635
000050 ee 8c 82 bd 67 1a 04 be 96 75 01 bc aa a9 1e bc
       -0.063745365 -0.12900697 -0.00790157 -0.009684006
000060 54 0f 2e be fe e1 8e bd 4a 83 73 bd 89 00 f1 3d
       -0.16998035 -0.06976698 -0.05945138 0.1176768
000070 11 ae 8f 3d 6a 8b e5 3d 4e 4d f2 3d db fa a3 3d
       0.070156224 0.11208232 0.11831151 0.08006831
000080 45 ee ce 3d 70 91 8e bd 42 82 4f 3e 21 55 54 3e
       0.1010404 -0.06961334 0.20264533 0.20735599
000090 2a db ba bd 9a ed 1a bd a3 85 7e 3e 7d 69 0d be
       -0.091238335 -0.03782425 0.24855666 -0.13809772
0000a0 25 e8 1d 3e d3 c4 67 3d e1 de 0f be 8b e5 1b 3d
       0.15420587 0.05658419 -0.14049865 0.038060706
0000b0 01 7d b4 3c e1 af be bc 61 0c 96 bc ea f8 fc bd
       0.022032263 -0.023277225 -0.01831645 -0.12352164
0000c0 d1 00 73 3d c8 2b 96 bb
       0.05932695 -0.004582856

weight f4 [50]
000000 00 00 80 3f 00 00 80 3f 00 00 80 3f 00 00 80 3f
       1.0 1.0 1.0 1.0
000010 00 00 80 3f 00 00 80 3f 00 00 80 3f 00 00 80 3f
       1.0 1.0 1.0 1.0
000020 00 00 80 3f 00 00 80 3f 00 00 80 3f 00 00 80 3f
       1.0 1.0 1.0 1.0
000030 00 00 80 3f 00 00 80 3f 00 00 80 3f 00 00 80 3f
       1.0 1.0 1.0 1.0
000040 00 00 80 3f 00 00 80 3f 00 00 80 3f 00 00 80 3f
       1.0 1.0 1.0 1.0
000050 00 00 80 3f 00 00 80 3f 00 00 80 3f 00 00 80 3f
       1.0 1.0 1.0 1.0
000060 00 00 80 3f 00 00 80 3f 00 00 80 3f 00 00 80 3f
       1.0 1.0 1.0 1.0
000070 00 00 80 3f 00 00 80 3f 00 00 80 3f 00 00 80 3f
       1.0 1.0 1.0 1.0
000080 00 00 80 3f 00 00 80 3f 00 00 80 3f 00 00 80 3f
       1.0 1.0 1.0 1.0
000090 00 00 80 3f 00 00 80 3f 00 00 80 3f 00 00 80 3f
       1.0 1.0 1.0 1.0
0000a0 00 00 80 3f 00 00 80 3f 00 00 80 3f 00 00 80 3f
       1.0 1.0 1.0 1.0
0000b0 00 00 80 3f 00 00 80 3f 00 00 80 3f 00 00 80 3f
       1.0 1.0 1.0 1.0
0000c0 00 00 80 3f 00 00 80 3f
       1.0 1.0

bias f4 [50]
000000 00 00 00 00 00 00 00 00 00 00 00 00 00 00 00 00
       0.0 0.0 0.0 0.0
000010 00 00 00 00 00 00 00 00 00 00 00 00 00 00 00 00
       0.0 0.0 0.0 0.0
000020 00 00 00 00 00 00 00 00 00 00 00 00 00 00 00 00
       0.0 0.0 0.0 0.0
000030 00 00 00 00 00 00 00 00 00 00 00 00 00 00 00 00
       0.0 0.0 0.0 0.0
000040 00 00 00 00 00 00 00 00 00 00 00 00 00 00 00 00
       0.0 0.0 0.0 0.0
000050 00 00 00 00 00 00 00 00 00 00 00 00 00 00 00 00
       0.0 0.0 0.0 0.0
000060 00 00 00 00 00 00 00 00 00 00 00 00 00 00 00 00
       0.0 0.0 0.0 0.0
000070 00 00 00 00 00 00 00 00 00 00 00 00 00 00 00 00
       0.0 0.0 0.0 0.0
000080 00 00 00 00 00 00 00 00 00 00 00 00 00 00 00 00
       0.0 0.0 0.0 0.0
000090 00 00 00 00 00 00 00 00 00 00 00 00 00 00 00 00
       0.0 0.0 0.0 0.0
0000a0 00 00 00 00 00 00 00 00 00 00 00 00 00 00 00 00
       0.0 0.0 0.0 0.0
0000b0 00 00 00 00 00 00 00 00 00 00 00 00 00 00 00 00
       0.0 0.0 0.0 0.0
0000c0 00 00 00 00 00 00 00 00
       0.0 0.0

running_mean f4 [50]
000000 00 00 00 00 00 00 00 00 00 00 00 00 00 00 00 00
       0.0 0.0 0.0 0.0
000010 00 00 00 00 00 00 00 00 00 00 00 00 00 00 00 00
       0.0 0.0 0.0 0.0
000020 00 00 00 00 00 00 00 00 00 00 00 00 00 00 00 00
       0.0 0.0 0.0 0.0
000030 00 00 00 00 00 00 00 00 00 00 00 00 00 00 00 00
       0.0 0.0 0.0 0.0
000040 00 00 00 00 00 00 00 00 00 00 00 00 00 00 00 00
       0.0 0.0 0.0 0.0
000050 00 00 00 00 00 00 00 00 00 00 00 00 00 00 00 00
       0.0 0.0 0.0 0.0
000060 00 00 00 00 00 00 00 00 00 00 00 00 00 00 00 00
       0.0 0.0 0.0 0.0
000070 00 00 00 00 00 00 00 00 00 00 00 00 00 00 00 00
       0.0 0.0 0.0 0.0
000080 00 00 00 00 00 00 00 00 00 00 00 00 00 00 00 00
       0.0 0.0 0.0 0.0
000090 00 00 00 00 00 00 00 00 00 00 00 00 00 00 00 00
       0.0 0.0 0.0 0.0
0000a0 00 00 00 00 00 00 00 00 00 00 00 00 00 00 00 00
       0.0 0.0 0.0 0.0
0000b0 00 00 00 00 00 00 00 00 00 00 00 00 00 00 00 00
       0.0 0.0 0.0 0.0
0000c0 00 00 00 00 00 00 00 00
       0.0 0.0

running_var f4 [50]
000000 00 00 80 3f 00 00 80 3f 00 00 80 3f 00 00 80 3f
       1.0 1.0 1.0 1.0
000010 00 00 80 3f 00 00 80 3f 00 00 80 3f 00 00 80 3f
       1.0 1.0 1.0 1.0
000020 00 00 80 3f 00 00 80 3f 00 00 80 3f 00 00 80 3f
       1.0 1.0 1.0 1.0
000030 00 00 80 3f 00 00 80 3f 00 00 80 3f 00 00 80 3f
       1.0 1.0 1.0 1.0
000040 00 00 80 3f 00 00 80 3f 00 00 80 3f 00 00 80 3f
       1.0 1.0 1.0 1.0
000050 00 00 80 3f 00 00 80 3f 00 00 80 3f 00 00 80 3f
       1.0 1.0 1.0 1.0
000060 00 00 80 3f 00 00 80 3f 00 00 80 3f 00 00 80 3f
       1.0 1.0 1.0 1.0
000070 00 00 80 3f 00 00 80 3f 00 00 80 3f 00 00 80 3f
       1.0 1.0 1.0 1.0
000080 00 00 80 3f 00 00 80 3f 00 00 80 3f 00 00 80 3f
       1.0 1.0 1.0 1.0
000090 00 00 80 3f 00 00 80 3f 00 00 80 3f 00 00 80 3f
       1.0 1.0 1.0 1.0
0000a0 00 00 80 3f 00 00 80 3f 00 00 80 3f 00 00 80 3f
       1.0 1.0 1.0 1.0
0000b0 00 00 80 3f 00 00 80 3f 00 00 80 3f 00 00 80 3f
       1.0 1.0 1.0 1.0
0000c0 00 00 80 3f 00 00 80 3f
       1.0 1.0

weight f4 [20, 50]
000000 93 c2 0e be 25 df 1d 3e d4 24 b5 3e a6 d0 e8 bd
       -0.13941412 0.15417154 0.3537966 -0.113679215
000010 62 01 90 bd 77 83 94 3d 3f 92 ab 3e 81 e9 6a 3e
       -0.07031514 0.072516374 0.33510014 0.22940637
000020 95 dd 05 bc 90 e0 de 3d a6 8a b5 3d 6f ce 61 bd
       -0.008170505 0.10882676 0.08864336 -0.05512851
000030 b7 b2 ae 3d 57 d1 08 be d9 d9 09 3e a4 1b 79 3e
       0.08530181 -0.13361107 0.13462009 0.2432695
000040 58 fb f2 3d 36 23 4c 3e a7 51 c0 bd 68 65 8b bd
       0.11864346 0.19935307 -0.09390574 -0.06806451
000050 7f ad b4 3d 05 a4 9a 3d 1e 24 6d 3e 6b 39 e5 3d
       0.08822154 0.075508155 0.23158309 0.11192592
000060 17 c2 97 be 83 6c 9c be a1 a0 8c be 66 78 f2 bd
       -0.29640266 -0.30551538 -0.274663 -0.118393704
000070 bc 97 85 bd 97 8d f4 3d b3 04 ce 3c b8 cd 43 3d
       -0.06523082 0.119410686 0.025148725 0.04780361
000080 9c a1 57 3d f7 4d 09 be fe 67 65 bc 47 7e c7 3d
       0.052644357 -0.13408647 -0.014001844 0.09740882
000090 c9 8e 26 3e ee 40 e0 3d 9e 2c 0d 3d 79 73 6d bb
       0.16265406 0.10949884 0.03446638 -0.0036232157
0000a0 95 5f 6f bd ac 6a 8d 3d b2 45 83 3d 8f 66 ba bd
       -0.058440764 0.06905112 0.06409778 -0.09101593
0000b0 fc 2d 91 3e 1f de 68 3d 69 2b 6b bd 08 dd 5e 3e
       0.28355396 0.056852456 -0.057414446 0.21764004
0000c0 e5 3e 19 be 60 69 03 3e 7a 35 a2 3d 9f 0b 01 be
       -0.14965399 0.12833166 0.07920356 -0.1260209
0000d0 9c 3b a8 bd c6 a5 18 3e ee 16 87 3b 69 84 08 be
       -0.082144946 0.14906988 0.0041226065 -0.1333176
0000e0 a2 e9 82 be 12 45 f0 bd 4b 54 02 3d 8a 2e 39 be
       -0.25568873 -0.11731924 0.03181867 -0.1808416
0000f0 e7 53 00 bd d3 10 63 3e c1 0e 07 3e 85 cf 80 3d
       -0.031330016 0.22174387 0.13189222 0.06289581
000100 39 55 ac 3c d7 e7 53 3d fd 3b 71 3c f2 18 c6 3d
       0.021036731 0.05173477 0.014723775 0.09672727
000110 5c ae d0 3d b3 75 27 3e d2 24 55 bd 8e 60 4a 3e
       0.101895064 0.16353492 -0.052037068 0.19763395
000120 14 d8 22 be 31 f0 3f be 38 90 f1 3d 26 83 39 3d
       -0.1590274 -0.1874397 0.11795086 0.04529109
000130 a3 38 3b 3e b1 9e 9e bd d4 8a 6e bc 98 04 8b bd
       0.18283324 -0.07745112 -0.014559466 -0.067879856
000140 ab 38 29 bd 23 df 07 be 16 f9 b0 3c a0 d4 f1 3d
       -0.04131381 -0.13268714 0.021603148 0.11808133
000150 67 0a 09 3e be 9d 06 bd fd 66 ac bd 51 85 6c be
       0.13382874 -0.03286528 -0.08418081 -0.23097731
000160 52 99 cb 3b 9a c5 b0 bd a4 f6 52 3d 66 c7 cc bd
       0.0062133456 -0.086314395 0.051504746 -0.0999897
000170 f4 96 0f 3d fb 69 3e 3d e5 01 4a be 7e 42 04 bd
       0.03505607 0.04648779 -0.19727285 -0.032289974
000180 a9 8d c2 3d 27 1f 1d 3c 6b 92 3f 3e 71 09 8d bc
       0.09499676 0.009589947 0.18708198 -0.017216416
000190 ef c2 82 3d f3 31 d9 bb c7 52 74 be d5 ae 62 3d
       0.06384837 -0.006628269 -0.23859702 0.055342514
0001a0 31 69 0a 3e d2 2a 26 be 5c 8b 2e be d3 be c1 bd
       0.1351669 -0.16227272 -0.17045349 -0.09460225
0001b0 dc 81 18 3e bd 75 87 be 85 2a 3f be de fd 99 3e
       0.14893287 -0.26457015 -0.18668564 0.30076498
0001c0 f7 8e 90 3d 62 b2 c8 3d cc 8e 1d be a8 eb 3f be
       0.070585184 0.09799649 -0.15386504 -0.1874224
0001d0 1f fc 56 be 64 5f 64 be 22 c8 6c ba ee ef 12 3e
       -0.20994614 -0.22302014 -0.00090325077 0.14349338
0001e0 9a 93 ae 3d 19 71 42 3e df 9e 6c bd 53 d0 22 be
       0.085242465 0.18988456 -0.0577687 -0.15899782
0001f0 6f 0f 2c 3e 9e ec 7b 3e 88 3e 43 3e 6e 78 8b 3d
       0.16802762 0.24601981 0.19066823 0.068100795
000200 1c aa 9b 3e bb 12 08 be 33 e0 04 3e 01 a6 50 3d
       0.3040322 -0.13288395 0.1297615 0.050939564
000210 b8 41 c2 3d 37 66 60 3e 8f 0c 58 bc 55 a0 c7 bd
       0.09485191 0.21913992 -0.013186588 -0.09747378
000220 ad c9 d8 bd 26 0b 7b be 11 f3 95 3d 62 66 f0 3c
       -0.105853416 -0.24515972 0.07321752 0.029345695
000230 fd b0 10 3e 54 c5 6c 3e b8 e8 a5 bc d4 33 e1 bc
       0.14130016 0.2312215 -0.02025257 -0.027490534
000240 c5 33 2a be 66 41 71 3e f1 4d ae 3c 88 70 29 be
       -0.16621311 0.23560104 0.0212774 -0.16546834
000250 d3 3d 42 3e 33 ca 1c bd fa e1 20 3e ce 5b 1b 3e
       0.18968897 -0.03827877 0.15711203 0.1517174
000260 f1 10 bb 3d 2a 81 a4 3e 4e ea f3 bd f3 27 9c be
       0.09134091 0.32129794 -0.119099244 -0.3049923
000270 e2 e6 ec bd fa b3 36 3d 70 b4 0c 3e b6 84 69 bd
       -0.11567475 0.044605233 0.13740706 -0.05701133
000280 22 01 31 be 44 b3 8b bc 75 1d ba 3e a0 b1 81 3d
       -0.17285588 -0.017053254 0.363506 0.063327074
000290 5c 27 64 3e c2 3a 84 be 2e db 6f be 16 0e 5f be
       0.2228064 -0.2582608 -0.23423454 -0.21782717
0002a0 14 df 59 3e 6b 79 63 3e fd 86 91 3e 2c d6 25 3e
       0.21276504 0.22214286 0.284233 0.16194981
0002b0 ff e5 a1 3e 2f 57 5e be 2b 7b 51 bd 05 8d b3 bd
       0.31620786 -0.21712945 -0.051142853 -0.08767132
0002c0 31 33 09 3d ae b7 5c 3e 08 e7 5c 3e de c2 be 3c
       0.033496086 0.21554443 0.21572506 0.02328628
0002d0 22 08 0f 3e a2 63 f3 bd 0b 46 92 bd 76 6f b2 3b
       0.13967946 -0.11884238 -0.07142266 0.005445416
0002e0 2a 85 e8 3d f8 c7 60 be 80 b7 2b be 8b 7c c7 bd
       0.11353524 -0.21951282 -0.16769218 -0.097405516
0002f0 d8 f8 30 3e da f8 e3 3d 61 3e 67 3e 96 8e 23 3e
       0.17282426 0.11131449 0.2258239 0.15972361
000300 d8 63 93 3c 5c 88 52 3d 65 07 8d 3c 38 42 36 3e
       0.017991945 0.051399574 0.01721544 0.17798698
000310 b0 93 17 3e f1 e3 06 be 45 22 1f 3e 93 8f b2 bd
       0.14802432 -0.1317289 0.15540417 -0.08718791
000320 78 29 7b be 84 3b 85 3c 6f dd 3a 3e 69 96 f9 bd
       -0.24527538 0.01626373 0.18248533 -0.121868916
000330 cf 65 53 3e f3 5b 84 3e 59 ec 49 3e 86 9b 61 3e
       0.20644306 0.25851402 0.19719066 0.22031984
000340 65 4d 4f be 67 5d f1 3c 3f 3c 53 3e 19 3a 11 3e
       -0.20244367 0.029463483 0.20628451 0.14182319
000350 68 2f 24 bd 71 53 31 bd f4 36 b8 bd 6c bd 70 3e
       -0.040084273 -0.043292467 -0.089948565 0.23509759
000360 0a a5 54 3e cf 64 74 3e 39 16 31 be f7 de e5 bc
       0.20766082 0.2386658 -0.17293634 -0.02806042
000370 9a 1b 2e be 83 55 cb 3d 93 24 69 bc 27 97 02 3e
       -0.17002717 0.099284194 -0.014229911 0.12752973
000380 ea 96 1a 3e 89 b6 1c 3d 84 f5 3e be ee e5 60 bc
       0.15096632 0.038260017 -0.18648344 -0.0137266945
000390 92 b4 32 be 8d bd d1 3d 54 2c 78 be f5 98 83 3d
       -0.17451695 0.10241232 -0.2423566 0.064256586
0003a0 8e 7b ca bd 97 ff 02 be 16 c6 12 be b3 05 a4 3e
       -0.098868474 -0.12792812 -0.14333376 0.32035598
0003b0 c2 8a 96 3e 9c c3 f5 3d 37 90 0f 3d 2d 4d 2a bd
       0.2940274 0.120002 0.035049643 -0.041577507
0003c0 1b a4 85 be 35 9f ae be 7f fc c7 bd 3c ed fb 3d
       -0.26101765 -0.3410584 -0.09764957 0.12301108
0003d0 f6 7f 3b 3e 0a 91 a9 bd 6f 3c 02 be 69 52 27 3e
       0.18310532 -0.08279617 -0.12718366 0.1634003
0003e0 80 ec a2 bd 95 24 76 3e 90 b5 d2 bd 9a d1 06 3d
       -0.07955265 0.24037392 -0.102885365 0.032914735
0003f0 88 de d6 3d c1 a9 da 3d 53 76 04 3d 1b 4a 8c bb
       0.10491663 0.10676909 0.032339405 -0.004281295

bias f4 [20]
000000 71 4a b0 3b 1e 06 c0 3d fc c5 e1 bd 39 cc 5a 3d
       0.005379968 0.09376167 -0.11024091 0.05341742
000010 73 ef 09 3e 18 c7 53 3d a2 b2 34 3e e4 ad cc 3d
       0.13470249 0.051703542 0.17646268 0.099941045
000020 03 41 f7 3b 50 8f f8 3c ae ea e1 3d 52 50 fc bd
       0.007545592 0.030341774 0.1103109 -0.123200074
000030 0f 0f 6d 3d 63 bd 0e 3e 78 ef 93 3d 29 e0 bd bb
       0.05787569 0.13939433 0.072234094 -0.0057945442
000040 e0 83 b2 3d f7 9a cf bd c6 09 b3 3d dc 17 7a bd
       0.087165594 -0.10136979 0.087420985 -0.06105791

weight f4 [20]
000000 00 00 80 3f 00 00 80 3f 00 00 80 3f 00 00 80 3f
       1.0 1.0 1.0 1.0
000010 00 00 80 3f 00 00 80 3f 00 00 80 3f 00 00 80 3f
       1.0 1.0 1.0 1.0
000020 00 00 80 3f 00 00 80 3f 00 00 80 3f 00 00 80 3f
       1.0 1.0 1.0 1.0
000030 00 00 80 3f 00 00 80 3f 00 00 80 3f 00 00 80 3f
       1.0 1.0 1.0 1.0
000040 00 00 80 3f 00 00 80 3f 00 00 80 3f 00 00 80 3f
       1.0 1.0 1.0 1.0

bias f4 [20]
000000 00 00 00 00 00 00 00 00 00 00 00 00 00 00 00 00
       0.0 0.0 0.0 0.0
000010 00 00 00 00 00 00 00 00 00 00 00 00 00 00 00 00
       0.0 0.0 0.0 0.0
000020 00 00 00 00 00 00 00 00 00 00 00 00 00 00 00 00
       0.0 0.0 0.0 0.0
000030 00 00 00 00 00 00 00 00 00 00 00 00 00 00 00 00
       0.0 0.0 0.0 0.0
000040 00 00 00 00 00 00 00 00 00 00 00 00 00 00 00 00
       0.0 0.0 0.0 0.0

running_mean f4 [20]
000000 00 00 00 00 00 00 00 00 00 00 00 00 00 00 00 00
       0.0 0.0 0.0 0.0
000010 00 00 00 00 00 00 00 00 00 00 00 00 00 00 00 00
       0.0 0.0 0.0 0.0
000020 00 00 00 00 00 00 00 00 00 00 00 00 00 00 00 00
       0.0 0.0 0.0 0.0
000030 00 00 00 00 00 00 00 00 00 00 00 00 00 00 00 00
       0.0 0.0 0.0 0.0
000040 00 00 00 00 00 00 00 00 00 00 00 00 00 00 00 00
       0.0 0.0 0.0 0.0

running_var f4 [20]
000000 00 00 80 3f 00 00 80 3f 00 00 80 3f 00 00 80 3f
       1.0 1.0 1.0 1.0
000010 00 00 80 3f 00 00 80 3f 00 00 80 3f 00 00 80 3f
       1.0 1.0 1.0 1.0
000020 00 00 80 3f 00 00 80 3f 00 00 80 3f 00 00 80 3f
       1.0 1.0 1.0 1.0
000030 00 00 80 3f 00 00 80 3f 00 00 80 3f 00 00 80 3f
       1.0 1.0 1.0 1.0
000040 00 00 80 3f 00 00 80 3f 00 00 80 3f 00 00 80 3f
       1.0 1.0 1.0 1.0

weight f4 [2, 20]
000000 38 0b 49 3e c8 81 0c be da f6 b4 bd f4 d5 a5 3e
       0.19633186 -0.13721383 -0.08836146 0.32389796
000010 76 3c 1f be c3 35 63 be dc 0b d6 3e 6f a5 8e bd
       -0.15550408 -0.22188477 0.41805923 -0.06965148
000020 93 5c a6 be 27 48 ad 3e 11 aa 00 3e cc bf 3b bd
       -0.32492504 0.3384411 0.12564875 -0.04583721
000030 a1 e1 c5 be c2 41 0a 3f c4 1e 4e be a5 c0 a3 be
       -0.38648704 0.5400659 -0.20128924 -0.31982914
000040 ba 55 44 3e ec 86 de 3d ce 89 ef 3e ff 91 78 be
       0.19173327 0.10865578 0.46784824 -0.24274443
000050 04 c7 b7 3e fa c3 76 be 7f af fb be 30 a0 86 be
       0.35894024 -0.24098197 -0.4915733 -0.26294088
000060 c2 63 c4 3e ca 15 3d 3e 2e 92 b7 be 42 26 9b be
       0.3835736 0.18465343 -0.35853714 -0.30302626
000070 66 0a 51 3e a1 32 cd 3e 70 7c 2d bc d5 e5 4e be
       0.20414123 0.4007769 -0.01058875 -0.20204861
000080 d0 1d 78 be 1a ed b9 bd e8 0d 24 3d 11 f4 b0 3e
       -0.24230123 -0.09078427 0.040052325 0.34561208
000090 74 69 08 3e c1 42 d0 3d 1e ab 9e be e8 1e 9f be
       0.13321477 0.10168982 -0.30989927 -0.31078267

bias f4 [2]
000000 db 81 a3 3d fe bc 25 ba
       0.07983752 -0.00063224125
