models_version2/2UAVs_69578/c_t0.pt (torch_old, 28013 bytes, 15 tensors)

weight f4 [50, 68]
0	0x3ef39b97	0.47579643
1	0xbd9c3191	-0.076266415
2	0xbb807031	-0.0039196243
3	0x3cfffa64	0.031247325
4	0x3d24767b	0.040152054
5	0x3dc2d0dc	0.09512493
6	0x3e59a9e6	0.21256217
7	0x3dfec33a	0.1243958
8	0x3c34d34b	0.011036704
9	0x3dd495ec	0.10380158
10	0x3c8f4d45	0.0174929
11	0x3dedd8a1	0.11613584
12	0x3d9b9cce	0.075982675
13	0x3dc66afb	0.09688374
14	0x3de33931	0.11094893
15	0xbccc6993	-0.024952685
16	0x3d5b8119	0.053589914
17	0xbb8d9dee	-0.004321805
18	0xbdd839ce	-0.105579
19	0xbd8689ea	-0.06569274
20	0xbcb00be4	-0.021490045
21	0xbd79ad29	-0.060956154
22	0xbd55ec75	-0.052227456
23	0x3d076455	0.03305467
24	0xbd88778e	-0.06663428
25	0x3dc8bea3	0.09801986
26	0x3d853a1c	0.06505224
27	0xbd63f775	-0.055655915
28	0xbd8f7cd7	-0.07006233
29	0x3daf1d25	0.08550481
30	0x3b787c25	0.0037915793
31	0x3ddfa4a8	0.109200776
32	0xbd9732be	-0.07382725
33	0xbdc0861a	-0.09400578
34	0x3eb5df1f	0.3552179
35	0xbd7b304a	-0.06132535
36	0x3cc0c46d	0.023531163
37	0xbd9d6355	-0.07684962
38	0x3e049e9d	0.12951131
39	0x3db34a30	0.087543845
40	0x3d5962e1	0.053072814
41	0x3d164e25	0.03669562
42	0xbdfdc32e	-0.12390743
43	0xbd1d468e	-0.038397364
44	0x3d09849a	0.033573724
45	0xbdb8cfb1	-0.09023989
46	0x3e102049	0.14074816
47	0x3de18c35	0.110130705
48	0x3e357ab5	0.1772259
49	0x3dcadb16	0.099050686
50	0x3d0ea62a	0.034826435
51	0xbd85f42e	-0.06540714
52	0xbd519414	-0.05116661
53	0xbdd9377d	-0.10606287
54	0xbd93c9d7	-0.07216232
55	0xbd9ea23f	-0.0774579
56	0x3cb84828	0.022495344
57	0xbcc2eb07	-0.02379371
58	0x3da7b9d6	0.08189742
59	0xbcc03258	-0.023461506
60	0x3d99efbe	0.0751643
61	0xbd934e8b	-0.07192715
62	0xbcd267ab	-0.025684198
63	0x3df1d2c3	0.11807778
64	0x3cf63d6f	0.03005859
65	0xbd2b3003	-0.041793834
66	0xbd9abd89	-0.07555682
67	0x3d61fe18	0.055173963
68	0xbee129c0	-0.43977165
69	0xbef3a5ac	-0.47587335
70	0x3de9dac9	0.11418683
71	0x3e0159ef	0.12631963
72	0x3cb361d4	0.021897234
73	0xbdb5787e	-0.08860873
74	0x3e8a8b94	0.27059615
75	0x3bd2db62	0.006434844
76	0xbda07796	-0.07835309
77	0x3d4d042c	0.050052807
78	0x3d07d358	0.033160537
79	0xbd5c877c	-0.053840145
80	0x3dd9bbec	0.106315464
81	0x3daf3c11	0.08556379
82	0x3d75e8eb	0.06003658
83	0x3de32429	0.110908814
84	0x3e0f02ca	0.13965908
85	0x3d8c94bc	0.06864306
86	0x3da4a7b7	0.080398016
87	0x3e0363d7	0.12831055
88	0xbd62eb2b	-0.055400055
89	0x3c5895bb	0.013219292
90	0xbd311894	-0.04323633
91	0x3bf297de	0.007403358
92	0xbbd851b9	-0.006601539
93	0x3c13d49e	0.00902286
94	0xbd35b536	-0.04436227
95	0x3d58dd2a	0.052945293
96	0xbdacf610	-0.0844537
97	0x3e1fb6ff	0.15597151
98	0xbdbbda60	-0.09172511
99	0xbe020ba4	-0.12699753
100	0xbd61f1ab	-0.055162113
101	0x3d714e6c	0.05891268
102	0xbe95850d	-0.29203072
103	0xbee09f46	-0.43871516
104	0xbcd7a4f6	-0.026323777
105	0x3dc8993f	0.097948544
106	0x3cecd883	0.028911835
107	0xbcf39d3b	-0.02973806
108	0x3df95e81	0.12176228
109	0xbc354b7b	-0.011065359
110	0xbce11f54	-0.027480759
111	0x3db20bdd	0.08693669
112	0x3d9a0ab8	0.07521576
113	0x3dd5871a	0.10426159
114	0x3e1a57de	0.15072581
115	0x3a51576b	0.00079857436
116	0x3d77b790	0.060477793
117	0x3df7a182	0.12091352
118	0x3e331ec5	0.17492206
119	0xbc9f208b	-0.019424697
120	0xbdcf95a8	-0.101359665
121	0x3d8b9c05	0.06816868
122	0xbdac2903	-0.0840626
123	0x3da21ef2	0.079160586
124	0x3d8eeb86	0.06978516
125	0xbd0117a3	-0.031516682
126	0x3d19a80b	0.037513774
127	0x3dcc1324	0.09964588
128	0xbdc073a8	-0.0939706
129	0x3ca526ae	0.020160045
130	0x3dbd828a	0.09253414
131	0x3d554cab	0.05207507
132	0x3d88938d	0.06668768
133	0xbdda6b1c	-0.10664961
134	0x3d50c661	0.05097044
135	0xbdbd2dcd	-0.092372514
136	0x3d2bc7ee	0.041938715
137	0x3e0c06e9	0.13674511
138	0x3dfd89cd	0.12379799
139	0x3ccbac4a	0.024862427
140	0xbd8843d8	-0.06653565
141	0x3ca0a448	0.019609585
142	0x3e516013	0.20446806
143	0xbbcf4a1f	-0.0063259746
144	0x3dec0029	0.11523468
145	0x3cbf8cc3	0.02338255
146	0x3b681132	0.003541064
147	0x3d87dc1c	0.066337794
148	0x3d7f2d22	0.0622989
149	0xbda94431	-0.082649596
150	0x3d9eb8e1	0.077501066
151	0xbc287d2d	-0.0102837505
152	0x3bc9e0e2	0.0061608413
153	0x3ce2f743	0.027705794
154	0xbdb154bb	-0.08658739
155	0x3daeff23	0.08544757
156	0xbd48efbf	-0.049056765
157	0x3db1fb58	0.08690518
158	0x3dceb49a	0.10093041
159	0x3c7549ab	0.014971177
160	0x3d6e8117	0.05822858
161	0x3cb3dad5	0.021954933
162	0xbdbb54b0	-0.09147012
163	0x3dfb52a2	0.1227162
164	0xbcb19c4a	-0.02168097
165	0xbb80ed27	-0.0039345208
166	0xbe139cfa	-0.1441535
167	0x3dd3da42	0.10344364
168	0xbd37d982	-0.044885166
169	0xbe236769	-0.15957417
170	0x3d78987f	0.060692307
171	0x3e3aec0a	0.18254104
172	0x3c0e2d74	0.008677829
173	0x3d2109fb	0.03931616
174	0xbddc3755	-0.10752741
175	0xbc4634ed	-0.012097579
176	0x3dc90474	0.098153025
177	0xbdb16761	-0.08662296
178	0xbdbeda90	-0.09319031
179	0xbce6d398	-0.028177068
180	0x3dce0f2d	0.10061488
181	0x3c12d37b	0.008961554
182	0xbd5a7cc2	-0.053341635
183	0xbaea9f47	-0.0017900252
184	0x3e3c106e	0.18365642
185	0xbdfa58fd	-0.122240044
186	0x3e4711f3	0.19440441
187	0xbd6945dd	-0.056951392
188	0x3d558855	0.05213197
189	0x3da03eec	0.078245014
190	0x3cca66a5	0.024707148
191	0x3d2653b6	0.040607177
192	0x3cdcf54e	0.02697244
193	0x3e1fbb9b	0.1559891
194	0xbd4ddf2d	-0.050261665
195	0x3d94c19a	0.07263489
196	0x3cf9f883	0.030514007
197	0xbc5678b3	-0.0130903
198	0xbc7653e6	-0.015034651
199	0x3dc26bff	0.09493255
200	0x3d12ed77	0.035870995
201	0xbbe2b056	-0.0069179935
202	0xbda532b3	-0.08066311
203	0x3c014a45	0.007891242
204	0xbe757c30	-0.23973155
205	0xbecd1663	-0.40056142
206	0x3db3ed7a	0.087855294
207	0x3d607b72	0.054805227
208	0x3b86dfef	0.0041160504
209	0x3d295a60	0.041345954
210	0xbd8d8c1f	-0.069114916
211	0x3dd3bfdd	0.103393294
212	0xbcbc8c35	-0.023016075
213	0xbda0554a	-0.078287676
214	0x3d913bb1	0.07091463
215	0xbd28b2f6	-0.041186295
216	0xbcc8ca19	-0.02451043
217	0xbcf4485c	-0.02981966
218	0xbd9b080c	-0.07569894
219	0xbd672a3d	-0.056436766
220	0xbde2b523	-0.11069705
221	0xbd57c15c	-0.052674636
222	0xbd02fbdc	-0.031978473
223	0xbd88b704	-0.066755325
224	0xbd555d34	-0.05209084
225	0x3c1b3729	0.0094736
226	0x3d7640bc	0.06012033
227	0x3dd8badd	0.10582516
228	0x3e026971	0.12735535
229	0x3d689020	0.056778073
230	0x3c16bbe6	0.009200072
231	0x3db00e2b	0.08596452
232	0x3d8ceeb9	0.0688147
233	0xbd9ec284	-0.07751945
234	0x3c5a7c4e	0.013335301
235	0xbdd2c2f7	-0.10291093
236	0xbcae1884	-0.021251924
237	0x3cfd8657	0.030947847
238	0xbeda5a04	-0.426468
239	0xbe70e554	-0.23524982
240	0xbcfb9526	-0.030710768
241	0x3d96a209	0.073551245
242	0xbd95345f	-0.072853796
243	0x3cfa8c07	0.030584348
244	0x3d78d489	0.060749564
245	0xbc9f41f8	-0.019440636
246	0x3dfb2f1e	0.12264846
247	0xbd2e2cf2	-0.042523332
248	0x3d393d74	0.045224622
249	0xbd8bae0c	-0.06820306
250	0x3c8558bb	0.016277662
251	0xbd46e9b8	-0.048562735
252	0xbd83a10d	-0.064272024
253	0x3d2a8248	0.041628152
254	0xbdac34e2	-0.08408524
255	0x3d7e1281	0.062029365

bias f4 [50]
0	0x3bb31486	0.005465093
1	0x3defd1e1	0.11709953
2	0x3e437f15	0.19091447
3	0x3c18324c	0.009289335
4	0xbcb4593c	-0.022015207
5	0x3c60f5bd	0.013730464
6	0x3d29c634	0.041448787
7	0xbd1ccc44	-0.03828074
8	0x3d8f2b5d	0.06990693
9	0x3e5f31b5	0.21796305
10	0x3dc0cd5f	0.094141714
11	0x3bcb67ce	0.006207443
12	0x3e5ca6f5	0.21548064
13	0x3e2a806a	0.16650549
14	0x3e60fa76	0.21970543
15	0x3e01c8ad	0.12674208
16	0x3dec89ba	0.11549707
17	0xbde07159	-0.10959119
18	0x3d97fa88	0.07420832
19	0x3e7631a1	0.2404237
20	0x3d2333d5	0.039844353
21	0x3cd8558f	0.026407985
22	0x3e917f16	0.2841727
23	0x3bb4a75b	0.0055131144
24	0xbe433a30	-0.19065166
25	0x3e0ff494	0.14058143
26	0x3dc09c05	0.09404758
27	0x3e25700a	0.16156021
28	0x3daa34c8	0.083108485
29	0xbde2e375	-0.1107854
30	0x3df198d0	0.11796725
31	0x3e942579	0.2893484
32	0x3e3c322c	0.18378514
33	0x3e61dced	0.22056933
34	0xbcf4e72d	-0.02989539
35	0x3e4b4256	0.19849524
36	0x3d476759	0.048682544
37	0x3e38a142	0.18030265
38	0xbd1a9426	-0.03773894
39	0x3e3da593	0.18520193
40	0x3df7d3b1	0.12100924
41	0xbcf36598	-0.02971153
42	0xbde126ed	-0.10993753
43	0x3e30dbb8	0.17271316
44	0x3e387645	0.18013866
45	0x3d739368	0.05946675
46	0x3e12b90f	0.14328407
47	0x3c049f2f	0.008094593
48	0x3e1bc188	0.15210545
49	0x3e888f89	0.2667201

weight f4 [50, 4]
0	0xbb6e8491	-0.0036394934
1	0xbdc31234	-0.09524956
2	0x3ed0cbf6	0.4078061
3	0x3f0e29e8	0.55532694
4	0x3f071f3e	0.52782047
5	0xbf20861c	-0.62704635
6	0x3e525931	0.20541836
7	0x3dd1e975	0.102496065
8	0x3f0430d4	0.51637006
9	0x3dcedfb8	0.10101265
10	0xbecae4eb	-0.39627776
11	0xbcb8db9c	-0.022565655
12	0xbee30da3	-0.44346341
13	0xbe8640c3	-0.26221284
14	0xbdcdfac7	-0.100575976
15	0x3e56b800	0.20968628
16	0xbea5e2c6	-0.32399577
17	0xbf062207	-0.5239567
18	0x3e3e54be	0.18587014
19	0xbe828dfd	-0.25498953
20	0xbf125057	-0.5715384
21	0x3d6f546e	0.058430128
22	0x3ea7f8b8	0.32806945
23	0xbee35fac	-0.4440893
24	0xbd57bad9	-0.052668426
25	0xbece36b5	-0.40276113
26	0xbe9eb0b1	-0.3099418
27	0xbd850df0	-0.06496799
28	0xbf08faad	-0.535075
29	0x3ef525e8	0.47880483
30	0x3e8aeda0	0.27134418
31	0x3ef8346d	0.48477498
32	0x3db3c7d0	0.087783456
33	0x3da786d1	0.08180011
34	0x3ec3b0c1	0.3822079
35	0xbe96833b	-0.29396996
36	0x3edc8838	0.43072677
37	0x3f09a384	0.5376513
38	0x3d1ef3e3	0.038806807
39	0xbea8aefc	-0.32946002
40	0xbedb4634	-0.42826998
41	0xbe91a52a	-0.28446323
42	0xbe213f1f	-0.15746735
43	0xbc0b51da	-0.008503402
44	0xbf0629f1	-0.5240775
45	0xbe0a988f	-0.13534759
46	0xbebf0d8c	-0.37315023
47	0xbec83a45	-0.39106956
48	0x3ee5a72b	0.44854102
49	0xbeea8907	-0.4580767
50	0x3e14c481	0.14528085
51	0x3d4b5970	0.04964584
52	0x3e8102cb	0.25197443
53	0x3e1d3f39	0.15356149
54	0xbe15db28	-0.14634383
55	0xbe9c1a63	-0.3048888
56	0x3e936b03	0.2879258
57	0x3eec23ae	0.4612097
58	0xbde4a932	-0.11165084
59	0xbe382086	-0.17981157
60	0xbebba921	-0.36652473
61	0xbf07c6bc	-0.5303762
62	0xbe206da3	-0.15666823
63	0x3e8ff265	0.2811462
64	0x3e311ebd	0.17296882
65	0x3eb242e4	0.34816658
66	0x3ecc7737	0.39934704
67	0x3e576874	0.2103594
68	0x3ce40efb	0.027839174
69	0x3e31ed17	0.17375599
70	0x3eb7d277	0.3590276
71	0xbeac03c9	-0.33596638
72	0x3e5457f4	0.20736676
73	0xbf1d0425	-0.6133445
74	0x3de13e99	0.10998268
75	0x3ec524d9	0.38504675
76	0xbd4c6cc4	-0.049908414
77	0x3f1de1a3	0.6167242
78	0x3e67e0af	0.22644304
79	0x3c6db8e4	0.014509413
80	0x3e0035c8	0.12520516
81	0x3e16817f	0.14697836
82	0xbec72457	-0.38894913
83	0x3e9dafef	0.3079829
84	0x3e2bbcd5	0.16771252
85	0xbf081245	-0.5315288
86	0xbe0e2405	-0.13880928
87	0xbe550fdc	-0.20806831
88	0x3f095348	0.536427
89	0xbe92c217	-0.28663704
90	0x3ea42183	0.32056817
91	0xbee8c82c	-0.4546522
92	0x3e5fe0b0	0.21863055
93	0xbcde1d42	-0.02711356
94	0x3ee223ae	0.44167846
95	0x3edaa5bc	0.4270457
96	0xbe839c4e	-0.2570519
97	0xbef52628	-0.47880673
98	0x3e00ae30	0.12566447
99	0x3cd885dc	0.026431017
100	0x3e21f0a2	0.1581445
101	0xbe90ad56	-0.28257245
102	0xbe04b014	-0.12957793
103	0xbea3418d	-0.3188595
104	0xbeaf0cad	-0.34189358
105	0x3d378c8a	0.044811763
106	0xbf07a8de	-0.52992046
107	0xbeee8901	-0.465889
108	0x3f0a1af3	0.5394737
109	0x3e41f50f	0.18941139
110	0xbeee5945	-0.46552482
111	0x3e280348	0.16407502
112	0xbf0e3a47	-0.55557674
113	0xbf24b876	-0.64343965
114	0x3e33f7e7	0.17575036
115	0xbeb1d7e8	-0.34735036
116	0x3ea44ca0	0.3208971
117	0xbf19a4ae	-0.60016906
118	0xbe9fbc57	-0.3119838
119	0x3e893657	0.2679927
120	0xbf150ea1	-0.58225447
121	0xbdcaab5b	-0.09895965
122	0x3bc083e6	0.0058750985
123	0x3e383009	0.17987074
124	0xbf297372	-0.6619178
125	0x3d159bc3	0.0365255
126	0x3d72da2a	0.05929009
127	0xbd7b4017	-0.061340418
128	0x3d6089d9	0.05481896
129	0xbf163556	-0.58675134
130	0xbe5b1fe3	-0.21398883
131	0x3d83800b	0.06420907
132	0xbeb35d72	-0.3503223
133	0x3e7e4380	0.24830437
134	0x3eb49a8f	0.3527417
135	0xbd824361	-0.06360508
136	0x3eaae9c8	0.33381486
137	0x3eb49e45	0.35277
138	0x3e0ee9c4	0.13956362
139	0x3ec7bc7d	0.39010993
140	0xbede2912	-0.4339071
141	0xbdde588c	-0.10856733
142	0x3e5c7a4f	0.21531032
143	0x3e4b758e	0.19869062
144	0xbde8a162	-0.11358906
145	0xbf228f2e	-0.63499725
146	0x3ea58863	0.32330617
147	0xbe12425b	-0.14283125
148	0x3f26ddd3	0.65182227
149	0x3e211a68	0.1573273
150	0x3ea6ff8a	0.32616836
151	0x3eac3582	0.33634573
152	0x3e7b7f84	0.24560362
153	0xbe6f76fa	-0.2338523
154	0xbecdea34	-0.40217745
155	0x3eba5ea3	0.36400327
156	0xbe10d99d	-0.14145513
157	0xbf0a6a7b	-0.54068726
158	0xbd04cd77	-0.03242251
159	0xbe2b7c8d	-0.16746731
160	0xbf2b6ca4	-0.6696265
161	0x3efc0820	0.4922495
162	0xbe13cc66	-0.1443344
163	0xbe77dc4e	-0.24205133
164	0xbf2db171	-0.6784888
165	0x3ed934e9	0.4242318
166	0x3e114620	0.14186907
167	0x3e955b9b	0.29171452
168	0x3e5ea54b	0.21742742
169	0x3e008622	0.12551168
170	0x3e3a1e16	0.1817554
171	0xbf043f0e	-0.51658714
172	0x3e227b08	0.15867245
173	0x3ea76e9f	0.32701585
174	0x3e3b3416	0.18281588
175	0x3ee20a56	0.4414851
176	0xbf0d725c	-0.55252624
177	0x3ed82633	0.42216644
178	0xbebdf2c6	-0.37099284
179	0x3eeec44c	0.46634138
180	0x3ed700ae	0.41992706
181	0xbe9a8612	-0.30180413
182	0x3e81fe30	0.25389242
183	0x3ee4ed19	0.4471214
184	0xbec551fd	-0.38539115
185	0xbee2960d	-0.44255105
186	0x3edca7f7	0.43096897
187	0xbe9a4f20	-0.30138493
188	0x3d4cd1a2	0.05000461
189	0xbf043949	-0.5164991
190	0xbe2a6c24	-0.16642815
191	0x3df25f80	0.118346214
192	0xbe80824e	-0.25099415
193	0xbed5512d	-0.41663495
194	0xbea1ecfd	-0.3162612
195	0x3e5f3685	0.21798141
196	0x3c208708	0.009797819
197	0x3d565d42	0.05233503
198	0x3ec5139f	0.38491532
199	0x3e9bac4a	0.30404884

bias f4 [50]
0	0xbed255dc	-0.4108113
1	0x3db9a423	0.0906451
2	0x3f0aa0e3	0.54151744
3	0x3e51d344	0.20490748
4	0x3f248b7a	0.64275324
5	0xbea3e5f5	-0.3201138
6	0xbd4edf2d	-0.050505806
7	0x3ed3f5ef	0.4139857
8	0x3e09605d	0.13415666
9	0xbed953d6	-0.42446774
10	0xbacadc51	-0.0015477036
11	0x3db611d2	0.08890118
12	0x3d9bd6b3	0.0760931
13	0x3ec994a2	0.3937121
14	0x3e677d8d	0.22606488
15	0x3b68053d	0.0035403513
16	0xbe91fd6d	-0.2851366
17	0x3ea5f9c4	0.3241712
18	0x3e1065d0	0.14101338
19	0x3e74bfc7	0.23901282
20	0x3dad9255	0.08475176
21	0xbe57b2b5	-0.21064265
22	0xbea1b8d0	-0.31586313
23	0xbebe9801	-0.37225345
24	0x3e95f2ec	0.29286897
25	0xbdf3a895	-0.11897389
26	0xbe3a367c	-0.18184847
27	0x3d21dc08	0.03951648
28	0xbe5a3e23	-0.21312766
29	0x3f096ce9	0.5368181
30	0x3e57dbdb	0.21079962
31	0x3e5554ca	0.20833126
32	0x3e1c3d81	0.15257837
33	0xbe42ca24	-0.19022423
34	0x3ea488e9	0.32135704
35	0xbd1560ed	-0.03646939
36	0xbe6b891b	-0.2300152
37	0x3e158241	0.14600469
38	0x3dd6522d	0.104648925
39	0x3e4111cc	0.18854445
40	0x3e88ba81	0.2670479
41	0x3f2054b4	0.62629247
42	0xbe89f3b3	-0.2694374
43	0x3dc06cef	0.093957774
44	0x3e7f5be1	0.24937393
45	0xbe390317	-0.18067585
46	0xbe97d25d	-0.29652682
47	0xbde92bba	-0.11385293
48	0x3e7ce7cc	0.24697798
49	0x3e816ddd	0.25279132

weight f4 [50]
0	0x3f800000	1.0
1	0x3f800000	1.0
2	0x3f800000	1.0
3	0x3f800000	1.0
4	0x3f800000	1.0
5	0x3f800000	1.0
6	0x3f800000	1.0
7	0x3f800000	1.0
8	0x3f800000	1.0
9	0x3f800000	1.0
10	0x3f800000	1.0
11	0x3f800000	1.0
12	0x3f800000	1.0
13	0x3f800000	1.0
14	0x3f800000	1.0
15	0x3f800000	1.0
16	0x3f800000	1.0
17	0x3f800000	1.0
18	0x3f800000	1.0
19	0x3f800000	1.0
20	0x3f800000	1.0
21	0x3f800000	1.0
22	0x3f800000	1.0
23	0x3f800000	1.0
24	0x3f800000	1.0
25	0x3f800000	1.0
26	0x3f800000	1.0
27	0x3f800000	1.0
28	0x3f800000	1.0
29	0x3f800000	1.0
30	0x3f800000	1.0
31	0x3f800000	1.0
32	0x3f800000	1.0
33	0x3f800000	1.0
34	0x3f800000	1.0
35	0x3f800000	1.0
36	0x3f800000	1.0
37	0x3f800000	1.0
38	0x3f800000	1.0
39	0x3f800000	1.0
40	0x3f800000	1.0
41	0x3f800000	1.0
42	0x3f800000	1.0
43	0x3f800000	1.0
44	0x3f800000	1.0
45	0x3f800000	1.0
46	0x3f800000	1.0
47	0x3f800000	1.0
48	0x3f800000	1.0
49	0x3f800000	1.0

bias f4 [50]
0	0x00000000	0.0
1	0x00000000	0.0
2	0x00000000	0.0
3	0x00000000	0.0
4	0x00000000	0.0
5	0x00000000	0.0
6	0x00000000	0.0
7	0x00000000	0.0
8	0x00000000	0.0
9	0x00000000	0.0
10	0x00000000	0.0
11	0x00000000	0.0
12	0x00000000	0.0
13	0x00000000	0.0
14	0x00000000	0.0
15	0x00000000	0.0
16	0x00000000	0.0
17	0x00000000	0.0
18	0x00000000	0.0
19	0x00000000	0.0
20	0x00000000	0.0
21	0x00000000	0.0
22	0x00000000	0.0
23	0x00000000	0.0
24	0x00000000	0.0
25	0x00000000	0.0
26	0x00000000	0.0
27	0x00000000	0.0
28	0x00000000	0.0
29	0x00000000	0.0
30	0x00000000	0.0
31	0x00000000	0.0
32	0x00000000	0.0
33	0x00000000	0.0
34	0x00000000	0.0
35	0x00000000	0.0
36	0x00000000	0.0
37	0x00000000	0.0
38	0x00000000	0.0
39	0x00000000	0.0
40	0x00000000	0.0
41	0x00000000	0.0
42	0x00000000	0.0
43	0x00000000	0.0
44	0x00000000	0.0
45	0x00000000	0.0
46	0x00000000	0.0
47	0x00000000	0.0
48	0x00000000	0.0
49	0x00000000	0.0

running_mean f4 [50]
0	0x00000000	0.0
1	0x00000000	0.0
2	0x00000000	0.0
3	0x00000000	0.0
4	0x00000000	0.0
5	0x00000000	0.0
6	0x00000000	0.0
7	0x00000000	0.0
8	0x00000000	0.0
9	0x00000000	0.0
10	0x00000000	0.0
11	0x00000000	0.0
12	0x00000000	0.0
13	0x00000000	0.0
14	0x00000000	0.0
15	0x00000000	0.0
16	0x00000000	0.0
17	0x00000000	0.0
18	0x00000000	0.0
19	0x00000000	0.0
20	0x00000000	0.0
21	0x00000000	0.0
22	0x00000000	0.0
23	0x00000000	0.0
24	0x00000000	0.0
25	0x00000000	0.0
26	0x00000000	0.0
27	0x00000000	0.0
28	0x00000000	0.0
29	0x00000000	0.0
30	0x00000000	0.0
31	0x00000000	0.0
32	0x00000000	0.0
33	0x00000000	0.0
34	0x00000000	0.0
35	0x00000000	0.0
36	0x00000000	0.0
37	0x00000000	0.0
38	0x00000000	0.0
39	0x00000000	0.0
40	0x00000000	0.0
41	0x00000000	0.0
42	0x00000000	0.0
43	0x00000000	0.0
44	0x00000000	0.0
45	0x00000000	0.0
46	0x00000000	0.0
47	0x00000000	0.0
48	0x00000000	0.0
49	0x00000000	0.0

running_var f4 [50]
0	0x3f800000	1.0
1	0x3f800000	1.0
2	0x3f800000	1.0
3	0x3f800000	1.0
4	0x3f800000	1.0
5	0x3f800000	1.0
6	0x3f800000	1.0
7	0x3f800000	1.0
8	0x3f800000	1.0
9	0x3f800000	1.0
10	0x3f800000	1.0
11	0x3f800000	1.0
12	0x3f800000	1.0
13	0x3f800000	1.0
14	0x3f800000	1.0
15	0x3f800000	1.0
16	0x3f800000	1.0
17	0x3f800000	1.0
18	0x3f800000	1.0
19	0x3f800000	1.0
20	0x3f800000	1.0
21	0x3f800000	1.0
22	0x3f800000	1.0
23	0x3f800000	1.0
24	0x3f800000	1.0
25	0x3f800000	1.0
26	0x3f800000	1.0
27	0x3f800000	1.0
28	0x3f800000	1.0
29	0x3f800000	1.0
30	0x3f800000	1.0
31	0x3f800000	1.0
32	0x3f800000	1.0
33	0x3f800000	1.0
34	0x3f800000	1.0
35	0x3f800000	1.0
36	0x3f800000	1.0
37	0x3f800000	1.0
38	0x3f800000	1.0
39	0x3f800000	1.0
40	0x3f800000	1.0
41	0x3f800000	1.0
42	0x3f800000	1.0
43	0x3f800000	1.0
44	0x3f800000	1.0
45	0x3f800000	1.0
46	0x3f800000	1.0
47	0x3f800000	1.0
48	0x3f800000	1.0
49	0x3f800000	1.0

weight f4 [20, 100]
0	0x3ca8eb10	0.020619899
1	0x3e028bab	0.12748592
2	0xbe017926	-0.1264387
3	0x3e72a05d	0.23693986
4	0x3e950d18	0.29111552
5	0xbe980717	-0.2969291
6	0xbe8f8c65	-0.280368
7	0x3c7c031a	0.015381599
8	0xbc77254f	-0.015084579
9	0x3df1b298	0.11801642
10	0xbe6b8dbf	-0.2300329
11	0xbed06a49	-0.4070609
12	0x3d8ecdfd	0.06972883
13	0xbdb4a011	-0.08819593
14	0x3ddbc42e	0.10730778
15	0xbe89ad05	-0.26889816
16	0xbe8a5717	-0.2701957
17	0xbd9fb66b	-0.07798465
18	0xbcf8af15	-0.030356923
19	0xbe05469b	-0.13015215
20	0x3e3d5c92	0.18492344
21	0xbe26cff7	-0.1629027
22	0xbccf987d	-0.025341267
23	0xbe25a31d	-0.16175504
24	0xbdefa4de	-0.11701368
25	0xbe222b57	-0.15836845
26	0xbe9462e1	-0.2898169
27	0x3e097ce9	0.13426556
28	0xbcc9f75f	-0.024654089
29	0x3da70043	0.08154347
30	0x3e338e7e	0.17534825
31	0xbbb8c465	-0.0056386464
32	0xbe0b0b23	-0.13578467
33	0x3e034941	0.12820913
34	0x3db9bab9	0.09068818
35	0x3e1fe2b7	0.15613829
36	0xbccad04d	-0.024757529
37	0xbd977318	-0.07394999
38	0x3e900333	0.2812744
39	0xbe43a378	-0.19105327
40	0xbd7a95ed	-0.061178137
41	0xbe7f079a	-0.24905244
42	0xba01a1c7	-0.0004945066
43	0xbd36d004	-0.044631973
44	0xbdcca360	-0.09992099
45	0x3e508eef	0.20367025
46	0x3d470163	0.048585307
47	0xbc7af8c1	-0.015318097
48	0x3d8cefb4	0.06881657
49	0xbd6b28b2	-0.057411857
50	0x3d2d68e3	0.042336356
51	0x3e61eb75	0.22062476
52	0x3a17a2d6	0.00057844573
53	0x3dbe1628	0.0928157
54	0x3d9bb902	0.07603647
55	0xbbf5457d	-0.0074850903
56	0x3e1fbeb6	0.15600094
57	0xbd809d06	-0.0627995
58	0xbd0be409	-0.03415302
59	0xbe0a1cde	-0.13487574
60	0x3e27f9c2	0.16403869
61	0x3e10adf1	0.14128853
62	0x3e4d6793	0.20059042
63	0xbe03cf97	-0.12872158
64	0xbe745f86	-0.23864564
65	0x3e5696d8	0.2095598
66	0x3d0c61ca	0.034272946
67	0xbd641735	-0.055686194
68	0x3e7265d9	0.23671664
69	0xbe22284b	-0.15835683
70	0xbdbd90db	-0.092561446
71	0x3e781c76	0.24229607
72	0x3e3c061c	0.18361706
73	0x3e3193a5	0.17341478
74	0x3dd1309f	0.10214352
75	0x3e013dda	0.12621251
76	0xbd8b4a40	-0.068012714
77	0x3c270701	0.010194541
78	0x3dda013e	0.10644768
79	0x3d191ac5	0.037379045
80	0x3dc50ace	0.096212015
81	0xbd541673	-0.05177922
82	0x3e3879ef	0.18015264
83	0xbe05ed63	-0.13078837
84	0xbdc97302	-0.09836389
85	0x3d37c590	0.044866145
86	0x3e256537	0.16151892
87	0xbd63465e	-0.05548703
88	0x3cc9198a	0.02454831
89	0x3e19deca	0.15026394
90	0xbdabbda5	-0.08385781
91	0xbe2e09d9	-0.16995944
92	0xbce2f158	-0.027702972
93	0xbdb86d7b	-0.09005257
94	0xbe601fb7	-0.21887098
95	0x3d1893e5	0.03725042
96	0x3dd410e5	0.10354785
97	0x3e0c0b35	0.1367615
98	0x3c8d96e7	0.01728387
99	0x3c825f36	0.01591454
100	0xbe578005	-0.2104493
101	0xbd1ebfda	-0.038757183
102	0xbcc35d99	-0.023848342
103	0x3e638d23	0.22221808
104	0x3d0a6c17	0.03379449
105	0x3e8a4e6c	0.27012956
106	0x3e11cee7	0.14239083
107	0x3d8e5e49	0.06951577
108	0x3eb2854d	0.34867325
109	0xbe4d1422	-0.20027211
110	0x3d7739ac	0.060357735
111	0x3e582d0d	0.21110936
112	0x3ce543cd	0.027986431
113	0xbdf47b0f	-0.11937534
114	0xbd1a2511	-0.037633006
115	0xbee1d954	-0.4411112
116	0x3e23456c	0.15944451
117	0x3dc26e89	0.09493739
118	0x3d98b488	0.074563086
119	0x3e1afdad	0.15135832
120	0x3d7f9ae7	0.062403586
121	0xbd876a86	-0.066121146
122	0xb9e2b4bf	-0.00043240745
123	0xbd48c113	-0.049012255
124	0xbe6a430e	-0.22877142
125	0x3e3a3f22	0.18188146
126	0xbe53bf24	-0.20678383
127	0xbea51ce3	-0.322486
128	0x3c6bbcf0	0.014388308
129	0x3d0c3f32	0.034239955
130	0xbe5c9351	-0.21540572
131	0x3c874463	0.016512102
132	0x3e0eb840	0.13937473
133	0xbdda679e	-0.10664295
134	0x3da00ed9	0.07815332
135	0x3d1b2558	0.03787741
136	0xbda2bc64	-0.07946089
137	0xbdec00bd	-0.11523578
138	0xbee0b65e	-0.43889135
139	0x3e4d6268	0.2005707
140	0x3e87abaa	0.26498157
141	0x3b4abc98	0.0030935165
142	0x3b7eef25	0.0038899865
143	0xbe03a4e0	-0.12855864
144	0xbe1f408f	-0.15551971
145	0xbe9d5528	-0.30729032
146	0x3d7ffbea	0.062496103
147	0xbe7ab506	-0.24483117
148	0x3cc11a56	0.023572128
149	0x3e32873b	0.17434399
150	0x3c70f2e7	0.01470635
151	0xbe3213c6	-0.17390355
152	0xbe26b4c3	-0.16279893
153	0x3e38c9f3	0.18045788
154	0xbcd76831	-0.0262948
155	0x3da48c07	0.080345206
156	0x3d895486	0.06705575
157	0x3e21096f	0.15726255
158	0xbcfb0246	-0.030640732
159	0x3e099cdf	0.13438748
160	0x3dfc8e5e	0.12331842
161	0x3dba5a1e	0.0909922
162	0xbea44b52	-0.32088715
163	0xbd9324f3	-0.07184782
164	0x3d98a04b	0.074524485
165	0x3df12d6b	0.11776241
166	0x3d4167a2	0.047217973
167	0x3d4bc03f	0.049743887
168	0xbdcbfb25	-0.099600114
169	0x3da3326c	0.079686016
170	0x3e006587	0.1253873
171	0xbe3bda3e	-0.18344972
172	0xbde697f6	-0.11259453
173	0xbcb7b499	-0.022424983
174	0x3d3ae917	0.045632448
175	0xbe6a945a	-0.22908154
176	0x3e368817	0.17825352
177	0xbcb4d4a5	-0.022074053
178	0xbd5d7497	-0.054066267
179	0xbe351e0d	-0.17687245
180	0x3e4eab30	0.2018249
181	0x3dee5391	0.11637033
182	0xbd042509	-0.032261882
183	0x3e85e5a1	0.26151755
184	0x3d8a61d1	0.06756938
185	0x3dc6ab32	0.09700622
186	0xbdd682f9	-0.104742
187	0xbdb545cf	-0.088512056
188	0xbd0532fd	-0.03251933
189	0x3c9df0e5	0.019279907
190	0x3e805073	0.25061378
191	0x3e337e54	0.17528659
192	0x3e0133cc	0.12617415
193	0x3d2c937d	0.042132843
194	0x3e1a09af	0.15042756
195	0xbdb553c1	-0.088538654
196	0x3dfc531e	0.12320541
197	0xbde4b574	-0.11167422
198	0xbca9572c	-0.02067145
199	0x3ccd01a5	0.025025198
200	0x3e204a80	0.1565342
201	0xbbebcdaa	-0.007196148
202	0x3cdfdb3d	0.02732622
203	0xbe32a4ad	-0.17445631
204	0x3c6e9f6e	0.014564378
205	0x3cd550fc	0.026039593
206	0xbb0eb8c4	-0.002177761
207	0xbd0dda4c	-0.034632012
208	0x3db4b40f	0.08823406
209	0x3e2df0c5	0.16986378
210	0x3de83344	0.11337903
211	0x3e0b8069	0.13623203
212	0x3dfc2de6	0.12313442
213	0x3e0d3ba3	0.13792281
214	0x3d8528c0	0.06501913
215	0x3e3ba154	0.1832326
216	0x3d9b9453	0.0759665
217	0xbd66bd70	-0.056333005
218	0x3d0b412b	0.033997696
219	0x3d6193ae	0.05507248
220	0x3dfd70a3	0.123749994
221	0x3d11dcb6	0.035610877
222	0x3dc38c02	0.09548189
223	0x3dcaf2b6	0.09909575
224	0xbdf699aa	-0.12041028
225	0x3e04e351	0.1297734
226	0x3d948aa7	0.07253008
227	0x3e3f51fa	0.18683615
228	0xbd156c8a	-0.036480464
229	0x3d82b39b	0.06381913
230	0x3e144d71	0.14482667
231	0x3df47c67	0.1193779
232	0x3e3b0a53	0.18265657
233	0x3bb2e70f	0.0054596732
234	0xbbb38cb2	-0.0054794187
235	0x3d8cc777	0.068739824
236	0xbd0876ce	-0.033316426
237	0xbd149053	-0.03627045
238	0xbd5af2b0	-0.0534541
239	0xbce6efd4	-0.02819053
240	0x3d9500e2	0.07275559
241	0x3da69526	0.081339166
242	0xbd553774	-0.052054837
243	0x3e0bdd67	0.13658677
244	0x3da68e12	0.081325665
245	0x3bdcb9f1	0.006736033
246	0x3df75f5b	0.120787345
247	0x3d3084da	0.043095447
248	0x3cfaaf22	0.030601088
249	0x3d60719b	0.054795843
250	0xbe46b7cf	-0.19406055
251	0x3dc07ef9	0.09399218
252	0x3c458176	0.012054792
253	0x3dbe34c8	0.09287411
254	0x3daf5c3c	0.08562514
255	0xbe0300f9	-0.1279334

bias f4 [20]
0	0x3d7fb6b2	0.06243009
1	0x3d766ad4	0.060160473
2	0x3e5cce7f	0.21563147
3	0x3c0bbbd4	0.008528668
4	0xbdf8fd9f	-0.121577494
5	0x3e6dee87	0.23235522
6	0x3de3138b	0.11087712
7	0xbd8b928d	-0.06815062
8	0x3d98b8b8	0.07457107
9	0x3e0ddc49	0.13853563
10	0x3b26ff86	0.0025481894
11	0xbdc262e0	-0.09491515
12	0xbd87de25	-0.066341676
13	0x3e6284cc	0.2212097
14	0x3e07d03d	0.1326303
15	0x3d05e26e	0.032686643
16	0x3e8015a7	0.2501652
17	0x3b56ab53	0.0032755926
18	0xbdf5768a	-0.119855
19	0xbd3b7d30	-0.045773685

weight f4 [20]
0	0x3f800000	1.0
1	0x3f800000	1.0
2	0x3f800000	1.0
3	0x3f800000	1.0
4	0x3f800000	1.0
5	0x3f800000	1.0
6	0x3f800000	1.0
7	0x3f800000	1.0
8	0x3f800000	1.0
9	0x3f800000	1.0
10	0x3f800000	1.0
11	0x3f800000	1.0
12	0x3f800000	1.0
13	0x3f800000	1.0
14	0x3f800000	1.0
15	0x3f800000	1.0
16	0x3f800000	1.0
17	0x3f800000	1.0
18	0x3f800000	1.0
19	0x3f800000	1.0

bias f4 [20]
0	0x00000000	0.0
1	0x00000000	0.0
2	0x00000000	0.0
3	0x00000000	0.0
4	0x00000000	0.0
5	0x00000000	0.0
6	0x00000000	0.0
7	0x00000000	0.0
8	0x00000000	0.0
9	0x00000000	0.0
10	0x00000000	0.0
11	0x00000000	0.0
12	0x00000000	0.0
13	0x00000000	0.0
14	0x00000000	0.0
15	0x00000000	0.0
16	0x00000000	0.0
17	0x00000000	0.0
18	0x00000000	0.0
19	0x00000000	0.0

running_mean f4 [20]
0	0x00000000	0.0
1	0x00000000	0.0
2	0x00000000	0.0
3	0x00000000	0.0
4	0x00000000	0.0
5	0x00000000	0.0
6	0x00000000	0.0
7	0x00000000	0.0
8	0x00000000	0.0
9	0x00000000	0.0
10	0x00000000	0.0
11	0x00000000	0.0
12	0x00000000	0.0
13	0x00000000	0.0
14	0x00000000	0.0
15	0x00000000	0.0
16	0x00000000	0.0
17	0x00000000	0.0
18	0x00000000	0.0
19	0x00000000	0.0

running_var f4 [20]
0	0x3f800000	1.0
1	0x3f800000	1.0
2	0x3f800000	1.0
3	0x3f800000	1.0
4	0x3f800000	1.0
5	0x3f800000	1.0
6	0x3f800000	1.0
7	0x3f800000	1.0
8	0x3f800000	1.0
9	0x3f800000	1.0
10	0x3f800000	1.0
11	0x3f800000	1.0
12	0x3f800000	1.0
13	0x3f800000	1.0
14	0x3f800000	1.0
15	0x3f800000	1.0
16	0x3f800000	1.0
17	0x3f800000	1.0
18	0x3f800000	1.0
19	0x3f800000	1.0

weight f4 [1, 20]
0	0xbf398649	-0.7247053
1	0xbf02e023	-0.51123255
2	0x3e2097ba	0.15682879
3	0xbf3271e0	-0.6970501
4	0xbf2d4949	-0.6768995
5	0x3e466b9e	0.1937699
6	0x3e8dc41a	0.27688676
7	0xbf361754	-0.71129346
8	0xbf2d3958	-0.67665625
9	0x3e5f5d2b	0.21812885
10	0xbefa9d7e	-0.48948282
11	0xbed12a98	-0.4085281
12	0xbf26e6a2	-0.6519567
13	0x3e78f2f5	0.24311431
14	0x3e8a4a9f	0.27010056
15	0xbf1b8206	-0.60745275
16	0x3e9b57e1	0.30340484
17	0xbe214e60	-0.15752554
18	0xbe2a11c7	-0.16608344
19	0xbf0c516e	-0.5481175
