models_version1/2UAVs_305000/c_t0.pt (torch_old, 28013 bytes, 15 tensors)

weight f4 [50, 68]
000000 a3 d7 e4 bd 3e 24 59 3e f8 d0 ae 3d 48 ba a8 3c
       -0.11173942 0.21205232 0.085359514 0.020596638
000010 3c b0 3b 3d bd 95 45 3d 10 b8 83 3c f0 43 93 3d
       0.045822367 0.048238505 0.016078979 0.071906924
000020 36 3e 99 bc 79 12 62 3d e4 97 b7 bd 11 4b 04 3e
       -0.018706422 0.0551934 -0.08964518 0.1291926
000030 c1 46 b8 3d 10 07 23 3e 34 2d 05 3e 98 52 c3 3d
       0.0899787 0.15920663 0.13005525 0.09537238
000040 30 ab 86 3d 28 a6 a2 3d 76 fd c5 bd b5 7e 73 bc
       0.0657562 0.07941848 -0.096674845 -0.014861752
000050 80 ed 69 bd a0 dd 7c 3d 3c 6e cd 3d af a0 63 3d
       -0.057111263 0.061734796 0.10030791 0.05557316
000060 66 9c 82 bd 8b 2c c1 3d 9b 04 f0 3c 49 6d 0b 3e
       -0.06377487 0.09432324 0.029299071 0.13615908
000070 72 18 e9 3d 7e 9c ae 3d 4d 8d 36 bc 5c 61 7a bc
       0.11381616 0.08525942 -0.011142087 -0.015282001
000080 be 39 4d bc 81 84 da bc 88 a9 a6 3c d0 9b 9e 3d
       -0.012525974 -0.02667451 0.02034451 0.077445626
000090 05 13 c9 bd 3f 7b f0 3d 2b c2 a6 bd ba 43 34 bd
       -0.09818081 0.11742257 -0.08142503 -0.0440099
0000a0 4f eb 07 bd a0 da 9a 3d cf b4 b6 bd aa 2a 6d bd
       -0.033183392 0.07561231 -0.08921205 -0.057902016
0000b0 07 32 8b bd 51 eb 0e 3d 99 40 84 3d 66 49 80 3d
       -0.06796651 0.034892384 0.064576335 0.06264
0000c0 b8 3f 10 3e 42 01 cc 3d 93 fc 3e bd a4 59 e2 bd
       0.14086807 0.099611774 -0.046627592 -0.11052254
0000d0 76 03 01 be 84 2b 0b 3e 56 08 f4 3d 28 17 0f bc
       -0.12598976 0.13590819 0.119156525 -0.008733548
0000e0 97 9f c1 3c 72 20 d6 bd 72 d8 5b bd c1 ca 0d 3e
       0.023635669 -0.10455407 -0.053673215 0.13846876
0000f0 3d 0a 05 3e 5a a7 15 3e 65 a2 49 bd 6b b8 62 bd
       0.12992187 0.14614621 -0.049227137 -0.055351656
000100 71 48 73 3c 02 a1 00 3e 6c a7 cc bd 6e 15 c4 3d
       0.014848814 0.1256142 -0.09992871 0.095744
000110 41 92 9f 3c c5 91 9c bd 16 ad 8e 3d a2 f2 a7 bd
       0.019478919 -0.07644991 0.06966607 -0.082005754
000120 9f 38 3d bb d8 c3 b9 3b aa 55 14 3e 75 3a 99 3d
       -0.002887286 0.0056690983 0.14485803 0.07481853
000130 23 a6 b7 bd f0 90 b0 bd 57 3f 07 3d 03 44 e5 3d
       -0.08967235 -0.08621395 0.03301939 0.11194613
000140 b3 ed 12 3e 08 b3 54 3d 60 31 39 3d 0b 9d 06 be
       0.14348488 0.05192855 0.045213103 -0.13145845
000150 a5 d3 87 bc b3 f4 8d 3c 3d 7d 3a 3d 85 7c a6 3d
       -0.016580412 0.017328596 0.045529593 0.08129219
000160 2d 1f be 3d 44 00 fb bd 31 b9 c7 3d 9e cb b9 3a
       0.0928329 -0.1225591 0.09752119 0.0014175063
000170 09 04 c7 3d b4 cf 9c 3c c9 13 a5 3c 1f 67 f0 3d
       0.097175665 0.01914201 0.020151036 0.11738419
000180 e2 8d c2 bd 0c 5d c0 3d 3e ee ca bd 56 34 82 3d
       -0.09499718 0.09392747 -0.09908722 0.063576385
000190 22 a4 f1 bd 00 c8 9e 3d cd fc 1d be 3d 4e be 3d
       -0.11798884 0.07752991 -0.15428467 0.092922665
0001a0 95 0f fc 3c fd d8 e5 bc b6 34 94 3d c2 90 86 3c
       0.030769149 -0.02805757 0.07236616 0.016426448
0001b0 c0 89 a6 3d 2c 67 cd 3d d2 07 a5 bc 5e 8a e7 3d
       0.081317425 0.10029444 -0.02014533 0.11305688
0001c0 16 6e c8 bd 03 86 8e bd 04 ec 9b 3d 53 6f 02 3e
       -0.09786622 -0.069591545 0.07613376 0.1273778
0001d0 fe 7e b4 3d e4 bc a3 3d 5e 33 72 bd 73 84 ce bd
       0.08813284 0.079950124 -0.05913102 -0.100838564
0001e0 b1 56 38 bd ed 27 88 3d 46 a2 07 3d f5 95 e9 bd
       -0.04500455 0.0664824 0.03311374 -0.11405555
0001f0 84 26 89 bd dc 91 96 3d f5 50 f1 bb d7 8c be 3d
       -0.066967994 0.07352039 -0.007364387 0.09304207
000200 db 80 9a bd 54 0e a2 3d 52 53 c0 bd 8e 09 91 3b
       -0.075441085 0.07912889 -0.09390892 0.004426188
000210 68 d2 02 be e7 3a 6f bd c3 23 ae 3d 70 43 d6 bd
       -0.12775576 -0.058405783 0.08502915 -0.104620814
000220 a5 60 2a 3c 08 03 18 3d 00 30 e5 3d 38 13 83 3c
       0.010399018 0.037112266 0.11190796 0.016000375
000230 78 f6 81 3d 40 51 69 3c 52 a6 d2 3d c4 38 02 3d
       0.06345838 0.014240563 0.10285629 0.031792417
000240 f4 86 a6 3d 38 b0 63 bd 3a 9a 47 bd d0 fc 20 3c
       0.08131209 -0.055587977 -0.048731066 0.0098259
000250 54 67 d9 3d c0 fc 8b 3c 20 bf 93 bd fb 0b b9 bd
       0.106154114 0.017088294 -0.072141886 -0.09035488
000260 26 a8 8f 3d 18 4d 40 bd 5e a9 f2 bd 5a 70 0d bd
       0.07014494 -0.046948522 -0.118487105 -0.034530975
000270 b9 2b a3 3d 80 66 a8 bd c0 07 c9 3c 12 07 84 3d
       0.07967324 -0.08222675 0.024539828 0.06446661
000280 fd 7a a6 3d c0 99 37 bb e0 8f b0 3d d4 08 67 bd
       0.08128927 -0.0028015226 0.08621192 -0.056404904
000290 5a 77 91 bd 8f 15 8c bd 53 99 bc bd 9e 6b 9c 3d
       -0.07102843 -0.068400495 -0.09208932 0.07637714
0002a0 40 74 49 bb 16 b5 31 bd b0 90 8c 3c 9c 78 d0 3c
       -0.0030739456 -0.043385588 0.017158836 0.025448136
0002b0 4b b5 4f 3d 78 d8 a4 3d 6c c1 12 bd 20 8d 89 3c
       0.050710004 0.08049101 -0.035828993 0.016790926
0002c0 00 9d 8c bb e0 c6 b9 3b 0c 2c 51 bd 00 3c 0c bd
       -0.004291177 0.0056694597 -0.051067397 -0.034236908
0002d0 3f 76 45 bd ff 55 c1 bd e4 9d 2e bd 09 4c 8d bd
       -0.04820847 -0.094402306 -0.042631045 -0.06899268
0002e0 00 d0 a5 ba 2b 67 dc bd a6 5f 09 bd aa 6f de bd
       -0.001265049 -0.10761865 -0.033538483 -0.10861142
0002f0 08 1f 8c bd 60 fd 39 3b 38 c0 b8 bd ac 2a 69 3d
       -0.06841856 0.0028379783 -0.09021038 0.05692546
000300 67 88 cc bd 49 6e a2 bd 0a 34 d6 bd 04 b8 fb bc
       -0.09986954 -0.079311915 -0.104591444 -0.030727394
000310 64 77 8a bd 64 e1 35 3d 88 d1 30 bd fb 43 b8 bd
       -0.06761053 0.044404402 -0.043168575 -0.08997341
000320 e8 92 32 bd 83 d2 8a 3c 3a 80 b2 bd 24 27 ca 3d
       -0.043597132 0.016946083 -0.087158635 0.09870747
000330 22 2c 89 be d2 58 8b 3e b5 4d d0 3c 5f ac 73 bd
       -0.26791483 0.27216202 0.025427679 -0.059490558
000340 aa 0e ca 3b aa d6 62 bc 96 a1 75 bd 52 fe 35 3d
       0.006166299 -0.013845125 -0.059968553 0.044431992
000350 75 59 bf bd 83 92 c7 bd 5b bd fc bc 4b 74 e2 3a
       -0.093432344 -0.09744742 -0.03085201 0.001727709
000360 ce a7 f1 3c 09 b7 bd 3d a3 bf 75 3d 9c 63 8a 3d
       0.02949896 0.09263427 0.059997212 0.0675728
000370 1f cf 8e bd bc 1b 9a bd b3 48 58 bd 53 0d 1d 3e
       -0.06973099 -0.07524821 -0.052803706 0.15337114
000380 65 2a f5 3d 32 26 a2 3d c5 81 bb 3d 09 43 74 bd
       0.11970977 0.079174414 0.09155611 -0.059634242
000390 38 08 1c 3c c8 4e 18 bd 30 34 0a bd a3 35 a5 3d
       0.009523444 -0.037184507 -0.033741176 0.08066871
0003a0 70 19 96 3d db 06 0c bb 9d b6 e3 bd 0d 7f 24 3d
       0.073290706 -0.002136639 -0.11118815 0.040160228
0003b0 88 f2 0b 3e d7 34 4e bd 4f 4c f0 bd 7c d4 92 3e
       0.13666737 -0.05034336 -0.11733305 0.28677738
0003c0 e8 8e a4 3c fe 4a ff 3d 3f 47 0f bd 40 05 d6 3c
       0.020087674 0.124654755 -0.034980055 0.02612555
0003d0 00 2f 12 3e 88 f6 3e 3d d4 e7 01 bd 54 dd d1 3d
       0.14275742 0.04662183 -0.03171523 0.10247293
0003e0 2f c8 bf bc 0f 51 88 3d 46 ed 1c 3e b9 0e 21 3c
       -0.023410885 0.06656086 0.15324888 0.00983017
0003f0 a4 81 79 bd 98 d0 a5 3d 58 79 db bb 63 e6 0c 3e
       -0.06091465 0.08096427 -0.006697815 0.1375976

bias f4 [50]
000000 ad 33 a2 3c 97 26 a2 3b cc c2 c3 3d 92 c7 2f bd
       0.019800032 0.004948448 0.09558639 -0.042914934
000010 55 3e 14 3d ac 55 58 3d 44 25 c6 3d 10 83 2f bd
       0.036192257 0.052816078 0.096750766 -0.0428496
000020 bb f5 c9 3d 13 01 90 bd 78 b4 5e 3d 74 81 ce 3d
       0.098613225 -0.07031455 0.054371327 0.10083285
000030 10 c0 d2 bd 12 47 06 3e ed cc 82 bd 18 8b 5d bc
       -0.10290539 0.13113049 -0.06386743 -0.013521932
000040 fd 00 c6 3d 80 34 14 bd e6 e4 87 3c e8 e1 09 3d
       0.09668157 -0.03618288 0.01658864 0.033662707
000050 40 81 37 3b cf 37 d8 3d ed f8 1b 3d f5 08 75 3d
       0.0028000623 0.1055752 0.03807919 0.059822995
000060 58 e6 ce 3d 30 c4 d0 bd 2e 71 08 bd 49 ef 8d 3c
       0.10102528 -0.1019367 -0.03331106 0.017326014
000070 48 ca bf 3d b6 f1 89 3d 50 b7 b4 bd 26 06 cb 3d
       0.09364754 0.06735556 -0.088240266 0.09913282
000080 b7 e4 a1 bd d1 52 c3 3d d8 e2 46 3d 64 60 ca bb
       -0.07904952 0.0953728 0.04855618 -0.0061760414
000090 6f 7d ae bc 1d 74 e2 3c c8 8b a6 3d 40 a6 59 bd
       -0.021300046 0.027643258 0.0813213 -0.053137064
0000a0 02 37 ff 3d 8e 5b 94 bd 0e 78 07 bc 00 da 0c bc
       0.12461664 -0.07244025 -0.008268369 -0.008596897
0000b0 a5 34 a7 3d e4 6d ef 3b de 0a f2 bc 24 2e 4a 3d
       0.08164338 0.007306801 -0.029546198 0.04936041
0000c0 22 f8 92 bd 01 2e 97 bd
       -0.07176234 -0.073818214

weight f4 [50, 4]
000000 f5 1a 9f be ea c2 d4 3e a0 23 d2 be 44 70 80 3e
       -0.31075254 0.41554958 -0.41042805 0.25085652
000010 d8 a4 02 bf 60 36 ee be cf 67 96 be 50 ec a7 be
       -0.5103278 -0.4652586 -0.29376075 -0.3279748
000020 d5 84 7b ba 6a 84 28 3e 5d 51 fb 3c 82 bc e8 be
       -0.00095946837 0.16456762 0.030678445 -0.4545632
000030 19 df 9e 3c 79 fc 2a be c8 07 9d 3e c2 0b bb be
       0.01939349 -0.16697873 0.3067 -0.36532408
000040 e8 c5 ed be 43 83 97 bd 66 a9 03 bf 11 d9 58 3c
       -0.46440053 -0.07398083 -0.51430357 0.013235346
000050 94 d5 d0 be 20 2f 03 3e 9a 86 af be 7a c8 05 3e
       -0.40787947 0.12810946 -0.3428238 0.13064757
000060 ae fc 7c be 2a ea 54 3e a7 1e 05 bd 49 bd 9a be
       -0.24705765 0.20792452 -0.032499935 -0.30222538
000070 e8 c9 11 3f 01 9d 14 be ba f4 5f 3c 42 bf 6c be
       0.5694871 -0.14513017 0.013669187 -0.23119834
000080 da 64 2e 3b 83 b0 d3 be a6 85 35 be 22 9b 6e 3e
       0.0026610405 -0.41345605 -0.17726764 0.23301366
000090 6e ba 1e 3f d2 ed 46 3e b1 68 28 3e 95 47 15 be
       0.6200322 0.19426659 0.16446187 -0.14578088
0000a0 14 55 13 3f 52 04 f2 be 05 7c c4 3e 4f 10 d2 bd
       0.57551694 -0.4726892 0.3837587 -0.10257017
0000b0 79 36 57 be 1c 6c 9a 3e a8 e0 f6 3e b0 d6 98 be
       -0.21016873 0.30160606 0.48218274 -0.29851294
0000c0 d5 7b a2 be b4 98 6f be 95 54 50 3e e0 c6 bd 3d
       -0.317351 -0.23398095 0.20344765 0.09266448
0000d0 b2 18 15 bf f5 a0 b6 3d e0 f4 96 3e c4 f1 80 3e
       -0.5824081 0.08917419 0.294837 0.25184453
0000e0 db 21 f9 be e0 91 a5 3e ca 22 83 3c d2 c9 2c bd
       -0.48658642 0.32337856 0.0160078 -0.04218466
0000f0 a8 70 76 be 35 37 d9 3d fe cd 71 3e 2e 9f 53 be
       -0.24066412 0.10606233 0.23613736 -0.20666191
000100 1e 56 5a bd da 60 aa be 8b 08 c1 3e 93 44 12 be
       -0.053304784 -0.33277017 0.3770183 -0.14283971
000110 86 1a 9b 3e 8a c7 04 3f 0c 4f 0c 3d 76 f3 1e be
       0.30293673 0.5186697 0.034255072 -0.1552256
000120 cd 73 d4 3e 5f 72 a4 3e 7d e8 d0 3d bd 8c f4 3e
       0.414946 0.32118508 0.102005936 0.47763625
000130 0c 06 bd be 60 8b 8d 3d 49 cb 01 bd 22 ec 6d be
       -0.36918676 0.06911349 -0.03168801 -0.23234609
000140 38 cc 86 be 27 8e c7 be 7b e0 8d 3e 95 1a 26 3e
       -0.26327682 -0.3897564 0.27710328 0.16221078
000150 61 9c 6b 3e 7d f5 d4 be cd 8f 43 be d3 11 9d 3e
       0.23008873 -0.41593543 -0.19097824 0.3067766
000160 28 07 d7 3e b7 b0 84 3d 86 47 aa be 52 ad a7 3e
       0.41997647 0.06479018 -0.33257693 0.3274942
000170 b8 4f 60 3d 5b ef 00 be 55 53 91 bd ad e7 b2 be
       0.054763526 -0.12591307 -0.070959724 -0.3494238
000180 72 6d ed bb 4a 4b df 3e 1d 0d cf 3e 9c e8 9f be
       -0.007245713 0.43612128 0.40439692 -0.31232154
000190 23 78 18 be 02 bc fb be bf 09 91 bc 75 b8 be 3e
       -0.14889579 -0.49166876 -0.017704843 0.37250105
0001a0 7e 1c 2c be 10 85 11 3f 47 6a 51 be 52 55 2e 3e
       -0.16807744 0.5684366 -0.20450698 0.17024735
0001b0 ab 10 b9 be 22 59 fa 3d 57 93 50 be 07 1a 02 bf
       -0.3614553 0.12224032 -0.20368706 -0.50820965
0001c0 19 c3 ba 3e ed 4b 82 be 2a ff e6 3d 0f e4 a3 be
       0.36476973 -0.25448552 0.112791374 -0.32009932
0001d0 af d9 4c 3c c5 51 91 be e7 ad d8 3e 62 2a 39 be
       0.012503072 -0.28382698 0.42320177 -0.18082574
0001e0 74 d9 67 be 59 ef 09 bf 05 91 48 be d7 86 c8 3d
       -0.22641546 -0.5388084 -0.1958657 0.09791344
0001f0 f7 4d 30 be 21 92 70 be 4b ed af 3e cf 2e 38 3d
       -0.17217241 -0.23493244 0.34360728 0.044966515
000200 a3 58 d1 be ca cc 98 3d 29 4f 9d 3d dc 8d d2 3e
       -0.40887937 0.074609354 0.07681114 0.41123855
000210 64 c8 de 3e 48 b3 1f 3e 22 ea 97 3e 0c 9a 91 be
       0.4351226 0.15595734 0.29670817 -0.2843784
000220 86 de 42 3e 52 d0 a6 be c3 73 64 be bc 84 c6 be
       0.19030198 -0.3258081 -0.22309785 -0.38773143
000230 d0 a5 b6 be 8c 46 84 bd e9 ef 85 3e 38 bd 22 3e
       -0.3567338 -0.06458768 0.261596 0.15892494
000240 e3 50 6a 3e 2d 95 ee be d1 99 66 be 0f 1d 0c bc
       0.22882418 -0.46598187 -0.22519614 -0.00855185
000250 c8 f0 01 bd f2 25 d3 be e6 bd ec be f8 09 ba 3c
       -0.031723768 -0.41239887 -0.4623863 0.022709832
000260 ad 4b 9c 3e 44 15 85 3c 8b 3c 2d be 91 5a d4 3d
       0.30526486 0.016245492 -0.16917627 0.10368837
000270 90 a6 81 3e 7e 4d e8 3e a6 25 d4 be ab ec 1d 3e
       0.2532239 0.45371622 -0.41434973 0.15422313
000280 6a 69 f9 3e 6f f4 bf bd ed d1 54 3e 65 b5 0d 3c
       0.48713237 -0.09372794 0.20783205 0.008649205
000290 1b 05 f5 be 73 80 d9 3e e9 18 82 bc 38 e1 af 3e
       -0.47855458 0.4248081 -0.015881019 0.34351516
0002a0 c4 88 1d 3f eb 44 1b bd b1 6b a1 be 54 8b aa be
       0.6153681 -0.037907522 -0.31527475 -0.33309424
0002b0 d4 a0 e4 be aa a6 1b be 43 77 81 bc 65 e3 3f be
       -0.44653952 -0.15200296 -0.015803939 -0.18739088
0002c0 29 c3 c0 3e 2f 55 e4 be 20 37 a9 3e d1 1b 5b 3b
       0.37648895 -0.4459624 0.3304987 0.0033433328
0002d0 60 6f 1c 3e 1e 1a ed 3e 3e 0a 17 3d 5c 17 4b bd
       0.15276861 0.46308988 0.036875002 -0.049582824
0002e0 05 65 2d 3f 93 bf 55 3e e7 63 8a 3e a5 30 a6 3e
       0.6773227 0.20873861 0.27029344 0.32458988
0002f0 fe f2 a7 3e 0f df 43 3d ba 7f d7 3e 67 27 09 bd
       0.32802576 0.047820147 0.42089635 -0.033484843
000300 0f a5 91 be eb 87 e3 be 1c 35 11 3e 53 00 90 bd
       -0.28446242 -0.44439635 0.14180416 -0.07031312
000310 4f be c7 be 5d f8 ae 3e 6a e7 ac 3e 76 f8 88 3e
       -0.3901238 0.3417386 0.33770305 0.2675206

bias f4 [50]
000000 69 f1 08 3f cd fc 0d be 94 c2 42 3e 99 fb f4 3d
       0.5349336 -0.13865967 0.19019538 0.11962051
000010 c6 9a 55 3e 67 07 9d 3d 49 21 30 be 40 f4 9a 3e
       0.20859823 0.076674275 -0.17200197 0.30264473
000020 fd e8 b2 bd 0c ec c0 3d 6c 3a 9c be 84 79 e4 be
       -0.08735845 0.09420022 -0.30513322 -0.4462396
000030 f3 99 8e be 38 e2 1a 3f 65 2a cc bc 92 76 5d be
       -0.2785183 0.6050143 -0.024922559 -0.21627262
000040 51 bb 1d bd a9 c8 f3 be cb 87 f8 3e dd 57 ad 3e
       -0.038508717 -0.4761403 0.48541102 0.33856097
000050 3d 50 d2 3e 9f 1a a8 be 8b 77 fc bc 0b 90 9f be
       0.41076842 -0.3283281 -0.030818721 -0.31164584
000060 a6 9a a9 3e 24 24 df be c8 9c 8e 3e d2 6e a4 be
       0.331258 -0.4358226 0.2785399 -0.321158
000070 2f ac 59 be 48 e2 a3 b9 81 3b 8a 3e 1c 3b 67 3e
       -0.21257089 -0.00031258375 0.26998523 0.22581142
000080 d7 6f 1c 3e f8 40 db 3e 33 b7 a6 3e b6 32 0e 3f
       0.15277039 0.42823005 0.32561645 0.5554613
000090 60 c9 ac 3a 3f 89 e4 be 3b 8c 28 bd 23 7d cc bd
       0.0013182573 -0.4463596 -0.04114936 -0.099848054
0000a0 9c 40 c8 3e f4 73 74 3e 5b ba 60 bc d5 85 c4 be
       0.39111793 0.23872358 -0.013716306 -0.38383356
0000b0 bc 0c 51 be 6b e9 83 3e b9 44 c9 3e 13 62 cf 3e
       -0.20415014 0.2576402 0.39310244 0.40504512
0000c0 e5 78 db be 20 6a 8b be
       -0.42865673 -0.27229404

weight f4 [50]
000000 00 00 80 3f 00 00 80 3f 00 00 80 3f 00 00 80 3f
       1.0 1.0 1.0 1.0
000010 00 00 80 3f 00 00 80 3f 00 00 80 3f 00 00 80 3f
       1.0 1.0 1.0 1.0
000020 00 00 80 3f 00 00 80 3f 00 00 80 3f 00 00 80 3f
       1.0 1.0 1.0 1.0
000030 00 00 80 3f 00 00 80 3f 00 00 80 3f 00 00 80 3f
       1.0 1.0 1.0 1.0
000040 00 00 80 3f 00 00 80 3f 00 00 80 3f 00 00 80 3f
       1.0 1.0 1.0 1.0
000050 00 00 80 3f 00 00 80 3f 00 00 80 3f 00 00 80 3f
       1.0 1.0 1.0 1.0
000060 00 00 80 3f 00 00 80 3f 00 00 80 3f 00 00 80 3f
       1.0 1.0 1.0 1.0
000070 00 00 80 3f 00 00 80 3f 00 00 80 3f 00 00 80 3f
       1.0 1.0 1.0 1.0
000080 00 00 80 3f 00 00 80 3f 00 00 80 3f 00 00 80 3f
       1.0 1.0 1.0 1.0
000090 00 00 80 3f 00 00 80 3f 00 00 80 3f 00 00 80 3f
       1.0 1.0 1.0 1.0
0000a0 00 00 80 3f 00 00 80 3f 00 00 80 3f 00 00 80 3f
       1.0 1.0 1.0 1.0
0000b0 00 00 80 3f 00 00 80 3f 00 00 80 3f 00 00 80 3f
       1.0 1.0 1.0 1.0
0000c0 00 00 80 3f 00 00 80 3f
       1.0 1.0

bias f4 [50]
000000 00 00 00 00 00 00 00 00 00 00 00 00 00 00 00 00
       0.0 0.0 0.0 0.0
000010 00 00 00 00 00 00 00 00 00 00 00 00 00 00 00 00
       0.0 0.0 0.0 0.0
000020 00 00 00 00 00 00 00 00 00 00 00 00 00 00 00 00
       0.0 0.0 0.0 0.0
000030 00 00 00 00 00 00 00 00 00 00 00 00 00 00 00 00
       0.0 0.0 0.0 0.0
000040 00 00 00 00 00 00 00 00 00 00 00 00 00 00 00 00
       0.0 0.0 0.0 0.0
000050 00 00 00 00 00 00 00 00 00 00 00 00 00 00 00 00
       0.0 0.0 0.0 0.0
000060 00 00 00 00 00 00 00 00 00 00 00 00 00 00 00 00
       0.0 0.0 0.0 0.0
000070 00 00 00 00 00 00 00 00 00 00 00 00 00 00 00 00
       0.0 0.0 0.0 0.0
000080 00 00 00 00 00 00 00 00 00 00 00 00 00 00 00 00
       0.0 0.0 0.0 0.0
000090 00 00 00 00 00 00 00 00 00 00 00 00 00 00 00 00
       0.0 0.0 0.0 0.0
0000a0 00 00 00 00 00 00 00 00 00 00 00 00 00 00 00 00
       0.0 0.0 0.0 0.0
0000b0 00 00 00 00 00 00 00 00 00 00 00 00 00 00 00 00
       0.0 0.0 0.0 0.0
0000c0 00 00 00 00 00 00 00 00
       0.0 0.0

running_mean f4 [50]
000000 00 00 00 00 00 00 00 00 00 00 00 00 00 00 00 00
       0.0 0.0 0.0 0.0
000010 00 00 00 00 00 00 00 00 00 00 00 00 00 00 00 00
       0.0 0.0 0.0 0.0
000020 00 00 00 00 00 00 00 00 00 00 00 00 00 00 00 00
       0.0 0.0 0.0 0.0
000030 00 00 00 00 00 00 00 00 00 00 00 00 00 00 00 00
       0.0 0.0 0.0 0.0
000040 00 00 00 00 00 00 00 00 00 00 00 00 00 00 00 00
       0.0 0.0 0.0 0.0
000050 00 00 00 00 00 00 00 00 00 00 00 00 00 00 00 00
       0.0 0.0 0.0 0.0
000060 00 00 00 00 00 00 00 00 00 00 00 00 00 00 00 00
       0.0 0.0 0.0 0.0
000070 00 00 00 00 00 00 00 00 00 00 00 00 00 00 00 00
       0.0 0.0 0.0 0.0
000080 00 00 00 00 00 00 00 00 00 00 00 00 00 00 00 00
       0.0 0.0 0.0 0.0
000090 00 00 00 00 00 00 00 00 00 00 00 00 00 00 00 00
       0.0 0.0 0.0 0.0
0000a0 00 00 00 00 00 00 00 00 00 00 00 00 00 00 00 00
       0.0 0.0 0.0 0.0
0000b0 00 00 00 00 00 00 00 00 00 00 00 00 00 00 00 00
       0.0 0.0 0.0 0.0
0000c0 00 00 00 00 00 00 00 00
       0.0 0.0

running_var f4 [50]
000000 00 00 80 3f 00 00 80 3f 00 00 80 3f 00 00 80 3f
       1.0 1.0 1.0 1.0
000010 00 00 80 3f 00 00 80 3f 00 00 80 3f 00 00 80 3f
       1.0 1.0 1.0 1.0
000020 00 00 80 3f 00 00 80 3f 00 00 80 3f 00 00 80 3f
       1.0 1.0 1.0 1.0
000030 00 00 80 3f 00 00 80 3f 00 00 80 3f 00 00 80 3f
       1.0 1.0 1.0 1.0
000040 00 00 80 3f 00 00 80 3f 00 00 80 3f 00 00 80 3f
       1.0 1.0 1.0 1.0
000050 00 00 80 3f 00 00 80 3f 00 00 80 3f 00 00 80 3f
       1.0 1.0 1.0 1.0
000060 00 00 80 3f 00 00 80 3f 00 00 80 3f 00 00 80 3f
       1.0 1.0 1.0 1.0
000070 00 00 80 3f 00 00 80 3f 00 00 80 3f 00 00 80 3f
       1.0 1.0 1.0 1.0
000080 00 00 80 3f 00 00 80 3f 00 00 80 3f 00 00 80 3f
       1.0 1.0 1.0 1.0
000090 00 00 80 3f 00 00 80 3f 00 00 80 3f 00 00 80 3f
       1.0 1.0 1.0 1.0
0000a0 00 00 80 3f 00 00 80 3f 00 00 80 3f 00 00 80 3f
       1.0 1.0 1.0 1.0
0000b0 00 00 80 3f 00 00 80 3f 00 00 80 3f 00 00 80 3f
       1.0 1.0 1.0 1.0
0000c0 00 00 80 3f 00 00 80 3f
       1.0 1.0

weight f4 [20, 100]
000000 0c c6 2f bc 39 37 1f 3c 40 89 b9 ba 03 17 31 be
       -0.01072837 0.009717756 -0.0014155284 -0.17293935
000010 7d 83 6c 3c 0a ca 5f 3d 02 6a a1 be 4a 8d de 3c
       0.014435646 0.05463604 -0.3152619 0.027166981
000020 a0 93 67 be 95 4e b5 3e 9f 66 85 3d 40 e1 d0 3d
       -0.22614908 0.35411516 0.06513714 0.10199213
000030 38 32 0b 3d 32 02 de bd 51 9f d6 3e 10 9b 78 bd
       0.03398344 -0.108402625 0.41918424 -0.060694754
000040 7d 7a b4 be 98 50 42 3e 34 ac 66 bd e8 25 10 3c
       -0.352497 0.18976057 -0.05631657 0.0087981
000050 e9 f4 2e 3d 55 4a 7b bd 63 91 3b be fb 7d 8e 3c
       0.042714033 -0.061350185 -0.1831718 0.017394057
000060 70 43 7c 3c 14 7d a0 3e f2 8d 06 3d 51 31 9a 3e
       0.015396938 0.31345427 0.032850213 0.3011575
000070 51 63 69 be 04 8f 6d 3e 10 d3 03 3e 98 1f 78 3d
       -0.22791792 0.23199087 0.12873483 0.060577005
000080 50 76 ef 3b 00 f0 29 3e 8e dd 44 be 65 12 10 be
       0.007307805 0.16595459 -0.19225141 -0.14069517
000090 fb e0 14 be b2 46 c7 3d e5 2a bb bd d2 71 58 3d
       -0.14538948 0.09730281 -0.09139041 0.052842923
0000a0 9b 8e 87 3b 64 bb c8 bb 38 a2 57 3e fa 4f 03 bd
       0.004136873 -0.0061258543 0.21057975 -0.032058693
0000b0 41 03 cb bd 20 b2 ba 3e 4e d6 dd 3d eb 0e c8 3c
       -0.0991273 0.36464024 0.10831891 0.024421176
0000c0 44 6d f5 bd a1 88 90 be 30 85 a9 bd 5c 68 1b bd
       -0.119837314 -0.2822924 -0.082773566 -0.03794132
0000d0 02 93 e0 3c 20 70 8a bd b1 90 8f bd 30 46 4b be
       0.027413849 -0.067596674 -0.070100196 -0.19850993
0000e0 dd fc c4 bd b3 58 9c 3d e6 34 36 3d 4f 76 33 3e
       -0.09618542 0.076341055 0.04448404 0.175256
0000f0 3c 4c d2 3d 40 a0 f5 bd 4a 3c 42 3a 9d d6 ec bd
       0.10268447 -0.11993456 0.00074094965 -0.11564372
000100 2e 51 47 be 9d e1 98 bb 3e a0 01 3d cf 5e c5 3d
       -0.19464561 -0.004665567 0.03164696 0.09637224
000110 8c ea 0a 3e 20 76 6a be f9 d2 fb bc 83 e0 04 3e
       0.13566035 -0.22896624 -0.030740248 0.1297627
000120 3a e1 04 3e f8 11 1c bd 09 ce cb bd a4 4e 19 bd
       0.12976542 -0.038103074 -0.099514075 -0.037428513
000130 02 3b 17 3c fe c8 bb bd 29 98 53 3c 69 53 3d bd
       0.009230377 -0.091691956 0.012914696 -0.046222124
000140 9f c9 40 3a ee 6e 70 bd aa 0f c3 bc 5c 05 c8 3d
       0.00073542626 -0.05869954 -0.02381118 0.09766647
000150 82 a5 00 3e 34 2e ba bd 31 1e 3d 39 f6 4f c1 3c
       0.12563136 -0.09090844 0.00018035692 0.023597699
000160 86 17 c5 3d 58 b4 bb 3d b3 a5 dd 3d db 2b 93 bd
       0.09623627 0.09165257 0.1082262 -0.07186099
000170 26 35 ed 3d aa 99 94 3d 82 ac e0 3c ae 77 65 3d
       0.11582403 0.072558716 0.027426008 0.05602234
000180 28 84 96 3d 97 fe 00 3e 61 1c 19 3d c6 1c 8b bd
       0.073494256 0.12597118 0.03738058 -0.067925975
000190 da 1b 5d bd 52 4e c6 3d fa 4f 14 3d 96 43 2b 3e
       -0.05398164 0.09682907 0.036209084 0.16725
0001a0 d7 83 84 3c 1a a8 6f 3d 42 f3 2f bb 3a 6a 4e 3d
       0.016176147 0.058509924 -0.0026847874 0.050394274
0001b0 32 59 38 3e 58 e1 f9 3b 40 b4 7e bd 3f 3a 67 be
       0.18002775 0.00762574 -0.06218362 -0.22580813
0001c0 04 44 b4 bd d0 9f ed bc 2f 34 6b bc 94 e5 83 bd
       -0.088020355 -0.029006869 -0.014355703 -0.06440273
0001d0 63 a0 59 bd 97 e6 03 3d c0 2f 7e bb a8 fd 1f bd
       -0.053131472 0.03220233 -0.0038785785 -0.039060265
0001e0 70 78 4c 3c 77 63 c8 bd d1 51 c4 bb 29 7f 0a bd
       0.012479886 -0.097845964 -0.0059911986 -0.033812676
0001f0 e4 94 ea 3c 86 87 a3 3d 18 53 27 bc 24 09 fd bb
       0.02863545 0.079848334 -0.010212682 -0.007722037
000200 30 91 20 3e 98 6a 99 bd ce 4a dd 3d 29 98 6c 3d
       0.15680385 -0.07491034 0.108052835 0.0577623
000210 ce e3 b3 bd 94 3e 81 3d a4 40 05 bb f5 ba 55 bb
       -0.08783685 0.06310764 -0.0020332718 -0.0032612656
000220 a2 dd 17 bd ce f3 5d be 00 a3 c4 bb bd 67 24 3d
       -0.0370766 -0.21675035 -0.0060008764 0.040137995
000230 85 1e a3 bd d0 94 aa 3d 74 99 36 be ca bb 4b bd
       -0.079648055 0.08329165 -0.17831975 -0.049739636
000240 80 9d 04 3e bd 4d 08 be d8 ec 16 be 2f 9e a9 bd
       0.12950706 -0.13310905 -0.14738786 -0.08282124
000250 e1 b6 c4 bd 5a e2 2f 3e 50 f1 dc bd 3e d0 cb 3d
       -0.09605194 0.1717619 -0.10788214 0.099518284
000260 31 09 d7 bd d5 e0 9b 3c 0e 51 60 3b 9b 11 05 be
       -0.104998 0.019028107 0.0034228 -0.12994997
000270 27 86 75 bd 4f 46 35 3d ca 06 04 3e 6f de 50 bd
       -0.05994239 0.044256505 0.12893215 -0.05099338
000280 18 7e f0 3d a9 dd c6 bd a6 f8 a4 3d df ad 9e 3b
       0.117428005 -0.09710247 0.080552384 0.0048425044
000290 03 ba 28 3d 80 47 19 3d 3b 77 84 3d bf 44 38 bd
       0.04119302 0.037421703 0.06468054 -0.044987436
0002a0 ac d1 50 3b 74 1c d1 bd 9f 60 11 3e 60 dd c5 3d
       0.0031863255 -0.10210505 0.14197014 0.096613646
0002b0 d3 5f 52 3d a9 e1 c8 3d e5 63 1d be 7d 5f b2 3d
       0.051360916 0.09808666 -0.15370138 0.08709619
0002c0 64 8a 2b be 38 8e eb 3c c9 c1 01 bd da 0d 02 3b
       -0.1675201 0.028754339 -0.03167895 0.0019844682
0002d0 74 a8 d7 3c c3 5f 0a bd 77 6f 91 3d d4 ce c3 bc
       0.026325442 -0.03378273 0.07101338 -0.023902334
0002e0 72 29 dd 3d e5 f3 57 3d 81 a4 db 3d 3b 18 d8 3d
       0.10798921 0.05272283 0.10724736 0.105514966
0002f0 aa 54 5e bd c7 69 dc bd 97 91 88 bd 16 38 0a be
       -0.05427996 -0.10762363 -0.06668394 -0.13497958
000300 ea 05 d5 bd 9f 36 ae bc c3 62 0b bd 4f 77 85 be
       -0.10401519 -0.02126628 -0.034029733 -0.26067588
000310 1b 18 9f bd fb 6d a9 bd d2 12 8e bc d9 b4 fd 3c
       -0.0776827 -0.0827293 -0.017342959 0.030970024
000320 1a ae 16 3c 07 29 cd 3d 04 54 fc 3c 19 2e c7 3d
       0.0091967825 0.10017591 0.03080178 0.09725589
000330 e9 a3 69 3d c7 6b c5 3d be 98 a7 bd a5 e0 7d 3c
       0.057041083 0.096396975 -0.0818343 0.015495454
000340 28 86 cb 3d ec f4 85 bc 49 f0 aa 3d 29 94 66 3c
       0.09937698 -0.01635214 0.08346612 0.01407341
000350 74 71 cc 3d b0 f5 81 3d 51 7a 1e be 21 ae be 3d
       0.09982577 0.06345689 -0.15476348 0.09310556
000360 cc 99 ba 3c 38 c6 8b 3d d7 56 14 3c db 66 a6 bd
       0.022778414 0.068249166 0.009053907 -0.08125087
000370 44 fd df ba a4 91 66 3d a4 18 1d 3e 9c 7d 9c 3d
       -0.0017089029 0.056291237 0.15341431 0.076411456
000380 b5 ae bc bd a0 1a 17 be d6 4a 11 3d a2 9a c6 3c
       -0.0921301 -0.1475625 0.03547176 0.024243657
000390 34 27 84 bd 29 71 72 3d 73 27 db bc a5 6f 04 bd
       -0.0645279 0.05918995 -0.02675221 -0.032333035
0003a0 0a 10 47 3d d2 ef 28 3e 2a ef 94 3d 2f 2c 1c 3b
       0.04859928 0.16497734 0.072721794 0.0023830046
0003b0 3d 16 9a 3d 1c 4c 57 bd b4 3b 9d bc 31 4f c0 3d
       0.07523773 -0.052562818 -0.019193508 0.093901046
0003c0 ac 26 c2 3d 8e d5 10 3d f7 44 95 bd 2d c4 26 bd
       0.09480032 0.03535991 -0.072885446 -0.04071443
0003d0 ac 4b 28 3e 37 7e cd bd 9e 2e 04 3e 1a b5 9f 3d
       0.16435117 -0.10033839 0.12908408 0.07798214
0003e0 92 6a d2 3d 7b 78 bf 3d ab da c2 3d 08 a5 ac bd
       0.10274233 0.09349152 0.09514364 -0.08429915
0003f0 9b 1d bd 3c 27 31 98 3a 34 5e cf 3d fa a0 51 3d
       0.023085406 0.0011611328 0.1012539 0.05117891

bias f4 [20]
000000 56 a4 82 bd bc 34 51 bd 11 c3 b1 bc 57 11 75 3b
       -0.06379001 -0.051075682 -0.02169946 0.0037394369
000010 80 fb 94 3b 2e 33 d0 3d 5e d1 81 3d 0b 57 fe 3d
       0.0045465827 0.10166012 0.06338762 0.12418946
000020 19 c9 93 3d 34 b8 f4 3d 31 40 ff 3d 8b ec 0e 3e
       0.07216091 0.119491965 0.124634154 0.13957421
000030 5d 19 c1 bc 4c 8a d5 bd ec 4c d8 bc 18 ff 5a bd
       -0.023571664 -0.10426769 -0.026403867 -0.053465933
000040 55 d8 ac 3d 73 b5 43 bd f0 ec 09 3e df fd 4a 3c
       0.084396996 -0.047780465 0.1346929 0.012389629

weight f4 [20]
000000 00 00 80 3f 00 00 80 3f 00 00 80 3f 00 00 80 3f
       1.0 1.0 1.0 1.0
000010 00 00 80 3f 00 00 80 3f 00 00 80 3f 00 00 80 3f
       1.0 1.0 1.0 1.0
000020 00 00 80 3f 00 00 80 3f 00 00 80 3f 00 00 80 3f
       1.0 1.0 1.0 1.0
000030 00 00 80 3f 00 00 80 3f 00 00 80 3f 00 00 80 3f
       1.0 1.0 1.0 1.0
000040 00 00 80 3f 00 00 80 3f 00 00 80 3f 00 00 80 3f
       1.0 1.0 1.0 1.0

bias f4 [20]
000000 00 00 00 00 00 00 00 00 00 00 00 00 00 00 00 00
       0.0 0.0 0.0 0.0
000010 00 00 00 00 00 00 00 00 00 00 00 00 00 00 00 00
       0.0 0.0 0.0 0.0
000020 00 00 00 00 00 00 00 00 00 00 00 00 00 00 00 00
       0.0 0.0 0.0 0.0
000030 00 00 00 00 00 00 00 00 00 00 00 00 00 00 00 00
       0.0 0.0 0.0 0.0
000040 00 00 00 00 00 00 00 00 00 00 00 00 00 00 00 00
       0.0 0.0 0.0 0.0

running_mean f4 [20]
000000 00 00 00 00 00 00 00 00 00 00 00 00 00 00 00 00
       0.0 0.0 0.0 0.0
000010 00 00 00 00 00 00 00 00 00 00 00 00 00 00 00 00
       0.0 0.0 0.0 0.0
000020 00 00 00 00 00 00 00 00 00 00 00 00 00 00 00 00
       0.0 0.0 0.0 0.0
000030 00 00 00 00 00 00 00 00 00 00 00 00 00 00 00 00
       0.0 0.0 0.0 0.0
000040 00 00 00 00 00 00 00 00 00 00 00 00 00 00 00 00
       0.0 0.0 0.0 0.0

running_var f4 [20]
000000 00 00 80 3f 00 00 80 3f 00 00 80 3f 00 00 80 3f
       1.0 1.0 1.0 1.0
000010 00 00 80 3f 00 00 80 3f 00 00 80 3f 00 00 80 3f
       1.0 1.0 1.0 1.0
000020 00 00 80 3f 00 00 80 3f 00 00 80 3f 00 00 80 3f
       1.0 1.0 1.0 1.0
000030 00 00 80 3f 00 00 80 3f 00 00 80 3f 00 00 80 3f
       1.0 1.0 1.0 1.0
000040 00 00 80 3f 00 00 80 3f 00 00 80 3f 00 00 80 3f
       1.0 1.0 1.0 1.0

weight f4 [1, 20]
000000 13 d3 18 bf 02 39 7c 3e f9 60 b1 3d 1f 6b 6f 3e
       -0.59697074 0.24631122 0.08661074 0.23380707
000010 d4 9a fa 3d 3e 3e 82 3e 7e d8 e0 be 7e e0 9c 3d
       0.12236562 0.25438112 -0.4391517 0.07660006
000020 21 88 e7 be 93 d8 1f 3e 8d f4 96 3d 0d bf a5 3d
       -0.45221046 0.1560996 0.07370863 0.08093081
000030 1b 71 a3 be 8e f8 cb be 17 80 8e 3d 36 d1 f0 be
       -0.3192223 -0.3983807 0.06958025 -0.47034615
000040 7a 9a dd 3d 7e 10 d3 be 59 66 06 3e 30 5f 2e bc
       0.1082048 -0.4122352 0.1312498 -0.010642812
