models/2UAVs_140825/c_c1.pt (torch_old, 28024 bytes, 15 tensors)

weight f4 [50, 68]
0.042063676 0.07492786 0.020873006 -0.097143255 0.07776963 -0.0659697 -0.06024257 0.06752306
-0.113553345 0.0821006 -0.022761155 -0.12888475 -0.011834744 -0.060417138 0.06957397 -0.16205929
-0.074630246 -0.08760604 -0.010296147 0.074875526 0.05295772 -0.080416374 -0.09392954 0.10473004
0.036171246 0.05295421 0.03467237 -0.088159844 0.1055497 -0.15980895 -0.018129379 -0.020381575
-0.061701104 -0.021611318 0.12004686 0.08983228 -0.028287254 0.14433025 0.07544234 -0.09252781
-0.013186601 -0.09418389 0.027354904 -0.12180764 -0.14470434 -0.07796211 0.121687464 -0.0338782
0.03336891 -0.084313415 0.043542664 -0.14188856 0.01781485 0.12112926 -0.009770845 0.018543592
-0.11186331 -0.0708656 -0.031441394 0.061432164 -0.0069425614 0.06336619 -0.021826476 -0.13287896
0.11776979 0.011574584 -0.005830834 -0.10520349 0.0035624418 0.03894367 0.17670764 -0.113844424
-0.05384373 0.059120905 -0.084161006 -0.022653837 -0.11686608 -0.120370604 -0.10443879 -0.031460665
-0.13681987 0.036889423 -0.10791264 0.05928535 -0.09637063 0.049099777 0.059248198 0.07560147
0.01950208 -0.12084153 -0.09107761 -0.10915097 -0.06914226 -0.110288456 0.001465583 -0.036033824
-0.07054869 -0.015150646 0.06727891 -0.03493128 -0.036849897 -0.074244656 0.1622503 -0.026452987
-0.12816875 0.09566699 -0.033169348 -0.028239032 0.07213142 0.07220584 -0.085297495 -0.019564854
0.01691705 0.113148116 -0.111509 -0.07912718 -0.07456884 0.056161888 0.041096076 -0.05239057
0.083529875 -0.028495632 -0.03451742 0.04955376 0.04902086 0.1001051 0.016734634 -0.07382354
-0.09674027 0.112606086 -0.027368553 0.11333027 0.078154914 0.031179411 -0.029327795 0.0695604
-0.3092805 -0.15522341 -0.17979097 -0.21290301 -0.11174429 -0.09112649 0.114713654 0.0046435166
-0.065446615 -0.0012162367 0.0057269726 -0.007895122 0.13005798 0.015921984 -0.0013046142 -0.0027820317
0.09440782 -0.03869526 0.095449835 0.11249564 -0.017729007 0.075455315 0.029223032 -0.07302024
0.07961301 -0.016736275 0.014120467 0.0865857 -0.0006490678 0.006730443 0.06396446 0.09498814
0.052807804 -0.008135996 -0.40812555 -0.09712942 0.17766923 0.120245606 -0.007566697 -0.06344207
0.00544813 0.002082089 0.07081973 -0.013488297 0.09647703 -0.056241 -0.071051836 0.07457989
0.050487693 -0.060349263 -0.0013388777 0.034856226 -0.11310698 -0.06785418 -0.07497989 -0.048606787
0.055411078 0.10458263 0.032949757 0.051730223 0.030521551 -0.026688952 -0.009889752 0.103898175
0.029032068 0.036243 -0.052730467 -0.087582186 0.058722388 0.024689266 -0.029400134 -0.017615506
0.029858388 -0.112186946 0.034350425 0.06738557 -0.058206674 -0.07773478 -0.072103165 -0.10577696
0.015921045 -0.047463227 0.008063852 -0.019025618 -0.064195275 -0.08540823 -0.0037009418 -0.03698877
-0.0428702 -0.123752214 0.031784613 0.05171846 -0.12732708 -0.06820736 -0.10351401 0.022087775
0.017501105 -0.04416681 -0.13258672 -0.0046084104 -0.10202346 0.038884155 -0.0007135715 0.0067578442
-0.038858745 0.038517855 -0.117412575 0.10391635 -0.035263848 -0.007854019 -0.061490353 -0.041750256
0.094486944 0.04352896 0.010174898 -0.07278735 -0.024111537 0.036149826 0.0957205 -0.06698731
00000000: f64a 2c3d c773 993d defd aa3c 0bf3 c6bd
00000010: af45 9f3d 1f1b 87bd eac0 76bd 8849 8a3d
00000020: a88e e8bd 5c24 a83d 9a75 babc 5dfa 03be
00000030: 84e6 41bc f677 77bd cc7c 8e3d dff2 25be
00000040: bed7 98bd cc6a b3bd 2cb1 28bc 5758 993d
00000050: 32ea 583d 57b1 a4bd 215e c0bd b47c d63d
00000060: 4d28 143d 84e6 583d 9d04 0e3d 268d b4bd
00000070: 712a d83d f5a4 23be 1084 94bc 43f7 a6bc
00000080: 4cba 7cbd 380a b1bc 21db f53d fdf9 b73d
00000090: acba e7bc 4fcb 133e 8381 9a3d 387f bdbd
000000a0: 9d0c 58bc 7ce3 c0bd 6417 e03c 4976 f9bd
000000b0: 602d 14be 99aa 9fbd 4737 f93d dec3 0abd
000000c0: d7ad 083d 83ac acbd cb59 323d 3c4b 11be
000000d0: 73f0 913c 9e12 f83d e515 20bc bbe8 973c
000000e0: 9718 e5bd fc21 91bd b1c8 00bd 4ba0 7b3d
000000f0: 6d7e e3bb 22c6 813d 70cd b2bc 6c11 08be
00000100: 4a31 f13d 53a3 3d3c 9510 bfbb ed74 d7bd
00000110: db77 693b 6683 1f3d d9f2 343e 4427 e9bd
00000120: 3e8b 5cbd c328 723d 9b5c acbd 8a94 b9bc
00000130: 7c57 efbd dd84 f6bd 01e4 d5bd e6dc 00bd
00000140: 821a 0cbe 5d19 173d 4d01 ddbd 32d5 723d
00000150: f75d c5bd d91c 493d 3dae 723d f2d4 9a3d
00000160: d3c2 9f3c c47b f7bd e686 babd 8b8a dfbd
00000170: 759a 8dbd eade e1bd ce18 c03a 3498 13bd
00000180: d57b 90bd 6a3a 78bc 86c9 893d 1a14 0fbd
00000190: ebef 16bd 950d 98bd f124 263e efb3 d8bc
000001a0: ab3e 03be 0eed c33d 95dc 07bd 8b55 e7bc
000001b0: a3b9 933d a8e0 933d 74b0 aebd 7946 a0bc
000001c0: a095 8a3c 33ba e73d d55e e4bd 6e0d a2bd
000001d0: 8cb7 98bd 020a 663d 5c54 283d 7f97 56bd
000001e0: b611 ab3d ac6f e9bc 2362 0dbd e2f8 4a3d
000001f0: 19ca 483d e703 cd3d 1217 893c cc30 97bd
00000200: c31f c6bd 059e e63d 0434 e0bc b319 e83d
00000210: af0f a03d f76b ff3c d840 f0bc af75 8e3d
00000220: 045a 9ebe e3f2 1ebe 201b 38be 3f03 5abe
00000230: 31da e4bd 86a0 babd feee ea3d a428 983b
00000240: e008 86bd 226a 9fba 54a9 bb3b 8b5a 01bc
00000250: eb2d 053e d26e 823c 97ff aaba bf52 36bb
00000260: e358 c13d ec7e 1ebd 347b c33d 1d64 e63d
00000270: 6c3c 91bc 5188 9a3d 2465 ef3c a38b 95bd
00000280: 250c a33d 831a 89bc 8859 673c d853 b13d
00000290: 3426 2aba 0c8b dc3b ccff 823d 2489 c23d
000002a0: ff4c 583d d74c 05bc d5f5 d0be caeb c6bd
000002b0: ecee 353e 5443 f63d 0ef2 f7bb eaed 81bd
000002c0: 3a86 b23b a873 083b ef09 913d 05fe 5cbc
000002d0: c095 c53d f65c 66bd a083 91bd 57bd 983d
000002e0: 2fcc 4e3d ca30 77bd 487d afba 67c5 0e3d
000002f0: a2a4 e7bd 22f7 8abd 0e8f 99bd e917 47bd
00000300: baf6 623d 6b2f d63d 53f6 063d 12e3 533d
00000310: 5508 fa3c caa2 dabc a008 22bc 91c8 d43d
00000320: a9d4 ed3c 8a73 143d e7fb 57bd 4a5e b3bd
00000330: e386 703d 2541 ca3c 8dd8 f0bc 654e 90bc
00000340: 9499 f43c 45c2 e5bd 08b3 0c3d 7201 8a3d
00000350: 1f6a 6ebd 6a33 9fbd d3aa 93bd 97a1 d8bd
00000360: da6c 823c cd68 42bd 3f1e 043c 9ddb 9bbc
00000370: d078 83bd 83ea aebd 808b 72bb 8981 17bd
00000380: aa98 2fbd cd71 fdbd 9530 023d bcd6 533d
00000390: 0862 02be 4db0 8bbd 27ff d3bd 6cf1 b43c
000003a0: 7a5e 8f3c 42e8 34bd d0c4 07be 2602 97bb
000003b0: adf1 d0bd fe44 1f3d f90e 3bba e870 dd3b
000003c0: 592a 1fbd e6c4 1d3d 0176 f0bd 18d2 d43d
000003d0: d370 10bd 25ae 00bc 4fdd 7bbd 5102 2bbd
000003e0: 5f82 c13d 6c4b 323d 9eb4 263c 8911 95bd
000003f0: 8f85 c5bc d711 143d 1c09 c43d a530 89bd

bias f4 [50]
0.021674287 0.08935392 -0.06695482 0.018721787 -0.1032806 -0.08703063 0.14762308 -0.110485986
0.10995792 0.09857684 0.12769645 0.021326818 -0.11102981 0.04167367 -0.09122185 0.0441745
0.11076169 0.10304844 0.0013828899 -0.016854418 0.072373785 0.033746976 -0.099398665 -0.09171195
-0.08501511 0.016213128 0.10317165 -0.04636947 0.006810197 -0.059581846 0.10147583 -0.03365417
0.06901421 -0.049421825 0.11350182 0.026869021 -0.078380644 -0.011723203 0.029201813 -0.09360223
0.050748438 0.025149433 -0.02861812 0.1091492 -0.0016544821 0.073844455 0.14525415 0.004538382
-0.043893125 -0.066286474
00000000: 468e b13c 30ff b63d 9c1f 89bd 6f5e 993c
00000010: c784 d3bd 1d3d b2bd 812a 173e 7a46 e2bd
00000020: 9e31 e13d a7e2 c93d dcc2 023e 94b5 ae3c
00000030: 9963 e3bd 03b2 2a3d 85d2 babd 52f0 343d
00000040: 06d7 e23d 0f0b d33d 1642 b53a 4712 8abc
00000050: b538 943d 453a 0a3d 8791 cbbd 7ad3 bbbd
00000060: 671c aebd 65d1 843c a84b d33d eaed 3dbd
00000070: 1328 df3b 180c 74bd 8fd2 cf3d f4d8 09bd
00000080: 5257 8d3d 8a6e 4abd a473 e83d 6c1c dc3c
00000090: 0886 a0bd ad12 40bc a438 ef3c 87b2 bfbd
000000a0: 98dd 4f3d 2f06 ce3c 8c70 eabc 9e89 df3d
000000b0: 35db d8ba c33b 973d 81bd 143e b5b6 943b
000000c0: 47c9 33bd 34c1 87bd

weight f4 [50, 4]
0.032234054 -0.46730384 0.16172872 -0.03207822 -0.04373048 0.035028704 -0.086607255 0.06102309
0.21728921 -0.3983425 -0.13987151 0.10626933 -0.09720813 0.4232401 -0.30269307 0.152014
-0.30294055 0.24225262 -0.37831444 -0.013966136 -0.2822895 0.24566731 0.29158714 0.18379341
0.36219057 -0.28059304 0.14916898 0.2756522 -0.05155254 -0.42043567 0.36789098 0.04836938
-0.1291322 0.0027987447 0.07232368 -0.13314134 -0.016629962 0.4149702 -0.47095788 0.2659195
-0.08639753 -0.43281832 0.18573616 0.02704935 0.0049956655 -0.22924607 -0.11586226 0.14088844
-0.26065898 -0.2945699 -0.33635566 -0.4019164 0.4293089 0.21356039 -0.4152838 -0.21235824
-0.43767628 -0.054629195 -0.25457585 0.018756999 -0.25706875 -0.3548943 0.19407417 0.01380593
-0.064978056 -0.33121186 0.13333353 -0.48146293 0.15157709 0.47245508 -0.33186856 0.18569717
-0.10480658 -0.3514479 -0.103853956 -0.3071829 0.42448124 -0.05423738 0.294906 0.24699043
0.14828904 0.27465984 0.18262379 -0.12524003 0.48556042 0.16438127 0.4490849 -0.08736445
0.075002216 0.02051703 -0.32961333 -0.5231483 -0.42514443 0.25822932 0.47052747 -0.31109026
0.2450265 -0.06784295 0.39126113 -0.43253255 -0.28010476 0.28701052 0.28427014 -0.090497755
-0.14009759 0.265885 -0.10725667 0.3816013 0.2545109 0.21310198 0.3979686 -0.09363133
0.28702033 0.49124008 -0.123742476 0.1061538 -0.032279275 -0.17734714 0.16487339 -0.31796283
0.060644995 0.43644652 -0.14582796 -0.069935136 0.44138217 0.44394094 -0.20344785 -0.35739124
0.40546107 -0.22391796 0.25496802 -0.08792768 0.3161311 0.13735843 -0.49482653 0.3375596
-0.16666666 0.08145958 0.1620166 -0.42111596 0.13683091 0.20446819 0.31882295 0.4519547
-0.3064646 -0.018648872 -0.16294388 -0.38928485 0.11844799 0.15598205 0.08058214 0.104524724
-0.39854085 0.08268998 -0.33694184 0.21364754 -0.41915542 -0.40251857 -0.45756754 0.36607096
-0.0056840023 -0.03846608 -0.19083822 -0.40336964 0.22532807 0.2710404 0.20820893 -0.39354578
-0.3361485 -0.35069072 0.08155501 0.42249364 0.12296152 -0.13542044 -0.43584368 0.3204398
-0.20783558 -0.31522906 0.13743211 0.43256882 -0.00076965766 -0.05332626 0.24598637 0.16267818
-0.24451022 0.10504253 0.33737254 -0.22332586 0.053101297 0.13231532 0.18972346 0.3296885
0.31704754 -0.29680282 0.3891135 -0.42855296 -0.18352537 0.037786398 -0.3012378 -0.44394118
00000000: db07 043d 7342 efbe 379c 253e 7464 03bd
00000010: bb1e 33bd 427a 0f3d 255f b1bd 59f3 793d
00000020: 1081 5e3e 8cf3 cbbe 7a3a 0fbe bca3 d93d
00000030: 0e15 c7bd edb2 d83e 96fa 9abe 8fa9 1b3e
00000040: 061b 9bbe 1211 783e 6eb2 c1be 38d2 64bc
00000050: 4088 90be 3690 7b3e e94a 953e 5734 3c3e
00000060: 0b71 b93e e4a9 8fbe c1bf 183e 4922 8d3e
00000070: c228 53bd 5843 d7be 355c bc3e f91e 463d
00000080: 3b3b 04be 256b 373b 701e 943d 3456 08be
00000090: 8f3b 88bc f976 d43e 6421 f1be 9a26 883e
000000a0: 30f1 b0bd 5d9a ddbe 9f31 3e3e 9996 dd3c
000000b0: aeb2 a33b 7bbf 6abe 3149 edbd 0f45 103e
000000c0: 1875 85be ded1 96be cf36 acbe fdc7 cdbe
000000d0: 60ce db3e 93af 5a3e 14a0 d4be 7074 59be
000000e0: 1b17 e0be ddc2 5fbd c457 82be 47a8 993c
000000f0: 849e 83be b5b4 b5be 61bb 463e 4432 623c
00000100: 3713 85bd 9a94 a9be 9688 083e 4f82 f6be
00000110: 0637 1b3e a2e5 f13e adea a9be 6627 3e3e
00000120: d5a4 d6bd fbf0 b3be 62b1 d4bd 1447 9dbe
00000130: 9b55 d93e 0428 5ebd ebfd 963e 0feb 7c3e
00000140: 15d9 173e 37a0 8c3e bb01 3b3e ec3e 00be
00000150: 609b f83e 9053 283e 75ee e53e 22ec b2bd
00000160: c39a 993d 5513 a83c 14c3 a8be 0ced 05bf
00000170: 88ac d9be a236 843e fae8 f03e 3947 9fbe
00000180: 3ae8 7a3e 3ff1 8abd 6153 c83e e874 ddbe
00000190: e469 8fbe 0bf3 923e db8b 913e e356 b9bd
000001a0: be75 0fbe 1422 883e 63a9 dbbd 3f61 c33e
000001b0: 414f 823e 6837 5a3e 8ac2 cb3e c8c1 bfbd
000001c0: 54f4 923e d283 fb3e b26c fdbd 2a67 d93d
000001d0: 4637 04bd 7d9a 35be 92d4 283e 06cc a2be
000001e0: e366 783d eb75 df3e ed53 15be 273a 8fbd
000001f0: d8fc e13e 3a4c e33e a254 50be fcfb b6be
00000200: 9898 cf3e c04a 65be 2b8b 823e 6d13 b4bd
00000210: efdb a13e b0a7 0c3e e759 fdbe 9dd4 ac3e
00000220: aaaa 2abe 48d4 a63d aee7 253e 839c d7be
00000230: 671d 0c3e 1c60 513e c33c a33e 9b66 e73e
00000240: eee8 9cbe 85c5 98bc c3da 26be 5850 c7be
00000250: dc94 f23d c2b9 1f3e 4008 a53d 0f11 d63d
00000260: 8c0d ccbe 5d59 a93d a483 acbe 6cc6 5a3e
00000270: 8a9b d6be ea16 cebe 4b46 eabe a76d bb3e
00000280: de40 babb 9c8e 1dbd 186b 43be 7786 cebe
00000290: 67bc 663e cfc5 8a3e b934 553e d57e c9be
000002a0: a81b acbe bc8d b3be 5006 a73d 1651 d83e
000002b0: 40d3 fb3d a8ab 0abe e726 dfbe af10 a43e
000002c0: dad2 54be b465 a1be 01bb 0c3e a979 dd3e
000002d0: dac2 49ba a36c 5abd dae3 7b3e 1c95 263e
000002e0: e360 7abe 8a20 d73d 18bc ac3e 89af 64be
000002f0: bf80 593d ab7d 073e de46 423e eecc a83e
00000300: 0e54 a23e 8af6 97be e239 c73e 4b6b dbbe
00000310: 13ee 3bbe e9c5 1a3d d73b 9abe 424c e3be

bias f4 [50]
0.15780656 0.3344263 0.25729102 0.07110067 -0.23913892 -0.31481904 0.027159618 -0.5241452
0.35760686 0.5167923 0.33096987 0.4389652 -0.11055479 0.08412451 0.1904758 0.017411534
-0.30551633 -0.3469612 -0.16995296 0.3244804 0.029583681 0.014377047 -0.39852688 -0.2333892
0.08607538 -0.12883183 0.32725775 -0.08606445 -0.36606357 0.45991582 0.37115678 0.057437405
-0.13890287 -0.14521644 -0.27838093 0.075434335 -0.1344195 -0.18065374 -0.16901854 -0.4059646
0.13962352 -0.46584183 -0.18432371 0.227826 -0.34870434 0.29377297 0.061126478 -0.21699749
0.39068288 0.10054765
00000000: 0b98 213e ed39 ab3e a6bb 833e 3a9d 913d
00000010: d5e0 74be f62f a1be d97d de3c 612e 06bf
00000020: 3f18 b73e 804c 043f e274 a93e 0cc0 e03e
00000030: 8d6a e2bd 7949 ac3d 170c 433e a2a2 8e3c
00000040: a36c 9cbe e6a4 b1be 2608 2ebe 4c22 a63e
00000050: 7a59 f23c b58d 6b3c b70b ccbe 94fd 6ebe
00000060: 4a48 b03d 7eec 03be 548e a73e 8f42 b0bd
00000070: af6c bbbe 167a eb3e 4308 be3e 7c43 6b3d
00000080: 8e3c 0ebe 9eb3 14be f287 8ebe 517d 9a3d
00000090: 44a5 09be 4bfd 38be 3213 2dbe 98da cfbe
000000a0: 78f9 0e3e d282 eebe 5bbf 3cbe 384b 693e
000000b0: 6089 b2be 6969 963e c25f 7a3d 9734 5ebe
000000c0: 9607 c83e edeb cd3d

weight f4 [50]
1.0 1.0 1.0 1.0 1.0 1.0 1.0 1.0
1.0 1.0 1.0 1.0 1.0 1.0 1.0 1.0
1.0 1.0 1.0 1.0 1.0 1.0 1.0 1.0
1.0 1.0 1.0 1.0 1.0 1.0 1.0 1.0
1.0 1.0 1.0 1.0 1.0 1.0 1.0 1.0
1.0 1.0 1.0 1.0 1.0 1.0 1.0 1.0
1.0 1.0
00000000: 0000 803f 0000 803f 0000 803f 0000 803f
00000010: 0000 803f 0000 803f 0000 803f 0000 803f
00000020: 0000 803f 0000 803f 0000 803f 0000 803f
00000030: 0000 803f 0000 803f 0000 803f 0000 803f
00000040: 0000 803f 0000 803f 0000 803f 0000 803f
00000050: 0000 803f 0000 803f 0000 803f 0000 803f
00000060: 0000 803f 0000 803f 0000 803f 0000 803f
00000070: 0000 803f 0000 803f 0000 803f 0000 803f
00000080: 0000 803f 0000 803f 0000 803f 0000 803f
00000090: 0000 803f 0000 803f 0000 803f 0000 803f
000000a0: 0000 803f 0000 803f 0000 803f 0000 803f
000000b0: 0000 803f 0000 803f 0000 803f 0000 803f
000000c0: 0000 803f 0000 803f

bias f4 [50]
0.0 0.0 0.0 0.0 0.0 0.0 0.0 0.0
0.0 0.0 0.0 0.0 0.0 0.0 0.0 0.0
0.0 0.0 0.0 0.0 0.0 0.0 0.0 0.0
0.0 0.0 0.0 0.0 0.0 0.0 0.0 0.0
0.0 0.0 0.0 0.0 0.0 0.0 0.0 0.0
0.0 0.0 0.0 0.0 0.0 0.0 0.0 0.0
0.0 0.0
00000000: 0000 0000 0000 0000 0000 0000 0000 0000
00000010: 0000 0000 0000 0000 0000 0000 0000 0000
00000020: 0000 0000 0000 0000 0000 0000 0000 0000
00000030: 0000 0000 0000 0000 0000 0000 0000 0000
00000040: 0000 0000 0000 0000 0000 0000 0000 0000
00000050: 0000 0000 0000 0000 0000 0000 0000 0000
00000060: 0000 0000 0000 0000 0000 0000 0000 0000
00000070: 0000 0000 0000 0000 0000 0000 0000 0000
00000080: 0000 0000 0000 0000 0000 0000 0000 0000
00000090: 0000 0000 0000 0000 0000 0000 0000 0000
000000a0: 0000 0000 0000 0000 0000 0000 0000 0000
000000b0: 0000 0000 0000 0000 0000 0000 0000 0000
000000c0: 0000 0000 0000 0000

running_mean f4 [50]
0.0 0.0 0.0 0.0 0.0 0.0 0.0 0.0
0.0 0.0 0.0 0.0 0.0 0.0 0.0 0.0
0.0 0.0 0.0 0.0 0.0 0.0 0.0 0.0
0.0 0.0 0.0 0.0 0.0 0.0 0.0 0.0
0.0 0.0 0.0 0.0 0.0 0.0 0.0 0.0
0.0 0.0 0.0 0.0 0.0 0.0 0.0 0.0
0.0 0.0
00000000: 0000 0000 0000 0000 0000 0000 0000 0000
00000010: 0000 0000 0000 0000 0000 0000 0000 0000
00000020: 0000 0000 0000 0000 0000 0000 0000 0000
00000030: 0000 0000 0000 0000 0000 0000 0000 0000
00000040: 0000 0000 0000 0000 0000 0000 0000 0000
00000050: 0000 0000 0000 0000 0000 0000 0000 0000
00000060: 0000 0000 0000 0000 0000 0000 0000 0000
00000070: 0000 0000 0000 0000 0000 0000 0000 0000
00000080: 0000 0000 0000 0000 0000 0000 0000 0000
00000090: 0000 0000 0000 0000 0000 0000 0000 0000
000000a0: 0000 0000 0000 0000 0000 0000 0000 0000
000000b0: 0000 0000 0000 0000 0000 0000 0000 0000
000000c0: 0000 0000 0000 0000

running_var f4 [50]
1.0 1.0 1.0 1.0 1.0 1.0 1.0 1.0
1.0 1.0 1.0 1.0 1.0 1.0 1.0 1.0
1.0 1.0 1.0 1.0 1.0 1.0 1.0 1.0
1.0 1.0 1.0 1.0 1.0 1.0 1.0 1.0
1.0 1.0 1.0 1.0 1.0 1.0 1.0 1.0
1.0 1.0 1.0 1.0 1.0 1.0 1.0 1.0
1.0 1.0
00000000: 0000 803f 0000 803f 0000 803f 0000 803f
00000010: 0000 803f 0000 803f 0000 803f 0000 803f
00000020: 0000 803f 0000 803f 0000 803f 0000 803f
00000030: 0000 803f 0000 803f 0000 803f 0000 803f
00000040: 0000 803f 0000 803f 0000 803f 0000 803f
00000050: 0000 803f 0000 803f 0000 803f 0000 803f
00000060: 0000 803f 0000 803f 0000 803f 0000 803f
00000070: 0000 803f 0000 803f 0000 803f 0000 803f
00000080: 0000 803f 0000 803f 0000 803f 0000 803f
00000090: 0000 803f 0000 803f 0000 803f 0000 803f
000000a0: 0000 803f 0000 803f 0000 803f 0000 803f
000000b0: 0000 803f 0000 803f 0000 803f 0000 803f
000000c0: 0000 803f 0000 803f

weight f4 [20, 100]
-0.18044995 -0.018614473 0.0037988576 -0.056682505 0.12108264 -0.02941581 0.082206 -0.009454229
0.09395842 0.0081148585 0.17859049 -0.051367193 -0.052165437 -0.005860411 0.056294616 0.06729375
0.04780048 0.16228494 0.1406516 -0.08663501 0.016599841 0.0879094 0.0304271 0.056769542
-0.02963009 -0.015376784 0.045634784 0.019703878 0.042025838 -0.04644536 -0.02993272 -0.0261375
-0.054320257 -0.10439814 -0.03588666 -0.062243313 -0.098120555 -0.07066798 -0.0071222326 -0.1128766
0.09289897 -0.07750452 0.049521647 0.110874124 0.124044545 0.1702962 0.035922848 0.097668804
-0.051546432 -0.11372446 0.08470478 0.11663662 0.06172628 0.06019865 0.020084927 0.0026077745
-0.0004821013 -0.028133865 0.11537156 0.03907294 0.017214864 0.047016192 -0.023946546 0.07472277
-0.008254662 -0.0898474 -0.09344956 0.086617514 0.08418991 0.011667966 0.04268376 -0.05223675
-0.022221697 -0.015632685 0.056032583 0.06395748 0.006124367 0.024145896 0.050641786 0.07346444
-0.0036887268 -0.011503529 -0.0397705 -0.053564444 -0.038637683 -0.022946345 -0.061780583 0.079007365
0.053083282 0.06205696 0.014663205 -0.015316996 -0.04021526 -0.04148965 -0.031231057 0.011072211
0.054978177 0.044753645 0.041516088 -0.00021361605 -0.018658489 -0.06482563 0.21469675 0.020687072
-0.07691643 0.060993485 -0.13047923 -0.067373425 -0.16931124 0.1535792 0.14713925 -0.05370152
0.23334202 0.20859706 -0.20738369 0.22418548 -0.051959798 0.022134356 -0.036641892 -0.13826118
0.021478284 0.05034145 0.0057023168 -0.051695265 0.15058824 -0.23635659 0.114322655 0.30354565
-0.14519025 -0.07717199 0.09246921 0.031340323 -0.16847679 0.08204669 0.09862553 -0.07083206
0.36235914 -0.08171071 -0.012454643 -0.17065027 -0.007027129 0.008814101 -0.069889665 0.08139514
-0.10578272 0.12784898 -0.049806386 -0.16094355 0.015982205 -0.13978377 -0.035931908 -0.025648277
0.019048467 -0.009145289 0.0735512 -0.10632027 0.007085011 -0.05490967 -0.026711022 -0.02007003
-0.049065407 0.060181823 -0.013741693 -0.015162316 0.022869803 -0.016322933 0.04764745 0.030443383
0.07360158 -0.063928306 -0.10155869 0.046726238 -0.017220855 -0.010798538 -0.0062553664 -0.04320491
-0.03447145 -0.06702559 0.019859038 0.053429887 0.014685995 0.08117749 -0.0037916515 0.045058522
-0.0037602605 -0.06487102 -0.01337836 0.012371836 -0.019338338 -0.0067333607 0.02523203 0.044912238
-0.04088702 0.03289112 0.033878904 -0.10199843 -0.018931953 -0.09055121 0.013638956 0.07342931
-0.11784046 0.004505232 -0.040925976 -0.025631448 0.12482831 -0.0042453134 0.049377892 3.8263424e-06
-0.023763686 -0.06564017 0.016715027 0.003518754 -0.053247076 -0.13104305 -0.043288197 -0.073487125
0.060692515 0.09556591 -0.05989875 -0.11223113 0.09408435 0.023063587 0.07088202 -0.033928372
-0.14415164 -0.09374286 0.0161137 0.09351186 -0.10203327 0.06460841 -0.043654557 -0.08527556
-0.09255101 0.026191246 -0.03445387 0.026945323 -0.11193621 0.038393233 -0.051592346 0.06717598
0.05612606 0.08607932 -0.04394878 0.04870061 0.08594229 0.1031681 -0.08233266 -0.03228821
0.123452075 -0.002630742 0.042514045 -0.016617926 0.014945026 -0.025797233 -0.04427948 -0.022611652
00000000: dfc7 38be 617d 98bc 41f6 783b ea2b 68bd
00000010: 2dfa f73d 6df9 f0bc 9f5b a83d e9e5 1abc
00000020: 466d c03d 2ff4 043c 6de0 363e 6866 52bd
00000030: 6dab 55bd b108 c0bb 2f95 663d 4ed1 893d
00000040: 70ca 433d 062e 263e f906 103e b26d b1bd
00000050: 64fc 873c d809 b43d 4142 f93c 2e87 683d
00000060: cdba f2bc e8ee 7bbc 8aeb 3a3d 076a a13c
00000070: 4923 2c3d 7d3d 3ebd 7735 f5bc 4f1e d6bc
00000080: eb7e 5ebd b1ce d5bd e4fd 12bd d8f2 7ebd
00000090: 6ef3 c8bd 60ba 90bd 9e61 e9bb d92b e7bd
000000a0: d141 be3d b1ba 9ebd 36d7 4a3d f911 e33d
000000b0: 110b fe3d 2162 2e3e d623 133d 9506 c83d
000000c0: 5a22 53bd 5fe8 e8bd b379 ad3d 2edf ee3d
000000d0: b2d4 7c3d dc92 763d 2589 a43c 32e7 2a3b
000000e0: 8bc2 fcb9 fe78 e6bc ed47 ec3d f20a 203d
000000f0: 3006 8d3c 0d94 403d 8c2b c4bc 4008 993d
00000100: 903e 07bc ea01 b8bd 7c62 bfbd 8664 b13d
00000110: c26b ac3d ff2a 3f3c 2bd5 2e3d 34f6 55bd
00000120: 470a b6bc 1e10 80bc 6c82 653d 24fc 823d
00000130: eaae c83b 9dcd c53c c36d 4f3d 8674 963d
00000140: 91be 71bb 4c79 3cbc 64e6 22bd 6466 5bbd
00000150: 8c42 1ebd f9f9 bbbc a30d 7dbd 9dce a13d
00000160: db6d 593d 702f 7e3d f03d 703c 23f4 7abc
00000170: c2b8 24bd 0df1 29bd 46d8 ffbc 3868 353c
00000180: cc30 613d 994f 373d c60c 2a3d 1ffe 5fb9
00000190: b0d9 98bc 4dc3 84bd 77d9 5b3e ef77 a93c
000001a0: 5c86 9dbd 4ed4 793d 599c 05be 14fb 89bd
000001b0: ed5f 2dbe de43 1d3e acab 163e 20f6 5bbd
000001c0: 36f1 6e3e 789a 553e 645c 54be e190 653e
000001d0: ccd3 54bd 1c53 b53c cf15 16bd 5794 0dbe
000001e0: 3af3 af3c d632 4e3d 80da ba3b 6abe 53bd
000001f0: ce33 1a3e 7607 72be ff21 ea3d 566a 9b3e
00000200: c1ac 14be 590c 9ebd 7f60 bd3d b65e 003d
00000210: 2e85 2cbe 1808 a83d 2ffc c93d 6610 91bd
00000220: 2387 b93e f257 a7bd 8f0e 4cbc f2be 2ebe
00000230: d543 e6bb 0569 103c 5022 8fbd 7fb2 a63d
00000240: 9ca4 d8bd d8ea 023e c801 4cbd 63ce 24be
00000250: 1ded 823c 7a23 0fbe 562d 13bd 561c d2bc
00000260: 880b 9c3c 1fd6 15bc 03a2 963d 71be d9bd
00000270: 6129 e83b f6e8 60bd 13d1 dabc e769 a4bc
00000280: cff8 48bd 3781 763d d724 61bc 5d6b 78bc
00000290: 7459 bb3c acb7 85bc f929 433d 6764 f93c
000002a0: 6dbc 963d d8ec 82bd 01fe cfbd 0364 3f3d
000002b0: c012 8dbc 5aec 30bc d1f9 ccbb a2f7 30bd
000002c0: ef31 0dbd b644 89bd 6caf a23c 4cd9 5a3d
000002d0: 879d 703c 6240 a63d 5b7d 78bb 498f 383d
000002e0: b46e 76bb 19db 84bd e930 5bbc 3eb3 4a3c
000002f0: 6f6b 9ebc 86a3 dcbb 67b3 ce3c e5f5 373d
00000300: 2679 27bd d7b8 063d 9bc4 0a3d 8ee4 d0bd
00000310: 2f17 9bbc ea72 b9bd ed75 5f3c 1b62 963d
00000320: 5756 f1bd a0a0 933b ffa1 27bd 0bf9 d1bc
00000330: fca5 ff3d 451c 8bbb 7940 4a3d 0864 8036
00000340: 10ac c2bc 5a6e 86bd f4ed 883c e59a 663b
00000350: 9b19 5abd 2630 06be f74e 31bd 6b80 96bd
00000360: b798 783d 0fb8 c33d 6458 75bd 6fd9 e5bd
00000370: 4caf c03d d9ef bc3c 982a 913d 7af8 0abd
00000380: 7d9c 13be 42fc bfbd e100 843c 2583 bf3d
00000390: d2f6 d0bd 6a51 843d 1fcf 32bd f4a4 aebd
000003a0: 628b bdbd 068f d63c 801f 0dbd 70bc dc3c
000003b0: d03e e5bd 3942 1d3d 7f52 53bd 8f93 893d
000003c0: 71e4 653d 5b4a b03d a303 34bd 4a7a 473d
000003d0: 8302 b03d cc49 d33d 079e a8bd a440 04bd
000003e0: 71d4 fc3d 8768 2cbb 3523 2e3d 5122 88bc
000003f0: fbdb 743c b854 d3bc 665e 35bd 123c b9bc

bias f4 [20]
0.12369871 0.08676819 0.040881086 0.025436267 -0.094831385 -0.05643918 -0.053137258 0.103536434
-0.11304825 -0.05029549 0.042173225 0.038725626 0.05702208 0.092723496 0.011889669 -0.009959024
-0.0509439 0.050896972 -0.06594774 -0.023284672
00000000: c055 fd3d 85b3 b13d ed72 273d b85f d03c
00000010: f536 c2bd c52c 67bd 74a6 59bd e90a d43d
00000020: d785 e7bd a502 4ebd d5bd 2c3d c39e 1e3d
00000030: fc8f 693d d1e5 bd3d e3cc 423c 2d2b 23bc
00000040: 8daa 50bd 5879 503d 9c0f 87bd 7fbf bebc

weight f4 [20]
1.0 1.0 1.0 1.0 1.0 1.0 1.0 1.0
1.0 1.0 1.0 1.0 1.0 1.0 1.0 1.0
1.0 1.0 1.0 1.0
00000000: 0000 803f 0000 803f 0000 803f 0000 803f
00000010: 0000 803f 0000 803f 0000 803f 0000 803f
00000020: 0000 803f 0000 803f 0000 803f 0000 803f
00000030: 0000 803f 0000 803f 0000 803f 0000 803f
00000040: 0000 803f 0000 803f 0000 803f 0000 803f

bias f4 [20]
0.0 0.0 0.0 0.0 0.0 0.0 0.0 0.0
0.0 0.0 0.0 0.0 0.0 0.0 0.0 0.0
0.0 0.0 0.0 0.0
00000000: 0000 0000 0000 0000 0000 0000 0000 0000
00000010: 0000 0000 0000 0000 0000 0000 0000 0000
00000020: 0000 0000 0000 0000 0000 0000 0000 0000
00000030: 0000 0000 0000 0000 0000 0000 0000 0000
00000040: 0000 0000 0000 0000 0000 0000 0000 0000

running_mean f4 [20]
0.0 0.0 0.0 0.0 0.0 0.0 0.0 0.0
0.0 0.0 0.0 0.0 0.0 0.0 0.0 0.0
0.0 0.0 0.0 0.0
00000000: 0000 0000 0000 0000 0000 0000 0000 0000
00000010: 0000 0000 0000 0000 0000 0000 0000 0000
00000020: 0000 0000 0000 0000 0000 0000 0000 0000
00000030: 0000 0000 0000 0000 0000 0000 0000 0000
00000040: 0000 0000 0000 0000 0000 0000 0000 0000

running_var f4 [20]
1.0 1.0 1.0 1.0 1.0 1.0 1.0 1.0
1.0 1.0 1.0 1.0 1.0 1.0 1.0 1.0
1.0 1.0 1.0 1.0
00000000: 0000 803f 0000 803f 0000 803f 0000 803f
00000010: 0000 803f 0000 803f 0000 803f 0000 803f
00000020: 0000 803f 0000 803f 0000 803f 0000 803f
00000030: 0000 803f 0000 803f 0000 803f 0000 803f
00000040: 0000 803f 0000 803f 0000 803f 0000 803f

weight f4 [1, 20]
0.14499164 -0.59388775 0.14337304 -0.10052911 -0.153675 -0.07483222 0.0783369 -0.3842381
0.19716229 0.12839782 0.17634691 -0.11122706 0.17312999 0.13331395 -0.42517418 -0.72697765
0.030564265 0.11594624 0.17867124 -0.39428636
00000000: b078 143e 0709 18bf 62d0 123e 35e2 cdbd
00000010: fb5c 1dbe a341 99bd 196f a03d dbba c4be
00000020: e9e4 493e b87a 033e 4994 343e 03cb e3bd
00000030: fd48 313e 7483 083e 6eb0 d9be 351b 3abf
00000040: e961 fa3c 3975 ed3d 98f5 363e e7df c9be
