models_version1/2UAVs_1605000/c_c0.pt (torch_old, 28013 bytes, 15 tensors)

weight f4 [50, 68]
-0.21789333 0.18048534 0.07626541 0.050113168 0.0703299 0.063881926 -0.019299848 0.07093815
-0.000859009 0.064477034 -0.06709135 0.13457134 0.10817699 0.14215459 0.13797273 0.10444959
0.088682145 0.06966257 -0.11516545 -0.018006768 0.04130066 0.091743104 0.10302936 0.0558867
-0.047003843 0.09688667 0.0137146115 0.15911514 0.165876 0.06735215 0.0016110529 -0.056926783
-0.01078594 0.029434673 -0.08580976 0.045877866 -0.10727474 0.14693935 -0.056917958 -0.02836639
-0.06856207 0.074643426 -0.07136436 -0.048618782 -0.045413256 0.04027086 0.08277467 0.04558754
0.14878546 0.10868899 -0.023701498 -0.120278284 -0.1444804 0.13276252 0.21756771 0.021275062
0.026357058 -0.10423992 -0.03690221 0.14103262 0.11433755 0.16910237 0.002832715 -0.07325881
0.027601862 0.08396938 -0.098188415 0.15185392 -0.07192904 -0.17065252 0.06686497 -0.108962625
0.034063444 0.034196857 0.104727775 0.057112593 -0.066669986 -0.067453906 0.06358353 0.124461345
0.16424555 0.026334327 0.05045698 -0.11144521 0.007343012 0.014341809 0.028604936 0.04447918
0.1134164 -0.08766034 0.091693275 -0.0043905424 0.12110917 0.02346523 0.0061486745 0.13798718
-0.06301399 0.0609133 -0.06588411 0.0020548864 -0.06576926 0.12640037 -0.24569172 -0.001280372
0.027968084 -0.055014424 0.1093166 0.04495424 0.041186627 0.082588434 0.0028570201 0.1318169
-0.067301475 -0.057077397 0.09689477 0.10178332 0.09337692 0.09996344 -0.035207562 -0.10382527
-0.061928976 0.029669339 0.053697515 -0.079156846 -0.07279571 0.06771237 0.016568884 0.09736546
-0.08944336 0.09973133 -0.06192571 -0.028588045 -0.09455252 -0.11992762 0.13724831 -0.055749573
0.010399014 0.037112266 0.11190796 0.016000375 0.06345838 0.014240563 0.10285629 0.031792417
0.08131209 -0.055587977 -0.048731066 0.0098259 0.1061541 0.017088294 -0.072141886 -0.09035488
0.07014494 -0.046948522 -0.118487105 -0.034530975 0.07967323 -0.08222675 0.024539828 0.06446661
0.08128926 -0.0028015226 0.08621192 -0.056404904 -0.07102843 -0.06840044 -0.09208932 0.07637714
-0.0030739456 -0.043385588 0.017158836 0.025448129 0.050709978 0.08049101 -0.035828993 0.016790926
-0.004291177 0.0056694597 -0.051067397 -0.034236908 -0.048208438 -0.09440223 -0.042631045 -0.06899268
-0.001265049 -0.10761865 -0.033538483 -0.10861142 -0.06841856 0.0028379783 -0.09021038 0.05692546
-0.09986951 -0.079311915 -0.104591444 -0.030727394 -0.06761053 0.044404402 -0.043168575 -0.08997341
-0.043597132 0.016946077 -0.087158635 0.09870747 -0.38967833 0.24674717 0.013894487 -0.04250287
0.021815332 -0.003864982 -0.098887414 0.047146667 -0.07811634 -0.08913867 -0.012860073 0.011754838
0.047014236 0.08605833 0.068323925 0.07039015 -0.049657535 -0.08921948 -0.058625318 0.1397104
0.110035725 0.10028479 0.09041729 -0.069081694 0.02402755 -0.027225316 -0.041253626 0.1073892
0.09717053 -0.015127419 -0.10101517 0.004197834 0.15658003 -0.037723973 -0.23909804 0.2613611
0.008554457 0.14164244 -0.019331025 0.0361055 0.10383867 0.04933651 -0.016399756 0.11078143
-0.0054189996 0.07658813 0.17076479 0.0032542269 -0.05258754 0.083781585 0.013375529 0.12362632
00000000: 6e1f 5fbe 26d1 383e 0a31 9c3d 7743 4d3d
00000010: 1f09 903d 87d4 823d b71a 9ebc 0548 913d
00000020: 1e2f 61ba 890c 843d 3167 89bd 12cd 093e
00000030: e68b dd3d f990 113e b948 0d3e abe9 d53d
00000040: fc9e b53d 40ab 8e3d dddb ebbd ee82 93bc
00000050: e22a 293d cfe3 bb3d 0f01 d33d 74e9 643d
00000060: 1a87 40bd 856c c63d 40b3 603c 14ef 223e
00000070: 66db 293e edef 893d f729 d33a 0f2c 69bd
00000080: 83b7 30bc fc20 f13c 07bd afbd 6eea 3b3d
00000090: dcb2 dbbd 4577 163e ce22 69bd a260 e8bc
000000a0: 456a 8cbd a7de 983d 7a27 92bd 7d24 47bd
000000b0: 4003 3abd 0ff3 243d c485 a93d 00ba 3a3d
000000c0: 375b 183e 5598 de3d a529 c2bc 7654 f6bd
000000d0: acf2 13be e6f2 073e 12ca 5e3e 0a49 ae3c
000000e0: c2ea d73c bd7b d5bd c626 17bd db6a 103e
000000f0: ce29 ea3d 2c29 2d3e 12a5 393b b708 96bd
00000100: 4d1d e23c 23f8 ab3d 0217 c9bd 987f 1b3e
00000110: 884f 93bd 89bf 2ebe 80f0 883d cc27 dfbd
00000120: 1c86 0b3d 0112 0c3d 847b d63d e5ee 693d
00000130: 468a 88bd 4625 8abd 1538 823d 97e5 fe3d
00000140: fc2f 283e 16bb d73c faab 4e3d 633d e4bd
00000150: a69d f03b e8f9 6a3c e654 ea3c cd2f 363d
00000160: dc46 e83d 4487 b3bd afc9 bb3d 8ade 8fbb
00000170: 1608 f83d 273a c03c d27a c93b 834c 0d3e
00000180: 7b0d 81bd 3980 793d 40ee 86bd 46ab 063b
00000190: 09b2 86bd 196f 013e 9c96 7bbe 28d2 a7ba
000001a0: 531d e53c ce56 61bd 62e1 df3d f021 383d
000001b0: 4fb3 283d 2024 a93d d83c 3b3b 02fb 063e
000001c0: 5bd5 89bd fdc9 69bd c470 c63d c673 d03d
000001d0: 663c bf3d a2b9 cc3d ce35 10bd 58a2 d4bd
000001e0: 3da9 7dbd 1d0d f33c edf1 5b3d fc1c a2bd
000001f0: eb15 95bd c8ac 8a3d 78bb 873c 8b67 c73d
00000200: 152e b7bd f13f cc3d d0a5 7dbd 7a31 eabc
00000210: c0a4 c1bd 9d9c f5bd d28a 0c3e aa59 64bd
00000220: a060 2a3c 0803 183d 0030 e53d 3813 833c
00000230: 78f6 813d 4051 693c 52a6 d23d c438 023d
00000240: f486 a63d 38b0 63bd 3a9a 47bd d0fc 203c
00000250: 5267 d93d c0fc 8b3c 20bf 93bd fb0b b9bd
00000260: 26a8 8f3d 184d 40bd 5ea9 f2bd 5a70 0dbd
00000270: b82b a33d 8066 a8bd c007 c93c 1207 843d
00000280: fc7a a63d c099 37bb e08f b03d d408 67bd
00000290: 5a77 91bd 8815 8cbd 5399 bcbd 9e6b 9c3d
000002a0: 4074 49bb 16b5 31bd b090 8c3c 9878 d03c
000002b0: 44b5 4f3d 78d8 a43d 6cc1 12bd 208d 893c
000002c0: 009d 8cbb e0c6 b93b 0c2c 51bd 003c 0cbd
000002d0: 3676 45bd f555 c1bd e49d 2ebd 094c 8dbd
000002e0: 00d0 a5ba 2b67 dcbd a65f 09bd aa6f debd
000002f0: 081f 8cbd 60fd 393b 38c0 b8bd ac2a 693d
00000300: 6388 ccbd 496e a2bd 0a34 d6bd 04b8 fbbc
00000310: 6477 8abd 64e1 353d 88d1 30bd fb43 b8bd
00000320: e892 32bd 80d2 8a3c 3a80 b2bd 2427 ca3d
00000330: eb83 c7be 4aab 7c3e b4a5 633c 7d17 2ebd
00000340: 11b6 b23c a34b 7dbb 7c85 cabd dd1c 413d
00000350: 76fb 9fbd 568e b6bd 0eb3 52bc 5d97 403c
00000360: 0092 403d 5a3f b03d 6aed 8b3d b628 903d
00000370: b365 4bbd b4b8 b6bd 1a21 70bd 3e10 0f3e
00000380: 695a e13d 1d62 cd3d b32c b93d b47a 8dbd
00000390: 6dd5 c43c a007 dfbc 90f9 28bd deee db3d
000003a0: 5801 c73d fed8 77bc 0be1 cebd fc8d 893b
000003b0: 8456 203e 7484 1abd 1ed6 74be 1fd1 853e
000003c0: fe27 0c3c b70a 113e 195c 9ebc 5ce3 133d
000003d0: 5ea9 d43d 1515 4a3d c858 86bc 60e1 e23d
000003e0: dd91 b1bb 3dda 9c3d f7dc 2e3e de44 553b
000003f0: 0866 57bd ae95 ab3d 0925 5b3c cc2f fd3d

bias f4 [50]
0.045730494 0.03315679 0.09558639 -0.018182889 0.069731414 0.052816078 0.11734502 -0.012870241
0.12741987 -0.08965231 0.054371327 0.08750051 -0.109128006 0.16284434 -0.08361734 -0.013521933
0.11387066 -0.03368015 0.01658848 0.033662707 0.0028000623 0.10557463 0.06331004 0.08189514
0.10102528 -0.12677193 -0.03331106 -0.015919575 0.11006936 0.054573055 -0.112024836 0.116638295
-0.07904952 0.106841534 0.06701163 0.026761055 0.0041245217 0.006985308 0.081320584 -0.053137064
0.15943228 -0.04020521 -0.02748075 -0.008596897 0.10767445 -0.0154282125 -0.040315963 0.07340732
-0.042573046 -0.0453012
00000000: e64f 3b3d 6acf 073d ccc2 c33d 48f4 94bc
00000010: 58cf 8e3d ac55 583d 9652 f03d b4dd 52bc
00000020: 5b7a 023e a19b b7bd 78b4 5e3d 7833 b33d
00000030: 817e dfbd abc0 263e 913f abbd 198b 5dbc
00000040: 0535 e93d 32f4 09bd 90e4 873c e8e1 093d
00000050: 4081 373b 8337 d83d b2a8 813d a4b8 a73d
00000060: 58e6 ce3d 80d0 01be 2e71 08bd c569 82bc
00000070: 0b6c e13d ff87 5f3d 476d e5bd 0fe0 ee3d
00000080: b7e4 a1bd bccf da3d 653d 893d 003a db3c
00000090: ff26 873b 03e5 e43b 688b a63d 40a6 59bd
000000a0: 3742 233e 38ae 24bd 4f1f e1bc 00da 0cbc
000000b0: 6c84 dc3d 9dc6 7cbc 5a22 25bd 9456 963d
000000c0: 1361 2ebd c08d 39bd

weight f4 [50, 4]
-0.3617222 0.40829733 -0.39887634 0.25314188 -0.58236796 -0.55954677 -0.28060684 -0.23678407
-0.10069694 0.16721915 0.054463886 -0.439626 -0.008984894 -0.20858902 0.26887384 -0.34526592
-0.48355272 -0.046094805 -0.46770272 0.028171275 -0.46099338 0.23932119 -0.253642 0.09984937
-0.28639117 0.3505668 -0.0064024385 -0.24470907 0.6827977 -0.12004429 0.011155712 -0.20626137
-0.05282936 -0.46352875 -0.18364653 0.3104755 0.7336025 0.21502784 0.123808056 -0.11610211
0.69025296 -0.37033734 0.41076005 -0.11879123 -0.24469687 0.38182774 0.5644234 -0.3274187
-0.22738984 -0.18737064 0.18133284 0.066586085 -0.62091553 0.07490999 0.24932975 0.20999439
-0.63696384 0.29680517 0.08432448 -0.0890994 -0.3444822 0.06516931 0.3558621 -0.25932962
-0.04460085 -0.36292392 0.2863284 -0.064774714 0.38148972 0.52838767 0.007989865 -0.08136654
0.5359563 0.34033582 0.1304788 0.5268282 -0.37743282 0.05649932 -0.034716554 -0.17855413
-0.27007416 -0.41452542 0.20293804 0.16414474 0.36379132 -0.45258653 -0.2426326 0.25430205
0.5230597 0.09010281 -0.28732395 0.32893836 0.088419065 -0.14140525 -0.09481954 -0.35857815
-0.08123169 0.43506572 0.38961837 -0.32898697 -0.110777155 -0.57511866 -0.09261815 0.32767212
-0.33017024 0.58079815 -0.20604973 0.18927787 -0.5239619 0.20723026 -0.19761899 -0.48832458
0.47385272 -0.2149066 0.10484221 -0.3670889 -0.052611593 -0.31873554 0.39191127 -0.16680323
-0.24371213 -0.61201036 -0.2029399 0.12622313 -0.23428872 -0.24045467 0.2890751 0.02482368
-0.5945724 0.13913518 0.15572734 0.22723402 0.5460689 0.18199019 0.2753031 -0.2668075
0.34893665 -0.27217376 -0.27015436 -0.3734539 -0.36523208 -0.082587026 0.21038893 0.10632412
0.311098 -0.39368737 -0.2307521 -0.0022263573 -0.057022728 -0.2971722 -0.4601733 -0.06784279
0.38399124 0.05614811 -0.14915977 0.11509047 0.32872587 0.39305952 -0.4205005 0.14594454
0.5917787 -0.05387708 0.19469431 0.026416188 -0.617366 0.49384463 0.0025800252 0.23702486
0.73234904 -0.018564288 -0.30133995 -0.31143534 -0.5627419 -0.17948703 -0.09943537 -0.15881175
0.43597034 -0.46213526 0.27550656 0.028109888 0.195181 0.52381134 0.068745695 -0.04006007
0.7876462 0.23660758 0.24778005 0.33517325 0.43627578 0.047209717 0.46165305 -0.041117307
-0.36676705 -0.5447357 0.09444532 -0.13042912 -0.5577911 0.39813343 0.2091246 0.34329495
00000000: a733 b9be 590c d13e 8539 ccbe d09b 813e
00000010: 1116 15bf 753e 0fbf b3ab 8fbe 8677 72be
00000020: 333a cebd 7f3b 2b3e 8615 5f3d a916 e1be
00000030: 6035 13bc 5c98 55be d5a9 893e b2c6 b0be
00000040: 3994 f7be e8cd 3cbd bb76 efbe 72c7 e63c
00000050: 5307 ecbe 9d10 753e 5ddd 81be d47d cc3d
00000060: dda1 92be 7e7d b33e 8ccb d1bb 0495 7abe
00000070: d4cb 2e3f c8d9 f5bd 73c6 363c 2e36 53be
00000080: 9963 58bd a453 edbe d60d 3cbe a5f6 9e3e
00000090: 60cd 3b3f 4230 5c3e 148f fd3d f1c6 edbd
000000a0: 6bb4 303f db9c bdbe 244f d23e d148 f3bd
000000b0: d191 7abe ed7e c33e 0d7e 103f 6da3 a7be
000000c0: e2d8 68be 17de 3fbe 51af 393e 495e 883d
000000d0: 52f4 1ebf 696a 993d 4c50 7f3e c508 573e
000000e0: 1010 23bf d9f6 973e 50b2 ac3d bf79 b6bd
000000f0: f95f b0be 7d77 853d 8f33 b63e dac6 84be
00000100: 62af 36bd 2ad1 b9be a399 923e 9ba8 84bd
00000110: 9f52 c33e 6a44 073f ece7 023c 80a3 a6bd
00000120: 6f34 093f 7f40 ae3e 3c9c 053e 37de 063f
00000130: e03e c1be d56b 673d f232 0ebd e5d6 36be
00000140: 2947 8abe ad3c d4be fdce 4f3e 8f15 283e
00000150: db42 ba3e 6cb9 e7be ae74 78be e133 823e
00000160: 3ee7 053f d287 b83d 201c 93be 9c6a a83e
00000170: 0e15 b53d 8acc 10be bf30 c2bd 8e97 b7be
00000180: cd5c a6bd efc0 de3e 0f7c c73e fb70 a8be
00000190: 22df e2bd fa3a 13bf 96ae bdbd a4c4 a73e
000001a0: 130c a9be 30af 143f b3fe 52be 0fd2 413e
000001b0: 5e22 06bf 2b34 543e a25c 4abe ae05 fabe
000001c0: d39c f23e 7a10 5cbe 83b7 d63d 14f3 bbbe
000001d0: 417f 57bd 4e31 a3be 98a8 c83e 77ce 2abe
000001e0: ac8f 79be b6ac 1cbf 7acf 4fbe a340 013e
000001f0: 62e9 6fbe c039 76be a701 943e 085b cb3c
00000200: e635 18bf 7479 0e3e fd76 1f3e 09b0 683e
00000210: 2ccb 0b3f a35b 3a3e 87f4 8c3e fe9a 88be
00000220: d3a7 b23e 5c5a 8bbe ac51 8abe 5935 bfbe
00000230: b3ff babe 6323 a9bd 3270 573e 76c0 d93d
00000240: 3d48 9f3e 6491 c9be 474a 6cbe 14e8 11bb
00000250: aa90 69bd f426 98be d69b ebbe 29f1 8abd
00000260: 809a c43e 90fb 653d 57bd 18be 8db4 eb3d
00000270: c24e a83e 193f c93e d74b d7be 7c72 153e
00000280: cf7e 173f 37ae 5cbd f25d 473e c366 d83c
00000290: b30b 1ebf 34d9 fc3e a415 293b a5b6 723e
000002a0: 3a7b 3b3f 2214 98bc 3b49 9abe 7474 9fbe
000002b0: da0f 10bf 73cb 37be c5a4 cbbd 8c9f 22be
000002c0: 8137 df3e fe9c ecbe 320f 8d3e b546 e63c
000002d0: 87dd 473e 8018 063f 8bca 8c3d 0716 24bd
000002e0: 2ea3 493f 4249 723e 0eba 7d3e d49b ab3e
000002f0: 8a5f df3e fa5e 413d ca5d ec3e 9f6a 28bd
00000300: e4c8 bbbe cd73 0bbf 8c6c c13d 368f 05be
00000310: 66cb 0ebf 25d8 cb3e c224 563e 5bc4 af3e

bias f4 [50]
0.5930209 0.035757285 0.22161351 0.13829625 0.30859903 0.18324928 -0.011727043 0.29898557
0.045035366 0.12188527 -0.24349034 -0.3639842 -0.35711324 0.7021905 0.18659775 -0.063071825
-0.09665518 -0.44653097 0.47391632 0.46080905 0.45978296 -0.26096842 0.00940443 -0.31609026
0.34847862 -0.38572168 0.23437381 -0.21503232 -0.16402467 -0.05470724 0.2739215 0.28172147
0.21012834 0.42743555 0.3363373 0.6372555 -0.027740106 -0.52339524 0.014813437 -0.12540157
0.3621357 0.3011522 0.027622232 -0.3339572 -0.22123511 0.2376065 0.39391837 0.36478177
-0.3170945 -0.20405626
00000000: 38d0 173f 3b76 123d a7ee 623e 889d 0d3e
00000010: b100 9e3e b3a5 3b3e c922 40bc a314 993e
00000020: 0177 383d fc9e f93d 8855 79be 235c babe
00000030: 8cd7 b6be c2c2 333f 7b13 3f3e cd2b 81bd
00000040: 27f3 c5bd b59f e4be 29a5 f23e 2aef eb3e
00000050: ac68 eb3e a79d 85be 0a15 1a3c 95d6 a1be
00000060: ca6b b23e 507d c5be b0ff 6f3e 6f31 5cbe
00000070: 15f6 27be b314 60bd 703f 8c3e cc3d 903e
00000080: e22b 573e d5d8 da3e 6734 ac3e 2d23 233f
00000090: 383f e3bc 3bfd 05bf 0fb4 723c 4569 00be
000000a0: da69 b93e 9f30 9a3e 0548 e23c 70fc aabe
000000b0: 758b 62be 1e4f 733e abaf c93e adc4 ba3e
000000c0: 365a a2be 20f4 50be

weight f4 [50]
1.0 1.0 1.0 1.0 1.0 1.0 1.0 1.0
1.0 1.0 1.0 1.0 1.0 1.0 1.0 1.0
1.0 1.0 1.0 1.0 1.0 1.0 1.0 1.0
1.0 1.0 1.0 1.0 1.0 1.0 1.0 1.0
1.0 1.0 1.0 1.0 1.0 1.0 1.0 1.0
1.0 1.0 1.0 1.0 1.0 1.0 1.0 1.0
1.0 1.0
00000000: 0000 803f 0000 803f 0000 803f 0000 803f
00000010: 0000 803f 0000 803f 0000 803f 0000 803f
00000020: 0000 803f 0000 803f 0000 803f 0000 803f
00000030: 0000 803f 0000 803f 0000 803f 0000 803f
00000040: 0000 803f 0000 803f 0000 803f 0000 803f
00000050: 0000 803f 0000 803f 0000 803f 0000 803f
00000060: 0000 803f 0000 803f 0000 803f 0000 803f
00000070: 0000 803f 0000 803f 0000 803f 0000 803f
00000080: 0000 803f 0000 803f 0000 803f 0000 803f
00000090: 0000 803f 0000 803f 0000 803f 0000 803f
000000a0: 0000 803f 0000 803f 0000 803f 0000 803f
000000b0: 0000 803f 0000 803f 0000 803f 0000 803f
000000c0: 0000 803f 0000 803f

bias f4 [50]
0.0 0.0 0.0 0.0 0.0 0.0 0.0 0.0
0.0 0.0 0.0 0.0 0.0 0.0 0.0 0.0
0.0 0.0 0.0 0.0 0.0 0.0 0.0 0.0
0.0 0.0 0.0 0.0 0.0 0.0 0.0 0.0
0.0 0.0 0.0 0.0 0.0 0.0 0.0 0.0
0.0 0.0 0.0 0.0 0.0 0.0 0.0 0.0
0.0 0.0
00000000: 0000 0000 0000 0000 0000 0000 0000 0000
00000010: 0000 0000 0000 0000 0000 0000 0000 0000
00000020: 0000 0000 0000 0000 0000 0000 0000 0000
00000030: 0000 0000 0000 0000 0000 0000 0000 0000
00000040: 0000 0000 0000 0000 0000 0000 0000 0000
00000050: 0000 0000 0000 0000 0000 0000 0000 0000
00000060: 0000 0000 0000 0000 0000 0000 0000 0000
00000070: 0000 0000 0000 0000 0000 0000 0000 0000
00000080: 0000 0000 0000 0000 0000 0000 0000 0000
00000090: 0000 0000 0000 0000 0000 0000 0000 0000
000000a0: 0000 0000 0000 0000 0000 0000 0000 0000
000000b0: 0000 0000 0000 0000 0000 0000 0000 0000
000000c0: 0000 0000 0000 0000

running_mean f4 [50]
0.0 0.0 0.0 0.0 0.0 0.0 0.0 0.0
0.0 0.0 0.0 0.0 0.0 0.0 0.0 0.0
0.0 0.0 0.0 0.0 0.0 0.0 0.0 0.0
0.0 0.0 0.0 0.0 0.0 0.0 0.0 0.0
0.0 0.0 0.0 0.0 0.0 0.0 0.0 0.0
0.0 0.0 0.0 0.0 0.0 0.0 0.0 0.0
0.0 0.0
00000000: 0000 0000 0000 0000 0000 0000 0000 0000
00000010: 0000 0000 0000 0000 0000 0000 0000 0000
00000020: 0000 0000 0000 0000 0000 0000 0000 0000
00000030: 0000 0000 0000 0000 0000 0000 0000 0000
00000040: 0000 0000 0000 0000 0000 0000 0000 0000
00000050: 0000 0000 0000 0000 0000 0000 0000 0000
00000060: 0000 0000 0000 0000 0000 0000 0000 0000
00000070: 0000 0000 0000 0000 0000 0000 0000 0000
00000080: 0000 0000 0000 0000 0000 0000 0000 0000
00000090: 0000 0000 0000 0000 0000 0000 0000 0000
000000a0: 0000 0000 0000 0000 0000 0000 0000 0000
000000b0: 0000 0000 0000 0000 0000 0000 0000 0000
000000c0: 0000 0000 0000 0000

running_var f4 [50]
1.0 1.0 1.0 1.0 1.0 1.0 1.0 1.0
1.0 1.0 1.0 1.0 1.0 1.0 1.0 1.0
1.0 1.0 1.0 1.0 1.0 1.0 1.0 1.0
1.0 1.0 1.0 1.0 1.0 1.0 1.0 1.0
1.0 1.0 1.0 1.0 1.0 1.0 1.0 1.0
1.0 1.0 1.0 1.0 1.0 1.0 1.0 1.0
1.0 1.0
00000000: 0000 803f 0000 803f 0000 803f 0000 803f
00000010: 0000 803f 0000 803f 0000 803f 0000 803f
00000020: 0000 803f 0000 803f 0000 803f 0000 803f
00000030: 0000 803f 0000 803f 0000 803f 0000 803f
00000040: 0000 803f 0000 803f 0000 803f 0000 803f
00000050: 0000 803f 0000 803f 0000 803f 0000 803f
00000060: 0000 803f 0000 803f 0000 803f 0000 803f
00000070: 0000 803f 0000 803f 0000 803f 0000 803f
00000080: 0000 803f 0000 803f 0000 803f 0000 803f
00000090: 0000 803f 0000 803f 0000 803f 0000 803f
000000a0: 0000 803f 0000 803f 0000 803f 0000 803f
000000b0: 0000 803f 0000 803f 0000 803f 0000 803f
000000c0: 0000 803f 0000 803f

weight f4 [20, 100]
-0.035089187 -0.039727032 -0.0014155284 -0.22663122 0.0098564755 0.05463604 -0.5250126 0.013517558
-0.31304815 0.5302974 0.065137126 0.14132503 -0.002906413 -0.1535225 0.5944986 -0.060694754
-0.56251526 0.27678794 -0.0563164 0.0087981 0.042714022 -0.061349932 -0.31089753 0.037087508
0.015396938 0.49921545 0.032850213 0.4498045 -0.4130317 0.40295976 0.26526842 0.08860021
0.007307805 0.1929326 -0.28325233 -0.18383048 -0.21441174 0.10427065 -0.09139041 0.052842923
-0.032661133 -0.024044827 0.35281673 -0.032058693 -0.13316824 0.56461376 0.2436009 -0.026178993
-0.21792233 -0.3867078 -0.11597049 -0.0974483 0.022978555 -0.07783863 -0.104475714 -0.22423641
-0.096199445 0.129839 0.008945246 0.26738644 0.18016002 -0.11882409 -0.020507516 -0.20044084
-0.26395923 -0.04028194 -0.0011577348 0.14535205 0.18895635 -0.34464946 -0.118864626 0.16210847
0.20693421 0.040473297 -0.09242304 -0.078406304 0.00059016974 -0.10059636 0.09888814 -0.06793231
-0.09112469 -0.12948164 -0.04842019 0.14498207 0.12671448 -0.18770115 0.02185281 0.04089997
0.19109297 0.14514361 0.15754089 -0.09102445 0.18497027 0.0680059 0.077947184 0.10397991
0.14330533 0.16762744 0.015897157 -0.087195165 -0.07331331 0.07175789 0.036209084 0.14458121
0.05155573 0.058509924 -0.0038772854 0.060439635 0.2023305 -0.08974761 -0.06218362 -0.1954453
-0.1032699 -0.017442437 -0.02806458 -0.06440273 -0.0897851 0.042151913 -0.0038785785 -0.039060235
0.012479886 -0.09784655 0.03913928 -0.023954188 0.02863545 -0.064326 -0.010212682 -0.0027139226
0.10371636 -0.041502308 -0.016904322 0.07570609 -0.087836765 0.079074845 4.7730136e-06 0.019883804
-0.058240425 -0.4164127 -0.0060008764 0.040137984 -0.08979494 0.079619125 -0.1642189 -0.049739636
0.13809913 -0.1375377 -0.16105309 -0.078469515 -0.056287047 0.15734574 -0.111672066 0.18564413
-0.13373043 0.020704139 0.024325589 -0.16109383 -0.12165806 0.05229158 0.16598383 -0.070089206
0.08185802 -0.084555425 0.06900028 0.0017355148 -0.09813374 -0.0659197 0.0015027532 -0.075198345
0.009357067 -0.10818028 0.1790312 -0.005734762 -0.0033022934 0.11227823 -0.21574903 0.03650782
-0.29059565 0.022560803 -0.076842904 -0.034809135 0.07873544 -0.014252593 0.033375498 -0.0346078
0.13380368 0.08244409 0.13209301 0.11734214 -0.05115961 -0.18938982 -0.056648314 -0.256584
-0.076332 -0.13272639 -0.07750864 -0.30743825 -0.08854381 -0.087406784 -0.09675014 0.019931147
0.007840981 0.099946946 0.03080178 0.08461419 0.09825799 0.096396975 -0.017747577 0.024063442
0.11375779 -0.049639087 0.08346612 0.05412926 0.124227636 0.081210375 -0.23491049 0.09310556
0.08345853 0.05560063 0.009053881 -0.08125087 -0.0017089024 0.056291077 0.20377101 0.08535968
-0.0921301 -0.33655414 0.03547176 -0.03480684 -0.06742558 0.088884555 -0.09161072 -0.031200923
0.04859928 0.1761992 0.106154606 0.027626125 0.088525705 -0.26914868 -0.019193508 0.093901046
0.10675412 0.027199332 -0.062160287 -0.04071443 0.15895112 -0.105975255 0.09652043 0.111565225
0.15401475 0.10150577 0.12433455 0.030897431 0.04267383 0.0037293998 0.11693414 0.05242437
00000000: aeb9 0fbd d0b8 22bd 4089 b9ba 0412 68be
00000010: 0e7d 213c 0aca 5f3d 3a67 06bf bf78 5d3c
00000020: d947 a0be 92c1 073f 9d66 853d 82b7 103e
00000030: 8579 3ebb 0135 1dbe 0f31 183f 109b 78bd
00000040: 0001 10bf 26b7 8d3e 07ac 66bd e825 103c
00000050: e6f4 2e3d 114a 7bbd f62d 9fbe 12e9 173d
00000060: 7043 7c3c 2b99 ff3e f28d 063d c74c e63e
00000070: e478 d3be be50 ce3e 43d1 873e 0774 b53d
00000080: 5076 ef3b 2090 453e 7306 91be 0f3e 3cbe
00000090: c08e 5bbe da8b d53d e52a bbbd d271 583d
000000a0: aec7 05bd a8f9 c4bc 65a4 b43e fa4f 03bd
000000b0: 415d 08be 878a 103f 8472 793e 5475 d6bc
000000c0: 0827 5fbe 91fe c5be f081 edbd f992 c7bd
000000d0: 863d bc3c dc69 9fbd 5df7 d5bd 3b9e 65be
000000e0: 3704 c5bd 84f4 043e 158f 123c e0e6 883e
000000f0: de7b 383e 0b5a f3bd 61ff a7bc 5d40 4dbe
00000100: aa25 87be adfe 24bd 22bf 97ba 2bd7 143e
00000110: c67d 413e e575 b0be 4c6f f3bd c3ff 253e
00000120: 90e6 533e 54c7 253d 4a48 bdbd 7c93 a0bd
00000130: 9fb5 1a3a 7705 cebd dd85 ca3d 1820 8bbd
00000140: 959f babd d696 04be 4054 46bd 2e76 143e
00000150: 71c1 013e bb34 40be aa04 b33c ba86 273d
00000160: e0ad 433e 87a0 143e 6652 213e 076b babd
00000170: d968 3d3e ad46 8b3d c6a2 9f3d 6bf3 d43d
00000180: a2be 123e 87a6 2b3e c13a 823c 6193 b2bd
00000190: 4a25 96bd cdf5 923d fa4f 143d 190d 143e
000001a0: 1a2c 533d 1aa8 6f3d 0e1a 7ebb 8d8f 773d
000001b0: ba2f 4f3e 98cd b7bd 40b4 7ebd d022 48be
000001c0: 2b7f d3bd 71e3 8ebc b1e7 e5bc 94e5 83bd
000001d0: 40e1 b7bd 7ca7 2c3d c02f 7ebb a0fd 1fbd
000001e0: 7078 4c3c c663 c8bd 8250 203d 933b c4bc
000001f0: e494 ea3c 5abd 83bd 1853 27bc 11dc 31bb
00000200: 3e69 d43d 53fe 29bd ef7a 8abc cb0b 9b3d
00000210: c3e3 b3bd fef1 a13d e027 a036 5ce3 a23c
00000220: 838d 6ebd 0c34 d5be 00a3 c4bb ba67 243d
00000230: 69e6 b7bd 5a0f a33d 0029 28be cabb 4bbd
00000240: dc69 0d3e afd6 0cbe 1aeb 24be a0b4 a0bd
00000250: 3f8d 66bd 3e1f 213e 53b4 e4bd 7f19 3e3e
00000260: a1f0 08be ba9b a93c 7546 c73c c8f5 24be
00000270: dc27 f9bd b22f 563d aaf7 293e ee8a 8fbd
00000280: 2da5 a73d 652b adbd 0550 8d3d 377a e33a
00000290: 58fa c8bd e800 87bd 08f8 c43a 9701 9abd
000002a0: 624e 193c 9f8d ddbd f453 373e acea bbbb
000002b0: 4a6b 58bb 21f2 e53d 50ed 5cbe 3989 153d
000002c0: f4c8 94be 6fd1 b83c d05f 9dbd 0694 0ebd
000002d0: 0c40 a13d b583 69bc bfb4 083d e9c0 0dbd
000002e0: d503 093e 72d8 a83d 6443 073e 1351 f03d
000002f0: bd8c 51bd 68ef 41be 1008 68bd fa5e 83be
00000300: f453 9cbd 6de9 07be dabc 9ebd 8c68 9dbe
00000310: 7556 b5bd 5402 b3bd f024 c6bd a546 a33c
00000320: 7577 003c fcb0 cc3d 0454 fc3c 344a ad3d
00000330: 7c3b c93d c76b c53d 5e63 91bc b220 c53c
00000340: d8f9 e83d 5b52 4bbd 49f0 aa3d a5b6 5d3d
00000350: 0f6b fe3d a051 a63d 608c 70be 21ae be3d
00000360: 4eec aa3d 7cbd 633d bb56 143c db66 a6bd
00000370: 40fd dfba 7991 663d 59a9 503e 0ed1 ae3d
00000380: b5ae bcbd d350 acbe d64a 113d 9e91 0ebd
00000390: 6c16 8abd 1b09 b63d 679e bbbd 1499 ffbc
000003a0: 0a10 473d 906d 343e 9667 d93d 2f50 e23c
000003b0: f74c b53d dbcd 89be b43b 9dbc 314f c03d
000003c0: e7a1 da3d 22d1 de3c c99b 7ebd 2dc4 26bd
000003d0: 15c4 223e 8e09 d9bd 81ac c53d 4f7c e43d
000003e0: 0bb6 1d3e 42e2 cf3d 1da3 fe3d 9c1c fd3c
000003f0: c1ca 2e3d f268 743b 2b7b ef3d f0ba 563d

bias f4 [20]
-0.087869585 -0.02563402 0.012769762 0.035599884 0.0045465827 0.13397093 0.05917391 0.15791751
0.057656594 0.15270294 0.15990521 0.1747324 -0.030201156 -0.12397901 0.008931073 -0.074338585
0.1189946 -0.059841134 0.16844437 0.012389623
00000000: f8f4 b3bd 70fe d1bc 4438 513c 2fd1 113d
00000010: 80fb 943b ad2f 093e 5860 723d 21b5 213e
00000020: 5229 6c3d 295e 1c3e 31be 233e 0ded 323e
00000030: 6a68 f7bc b5e8 fdbd a353 123c d43e 98bd
00000040: 71b3 f33d fa1b 75bd ae7c 2c3e d8fd 4a3c

weight f4 [20]
1.0 1.0 1.0 1.0 1.0 1.0 1.0 1.0
1.0 1.0 1.0 1.0 1.0 1.0 1.0 1.0
1.0 1.0 1.0 1.0
00000000: 0000 803f 0000 803f 0000 803f 0000 803f
00000010: 0000 803f 0000 803f 0000 803f 0000 803f
00000020: 0000 803f 0000 803f 0000 803f 0000 803f
00000030: 0000 803f 0000 803f 0000 803f 0000 803f
00000040: 0000 803f 0000 803f 0000 803f 0000 803f

bias f4 [20]
0.0 0.0 0.0 0.0 0.0 0.0 0.0 0.0
0.0 0.0 0.0 0.0 0.0 0.0 0.0 0.0
0.0 0.0 0.0 0.0
00000000: 0000 0000 0000 0000 0000 0000 0000 0000
00000010: 0000 0000 0000 0000 0000 0000 0000 0000
00000020: 0000 0000 0000 0000 0000 0000 0000 0000
00000030: 0000 0000 0000 0000 0000 0000 0000 0000
00000040: 0000 0000 0000 0000 0000 0000 0000 0000

running_mean f4 [20]
0.0 0.0 0.0 0.0 0.0 0.0 0.0 0.0
0.0 0.0 0.0 0.0 0.0 0.0 0.0 0.0
0.0 0.0 0.0 0.0
00000000: 0000 0000 0000 0000 0000 0000 0000 0000
00000010: 0000 0000 0000 0000 0000 0000 0000 0000
00000020: 0000 0000 0000 0000 0000 0000 0000 0000
00000030: 0000 0000 0000 0000 0000 0000 0000 0000
00000040: 0000 0000 0000 0000 0000 0000 0000 0000

running_var f4 [20]
1.0 1.0 1.0 1.0 1.0 1.0 1.0 1.0
1.0 1.0 1.0 1.0 1.0 1.0 1.0 1.0
1.0 1.0 1.0 1.0
00000000: 0000 803f 0000 803f 0000 803f 0000 803f
00000010: 0000 803f 0000 803f 0000 803f 0000 803f
00000020: 0000 803f 0000 803f 0000 803f 0000 803f
00000030: 0000 803f 0000 803f 0000 803f 0000 803f
00000040: 0000 803f 0000 803f 0000 803f 0000 803f

weight f4 [1, 20]
-0.87982935 0.3132471 0.11970668 0.258604 0.12236562 0.2942905 -0.71332693 0.10090078
-0.64948094 0.19700228 0.1087635 0.12035251 -0.6184273 -0.6612783 0.10151625 -0.77499616
0.14655603 -0.74413157 0.17095633 -0.010642812
00000000: 7f3c 61bf ed61 a03e c728 f53d be67 843e
00000010: d49a fa3d 3fad 963e 989c 36bf 11a5 ce3d
00000020: 6244 26bf f7ba 493e 66bf de3d 607b f63d
00000030: 4051 1ebf 8949 29bf c0e7 cf3d 2666 46bf
00000040: c912 163e 687f 3ebf 2d0f 2f3e 305f 2ebc
