models/2UAVs_79177/c_t0.pt (torch_old, 28024 bytes, 15 tensors)

weight f4 [50, 68]
-0.061151925 -0.104933135 -0.2067008 0.086600944 0.06864115 -0.07094055 -0.0053874026 0.13037607
-0.05223143 -0.05429357 0.060979504 -0.03231114 0.0894442 0.09297413 0.083931535 -0.068202816
-0.037760757 -0.07573792 0.10750667 0.034451626 0.07570242 -0.04111548 0.13670838 0.038975354
-0.0611308 -0.053681623 0.06525991 0.014076645 -0.060720257 -0.026198559 -0.008882092 0.02921421
-0.1117212 -0.08874599 -0.028932178 0.1263884 0.14092381 0.061809517 0.00015534303 0.068350814
0.056496438 0.02476195 0.086528264 0.14865743 0.052164942 -0.10257446 -0.13926338 -0.051520493
-0.01358618 0.13495213 -0.05348132 0.06672466 -0.028071966 -0.028169787 -0.08931881 -0.17930944
-0.013975732 0.0056194244 0.031322632 0.048780225 -0.024386996 -0.063818306 0.079995535 0.07454403
-0.0069208555 -0.049054217 0.017248448 -0.07773309 -0.04867188 0.029349 -0.16548242 0.01689801
0.018882038 -0.06889716 0.08419389 -0.0068984646 -0.06731724 0.09036658 -0.14383286 -0.08689167
0.046615265 0.0027641894 0.0033857876 0.027464064 -0.04049848 -0.008868529 -0.1093435 -0.065037005
-0.14310192 -0.044490524 -0.053436927 0.056774057 -0.020718426 0.075606026 0.024320314 -0.06239781
-0.12025435 0.103190504 -0.049001295 0.002806594 -0.003419621 0.093549676 0.09069274 0.1261572
0.18778023 -0.059048086 0.016997598 -0.04542222 0.11680348 -0.08329277 0.046300393 0.10519784
-0.00942144 0.085838966 -0.037647516 -0.0946178 0.021784594 0.054254137 -0.045836464 0.057604745
-0.1246293 0.05656259 -0.15286356 -0.0033429344 -0.0071178526 -0.029267782 0.026507117 0.0046486775
0.0028844164 -0.09340986 -0.16164444 0.08570405 -0.06185616 -0.058869183 0.035476446 0.0775578
0.015711274 -0.13991392 -0.002576169 0.036789082 -0.035438664 -0.045340728 -0.053517766 0.09179084
-0.09731164 0.012317124 -0.034874827 -0.069050275 0.080533594 0.038734958 0.12161351 -0.13060206
0.11019779 0.043841768 0.026144352 -0.069366656 0.07557981 -0.069047056 0.051084988 0.073995866
-0.024148025 0.009528813 -0.09882227 0.100864545 0.042841032 -0.021131182 -0.043192875 0.02484817
-0.048905943 -0.08549415 0.011759396 -0.15756392 0.03740143 -0.18388812 0.017333161 -0.0346993
0.14459102 0.08049047 -0.10173703 0.022870753 -0.0057943384 -0.02592955 -0.00241881 -0.025729245
0.12722366 -0.01916265 0.14059961 -0.09177783 0.08077116 0.011325986 -0.10862523 0.123674095
-0.086115114 0.00016919752 -0.029169897 0.11796855 -0.01855095 0.11890511 -0.015652353 0.08464973
0.014669214 0.017320963 0.117274575 -0.033009633 -0.16531374 0.07270246 -0.002842803 -0.002038282
0.081768386 0.09402621 0.043407205 0.096554756 -0.034221932 -0.0031611056 -0.038211998 -0.09701824
0.03508439 0.07543315 0.11557076 0.07010812 0.083415195 -0.09421173 -0.061983313 -0.062592
-0.054405257 -0.06542522 -0.11832172 0.08168379 -0.0355337 0.04815817 -0.08530178 -0.124262065
-0.07166673 -0.038057845 -0.083141185 -0.051633805 -0.015656294 -0.098100185 -0.052430093 0.0058086915
-0.1938234 0.09361012 0.029259674 -0.017326027 0.042990357 0.060622536 -0.005415175 0.012731727
-0.11778326 0.045080386 -0.09857053 0.07433587 -0.06317717 0.018152375 0.028785007 0.060491458
00000000: 717a 7abd 2fe7 d6bd 60a9 53be d65b b13d
00000010: bb93 8c3d 4749 91bd cf88 b0bb 4e81 053e
00000020: a0f0 55bd ef62 5ebd a5c5 793d b058 04bd
00000030: 852e b73d 3869 be3d 4ce4 ab3d ebad 8bbd
00000040: 06ab 1abd 7c1c 9bbd 752c dc3d 261d 0d3d
00000050: df09 9b3d b568 28bd 48fd 0b3e 9fa4 1f3d
00000060: 4a64 7abd 43e1 5bbd fda6 853d baa1 663c
00000070: ceb5 78bd 5c9e d6bc 3286 11bc a452 ef3c
00000080: 16ce e4bd 75c0 b5bd 2d03 edbc f66b 013e
00000090: 554e 103e fa2b 7d3d 94e3 2239 83fb 8b3d
000000a0: cf68 673d 93d9 ca3c bb35 b13d a739 183e
000000b0: e8aa 553d 8f12 d2bd 0f9b 0ebe 2707 53bd
000000c0: 9298 5ebc e430 0a3e 3b0f 5bbd f0a6 883d
000000d0: 2ef7 e5bc 53c4 e6bc c8ec b6bd e59c 37be
000000e0: 78fa 64bc 2623 b83b 294c 003d c6cd 473d
000000f0: 3dc7 c7bc 2cb3 82bd b3d4 a33d 8aaa 983d
00000100: 58c8 e2bb 13ed 48bd 9e4c 8d3c 8732 9fbd
00000110: 2a5c 47bd 506d f03c 3974 29be b26d 8a3c
00000120: 81ae 9a3c f419 8dbd d96d ac3d 840c e2bb
00000130: 9fdd 89bd 1d12 b93d ec48 13be 43f4 b1bd
00000140: a6ef 3e3d 6727 353b 17e4 5d3b 51fc e03c
00000150: bce1 25bd 4f4d 11bc 7cef dfbd 1f32 85bd
00000160: 4f89 12be b23b 36bd aee0 5abd ea8b 683d
00000170: b0b9 a9bc 55d7 9a3d 653b c73c d994 7fbd
00000180: ea47 f6bd 8b55 d33d 95b5 48bd d5ee 373b
00000190: b81b 60bb f996 bf3d 1ebd b93d 5a2f 013e
000001a0: 7649 403e 68dc 71bd 8c3e 8b3c a60c 3abd
000001b0: aa36 ef3d 6695 aabd 7ba5 3d3d f771 d73d
000001c0: 625c 1abc 57cc af3d 4834 1abd fac6 c1bd
000001d0: 9b75 b23c 9639 5e3d 04bf 3bbd f4f2 6b3d
000001e0: a53d ffbd 2dae 673d 4488 1cbe 2215 5bbb
000001f0: e03c e9bb fdc2 efbc 7425 d93c ef53 983b
00000200: 7a08 3d3b ab4d bfbd 1f86 25be 9b85 af3d
00000210: e35c 7dbd d020 71bd c04f 113d a0d6 9e3d
00000220: eeb4 803c 9845 0fbe f2d4 28bb 26b0 163d
00000230: 2228 11bd 33b7 39bd 7235 5bbd d6fc bb3d
00000240: 534b c7bd c3cd 493c e8d8 0ebd 3b6a 8dbd
00000250: ccee a43d 8ca8 1e3d 8110 f93d 8cbc 05be
00000260: 61af e13d 6d93 333d ae2c d63c 1b10 8ebd
00000270: 96c9 9a3d 8b68 8dbd 7e3e 513d 258b 973d
00000280: 14d2 c5bc bd1e 1c3c 5563 cabd 1292 ce3d
00000290: 147a 2f3d 4d1b adbc 03eb 30bd 648e cb3c
000002a0: 9951 48bd 8f17 afbd 7baa 403c 7058 21be
000002b0: 3e32 193d 2b4d 3cbe 46fe 8d3c da20 0ebd
000002c0: ab0f 143e 30d8 a43d 815b d0bd 725b bb3c
000002d0: 6fde bdbb 356a d4bc e684 1ebb 23c6 d2bc
000002e0: eb46 023e fdfa 9cbc 58f9 0f3e 04f6 bbbd
000002f0: 5a6b a53d a190 393c e876 debd d848 fd3d
00000300: 1f5d b0bd 9d6a 3139 b5f5 eebc 7f99 f13d
00000310: 29f8 97bc 8684 f33d 5d39 80bc d65c ad3d
00000320: 2557 703c b1e4 8d3c a72d f03d 1c35 07bd
00000330: 0148 29be 07e5 943d 524e 3abb b394 05bb
00000340: 2f76 a73d d090 c03d c1cb 313d 80be c53d
00000350: 4c2c 0cbd 8d2a 4fbb 2f84 1cbd 80b1 c6bd
00000360: a6b4 0f3d b27c 9a3d 5db0 ec3d d994 8f3d
00000370: 96d5 aa3d 14f2 c0bd 37e2 7dbd 3c30 80bd
00000380: 0cd8 5ebd a8fd 85bd a852 f2bd d549 a73d
00000390: c98b 11bd 8041 453d b3b2 aebd 1c7d febd
000003a0: 02c6 92bd 8be2 1bbd ed45 aabd f87d 53bd
000003b0: a141 80bc c0e8 c8bd f0c0 56bd d656 be3b
000003c0: a479 46be aab6 bf3d fcb1 ef3c 50ef 8dbc
000003d0: a816 303d 564f 783d c871 b1bb bc98 503c
000003e0: 5a38 f1bd 36a6 383d 59df c9bd 683d 983d
000003f0: 0863 81bd 4ab4 943c 89ce eb3c e4c5 773d

bias f4 [50]
-0.035434235 0.095784016 0.08874088 0.1439432 0.07122112 0.13066122 0.0747939 0.1219673
0.07860339 -0.040915407 -0.044029057 0.00015909826 -0.0747089 0.05898069 0.06275634 -0.11677456
0.11390238 0.078175835 -0.06529939 -0.07606082 0.08271518 -0.1149076 0.14766973 -0.009447476
0.038624085 0.08071149 -0.066014595 -0.08819993 -0.040135756 -0.010891988 0.10831131 0.037754312
0.095991805 -0.05435781 0.011815552 0.08717218 0.090336464 0.007133862 0.041525193 -0.044032995
0.00025919126 0.03255051 -0.05396875 0.020345785 0.0632643 0.124066316 -0.09413417 0.018702704
0.064745694 -0.044698652
00000000: 7d23 11bd 692a c43d c7bd b53d d965 133e
00000010: 61dc 913d 0ecc 053e 8b2d 993d fec9 f93d
00000020: d0fa a03d ea96 27bd d057 34bd 9dd3 2639
00000030: fb00 99bd bc95 713d 6586 803d 8027 efbd
00000040: a745 e93d a71a a03d b0bb 85bd c6c5 9bbd
00000050: 9466 a93d ad54 ebbd bc36 173e 96c9 1abc
00000060: 4a34 1e3d 114c a53d a932 87bd 2aa2 b4bd
00000070: 6465 24bd 4f74 32bc 52d2 dd3d 44a4 1a3d
00000080: 5a97 c43d 4ca6 5ebd 0496 413c 5487 b23d
00000090: 5302 b93d 2cc3 e93b 5216 2a3d f15b 34bd
000000a0: 10e4 8739 af53 053d 560e 5dbd 34ac a63c
000000b0: b790 813d 7b16 fe3d 6ac9 c0bd 6a36 993c
000000c0: 6499 843d ef15 37bd

weight f4 [50, 4]
0.17322518 -0.12710097 0.38360828 -0.39713755 0.18231782 -0.4655192 -0.2793019 0.20691955
0.086056896 0.24929667 -0.41498274 0.3180292 -0.052930776 -0.17300925 -0.19855784 0.24106556
0.22962227 -0.5326048 0.45634657 -0.040084686 -0.2982217 0.3099172 -0.016573027 0.45309985
-0.246613 -0.41226038 -0.104311995 -0.41036156 -0.19215938 -0.43755007 0.31600195 0.1683332
0.09456274 -0.36387715 -0.46692398 0.3202992 0.06663885 0.11127445 0.11268326 0.07895156
-0.11808586 -0.12189194 0.12495971 -0.3945368 0.25634602 -0.011958187 -0.19188455 0.42059892
0.22426724 -0.43716708 0.09285976 -0.26902097 0.06129794 -0.44607136 0.19937609 0.018072246
-0.3009774 -0.28589323 -0.06832476 0.3005926 -0.3244698 -0.22477064 0.021680197 0.3918705
-0.38986182 -0.23323178 -0.19645752 0.42252445 -0.28783524 -0.18329313 0.45819554 -0.4366912
-0.112532966 0.27287605 -0.06230477 0.45160958 -0.3103784 0.2888426 0.3529844 0.35528266
-0.08678175 -0.48552048 0.22896546 0.36447138 0.18386899 -0.39567137 0.25411442 -0.26969334
0.06511052 -0.43423513 -0.08338048 0.042250466 0.46072227 -0.04902905 -0.43604743 0.042331204
-0.38112143 -0.28944492 0.40202725 -0.46568865 -0.32593974 0.012149917 0.36765847 -0.24191155
-0.13638319 0.4540395 -0.013833172 -0.2309698 -0.17072691 0.008377355 -0.49826705 0.19633159
0.42175516 0.20154963 -0.20790777 0.42353576 -0.16826479 0.13717043 0.275684 0.3141185
0.45122436 -0.22184813 -0.17465977 -0.31029665 0.1462321 0.026269782 -0.052350383 0.31400636
-0.118567094 0.015738828 0.3901776 -0.29997632 -0.23468846 0.1006161 -0.48093432 0.00060815306
0.09630932 0.31809723 -0.33753926 -0.36925 -0.43050355 0.18492529 -0.3097123 0.108842686
0.4854205 -0.3421539 0.37079865 0.40204003 0.32794464 0.26439095 -0.45144185 0.34000564
0.28609493 -0.29965106 0.39687654 0.28332594 0.13839729 -0.051258646 0.01691805 -0.09516083
-0.24769077 -0.033367697 0.23106894 0.31811848 -0.4463068 0.48380634 -0.100085266 -0.22132754
0.081179135 -0.37339798 -0.22163114 0.24748118 0.40300995 -0.07511729 -0.1826597 -0.16978034
0.31402206 0.43228373 0.37693205 0.35125405 -0.21529165 0.079948485 -0.19375622 0.36998305
0.2246351 0.2910928 0.44645864 -0.054176033 0.3973656 0.08976253 0.2040192 -0.089594565
-0.0835687 0.46791163 0.27876905 -0.33373576 -0.1946154 0.36593953 0.08252645 0.12663478
00000000: f161 313e c226 02be 4e68 c43e 9d55 cbbe
00000010: 86b1 3a3e 8858 eebe a900 8fbe b8e2 533e
00000020: 993e b03d a047 7f3e 9e78 d4be b9d4 a23e
00000030: f1cd 58bd 5629 31be bf52 4bbe e4d9 763e
00000040: 1a22 6b3e ca58 08bf 42a6 e93e d72f 24bd
00000050: 84b0 98be 78ad 9e3e 28c4 87bc b4fc e73e
00000060: 1e88 7cbe cb13 d3be 87a1 d5bd e91a d2be
00000070: 6ec5 44be 9006 e0be 02cb a13e 8a5f 2c3e
00000080: 1caa c13d 1b4e babe a910 efbe 42fe a33e
00000090: f379 883d dce3 e33d 7bc6 e63d 5bb1 a13d
000000a0: 00d7 f1bd 7ba2 f9bd e0ea ff3d ba00 cabe
000000b0: c93f 833e 46ec 43bc 627d 44be be58 d73e
000000c0: 50a6 653e 5dd4 dfbe 422d be3d 1ebd 89be
000000d0: 8c13 7b3d 7763 e4be 3f29 4c3e 3f0c 943c
000000e0: b619 9abe 9960 92be daed 8bbd 46e7 993e
000000f0: e820 a6be 462a 66be ab9a b13c 40a3 c83e
00000100: f89b c7be 50d4 6ebe 292c 49be 2055 d83e
00000110: 245f 93be 32b1 3bbe 9b98 ea3e fd95 dfbe
00000120: af77 e6bd 69b6 8b3e 4933 7fbd 5f39 e73e
00000130: ebe9 9ebe 2de3 933e 5fba b43e 9ce7 b53e
00000140: a1ba b1bd 2496 f8be ec75 6a3e fe9b ba3e
00000150: 2748 3c3e 7095 cabe 491b 823e 3f15 8abe
00000160: aa58 853d 1154 debe 63c3 aabd d30e 2d3d
00000170: cae3 eb3e afd2 48bd 9c41 dfbe 7c63 2d3d
00000180: 5922 c3be 2032 94be 84d6 cd3e be6e eebe
00000190: 93e1 a6be 7210 473c bb3d bc3e a9b7 77be
000001a0: 09a8 0bbe de77 e83e 87a4 62bc 5983 6cbe
000001b0: 09d3 2ebe 2c41 093c dc1c ffbe 260b 493e
000001c0: 4bf0 d73e 0763 4e3e c6e5 54be aed9 d83e
000001d0: 9b4d 2cbe 6876 0c3e 7426 8d3e 24d4 a03e
000001e0: e106 e73e 282c 63be 03da 32be 34df 9ebe
000001f0: debd 153e ba33 d73c 5b6d 56bd 71c5 a03e
00000200: 4ed3 f2bd b7ee 803c 5cc5 c73e 7f96 99be
00000210: 2c52 70be d00f ce3d 063d f6be 766c 1f3a
00000220: d23d c53d a4dd a23e f2d1 acbe 560e bdbe
00000230: f66a dcbe 0e5d 3d3e 9c92 9ebe eae8 de3d
00000240: 0989 f83e cc2e afbe 52d9 bd3e 31d8 cd3e
00000250: 5ce8 a73e 405e 873e 6323 e7be 3815 ae3e
00000260: 097b 923e dd6b 99be 6733 cb3e 1910 913e
00000270: 05b8 0d3e 96f4 51bd b997 8a3c aee3 c2bd
00000280: a6a2 7dbe 91ac 08bd 569d 6c3e 6de0 a23e
00000290: 5382 e4be 77b5 f73e 81f9 ccbd b0a3 62be
000002a0: 3f41 a63d 052e bfbe 46f3 62be b56b 7d3e
000002b0: 5257 ce3e 18d7 99bd 250b 3bbe e6da 2dbe
000002c0: 80c7 a03e 4b54 dd3e 3dfd c03e 92d7 b33e
000002d0: 6a75 5cbe 08bc a33d 0868 46be 6b6e bd3e
000002e0: be06 663e 1e0a 953e 3a96 e43e b0e7 5dbd
000002f0: 8173 cb3e 6bd5 b73d 69ea 503e 5b7d b7bd
00000300: 1126 abbd 1d92 ef3e d1ba 8e3e 6adf aabe
00000310: 4249 47be 6d5c bb3e a103 a93d 8cac 013e

bias f4 [50]
-0.35893336 -0.38837263 -0.25157845 -0.26782003 -0.29710492 0.2661217 -0.49116433 -0.21521486
-0.2705594 0.4893561 0.39169168 -0.13690512 -0.23544554 0.12317771 0.21048933 0.15310341
0.42526856 -0.06142267 -0.40103224 -0.084951594 0.22991672 0.26353994 0.0065016006 0.45946297
0.18029732 -0.38419154 -0.16747297 -0.4297426 0.33857027 -0.3507125 0.44210324 0.0036196064
-0.108434215 0.27658024 -0.36030117 0.044940073 0.36206925 -0.26948363 -0.26351598 -0.15512621
0.3925674 0.13605227 0.19271977 -0.043482766 -0.4333143 0.003971079 0.09196844 -0.19119789
0.31852254 -0.06567889
00000000: 1dc6 b7be c7d8 c6be e4ce 80be b51f 89be
00000010: 231e 98be 1a41 883e e479 fbbe 4961 5cbe
00000020: c386 8abe e28c fa3e d08b c83e db30 0cbe
00000030: a318 71be 9844 fc3d 848a 573e 24c7 1c3e
00000040: cdbc d93e 5696 7bbd 1954 cdbe 1afb adbd
00000050: 4a6f 6b3e b5ee 863e 610b d53b bb3e eb3e
00000060: dc9f 383e c1b4 c4be 097e 2bbe 3907 dcbe
00000070: 1559 ad3e 9790 b3be 5b5b e23e eb36 6d3b
00000080: c212 debd ed9b 8d3e 6579 b8be 1513 383d
00000090: 2461 b93e c2f9 89be 91eb 86be 68d9 1ebe
000000a0: 98fe c83e 4951 0b3e 5558 453e fc1a 32bd
000000b0: 5fdb ddbe d31f 823b f359 bc3d 61c9 43be
000000c0: 6315 a33e a782 86bd

weight f4 [50]
1.0 1.0 1.0 1.0 1.0 1.0 1.0 1.0
1.0 1.0 1.0 1.0 1.0 1.0 1.0 1.0
1.0 1.0 1.0 1.0 1.0 1.0 1.0 1.0
1.0 1.0 1.0 1.0 1.0 1.0 1.0 1.0
1.0 1.0 1.0 1.0 1.0 1.0 1.0 1.0
1.0 1.0 1.0 1.0 1.0 1.0 1.0 1.0
1.0 1.0
00000000: 0000 803f 0000 803f 0000 803f 0000 803f
00000010: 0000 803f 0000 803f 0000 803f 0000 803f
00000020: 0000 803f 0000 803f 0000 803f 0000 803f
00000030: 0000 803f 0000 803f 0000 803f 0000 803f
00000040: 0000 803f 0000 803f 0000 803f 0000 803f
00000050: 0000 803f 0000 803f 0000 803f 0000 803f
00000060: 0000 803f 0000 803f 0000 803f 0000 803f
00000070: 0000 803f 0000 803f 0000 803f 0000 803f
00000080: 0000 803f 0000 803f 0000 803f 0000 803f
00000090: 0000 803f 0000 803f 0000 803f 0000 803f
000000a0: 0000 803f 0000 803f 0000 803f 0000 803f
000000b0: 0000 803f 0000 803f 0000 803f 0000 803f
000000c0: 0000 803f 0000 803f

bias f4 [50]
0.0 0.0 0.0 0.0 0.0 0.0 0.0 0.0
0.0 0.0 0.0 0.0 0.0 0.0 0.0 0.0
0.0 0.0 0.0 0.0 0.0 0.0 0.0 0.0
0.0 0.0 0.0 0.0 0.0 0.0 0.0 0.0
0.0 0.0 0.0 0.0 0.0 0.0 0.0 0.0
0.0 0.0 0.0 0.0 0.0 0.0 0.0 0.0
0.0 0.0
00000000: 0000 0000 0000 0000 0000 0000 0000 0000
00000010: 0000 0000 0000 0000 0000 0000 0000 0000
00000020: 0000 0000 0000 0000 0000 0000 0000 0000
00000030: 0000 0000 0000 0000 0000 0000 0000 0000
00000040: 0000 0000 0000 0000 0000 0000 0000 0000
00000050: 0000 0000 0000 0000 0000 0000 0000 0000
00000060: 0000 0000 0000 0000 0000 0000 0000 0000
00000070: 0000 0000 0000 0000 0000 0000 0000 0000
00000080: 0000 0000 0000 0000 0000 0000 0000 0000
00000090: 0000 0000 0000 0000 0000 0000 0000 0000
000000a0: 0000 0000 0000 0000 0000 0000 0000 0000
000000b0: 0000 0000 0000 0000 0000 0000 0000 0000
000000c0: 0000 0000 0000 0000

running_mean f4 [50]
0.0 0.0 0.0 0.0 0.0 0.0 0.0 0.0
0.0 0.0 0.0 0.0 0.0 0.0 0.0 0.0
0.0 0.0 0.0 0.0 0.0 0.0 0.0 0.0
0.0 0.0 0.0 0.0 0.0 0.0 0.0 0.0
0.0 0.0 0.0 0.0 0.0 0.0 0.0 0.0
0.0 0.0 0.0 0.0 0.0 0.0 0.0 0.0
0.0 0.0
00000000: 0000 0000 0000 0000 0000 0000 0000 0000
00000010: 0000 0000 0000 0000 0000 0000 0000 0000
00000020: 0000 0000 0000 0000 0000 0000 0000 0000
00000030: 0000 0000 0000 0000 0000 0000 0000 0000
00000040: 0000 0000 0000 0000 0000 0000 0000 0000
00000050: 0000 0000 0000 0000 0000 0000 0000 0000
00000060: 0000 0000 0000 0000 0000 0000 0000 0000
00000070: 0000 0000 0000 0000 0000 0000 0000 0000
00000080: 0000 0000 0000 0000 0000 0000 0000 0000
00000090: 0000 0000 0000 0000 0000 0000 0000 0000
000000a0: 0000 0000 0000 0000 0000 0000 0000 0000
000000b0: 0000 0000 0000 0000 0000 0000 0000 0000
000000c0: 0000 0000 0000 0000

running_var f4 [50]
1.0 1.0 1.0 1.0 1.0 1.0 1.0 1.0
1.0 1.0 1.0 1.0 1.0 1.0 1.0 1.0
1.0 1.0 1.0 1.0 1.0 1.0 1.0 1.0
1.0 1.0 1.0 1.0 1.0 1.0 1.0 1.0
1.0 1.0 1.0 1.0 1.0 1.0 1.0 1.0
1.0 1.0 1.0 1.0 1.0 1.0 1.0 1.0
1.0 1.0
00000000: 0000 803f 0000 803f 0000 803f 0000 803f
00000010: 0000 803f 0000 803f 0000 803f 0000 803f
00000020: 0000 803f 0000 803f 0000 803f 0000 803f
00000030: 0000 803f 0000 803f 0000 803f 0000 803f
00000040: 0000 803f 0000 803f 0000 803f 0000 803f
00000050: 0000 803f 0000 803f 0000 803f 0000 803f
00000060: 0000 803f 0000 803f 0000 803f 0000 803f
00000070: 0000 803f 0000 803f 0000 803f 0000 803f
00000080: 0000 803f 0000 803f 0000 803f 0000 803f
00000090: 0000 803f 0000 803f 0000 803f 0000 803f
000000a0: 0000 803f 0000 803f 0000 803f 0000 803f
000000b0: 0000 803f 0000 803f 0000 803f 0000 803f
000000c0: 0000 803f 0000 803f

weight f4 [20, 100]
-0.13317692 0.062798545 -0.07204773 -0.030065406 0.10690809 0.02344013 0.02991224 0.07501084
0.14119847 0.08773414 -0.15422769 0.02260683 0.023585826 -0.0778228 -0.11053419 -0.076921985
0.04476069 0.03977671 0.07699246 -0.017084653 -0.085587025 0.07335997 -0.071905464 -0.088408105
0.08382513 0.0027740893 -0.12608212 -0.081673495 -0.07823155 -0.049667098 -0.130518 0.050814163
-0.10580802 -0.028050944 -0.08226694 -0.12296523 0.003310532 -0.013641956 -0.04842775 -0.115803055
-0.21564303 0.015332841 -0.03670403 0.006264012 0.024453834 0.06976563 -0.037687484 -0.039322138
-0.13225664 0.14433709 -0.018576454 0.064410456 0.04604872 -0.08568793 0.061152745 0.032524608
0.10429516 0.023151988 -0.023340175 -0.018278956 -0.08302109 0.015226747 0.042391703 -0.0751806
-0.00425888 -0.00090845325 -0.039792683 -0.0021816434 0.038562253 0.06332866 0.009280264 3.08612e-05
0.036410436 0.042592477 0.10914768 0.0884158 -0.008891183 0.03627057 0.076547384 0.10156527
-0.047898356 0.033763986 -0.03983401 0.0837869 -0.02068861 -0.013238217 0.05819482 0.10219581
-0.10261715 0.068752736 -0.0034208617 0.019512175 0.0057269707 -0.11819947 0.08521227 -0.077832736
0.0043989653 -0.08340334 0.02990739 0.09576477 -0.07427454 0.026955014 -0.08329273 -0.024337811
0.06853683 0.084206164 0.004046996 -0.0323566 0.029931525 -0.014066943 0.09332718 -0.027313575
0.017133277 -0.025115091 0.02697513 -0.002871701 0.038937327 0.016936209 0.057507917 -0.087627485
0.063481614 0.005643331 -0.025825506 -0.0031946374 -0.10299581 0.008568967 -0.07845954 -0.086340025
0.081281066 0.06373419 -0.088767424 0.040821582 0.06267379 0.08074228 -0.07772192 0.028222173
-0.031580247 -0.014681337 -0.09946944 -0.04190774 -0.058898948 -0.08013443 -0.034112703 0.09971271
0.0738044 0.043307476 -0.08652033 0.08603305 -0.007943398 0.030690739 0.029324302 0.08239419
0.029561417 0.08231074 0.051113825 0.018818974 0.04055858 -0.042055402 -0.025671465 -0.009587277
-0.07521331 -0.06452694 -0.08982541 0.04566521 0.0022105314 0.018575527 0.03036962 0.03910497
0.040730685 0.027035853 -0.071876936 -0.09058462 0.011511949 0.08883447 0.062416367 -0.07552739
0.015807075 -0.07811233 -0.06284031 -0.001907205 -0.068780474 -0.015874315 -0.09684515 -0.034454312
0.021556133 -0.09872587 -0.0040032244 0.04623555 0.008256694 0.0077843503 -0.10272833 -0.045565743
0.00500435 0.017043125 0.078054965 -0.027652204 -0.014409389 0.028696591 -0.067360386 -0.06311933
0.040887892 -0.08112312 0.01200965 -0.031670403 0.070119336 -0.046943363 -0.064350046 -0.101648
-0.10439727 -0.06522655 0.009025223 -0.06181585 -0.07950386 -0.0756065 -0.09968301 0.0336191
0.043931086 -0.018824935 0.0012081069 -0.043937422 -0.023602067 -0.08043022 0.039120615 0.051430102
0.07272258 -0.05695807 -0.0920874 -0.070015036 -0.019548947 -0.0010974308 0.051018458 0.016610619
-0.034799274 0.046818994 -0.09933906 0.08627371 0.06590603 -0.018628873 -0.055803884 0.053605676
0.06527572 -0.052642316 -0.06385862 0.025871031 -0.086912975 -0.003353104 0.03822505 0.028627114
0.059315804 0.08654938 -0.03898315 -0.08479655 -0.10376322 -0.07747761 0.02393023 -0.037089586
00000000: 885f 08be 869c 803d c38d 93bd ba4b f6bc
00000010: a1f2 da3d 8405 c03c 840a f53c 499f 993d
00000020: 5596 103e f5ad b33d dded 1dbe f531 b93c
00000030: 1037 c13c 8f61 9fbd c05f e2bd 4689 9dbd
00000040: fc56 373d e7ec 223d 39ae 9d3d 1df5 8bbc
00000050: 4048 afbd c03d 963d 2c43 93bd 4f0f b5bd
00000060: 82ac ab3d 7fcd 353b ac1b 01be 6f44 a7bd
00000070: dd37 a0bd ba6f 4bbd 83a6 05be 8322 503d
00000080: e0b1 d8bd 18cb e5bc 927b a8bd 32d5 fbbd
00000090: 83f5 583b 8382 5fbc 2d5c 46bd 272a edbd
000000a0: 87d1 5cbe 9936 7b3c f756 16bd 5742 cd3b
000000b0: 6853 c83c 48e1 8e3d 315e 1abd 4010 21bd
000000c0: 496e 07be 1acd 133e a62d 98bc a1e9 833d
000000d0: 959d 3c3d 277d afbd 4d7b 7a3d 8638 053d
000000e0: b398 d53d 3da9 bd3c e533 bfbc c0bd 95bc
000000f0: f606 aabd 9b79 793c eca2 2d3d 49f8 99bd
00000100: 138e 8bbb 4425 6eba a7fd 22bd e7f9 0ebb
00000110: 74f3 1d3d 75b2 813d 400c 183c f670 0138
00000120: 1c23 153d 7375 2e3d d288 df3d 5813 b53d
00000130: 53ac 11bc 7390 143d e0c4 9c3d 7401 d03d
00000140: 1131 44bd 1b4c 0a3d fd28 23bd 7798 ab3d
00000150: 297b a9bc 1be5 58bc b15d 6e3d 094c d13d
00000160: f128 d2bd 3cce 8c3d 8930 60bb ffd7 9f3c
00000170: 50a9 bb3b 9012 f2bd c583 ae3d c566 9fbd
00000180: 3225 903b 5fcf aabd 5800 f53c 5220 c43d
00000190: 401d 98bd c3d0 dc3c 6195 aabd 1760 c7bc
000001a0: 0a5d 8c3d 4874 ac3d aa9c 843b 5b88 04bd
000001b0: f532 f53c 0979 66bc 5222 bf3d b8c0 dfbc
000001c0: 165b 8c3c 2abe cdbc f3fa dc3c 2633 3cbb
000001d0: bf7c 1f3d cebd 8a3c 6c8d 6b3d 0a76 b3bd
000001e0: a602 823d b1eb b83b 0390 d3bc 1f5d 51bb
000001f0: 78ef d2bd da64 0c3c 65af a0bd 0ad3 b0bd
00000200: b076 a63d 1287 823d b2cb b5bd 8834 273d
00000210: 1e5b 803d 355c a53d ac2c 9fbd 3032 e73c
00000220: 4a5a 01bd fe89 70bc a2b6 cbbd 73a7 2bbd
00000230: 0640 71bd 851d a4bd c3b9 0bbd 2d36 cc3d
00000240: c326 973d 2e63 313d 9231 b1bd 1932 b03d
00000250: 0725 02bc 256b fb3c 8539 f03c 49be a83d
00000260: c92a f23c 8992 a83d bb5c 513d 402a 9a3c
00000270: c120 263d 4942 2cbd f74c d2bc f413 1dbc
00000280: 7009 9abd b326 84bd 62f6 b7bd 710b 3b3d
00000290: 90de 103b b42b 983c b6c9 f83c 882c 203d
000002a0: 38d5 263d 4b7a dd3c 3734 93bd 6e84 b9bd
000002b0: 9d9c 3c3c d9ee b53d 4ea8 7f3d 1bae 9abd
000002c0: d77d 813c 5bf9 9fbd 6cb2 80bd 2efb f9ba
000002d0: c7dc 8cbd da0a 82bc c056 c6bd f71f 0dbd
000002e0: 7d96 b03c ca30 cabd 7b2d 83bb 7d61 3d3d
000002f0: 1647 073c dd13 ff3b 3b63 d2bd 25a3 3abd
00000300: 88fb a33b 069e 8b3c 48db 9f3d e086 e2bc
00000310: 5c15 6cbc 1d15 eb3c 3ef4 89bd b544 81bd
00000320: 107a 273d e123 a6bd 1fc4 443c d3b8 01bd
00000330: ba9a 8f3d af47 40bd f5c9 83bd d42c d0bd
00000340: 3cce d5bd 7f95 85bd 87de 133c 9e32 7dbd
00000350: ebd2 a2bd 95d7 9abd 9b26 ccbd 2eb4 093d
00000360: 15f1 333d c036 9abc 5759 9e3a baf7 33bd
00000370: 1f59 c1bc 99b8 a4bd f03c 203d 5fa8 523d
00000380: 93ef 943d dd4c 69bd 5298 bcbd 0b64 8fbd
00000390: 1d25 a0bc abd7 8fba bbf8 503d fe12 883c
000003a0: af89 0ebd 46c5 3f3d 4772 cbbd 45b0 b03d
000003b0: bef9 863d 949b 98bc 9d92 64bd a091 5b3d
000003c0: 47af 853d 789f 57bd 4fc8 82bd 7cef d33c
000003d0: 6eff b1bd c0bf 5bbb df91 1c3d 6983 ea3c
000003e0: 21f5 723d cd40 b13d ccac 1fbd d0a9 adbd
000003f0: d081 d4bd 95ac 9ebd 5409 c43c 40eb 17bd

bias f4 [20]
-0.029319521 -0.041038398 0.035743263 0.07064686 -0.04524185 0.026563069 0.011278906 0.06262179
-0.085283116 -0.044475727 -0.09502889 -0.03702442 -0.017468723 -0.0029112722 0.07446005 0.05997588
0.07255399 0.08466393 0.019740053 0.05089604
00000000: 7e2f f0bc e117 28bd 8767 123d 4daf 903d
00000010: 854f 39bd cb9a d93c 29cb 383c da3f 803d
00000020: eaa8 aebd 2e2c 36bd 829e c2bd eba6 17bd
00000030: 911a 8fbc 0bcb 3ebb 837e 983d 45a9 753d
00000040: 3097 943d 4864 ad3d e4b5 a13c 5e78 503d

weight f4 [20]
1.0 1.0 1.0 1.0 1.0 1.0 1.0 1.0
1.0 1.0 1.0 1.0 1.0 1.0 1.0 1.0
1.0 1.0 1.0 1.0
00000000: 0000 803f 0000 803f 0000 803f 0000 803f
00000010: 0000 803f 0000 803f 0000 803f 0000 803f
00000020: 0000 803f 0000 803f 0000 803f 0000 803f
00000030: 0000 803f 0000 803f 0000 803f 0000 803f
00000040: 0000 803f 0000 803f 0000 803f 0000 803f

bias f4 [20]
0.0 0.0 0.0 0.0 0.0 0.0 0.0 0.0
0.0 0.0 0.0 0.0 0.0 0.0 0.0 0.0
0.0 0.0 0.0 0.0
00000000: 0000 0000 0000 0000 0000 0000 0000 0000
00000010: 0000 0000 0000 0000 0000 0000 0000 0000
00000020: 0000 0000 0000 0000 0000 0000 0000 0000
00000030: 0000 0000 0000 0000 0000 0000 0000 0000
00000040: 0000 0000 0000 0000 0000 0000 0000 0000

running_mean f4 [20]
0.0 0.0 0.0 0.0 0.0 0.0 0.0 0.0
0.0 0.0 0.0 0.0 0.0 0.0 0.0 0.0
0.0 0.0 0.0 0.0
00000000: 0000 0000 0000 0000 0000 0000 0000 0000
00000010: 0000 0000 0000 0000 0000 0000 0000 0000
00000020: 0000 0000 0000 0000 0000 0000 0000 0000
00000030: 0000 0000 0000 0000 0000 0000 0000 0000
00000040: 0000 0000 0000 0000 0000 0000 0000 0000

running_var f4 [20]
1.0 1.0 1.0 1.0 1.0 1.0 1.0 1.0
1.0 1.0 1.0 1.0 1.0 1.0 1.0 1.0
1.0 1.0 1.0 1.0
00000000: 0000 803f 0000 803f 0000 803f 0000 803f
00000010: 0000 803f 0000 803f 0000 803f 0000 803f
00000020: 0000 803f 0000 803f 0000 803f 0000 803f
00000030: 0000 803f 0000 803f 0000 803f 0000 803f
00000040: 0000 803f 0000 803f 0000 803f 0000 803f

weight f4 [1, 20]
-0.13571346 -0.006810093 -0.13657597 -0.18384957 -0.4620524 -0.0973823 0.11365084 0.23194192
-0.070689976 -0.18782559 -0.19265358 0.09270846 -0.3999492 -0.44160086 0.21173452 0.108928055
0.27451298 0.21675344 -0.11448386 0.20833465
00000000: 78f8 0abe 3327 dfbb 92da 0bbe 1043 3cbe
00000010: 2292 ecbe 5f70 c7bd c6c1 e83d 2f82 6d3e
00000020: e8c5 90bd 5a55 40be fb46 45be efdd bd3d
00000030: 24c6 ccbe 8219 e2be efd0 583e ac15 df3d
00000040: f78c 8c3e 9df4 5d3e 8476 eabd ae55 553e
