models_version2/2UAVs_91511/c_c1.pt (torch_old, 28013 bytes, 15 tensors)

weight f4 [50, 68]
00000000: 3c25 55bd a22c a5bb 9851 51be f6a5 b53e
00000010: 3b6a 0d3e 317a 15bd 1d68 b53d 60e2 e33d
00000020: 41a7 c4bb fcda f83d 14b8 62bd 6485 1a3c
00000030: 2c77 dc3c 7201 bcbc 286f 403e d375 21be
00000040: 34f1 393e 9ea1 6fbd 3f57 a4bd 6d2f e839
00000050: e261 52bd 33bb 77bd 4f52 0cbe 8a07 f33d
00000060: 66c4 9c3d 3c5d 2a3e 5d5b 84bd 31ad 333d
00000070: f933 b73d f47b 303d 6829 75bd 5ef6 283d
00000080: fdf4 d93d a675 0bbd f66f 53bd 3d52 043e
00000090: 28d9 74be 3e87 f23e ca89 66bd 819d 363d
000000a0: 6b20 3d3e d029 023e b333 dc3d 68b5 2a3d
000000b0: f869 b6bd d269 eebc 1c87 b93c b811 c0bd
000000c0: 4446 483e 56f3 d63c 4e46 373e 7a63 053d
000000d0: c479 983c 2810 283d e2d0 b3bd 2216 ea3c
000000e0: e1aa 6cbc 435e 8b3d c6d9 c7bb 704c 203e
000000f0: c66a 0bbe 82f2 b4bc 67e0 ba3d b4dd 5cbc
00000100: f23f ff3b b82c a2bd 65d4 9abd 7c9a cfbd
00000110: e212 e33d 6701 df3d 1a4e a73d 1ae8 e5be
00000120: da41 89bd ad86 dfbd cd59 ff3d 3a83 2d3e
00000130: ee00 8ebd 32ba 9f3d 6583 53bb 2aac 743a
00000140: 8064 003d dae7 903d ba62 923e 8ce7 03be
00000150: babb 7fbb 833c 083d ba10 d83d e7f5 1d3e
00000160: cfb2 88bd b277 89bd 1543 363c 3db4 81bc
00000170: 8976 e83d ab36 343e 9a34 f0bc a55a 273e
00000180: 175a ac3d 6b77 cf3b cc33 0cbe 22f7 cc3d
00000190: a572 93bd 2317 4ebd 3984 fc3c 95f5 16bd
000001a0: 9da1 773d f08c adbe c2ac 123e 773d efbb
000001b0: 1acb dc3d 2fed 20bd 8613 c13a 902f 95bd
000001c0: 48c6 163e f2e2 cd3d dc62 153e fec9 d23d
000001d0: 36ef 813e 128d 4cbe 747e be3d d33e e3bd
000001e0: 62be 553d ebb1 0d3d ef28 823d aa32 a53d
000001f0: 38d8 3f3d 5e4d 013d 8bc6 cb3d 3b75 553d
00000200: e70f 9ebd 06c6 ba3c a77f 023e f753 573e
00000210: 3a05 5fbe 201d e03c 48a9 203e 6aac 81bd
00000220: 2eb1 fa3a b0cc 553c af36 adbe b35c fc3c
00000230: 47fc 89bd 015d 993d d1cb 923c e0f8 103e
00000240: 2e71 bf3d ab1a b73c c3ea b6bb 48a2 a23d
00000250: 5d33 8fbc 15f6 1c3e 8e7b b63d 7904 043e
00000260: f81d e43d 6f76 51bd aa0f dc3d 1ac4 583d
00000270: e2f2 803d 71cf c9bd 0a1e b63d 4c87 00bd
00000280: dc93 103e f389 573d fb68 8f3d 61fd 8dbd
00000290: f8cc ddbd eb05 abbd 7288 013e b530 bb3d
000002a0: 5afc 453d 8d16 ee3c fe00 0a3e bc00 0a3e
000002b0: a845 7cbe 2fd3 67bc b799 9f3d 5685 86bd
000002c0: 4d6f 453e 0db0 8b3d 7ff1 45bd ec7e f93c
000002d0: 2efe 1f3c 3441 883d a5ae 99bd 3a9e 033e
000002e0: 8127 243e 275a 26bd a585 a83d 3011 8cbc
000002f0: 5d8b 4abd 14f1 143d ee4e 8a3d cdc4 a5ba
00000300: f4f6 ef3d 1c33 933d 0bf2 b33d 1bb2 e3bc
00000310: 9a5d 893d 4d77 5b3d 86dc a93d a509 853d
00000320: 3606 c73d f7c5 8b3d 72f4 3dbd 164c 94bd
00000330: 76f8 80bc 5276 ae3d 357c 1c3f 6d94 a5bd
00000340: 41d3 f53c ea78 653c cc68 ec3c 163f 1b3e
00000350: 5fd9 49bb 59ff 0abe 086c da3b 694a 1dbe
00000360: a3a2 7cbd d753 b2bc ec40 ffbb 4b99 f73d
00000370: 1393 98bd 48b5 afbd 5b9c adbb c71b e83c
00000380: 3984 67bc a994 743c 1f39 b53d 71da 42bd
00000390: 50f9 5cbd 53bf 8a3d 123a 763d 8471 bfbd
000003a0: c529 71bd f2e5 29be bc16 13be 660f bcbd
000003b0: 28c5 44bd 21b2 17bd d90b ecbc 1b35 1a3d
000003c0: ddcc 313f e3c3 f3bc d333 f13d 91fb b7bc
000003d0: 8b57 23bd 5858 443d 5572 d7bd b195 09be
000003e0: 02f1 2ebe 4d60 25be 3615 ec3c 100c 983d
000003f0: 6aa8 203d 6a18 c8b9 9293 6b3d ee21 6bbd
-0.052037463 -0.005040721 -0.20441282 0.3547818 0.13810055 -0.036493484 0.08857749 0.11127162
-0.0060013835 0.12151143 -0.05535133 0.009431217 0.026912294 -0.022949908 0.18792403 -0.15767603
0.18158418 -0.05850374 -0.08024453 0.00044285823 -0.05136288 -0.06048126 -0.13703273 0.11866672
0.076546475 0.16637129 -0.06462739 0.04386634 0.0894546 0.04308696 -0.05985394 0.04125058
0.10642431 -0.034047745 -0.051620446 0.12921996 -0.23910964 0.47368807 -0.05628375 0.0445838
0.18469398 0.12711263 0.10752048 0.04167691 -0.08906931 -0.029103193 0.022647433 -0.093783796
0.19558054 0.026239078 0.17897913 0.03256557 0.01861275 0.041031033 -0.087800756 0.028575007
-0.014445038 0.06805088 -0.0060989587 0.15654159 -0.1361495 -0.022088293 0.091248326 -0.0134805925
0.0077896053 -0.07918686 -0.07560042 -0.101368874 0.11087586 0.10888939 0.081691936 -0.44903642
-0.06702013 -0.10914359 0.124683 0.1694459 -0.06933771 0.07799186 -0.0032274362 0.0009333516
0.031345844 0.07075472 0.28590947 -0.12881297 -0.0039021806 0.033260833 0.10550065 0.15425836
-0.0667473 -0.06712283 0.011124392 -0.015833015 0.11350734 0.17598979 -0.029321957 0.16343172
0.08415621 0.0063313744 -0.13691634 0.10008074 -0.07199601 -0.050315034 0.030824767 -0.0368553
0.06045686 -0.3389659 0.14323714 -0.0073010284 0.10780926 -0.039288696 0.001473055 -0.072844625
0.14724076 0.10053052 0.14588493 0.10292433 0.25377816 -0.19975689 0.09301463 -0.11095967
0.052183516 0.034593504 0.06355464 0.08066304 0.04683706 0.031567924 0.099499784 0.052113753
-0.07717877 0.022799503 0.12744008 0.21028124 -0.21779338 0.027357638 0.15689576 -0.063317135
0.001912629 0.01304929 -0.33830783 0.030805921 -0.06737571 0.07488442 0.017919453 0.14157438
0.09347759 0.022351583 -0.005582185 0.07941109 -0.017480547 0.15328248 0.08910285 0.12892331
0.111385286 -0.051138338 0.10745175 0.052921392 0.06296326 -0.098540194 0.08892448 -0.03137903
0.14118904 0.052621793 0.07002445 -0.06933094 -0.1083011 -0.08350738 0.12649706 0.091401495
0.048336364 0.029063487 0.13476941 0.13476843 -0.24635947 -0.014149471 0.07792991 -0.065684006
0.19280739 0.068206884 -0.04832601 0.030456029 0.009765191 0.066530615 -0.07504014 0.12853327
0.16030695 -0.04061332 0.08228616 -0.01709804 -0.049449313 0.036362723 0.06753336 -0.0012647152
0.117170244 0.07187483 0.087864004 -0.027794888 0.06707306 0.05358057 0.08294015 0.0649598
0.097179815 0.06824868 -0.0463757 -0.07241075 -0.015743475 0.085186616 0.61127025 -0.080849506
0.03000796 0.014005879 0.028858565 0.15160784 -0.003079973 -0.1357397 0.0066657104 -0.15360416
-0.06167854 -0.021768494 -0.0077897217 0.12089785 -0.07449927 -0.085794985 -0.00529818 0.028333558
-0.014130645 0.0149280215 0.088487856 -0.047571603 -0.0539487 0.067747734 0.060113974 -0.09347823
-0.058877725 -0.16591623 -0.14364141 -0.091826245 -0.048039585 -0.03703511 -0.028814243 0.0376483
0.6945322 -0.029756492 0.11777463 -0.022458823 -0.03987841 0.047935814 -0.10519854 -0.13436009
-0.17084125 -0.16150017 0.028818708 0.07424176 0.039223112 -0.00038165163 0.05751378 -0.057405405

bias f4 [50]
00000000: 61df 873e 882c 903e ffb0 223e 2e0d 62bc
00000010: a60e 4e3d cd96 6a3d b8da 6cbd fc91 673e
00000020: fe81 933e 1807 fc3d e11c 893d 4bc0 c6bd
00000030: 8f0c aabc c4e9 2a3e d87b d5bd 929f 453e
00000040: ea8c 95bd 7cd3 41be 944b 7fbe dc4b 3e3e
00000050: a138 153e edc4 b9bd d82b e53d 0508 f83d
00000060: d433 703e 52cb 343e 7d23 5a3e 7c56 2cbd
00000070: 7245 873d 0eaa 223e 6353 6d3e ed63 22bc
00000080: 0027 a8bd 244c 373e dce4 49be cae9 133e
00000090: 9f71 04bd 1f62 303d be22 4e3e 982e f83d
000000a0: 32f8 883e b099 cc3d 4361 c1bd 4556 063e
000000b0: db7f eabd b24f d73d 7c1e ff3d fc99 dbbd
000000c0: d831 ef3d 5064 f73d
0.26537612 0.28158975 0.15887831 -0.013797088 0.05030694 0.05727272 -0.057825774 0.22614282
0.28810114 0.123060405 0.06694961 -0.09704646 -0.020757942 0.16690737 -0.10424012 0.19299152
-0.07302268 -0.18928331 -0.24931175 0.18583626 0.14572383 -0.09070764 0.11190003 0.121109046
0.23457271 0.17655686 0.213026 -0.042074665 0.066050425 0.15885183 0.23176341 -0.0099115195
-0.08210564 0.17900139 -0.19716209 0.14444652 -0.03233492 0.043062326 0.2013044 0.12118262
0.26751858 0.09990251 -0.09442379 0.13118847 -0.11450168 0.105132475 0.12456986 -0.107227296
0.11679429 0.1207968

weight f4 [50, 4]
00000000: c448 e8be fe31 47be 665a 3b3e 57c3 2fbf
00000010: 4ee9 9dbe 492e 203e 3bfe 473e 2700 df3e
00000020: f739 3bbe 9b79 40be 5693 dabe dd04 0dbf
00000030: 9997 903e d767 d23e c2dc e2be cafc 11bf
00000040: cbe8 0ebf 857e 3abc 25bc 48bd 5a34 0f3e
00000050: 1e51 53bd 4ad1 f3be 2964 38be 2e79 30bf
00000060: 7b1b 923d 57c2 d6bc 9d63 d5be 6ffe 1fbf
00000070: 7419 2dbe 1e5a 8abe be93 d33d a280 05bf
00000080: fab8 b83b dd6e 693e 34d8 b4be 58e5 ad3e
00000090: 3e07 b5be 8ebc dc3e 02c8 8f3e 9164 e73d
000000a0: 1830 143e 4bdf 953e 10c7 0bbb 84d4 493e
000000b0: aa8c 72bd b68f e03c d8d4 bb3e bd2d a6be
000000c0: e2f5 a23d 9a10 793e 60d0 6c3e 9c16 013f
000000d0: 4dbe b03c 8d34 7d3d 6c1d a53e 7628 05bf
000000e0: df79 a33e 69be 263e cf65 6d3e 4315 1fbe
000000f0: b88e b3be 084f 13be 946c 963e a087 093f
00000100: 0462 b43e 3b95 c1bd 9761 5f3e 9e29 e63e
00000110: 09d1 bebe 2fc0 34be d222 94be 7231 43bf
00000120: e776 2ebe aa52 c6bd da11 c93e e0d2 1cbf
00000130: 18bc 72bd 7958 003e 0325 2a3f dabf 9d3e
00000140: e36f 6e3e 7618 81be 5c79 35bf e1a0 0f3f
00000150: 3bcf 613d 8977 8a3d 803f b43e 7645 16bf
00000160: 5f3b 4c3e 6e34 81be e1a4 c0be 0589 82be
00000170: bac0 e93d 4ed7 0d3e 6403 923d 4d5a df3e
00000180: 8538 91be 8381 8fbd aaee 17bf 390d 09bf
00000190: 9c49 9ebe 04c8 ce3e eaaa 04bf fbf8 7b3e
000001a0: 6a62 e23e 569c b0be 6933 9dbe d64e 3f3e
000001b0: 68b0 4fbe 6d2e 6f3e da0c 17bd 6adc c4be
000001c0: 96d8 e93d 1bc2 6b3e 806e 243e b222 49bf
000001d0: 1bf6 813e 9e7c 563e 9c5b dd3e 0247 0b3e
000001e0: c378 533e fdc3 283e 7cb9 563e af41 073f
000001f0: ca62 e83e 4a61 61be 3f89 22be 592c 063f
00000200: 73bf 5abd 24b7 9c3e 203c e0be 419d 913c
00000210: 8955 76be d9ee c6be 2121 693c dc12 c33e
00000220: afe2 ee3c e482 f6bd a87e 1ebf 1d2e 9fbe
00000230: 5b98 5b3e b7a1 8dbe ce8a 00bf a3c3 c13e
00000240: 4791 84be 9f55 a33c 33c4 423d e102 64be
00000250: 3090 b7bd d15c 9c3e 9959 5a3e 4180 19bf
00000260: 9264 f8be 9f03 863e 6038 b53e fc28 c33e
00000270: 7e7f ccbe 2a69 9a3e 04b0 adbe 0a10 e23e
00000280: 2ef2 833e 30cc 883e 24e9 bfbe 5789 a1be
00000290: 4fd2 b63e 63c3 d5bd 778a 11bf 1074 fbbe
000002a0: 0272 803e 82ce b93e 10d2 d73c 0864 e63d
000002b0: 06d5 b3be 204f d2be 098b be3e d686 b63e
000002c0: 9310 073f 644d 4cbe f09d 363e cb84 f33d
000002d0: 0f96 9ebe db56 503e 4252 07bf abc2 a1bd
000002e0: cdc2 bf3e bcca ce3e 74dc 15be 968c b9bd
000002f0: 951c c7be aa0d abbe cb5b f8be 0eeb dc3e
00000300: ab16 2fbe 1255 9d3e 727e 22bd b429 6abd
00000310: ff2e 753e 4f1c 5ebe 3dc1 2abe c0e4 17bf
-0.45368016 -0.19452664 0.18296203 -0.6865744 -0.3084206 0.15642656 0.19530575 0.43554804
-0.1828383 -0.18796389 -0.42690533 -0.55085546 0.2824066 0.4109485 -0.4430905 -0.5702635
-0.55823964 -0.011382704 -0.049007554 0.13984814 -0.05159103 -0.47620612 -0.18006958 -0.68934906
0.07134148 -0.026215715 -0.4167756 -0.6249761 -0.16904241 -0.2702188 0.10330914 -0.52149403
0.0056372853 0.22796197 -0.353212 0.33964038 -0.35357088 0.43112606 0.2808228 0.112984784
0.14471471 0.29271922 -0.0021328367 0.19709975 -0.05921618 0.027412277 0.36685824 -0.3245677
0.07957055 0.24322739 0.23126364 0.50425124 0.021575117 0.061817694 0.3224901 -0.52014863
0.31928918 0.16283573 0.23183368 -0.15535454 -0.35069823 -0.14385617 0.29379714 0.5372257
0.3523103 -0.094522916 0.21814571 0.44953626 -0.37268856 -0.17651437 -0.28932816 -0.7624732
-0.17037545 -0.09683736 0.39271432 -0.6125927 -0.05926141 0.1253375 0.66462725 0.30810434
0.23284869 -0.25213975 -0.70888305 0.56104857 0.05512927 0.06761081 0.35204697 -0.5869974
0.19944523 -0.25235313 -0.37625793 -0.25495163 0.11413713 0.13851663 0.07129553 0.43623582
-0.28363433 -0.07007124 -0.5934855 -0.535358 -0.30915534 0.40386975 -0.51823294 0.24606697
0.4421571 -0.34494275 -0.30703285 0.18682417 -0.20282137 0.23357554 -0.03687749 -0.38449413
0.114182636 0.23023264 0.16057777 -0.78568566 0.25383076 0.20945975 0.43233955 0.13601306
0.20651536 0.16481014 0.20969194 0.528346 0.4538787 -0.22009769 -0.15872668 0.5241142
-0.053405236 0.30608475 -0.43795872 0.01777518 -0.24056067 -0.388541 0.01422909 0.38100326
0.029160826 -0.12036684 -0.6191201 -0.3108987 0.21444838 -0.2766244 -0.502118 0.3784457
-0.25892088 0.019938288 0.04755039 -0.22266723 -0.089630485 0.30539563 0.21323241 -0.59961325
-0.4851423 0.26174638 0.35394573 0.38117206 -0.3994102 0.3015836 -0.33923352 0.44152862
0.25770706 0.26718283 -0.3748256 -0.31550094 0.35707328 -0.10437658 -0.56851906 -0.49111986
0.2508698 0.36290365 0.026345283 0.11249548 -0.3512346 -0.41075993 0.3721545 0.35649747
0.52759665 -0.19951397 0.17833686 0.118905626 -0.3097386 0.20345633 -0.5285989 -0.07898458
0.3745331 0.4038905 -0.14634877 -0.09060018 -0.38888994 -0.33408862 -0.48507532 0.43148082
-0.17098491 0.30728966 -0.03967137 -0.057168677 0.23943709 -0.21690486 -0.16675277 -0.5933342

bias f4 [50]
00000000: d2c1 5e3d bca5 c63e 14e2 89bd 8be2 b33e
00000010: 9c4e 35be 9721 d03e da71 d6bd 6bfe 3c3e
00000020: 1838 babe 3cad 6dbd 4836 253f 433d aebe
00000030: 6432 67be e25a 4f3e 2e79 ed3e b2bb a6bd
00000040: d791 233f bb40 fbbd b0cf c83e 3552 5e3e
00000050: 9da8 0c3e 5059 5ebe e0ec 57bd a09e 183f
00000060: c11c 103f 98e8 82be c9b3 bc3d 503e 6bbe
00000070: 6791 8d3d 8ae4 d2be 8f11 9c3e ef71 a3be
00000080: d2eb 983e 8340 243f 5e6b 963e bc39 fcbe
00000090: 45cf 053e e4f1 cc3e 18b8 e6bd 0eed 42be
000000a0: f0c1 e43e 773a b8be 51d0 73be 8ed0 b2bd
000000b0: 6d90 9ebe 9c79 09be 6d81 8c3e 03b4 d43e
000000c0: 7312 2b3f 93a4 2c3e
0.05438406 0.3879832 -0.06732574 0.35133776 -0.17705768 0.40650627 -0.10470934 0.18456428
-0.3637092 -0.058026537 0.6453595 -0.34031114 -0.22577816 0.20249513 0.46381515 -0.08141269
0.6389441 -0.12268206 0.39220953 0.21711047 0.13736196 -0.21713758 -0.052716136 0.5961704
0.56293875 -0.2556808 0.09213979 -0.22972989 0.06912499 -0.41189986 0.30482146 -0.31922862
0.29867417 0.6416094 0.2937879 -0.49262798 0.13067348 0.40028298 -0.11265582 -0.19035742
0.44679213 -0.35982105 -0.23809935 -0.08731185 -0.30969563 -0.13425297 0.27442494 0.41543588
0.66825026 0.16859655

weight f4 [50]
00000000: 0000 803f 0000 803f 0000 803f 0000 803f
00000010: 0000 803f 0000 803f 0000 803f 0000 803f
00000020: 0000 803f 0000 803f 0000 803f 0000 803f
00000030: 0000 803f 0000 803f 0000 803f 0000 803f
00000040: 0000 803f 0000 803f 0000 803f 0000 803f
00000050: 0000 803f 0000 803f 0000 803f 0000 803f
00000060: 0000 803f 0000 803f 0000 803f 0000 803f
00000070: 0000 803f 0000 803f 0000 803f 0000 803f
00000080: 0000 803f 0000 803f 0000 803f 0000 803f
00000090: 0000 803f 0000 803f 0000 803f 0000 803f
000000a0: 0000 803f 0000 803f 0000 803f 0000 803f
000000b0: 0000 803f 0000 803f 0000 803f 0000 803f
000000c0: 0000 803f 0000 803f
1.0 1.0 1.0 1.0 1.0 1.0 1.0 1.0
1.0 1.0 1.0 1.0 1.0 1.0 1.0 1.0
1.0 1.0 1.0 1.0 1.0 1.0 1.0 1.0
1.0 1.0 1.0 1.0 1.0 1.0 1.0 1.0
1.0 1.0 1.0 1.0 1.0 1.0 1.0 1.0
1.0 1.0 1.0 1.0 1.0 1.0 1.0 1.0
1.0 1.0

bias f4 [50]
00000000: 0000 0000 0000 0000 0000 0000 0000 0000
00000010: 0000 0000 0000 0000 0000 0000 0000 0000
00000020: 0000 0000 0000 0000 0000 0000 0000 0000
00000030: 0000 0000 0000 0000 0000 0000 0000 0000
00000040: 0000 0000 0000 0000 0000 0000 0000 0000
00000050: 0000 0000 0000 0000 0000 0000 0000 0000
00000060: 0000 0000 0000 0000 0000 0000 0000 0000
00000070: 0000 0000 0000 0000 0000 0000 0000 0000
00000080: 0000 0000 0000 0000 0000 0000 0000 0000
00000090: 0000 0000 0000 0000 0000 0000 0000 0000
000000a0: 0000 0000 0000 0000 0000 0000 0000 0000
000000b0: 0000 0000 0000 0000 0000 0000 0000 0000
000000c0: 0000 0000 0000 0000
0.0 0.0 0.0 0.0 0.0 0.0 0.0 0.0
0.0 0.0 0.0 0.0 0.0 0.0 0.0 0.0
0.0 0.0 0.0 0.0 0.0 0.0 0.0 0.0
0.0 0.0 0.0 0.0 0.0 0.0 0.0 0.0
0.0 0.0 0.0 0.0 0.0 0.0 0.0 0.0
0.0 0.0 0.0 0.0 0.0 0.0 0.0 0.0
0.0 0.0

running_mean f4 [50]
00000000: 0000 0000 0000 0000 0000 0000 0000 0000
00000010: 0000 0000 0000 0000 0000 0000 0000 0000
00000020: 0000 0000 0000 0000 0000 0000 0000 0000
00000030: 0000 0000 0000 0000 0000 0000 0000 0000
00000040: 0000 0000 0000 0000 0000 0000 0000 0000
00000050: 0000 0000 0000 0000 0000 0000 0000 0000
00000060: 0000 0000 0000 0000 0000 0000 0000 0000
00000070: 0000 0000 0000 0000 0000 0000 0000 0000
00000080: 0000 0000 0000 0000 0000 0000 0000 0000
00000090: 0000 0000 0000 0000 0000 0000 0000 0000
000000a0: 0000 0000 0000 0000 0000 0000 0000 0000
000000b0: 0000 0000 0000 0000 0000 0000 0000 0000
000000c0: 0000 0000 0000 0000
0.0 0.0 0.0 0.0 0.0 0.0 0.0 0.0
0.0 0.0 0.0 0.0 0.0 0.0 0.0 0.0
0.0 0.0 0.0 0.0 0.0 0.0 0.0 0.0
0.0 0.0 0.0 0.0 0.0 0.0 0.0 0.0
0.0 0.0 0.0 0.0 0.0 0.0 0.0 0.0
0.0 0.0 0.0 0.0 0.0 0.0 0.0 0.0
0.0 0.0

running_var f4 [50]
00000000: 0000 803f 0000 803f 0000 803f 0000 803f
00000010: 0000 803f 0000 803f 0000 803f 0000 803f
00000020: 0000 803f 0000 803f 0000 803f 0000 803f
00000030: 0000 803f 0000 803f 0000 803f 0000 803f
00000040: 0000 803f 0000 803f 0000 803f 0000 803f
00000050: 0000 803f 0000 803f 0000 803f 0000 803f
00000060: 0000 803f 0000 803f 0000 803f 0000 803f
00000070: 0000 803f 0000 803f 0000 803f 0000 803f
00000080: 0000 803f 0000 803f 0000 803f 0000 803f
00000090: 0000 803f 0000 803f 0000 803f 0000 803f
000000a0: 0000 803f 0000 803f 0000 803f 0000 803f
000000b0: 0000 803f 0000 803f 0000 803f 0000 803f
000000c0: 0000 803f 0000 803f
1.0 1.0 1.0 1.0 1.0 1.0 1.0 1.0
1.0 1.0 1.0 1.0 1.0 1.0 1.0 1.0
1.0 1.0 1.0 1.0 1.0 1.0 1.0 1.0
1.0 1.0 1.0 1.0 1.0 1.0 1.0 1.0
1.0 1.0 1.0 1.0 1.0 1.0 1.0 1.0
1.0 1.0 1.0 1.0 1.0 1.0 1.0 1.0
1.0 1.0

weight f4 [20, 100]
00000000: f9f2 053e d037 12bc c7f0 4abd b270 5bbd
00000010: 8168 193e 7497 e73d df21 503e f95b 60be
00000020: ddba c63d 00a1 97be 17a6 863e a344 a93e
00000030: 5776 96bd 8a8a 0f3d 6115 1f3d 7d7f 2f3d
00000040: ff3d b1bd 62ee 023e 88e2 893d b467 713d
00000050: 296f e63b 8c1d 3d3f b1b3 253e dca6 483c
00000060: 4730 0cbc 8fc2 f63c f3dd 57bc 427f 20bd
00000070: 94fa fdbc af81 1d3e 51d3 dbbc c881 b63e
00000080: 2f2f ae3e 3e7e 68bd 03cb 4d3d 4df6 14bf
00000090: 3bab aebd d0ef a1bd 210c 4dbe 8deb e83d
000000a0: 6dc3 b6bd 3e47 53be ea23 cb3e 586a a03e
000000b0: 30cb 51bd f077 7abe 123f 69be f0bb 7abd
000000c0: a7c5 29bc f158 f93b 0621 a4bc 9679 f73c
000000d0: 9780 04bd 4152 cabc a6e3 ed3d d94c 42be
000000e0: 974d 453b d8c6 f4bd 86e4 183e 39c2 303c
000000f0: 6953 fe3c c8df 6dbe 7454 a13c bec6 32be
00000100: 5e76 54bc bb69 b0bd d748 0bbd fd1c 21be
00000110: 6490 70be 4b32 27be 5deb d33d 89a3 a5be
00000120: c2b6 403d 4742 91bd 532f abbd bf0f 1e3e
00000130: 308a a13c 35eb dabd 1b91 13be 7925 f63c
00000140: c09c 81bd f4e2 a43c 7c08 f7bc 91f1 94bd
00000150: ef7a 9fbd 878e 103e c2d9 3f3d bdfc 2dbe
00000160: d326 85bd 0810 833d b094 1b3d 43a6 c2bd
00000170: 2dc0 0a3e 35cd a0bd 68ca 7abc 8ecd 923d
00000180: 0e5b 463c 44ff b03d f024 623d 99cf f7bd
00000190: 305c 313d 98db a03d b829 073e 9c4d 0dbe
000001a0: 509d 42be 1892 eabd 7a74 a2bd bddd f13d
000001b0: 0e18 58bd ead7 143c caa3 303c ac5b f73e
000001c0: 1a27 ca3e 4fc4 b4bd fb9d f93d 04f0 64bb
000001d0: c7db a13d 69e6 eabe 6448 573b 4d31 91be
000001e0: 517f 7f3d 7f1a b43e 6735 b2bd 4321 f53d
000001f0: 7b29 cc3e 0af9 fc3e a1b1 b93e 8d17 d93d
00000200: cfdb 18be 096a 27be b897 5b3c 35b4 463c
00000210: f03a 973e c57e 8bbd 85c5 d2be 0376 ce3e
00000220: 8bed 743c 0a6d 583e e034 64be 7992 533c
00000230: 2a86 dfbd ea69 a63e 8fba 0e3d 7baa 57be
00000240: 2a3f 953d 827a f1bd 5ad7 21be bcee 8ebe
00000250: 3711 66be 839f 0f3d f476 da3c fd55 8abd
00000260: 1e85 533e a40e 563e 1364 f7bd 8f47 d23c
00000270: bdb9 373e ca03 a83b 47ae 0f3e 5ba6 65bc
00000280: b3f9 89bd 35db b0bc 3a2a a3be 4721 653a
00000290: 0801 bdbd 59d4 3abe 8584 17be 22be 2c3d
000002a0: b56c 9a3d 858a cdbe a894 2c3e 9115 0e3d
000002b0: e6c8 143e 3839 96bd 50dc 953e fa1b af3c
000002c0: 5a1c 4f3d 1e6e 0f3e efe5 cb3d 2f39 15be
000002d0: 4dd6 9abc 1a82 423e 621b 733e 7cdf 8fbd
000002e0: 6ebf 893e 1f0a ac3d f481 53bc e01c cf3d
000002f0: efe1 fabd a2dc 113e 484c 2e3e 1162 cebb
00000300: 3678 afbd 8756 55be 5138 60be 3110 af3d
00000310: 8274 8e3d 5df9 0b3e 9846 fe3b 6f83 293e
00000320: ace4 2b3e 989d 303e 1af4 9a3d d5c4 c93c
00000330: c7b2 063e 6acc f93d 0fb3 29bd e7c5 723d
00000340: 2472 033e 1733 a33d d31e 2b3b 03c7 8ebe
00000350: b3e4 8ebe 6a93 193e 889f 84be 1ff3 443e
00000360: 4905 c23d 15ce a3bd cd65 26bd 6036 8a3d
00000370: 8acd 9fbc 970a 8cbe eea7 413d e3ba 323e
00000380: 0ade 80bc bbd5 17bd a6cf ecbb 392d a23d
00000390: e9d0 2a3e 10a3 c53c b350 003e 16cd 963d
000003a0: c6f1 36be 5a2f dc3c 963e afbd cbfd f53e
000003b0: 99ba 073d 658a 2c3d 9537 89bb 1c67 0e3e
000003c0: 5ed7 a23d 8932 67be fd6d b1bd d0b4 be3d
000003d0: 58fa a03b 8da0 d83d 44e5 373e bb9c 86be
000003e0: 6844 cd3d 9779 a43d 8597 4b3d 17ce 973d
000003f0: 3ccc 63bd 0085 b43c a54b 193d 3888 86bd
0.13080968 -0.00892444 -0.04954603 -0.05357427 0.14981271 0.11308184 0.20325421 -0.21910085
0.0970361 -0.2961502 0.26298591 0.33060178 -0.0734679 0.03504423 0.038838748 0.04284619
-0.08654403 0.12786248 0.067326605 0.05893679 0.0070322943 0.7387321 0.16181828 0.012246814
-0.008556432 0.03012207 -0.013175475 -0.039183863 -0.031003274 0.15381502 -0.026834162 0.3564589
0.34020373 -0.05676102 0.050242435 -0.58188325 -0.08528753 -0.07907069 -0.20024158 0.11373053
-0.08923993 -0.20632645 0.39675838 0.31331134 -0.051219165 -0.24459815 -0.22777966 -0.061214387
-0.010362065 0.0076094796 -0.020035278 0.030209344 -0.032349195 -0.024697425 0.11615686 -0.18974628
0.0030106062 -0.11951989 0.14930925 0.010788494 0.031045632 -0.23229897 0.01969359 -0.17458627
-0.012967674 -0.086139165 -0.034005012 -0.15733714 -0.2349258 -0.16327779 0.10347626 -0.3235133
0.04704929 -0.070927195 -0.08358636 0.15435694 0.019719213 -0.106893934 -0.14410822 0.030047165
-0.06328726 0.020127751 -0.030155413 -0.07272638 -0.077871196 0.1411687 0.04683853 -0.16990943
-0.06501546 0.06399542 0.037983596 -0.09504368 0.13549872 -0.0785164 -0.0153070465 0.07168113
0.01210667 0.08642438 0.055211008 -0.12100143 0.043300807 0.07854384 0.13199508 -0.13799137
-0.19005322 -0.114536464 -0.079323724 0.11809871 -0.052757315 0.009084681 0.010781238 0.48312128
0.39482957 -0.088265054 0.121883355 -0.00349331 0.07903247 -0.45878914 0.0032849545 -0.28357926
0.062377278 0.35176465 -0.08701592 0.11969235 0.39875397 0.49408752 0.36268333 0.10600195
-0.149276 -0.16349043 0.013402872 0.012127926 0.29537153 -0.06811289 -0.4116632 0.4032441
0.014949213 0.21135345 -0.22285795 0.01291334 -0.10914262 0.3250268 0.034845885 -0.21061127
0.07287438 -0.11790945 -0.15804806 -0.27916515 -0.22467504 0.03506423 0.02666805 -0.06754682
0.20656249 0.20904022 -0.120796345 0.025668887 0.17941947 0.005127405 0.14031325 -0.014016713
-0.067370795 -0.021588901 -0.31868154 0.00087406154 -0.09228712 -0.18245067 -0.14796646 0.042173512
0.075402655 -0.40144745 0.16853583 0.034688536 0.14529762 -0.07335132 0.29269648 0.021375645
0.050564148 0.1400685 0.09955966 -0.14572595 -0.018901015 0.18994942 0.23740914 -0.07025048
0.26903862 0.08400368 -0.012909401 0.10112929 -0.12250125 0.14244321 0.17021286 -0.0062983115
-0.0856785 -0.20833789 -0.21896483 0.0854801 0.06955816 0.13669343 0.0077598803 0.16554044
0.1678645 0.17247617 0.0756609 0.02462999 0.13154136 0.12197192 -0.04143053 0.059270766
0.1283651 0.07968729 0.0026110902 -0.2788621 -0.2790886 0.1499764 -0.25902963 0.19233368
0.09473664 -0.079982914 -0.04062443 0.067486525 -0.019507188 -0.2735183 0.04727929 0.17454104
-0.015730876 -0.037069064 -0.007226902 0.07918782 0.16681255 0.024125606 0.12530784 0.07363336
-0.17865667 0.026878048 -0.08556859 0.4804519 0.033136938 0.04212417 -0.004187534 0.1390652
0.07951234 -0.22577871 -0.08663557 0.09311831 0.004912656 0.10577498 0.17958552 -0.2629145
0.10022813 0.08031004 0.049705047 0.074123554 -0.055614695 0.022036076 0.037425656 -0.065689504

bias f4 [20]
00000000: 3c41 b9bd 2217 e8bc 22e3 623e 9c54 8e3e
00000010: ea96 5ebd 783b 56be 375c 6c3e 4808 933b
00000020: 9f7d 713e 2273 72bd 8777 2b3e 04a4 23bb
00000030: 36e0 9a3d 535b b1bc 36d5 4a3e bdc0 d03d
00000040: 8db3 723e 5cab 8d3d 6878 21be 1b1d c33c
-0.090456456 -0.028331343 0.22156957 0.27798927 -0.05434314 -0.20921123 0.23082052 0.004487071
0.23583077 -0.05919183 0.16744815 -0.0024969587 0.07562296 -0.021649992 0.19807896 0.10193012
0.23701306 0.0691745 -0.15768588 0.02381759

weight f4 [20]
00000000: 0000 803f 0000 803f 0000 803f 0000 803f
00000010: 0000 803f 0000 803f 0000 803f 0000 803f
00000020: 0000 803f 0000 803f 0000 803f 0000 803f
00000030: 0000 803f 0000 803f 0000 803f 0000 803f
00000040: 0000 803f 0000 803f 0000 803f 0000 803f
1.0 1.0 1.0 1.0 1.0 1.0 1.0 1.0
1.0 1.0 1.0 1.0 1.0 1.0 1.0 1.0
1.0 1.0 1.0 1.0

bias f4 [20]
00000000: 0000 0000 0000 0000 0000 0000 0000 0000
00000010: 0000 0000 0000 0000 0000 0000 0000 0000
00000020: 0000 0000 0000 0000 0000 0000 0000 0000
00000030: 0000 0000 0000 0000 0000 0000 0000 0000
00000040: 0000 0000 0000 0000 0000 0000 0000 0000
0.0 0.0 0.0 0.0 0.0 0.0 0.0 0.0
0.0 0.0 0.0 0.0 0.0 0.0 0.0 0.0
0.0 0.0 0.0 0.0

running_mean f4 [20]
00000000: 0000 0000 0000 0000 0000 0000 0000 0000
00000010: 0000 0000 0000 0000 0000 0000 0000 0000
00000020: 0000 0000 0000 0000 0000 0000 0000 0000
00000030: 0000 0000 0000 0000 0000 0000 0000 0000
00000040: 0000 0000 0000 0000 0000 0000 0000 0000
0.0 0.0 0.0 0.0 0.0 0.0 0.0 0.0
0.0 0.0 0.0 0.0 0.0 0.0 0.0 0.0
0.0 0.0 0.0 0.0

running_var f4 [20]
00000000: 0000 803f 0000 803f 0000 803f 0000 803f
00000010: 0000 803f 0000 803f 0000 803f 0000 803f
00000020: 0000 803f 0000 803f 0000 803f 0000 803f
00000030: 0000 803f 0000 803f 0000 803f 0000 803f
00000040: 0000 803f 0000 803f 0000 803f 0000 803f
1.0 1.0 1.0 1.0 1.0 1.0 1.0 1.0
1.0 1.0 1.0 1.0 1.0 1.0 1.0 1.0
1.0 1.0 1.0 1.0

weight f4 [1, 20]
00000000: 991e eabe 8f41 8ebf 1969 833e d77f a23e
00000010: 625a 0bbf 04b4 1ebf 12df 963e 533a bbbf
00000020: 4b8f 2b3e 1421 c8bf f32f b43e 233a 71bf
00000030: 4f63 3c3e 771d cdbd 1687 5c3e 406c 443e
00000040: 2d24 e53d 7046 3cbe 2e2d 24bf 38d2 abbf
-0.4572647 -1.1113757 0.2566612 0.3173816 -0.5443479 -0.6199343 0.29467064 -1.4627174
0.1675388 -1.5635095 0.35192832 -0.94229335 0.18397258 -0.100153856 0.21535906 0.19181919
0.111885406 -0.18386245 -0.6413144 -1.3423529
