models_version2/2UAVs_75287/c_t1.pt (torch_old, 28013 bytes, 15 tensors)

weight f4 [50, 68]
000000 35 ab 48 bd a7 fd f1 bb 90 79 71 be 6d e0 a1 3e
       -0.0489914 -0.007384974 -0.23581529 0.31616536
000010 d8 1d ff 3d c4 44 77 bd 09 0b cd 3d 40 00 c7 3d
       0.12456864 -0.060368314 0.100118704 0.097168446
000020 f0 bf a1 ba 8b 97 fe 3d d0 fc 5b bd 67 cf 46 3c
       -0.0012340527 0.12431248 -0.053707898 0.0121344095
000030 9f c0 ef 3b a0 b9 b3 bc 24 30 44 3e 74 30 16 be
       0.0073166634 -0.021939099 0.19158989 -0.14666921
000040 4b 4c 45 3e 06 b9 8b bd 05 a6 9c bd 1a e6 54 3b
       0.19267385 -0.068224 -0.07648853 0.0032485784
000050 47 44 f1 bc d5 c4 4f bd ca 11 18 be d0 8f f4 3d
       -0.029451502 -0.050724823 -0.14850536 0.119414926
000060 fc 37 88 3d 2b 1e 2e 3e d4 c1 77 bc 1a 99 47 3d
       0.06651303 0.17003696 -0.015121896 0.048729993
000070 82 66 db 3d 0b 49 26 3c 51 91 84 bd 64 ec 34 3d
       0.10712911 0.010149251 -0.064730294 0.044170752
000080 35 f3 c4 3d 25 34 2a bd f3 f5 46 bd a3 eb 01 3e
       0.096167006 -0.041553635 -0.0485744 0.12687545
000090 a2 80 8a be ae c1 de 3e c2 fb 8e bd 29 a6 a9 3c
       -0.27051264 0.4350714 -0.06981613 0.020709114
0000a0 f7 f1 48 3e 78 70 e7 3d 66 f7 e5 3d 9e 2d 36 3d
       0.19623552 0.113007486 0.11228828 0.044477098
0000b0 3c 0c b3 bd f7 44 d8 bc 52 03 48 3b cd ff bd bd
       -0.08742568 -0.026400073 0.0030519557 -0.09277306
0000c0 43 07 4c 3e fe 8f 18 3d 63 a1 42 3e ef 26 bb 3c
       0.19924645 0.037246697 0.19006877 0.022845713
0000d0 d8 3d b7 3c 6c 8e 33 3d da f0 86 bd bb 01 1d 3d
       0.022368357 0.043836996 -0.065889075 0.03833173
0000e0 2d 50 d4 bc 6e e6 8c 3d 66 2a 84 bc 5c 0d 24 3e
       -0.025917137 0.068798885 -0.016133498 0.16020721
0000f0 b9 72 b1 bd ff 19 8d bc f1 12 df 3d 14 21 3e bd
       -0.0866446 -0.01722431 0.10892285 -0.046418265
000100 cb ec 3e 3b 75 31 9c bd 41 d6 af bd a7 f9 de bd
       0.0029132839 -0.07626621 -0.085857876 -0.10887461
000110 cf a6 eb 3d f9 4b bd 3d f8 2a a1 3d 33 03 e1 be
       0.115064256 0.09243006 0.07869524 -0.43947753
000120 9c e8 86 bd 73 42 f0 bd 48 36 12 3e 9a 11 28 3e
       -0.065873355 -0.11731424 0.14278519 0.16412964
000130 48 4c 65 bd 36 bc b5 3d 0e 72 f8 3b df af 44 3c
       -0.05598095 0.08873789 0.0075819558 0.012004822
000140 a1 48 3f bd 3f 79 45 3d 5f 89 98 3e b3 dd d9 bd
       -0.046700124 0.048211332 0.29792306 -0.10637989
000150 44 33 4b 3c 94 c6 c6 bb bc 48 da 3d 60 25 1e 3e
       0.012402359 -0.006066153 0.10658404 0.15443945
000160 dc 68 5a bd 23 53 53 bd 2b 00 f0 3c e7 f7 94 3c
       -0.053322658 -0.051592957 0.029296955 0.018184615
000170 13 d9 d2 3d c1 84 40 3e 63 19 05 bc 63 60 3b 3e
       0.1029531 0.18800642 -0.008123728 0.18298487
000180 dc 10 02 3e b8 f9 41 bd bd 49 03 be a6 88 ce 3d
       0.12701744 -0.04735729 -0.12821098 0.10084657
000190 d4 e7 7b bd 35 d6 42 bd 67 6a 0f 3d 7a 60 5a bd
       -0.061500385 -0.047567565 0.035013583 -0.053314663
0001a0 29 5a 6b 3d 06 a8 a8 be bf d9 13 3e c8 7e 7d bc
       0.05745903 -0.32940692 0.14438532 -0.015472122
0001b0 ec ee 00 3e 6f b4 36 bd 91 f8 72 3c 3e 5b 7e bd
       0.12591141 -0.04460567 0.014829771 -0.062098734
0001c0 2a d8 21 3e 3d 8f e4 3d 01 ef 8a 3d e3 9e a4 3d
       0.15805116 0.11160133 0.067838676 0.08038118
0001d0 d6 15 88 3e 16 94 35 be 7c e2 df 3d e3 e4 19 be
       0.2657916 -0.17732272 0.1093187 -0.1502872
0001e0 2a 2e 5a 3d b0 70 0e 3d 43 a7 9d 3d bd 00 c5 3d
       0.05326668 0.034775436 0.07697918 0.096192814
0001f0 79 23 85 3d e3 51 86 3d 18 29 b6 3d 81 56 83 3d
       0.065009065 0.065585874 0.08894557 0.06412984
000200 e4 4b 65 bd e4 79 2d 3d 6d 63 2e 3e cc 59 20 3e
       -0.055980578 0.042352572 0.17030115 0.15659255
000210 58 1b 56 be 70 62 e6 3c 9b 68 2b 3e e0 17 78 bd
       -0.20908868 0.02812311 0.16739123 -0.060569644
000220 f0 84 2d 3c 99 f4 1b 3b 2a 7f ab be 50 24 1b 3d
       0.010590777 0.0023796915 -0.33495456 0.037876427
000230 1b 10 8a bd 56 71 94 3d 5e 4a fb 3c f9 18 cb 3d
       -0.06741353 0.072481796 0.03067511 0.099168725
000240 66 f6 c8 3d 83 86 d2 3c 54 49 35 bb da 7f a9 3d
       0.09812622 0.025698906 -0.0027662115 0.08276339
000250 3a f8 24 bc 92 39 b3 3d c3 4e bf 3d 09 c2 fc 3d
       -0.010068947 0.08751215 0.093411945 0.12341697
000260 33 d4 00 3e 71 cc d2 bd c8 78 d3 3d 49 18 79 3d
       0.12580948 -0.102929 0.103257716 0.060814176
000270 ca ba 98 3d 0c 0c b5 bd 3f 1a af 3d 60 b8 18 bd
       0.07457502 -0.088401884 0.08549928 -0.03728521
000280 8f e0 a0 3d c5 2f 69 3d 27 5f a3 3d 94 93 75 bd
       0.07855331 0.056930322 0.07977133 -0.059955195
000290 86 8d d2 bd a2 a6 1c bd 3a e9 cf 3d 91 c0 c8 3d
       -0.102809 -0.03824485 0.10151906 0.09802354
0002a0 e0 e2 d6 3c 3e f7 96 3c 11 e4 12 3e 6b 27 fe 3d
       0.02623123 0.018428441 0.14344813 0.12409862
0002b0 e8 d6 78 be 50 f5 e7 bb dc 85 9f 3d 33 71 8b bd
       -0.2430073 -0.007078804 0.077892035 -0.068087004
0002c0 3c 7f 52 3e 56 5d d3 3c ec e6 32 bd b0 75 0a 3d
       0.20556349 0.025801342 -0.043677256 0.03380364
0002d0 7e 21 4e 3c c2 1e 8f 3d d2 80 8a bd b2 89 80 3d
       0.012581227 0.069882885 -0.06762852 0.06276263
0002e0 9d 90 28 3e a1 e8 3c bd ec 0f c6 3d 3f 15 8d bd
       0.16461416 -0.04612029 0.096710056 -0.06888818
0002f0 ba b9 5b bd 4c 45 35 3d fc 16 a2 3d 2c 63 11 3c
       -0.05364392 0.04425554 0.0791454 0.008873742
000300 2b f3 e8 3d b8 1a 87 3d 3c ab ce 3c 13 67 c0 bc
       0.113745056 0.06596893 0.025228135 -0.02348665
000310 d3 53 9d 3d 97 ef 80 3d 0c 1c b5 3d 8f bc e1 3d
       0.07682004 0.06295698 0.0884324 0.11022293
000320 09 de 93 3d da 55 99 3d bc 3f 8c bd af 13 aa bd
       0.07220084 0.07487078 -0.06848094 -0.083045356
000330 0a f8 80 bc 35 77 ae 3d 63 7c 1c 3f d2 93 a5 bd
       -0.015743274 0.08518831 0.611273 -0.08084835
000340 dc d6 f5 3c 6e 80 65 3c 88 6b ec 3c 56 3f 1b 3e
       0.03000968 0.014007671 0.028859869 0.1516088
000350 f6 c6 49 bb 0b ff 0a be 74 70 da 3b 40 4a 1d be
       -0.0030788756 -0.13573854 0.0066662375 -0.15360355
000360 e8 a1 7c bd 37 52 b2 bc 21 3c ff bb c0 99 f7 3d
       -0.061677843 -0.021767719 -0.0077891503 0.12089872
000370 50 92 98 bd c8 b4 af bd 53 8f ad bb a4 1f e8 3c
       -0.07449782 -0.08579403 -0.0052966266 0.0283354
000380 5e 7d 67 bc 6d 96 74 3c ed 39 b5 3d f7 d8 42 bd
       -0.014129011 0.014928442 0.08848939 -0.047570195
000390 0d f8 5c bd 84 bf 8a 3d 1e 3b 76 3d 9e 70 bf bd
       -0.053947497 0.0677481 0.060114972 -0.09347652
0003a0 5c 28 71 bd 9a e5 29 be 6f 16 13 be 8d 0e bc bd
       -0.05887638 -0.16591492 -0.14364026 -0.09182463
0003b0 81 c3 44 bd 3e b0 17 bd 4b 0b ec bc 50 36 1a 3d
       -0.04803801 -0.037033312 -0.028813979 0.037649453
0003c0 09 cd 31 3f 09 c2 f3 bc 9d 34 f1 3d ec f7 b7 bc
       0.69453484 -0.02975561 0.11777613 -0.022457086
0003d0 49 56 23 bd c1 59 44 3d c7 71 d7 bd b7 95 09 be
       -0.03987721 0.04793716 -0.10519748 -0.13436018
0003e0 01 f1 2e be 2d 60 25 be ac 16 ec 3c ba 0c 98 3d
       -0.17084123 -0.1614997 0.028819405 0.074243024
0003f0 28 a9 20 3d 5c 92 c7 b9 e0 94 6b 3d d3 20 6b bd
       0.03922382 -0.00038065284 0.057515025 -0.05740435

bias f4 [50]
000000 58 c0 89 3e 34 53 96 3e 29 1a 27 3e ab 07 62 bc
       0.2690456 0.29360354 0.16318573 -0.0137957735
000010 05 97 67 3d 5c f5 77 3d ca 83 76 bd 7c b8 6a 3e
       0.056540508 0.060536727 -0.060184278 0.22921938
000020 c9 f4 95 3e 3d 3f 01 3e 03 7a 88 3d 67 a1 d3 bd
       0.2928832 0.1262178 0.06663897 -0.103335194
000030 4f ac bf bc 39 c7 40 3e d0 7b d5 bd e0 ef 4f 3e
       -0.023397593 0.18825997 -0.10424006 0.20306349
000040 9c 8c 95 bd 92 0d 42 be 2e 7e 79 be 32 ed 44 3e
       -0.0730221 -0.18950489 -0.2436454 0.19231108
000050 47 8a 1c 3e 11 ed b6 bd 04 fd e4 3d df b1 f9 3d
       0.15287124 -0.089319356 0.111810714 0.12192129
000060 4d 53 73 3e 5a 1c 38 3e 3b 26 60 3e 95 ca 0a bd
       0.23762245 0.17979565 0.21889584 -0.033884604
000070 1d d4 87 3d b0 27 34 3e 5f 5b 6b 3e 2d 61 37 bb
       0.06632254 0.17593265 0.22984074 -0.0027981505
000080 86 9d b4 bd 88 68 3d 3e 68 13 4d be 0d 6e 07 3e
       -0.08819108 0.18496907 -0.20026934 0.13225575
000090 4f 71 04 bd 4e 1c 0c 3d 7c 94 4c 3e 29 69 10 3e
       -0.032334622 0.03420668 0.19978517 0.14102615
0000a0 46 5d 89 3e a3 a2 c0 3d 0a 64 bf bd 63 c4 08 3e
       0.26828974 0.094060205 -0.09345253 0.13356166
0000b0 e5 7f ea bd 1c 65 e4 3d 2e ca 00 3e b1 1c f1 bd
       -0.11450175 0.111520976 0.12577125 -0.117730506
0000c0 4f 44 f5 3d 57 3b 08 3e
       0.119759195 0.13303886

weight f4 [50, 4]
000000 02 eb d8 be 71 8a 4c be 99 a4 3d 3e d1 ec 26 bf
       -0.42366797 -0.19974686 0.1851982 -0.65205103
000010 2b f3 b0 be 25 fe 10 3e 22 5c 85 3e 3a 61 cf 3e
       -0.34560522 0.14159448 0.26046854 0.40503865
000020 39 ef 4d be db db ff bd ef c8 04 bf 8b 91 fd be
       -0.20110787 -0.12493106 -0.518691 -0.49525103
000030 dc 65 a9 3e 23 d1 c5 3e f0 ff e3 be 58 8c 15 bf
       0.33085525 0.3863612 -0.44531202 -0.5841727
000040 8f 8e 0d bf 06 2e 86 bc e9 bc 4d bd bb 87 0c 3e
       -0.5529565 -0.016379368 -0.050228987 0.13723652
000050 c3 48 84 bc 70 d5 00 bf b7 f9 1a be 53 4d 2c bf
       -0.016147977 -0.5032568 -0.15134321 -0.6730549
000060 4b 55 bf 3d 19 9c b3 bc 02 d4 ce be 8c 8f 21 bf
       0.0934244 -0.02192502 -0.40396124 -0.6310966
000070 96 5e 23 be d7 6e 93 be 33 2d d6 3d 62 9f f2 be
       -0.1595405 -0.28795502 0.1045784 -0.47387224
000080 2f ce 0f 3e 53 03 9b 3e 16 13 be be 0a 9c 7f 3e
       0.14043497 0.30275974 -0.37123936 0.24961868
000090 b9 93 a8 be 0d 3e eb 3e 2d 06 9f 3e f3 32 84 3d
       -0.32925203 0.45945778 0.310594 0.0645503
0000a0 70 84 11 3e 18 fc 98 3e c3 03 ad 3b 8c e1 4d 3e
       0.14210677 0.29879832 0.0052799894 0.2010557
0000b0 f3 23 71 bc 13 d5 22 3d 65 6b c7 3e df 73 a3 be
       -0.014718044 0.039753985 0.38949123 -0.3192434
0000c0 9e b1 91 3d 35 b9 28 3e 0b 63 5a 3e 22 cf 0c 3f
       0.07113956 0.16476901 0.21326844 0.5500356
0000d0 b0 f7 0e 3d bc 9b 95 3d bc 11 ac 3e 7f 8b 02 bf
       0.034904182 0.073050946 0.3360728 -0.50994104
0000e0 0a 09 9d 3e 11 23 2a 3e 35 af 61 3e 27 3b 0d be
       0.3067096 0.1661494 0.22039492 -0.13792096
0000f0 6f 22 8f be 4f 91 3f bd af 0f 49 3e 06 26 09 3f
       -0.27955958 -0.046769436 0.19634889 0.53573644
000100 eb ae af 3e 85 67 9f bd 88 e2 7a 3e 68 6e df 3e
       0.3431314 -0.07783417 0.24500477 0.4363892
000110 c2 f1 da be 86 95 5b be ae 73 b7 be bc d8 28 bf
       -0.42762572 -0.21443757 -0.35830444 -0.6595571
000120 b7 77 07 be af 16 a9 bd 4d e9 cc 3e 58 2d 1b bf
       -0.13229261 -0.0825628 0.40021744 -0.60616064
000130 f8 28 fa bd 77 28 34 3e 75 48 25 3f 9d 59 97 3e
       -0.122148454 0.17593561 0.64563686 0.29560557
000140 55 65 85 3e 4d 50 70 be 79 43 30 bf 7b ce 0a 3f
       0.26053873 -0.23468132 -0.68852955 0.54221314
000150 d1 81 c9 3d 61 4b c8 3d 1d 4f b8 3e 9d 97 18 bf
       0.09839214 0.097800024 0.3599786 -0.59606344
000160 66 5f 1b 3e 3b f3 5d be fe 8d eb be 99 fa 8a be
       0.1517311 -0.21674816 -0.4600677 -0.27144316
000170 45 6f 12 3e 89 0d 3a 3e 23 61 98 3d e5 c3 e9 3e
       0.14300258 0.18169226 0.07440402 0.45657268
000180 59 31 8f be a6 fc 81 bd 1e 18 1a bf 9f 1b 07 bf
       -0.27967337 -0.06347017 -0.6019305 -0.5277652
000190 48 f3 96 be cc 49 e2 3e 3b 79 1c bf af f5 8e 3e
       -0.29482484 0.44196928 -0.61122483 0.27921817
0001a0 08 2e ef 3e b7 a5 a1 be ec 50 9f be af f8 16 3e
       0.46714807 -0.31571743 -0.31116426 0.14743303
0001b0 cf 55 27 be 14 12 85 3e 4f 6f 10 bd 00 ff b1 be
       -0.16341327 0.25990355 -0.035262402 -0.34764862
0001c0 67 26 32 3e d0 0c 89 3e 8b a5 2b 3e 9d a4 40 bf
       0.17397462 0.26767588 0.16762368 -0.7525118
0001d0 a0 f2 8d 3e 9c e1 72 3e bf a7 e1 3e d9 7f ec 3d
       0.2772417 0.23718876 0.44073293 0.115478225
0001e0 25 7c 42 3e ab bf 1f 3e f3 e6 55 3e 2e b8 07 3f
       0.1899267 0.1560046 0.20888881 0.5301541
0001f0 bd 82 e3 3e 40 e8 15 be ca e9 3f be f4 bc 06 3f
       0.44435683 -0.14639378 -0.18741527 0.5263207
000200 a2 50 90 bd e5 78 95 3e d0 1c fb be 8b 84 05 3d
       -0.070466295 0.29193798 -0.4904542 0.032597106
000210 f6 3e 90 be d2 ee c5 be e8 50 d5 3c 6b 51 c4 3e
       -0.28173035 -0.38658768 0.026039556 0.38343367
000220 7f 0b f5 3b 52 e0 8b bd bc 4a 2c bf 41 d4 a4 be
       0.007478177 -0.06829895 -0.67301536 -0.32193187
000230 72 0f 4f 3e 0d d1 83 be 8e c2 0f bf 65 b3 cc 3e
       0.20220736 -0.2574543 -0.5615624 0.39980617
000240 a4 75 87 be f7 63 a8 3c 26 d6 8d bb 16 00 23 be
       -0.2645694 0.02055548 -0.004328507 -0.15918002
000250 54 62 74 bd 7b c1 ac 3e bc d1 4e 3e d6 16 16 bf
       -0.059664086 0.33741364 0.20197195 -0.58628595
000260 30 62 dc be 86 87 b9 3e 4b 45 b3 3e 30 db a3 3e
       -0.4304366 0.3623621 0.35013804 0.32003164
000270 8d a0 c0 be 0c dd 8e 3e 1e dd b5 be 03 07 ec 3e
       -0.3762249 0.2790302 -0.35520262 0.460991
000280 6f 80 9c 3e d4 8e 96 3e fd c8 bb be 9e d9 a8 be
       0.30566737 0.29405844 -0.3667678 -0.3297853
000290 2c b5 bb 3e 01 46 5d be d2 ad c0 be d8 29 02 bf
       0.3666166 -0.21608736 -0.37632614 -0.508451
0002a0 9a 79 6e 3e ab 9d b6 3e 7d 94 1d 3d ca 77 0c 3e
       0.23288575 0.35667166 0.038471688 0.13717571
0002b0 e2 a2 b3 be d8 d2 cd be 2b e9 9d 3e a0 46 a1 3e
       -0.35085207 -0.40199924 0.30841956 0.31499195
0002c0 a8 d4 11 3f 81 30 39 be ee 10 31 3e 4f d0 a5 3d
       0.5696511 -0.18084909 0.17291614 0.08096372
0002d0 f0 51 9d be d0 51 7e 3e 58 7d 15 bf e6 9a b7 bd
       -0.30726576 0.24835896 -0.58394384 -0.089650914
0002e0 5e e0 c9 3e d2 19 d9 3e 9d a9 3b be 4c 27 b2 bd
       0.3942899 0.42402512 -0.18326421 -0.086989015
0002f0 72 27 d1 be da 82 c0 be a6 ac f3 be 94 59 ce 3e
       -0.40850407 -0.37599832 -0.47592658 0.40302718
000300 b1 8f 3b be ad b9 9a 3e d7 28 2a bd b1 28 47 bd
       -0.18316533 0.30219784 -0.041542854 -0.04862279
000310 e7 9c 88 3e 09 e5 5a be 32 c3 34 be 01 02 14 bf
       0.26682207 -0.21376432 -0.17652586 -0.5781556

bias f4 [50]
000000 64 e1 3f 3d 6c d8 bc 3e 8d 88 06 be 06 23 b8 3e
       0.04684581 0.36883867 -0.13138027 0.3596422
000010 96 8f 3f be 14 79 cc 3e b6 28 f4 bd 9b 96 58 3e
       -0.18707117 0.39936125 -0.119218275 0.21151201
000020 c7 0f b3 be f8 64 08 bd a9 c8 24 3f ab 71 aa be
       -0.34972975 -0.033299416 0.64368683 -0.33289847
000030 91 df 77 be 92 db 59 3e 4f f3 f9 3e a3 bb 1e be
       -0.24206378 0.21275166 0.48818442 -0.15501265
000040 5b 5c 23 3f eb 3f 13 be 12 71 cc 3e 30 1e 54 3e
       0.638128 -0.14379852 0.39930016 0.2071464
000050 48 d2 3c 3e 17 7b 4f be d3 10 80 bd 16 04 11 3f
       0.18439591 -0.20261799 -0.06253209 0.5664686
000060 69 1e 0f 3f 2d ad 77 be 54 c0 14 3e d2 15 88 be
       0.5590578 -0.24187155 0.14526492 -0.26579148
000070 f0 ef 71 3d 9a 40 c7 be 9c a5 96 3e 94 87 ad be
       0.059066713 -0.38916475 0.29423225 -0.338925
000080 de 61 8c 3e 8f d5 22 3f 22 fc 98 3e b4 60 f2 be
       0.27418417 0.63607115 0.29879862 -0.47339404
000090 0e 9c 0a 3e 0e 00 d6 3e 42 d9 d5 bd ee 57 3c be
       0.13536093 0.41796917 -0.10441829 -0.18392918
0000a0 2e 11 d8 3e 55 08 b0 be dd 34 82 be b6 37 b2 bd
       0.42200607 -0.34381357 -0.25430956 -0.08702032
0000b0 9a a3 91 be 03 07 0e be 7c 34 8c 3e 46 62 e0 3e
       -0.2844513 -0.13869862 0.27383792 0.43824977
0000c0 40 99 2b 3f 85 d0 3f 3e
       0.67030716 0.18731888

weight f4 [50]
000000 00 00 80 3f 00 00 80 3f 00 00 80 3f 00 00 80 3f
       1.0 1.0 1.0 1.0
000010 00 00 80 3f 00 00 80 3f 00 00 80 3f 00 00 80 3f
       1.0 1.0 1.0 1.0
000020 00 00 80 3f 00 00 80 3f 00 00 80 3f 00 00 80 3f
       1.0 1.0 1.0 1.0
000030 00 00 80 3f 00 00 80 3f 00 00 80 3f 00 00 80 3f
       1.0 1.0 1.0 1.0
000040 00 00 80 3f 00 00 80 3f 00 00 80 3f 00 00 80 3f
       1.0 1.0 1.0 1.0
000050 00 00 80 3f 00 00 80 3f 00 00 80 3f 00 00 80 3f
       1.0 1.0 1.0 1.0
000060 00 00 80 3f 00 00 80 3f 00 00 80 3f 00 00 80 3f
       1.0 1.0 1.0 1.0
000070 00 00 80 3f 00 00 80 3f 00 00 80 3f 00 00 80 3f
       1.0 1.0 1.0 1.0
000080 00 00 80 3f 00 00 80 3f 00 00 80 3f 00 00 80 3f
       1.0 1.0 1.0 1.0
000090 00 00 80 3f 00 00 80 3f 00 00 80 3f 00 00 80 3f
       1.0 1.0 1.0 1.0
0000a0 00 00 80 3f 00 00 80 3f 00 00 80 3f 00 00 80 3f
       1.0 1.0 1.0 1.0
0000b0 00 00 80 3f 00 00 80 3f 00 00 80 3f 00 00 80 3f
       1.0 1.0 1.0 1.0
0000c0 00 00 80 3f 00 00 80 3f
       1.0 1.0

bias f4 [50]
000000 00 00 00 00 00 00 00 00 00 00 00 00 00 00 00 00
       0.0 0.0 0.0 0.0
000010 00 00 00 00 00 00 00 00 00 00 00 00 00 00 00 00
       0.0 0.0 0.0 0.0
000020 00 00 00 00 00 00 00 00 00 00 00 00 00 00 00 00
       0.0 0.0 0.0 0.0
000030 00 00 00 00 00 00 00 00 00 00 00 00 00 00 00 00
       0.0 0.0 0.0 0.0
000040 00 00 00 00 00 00 00 00 00 00 00 00 00 00 00 00
       0.0 0.0 0.0 0.0
000050 00 00 00 00 00 00 00 00 00 00 00 00 00 00 00 00
       0.0 0.0 0.0 0.0
000060 00 00 00 00 00 00 00 00 00 00 00 00 00 00 00 00
       0.0 0.0 0.0 0.0
000070 00 00 00 00 00 00 00 00 00 00 00 00 00 00 00 00
       0.0 0.0 0.0 0.0
000080 00 00 00 00 00 00 00 00 00 00 00 00 00 00 00 00
       0.0 0.0 0.0 0.0
000090 00 00 00 00 00 00 00 00 00 00 00 00 00 00 00 00
       0.0 0.0 0.0 0.0
0000a0 00 00 00 00 00 00 00 00 00 00 00 00 00 00 00 00
       0.0 0.0 0.0 0.0
0000b0 00 00 00 00 00 00 00 00 00 00 00 00 00 00 00 00
       0.0 0.0 0.0 0.0
0000c0 00 00 00 00 00 00 00 00
       0.0 0.0

running_mean f4 [50]
000000 00 00 00 00 00 00 00 00 00 00 00 00 00 00 00 00
       0.0 0.0 0.0 0.0
000010 00 00 00 00 00 00 00 00 00 00 00 00 00 00 00 00
       0.0 0.0 0.0 0.0
000020 00 00 00 00 00 00 00 00 00 00 00 00 00 00 00 00
       0.0 0.0 0.0 0.0
000030 00 00 00 00 00 00 00 00 00 00 00 00 00 00 00 00
       0.0 0.0 0.0 0.0
000040 00 00 00 00 00 00 00 00 00 00 00 00 00 00 00 00
       0.0 0.0 0.0 0.0
000050 00 00 00 00 00 00 00 00 00 00 00 00 00 00 00 00
       0.0 0.0 0.0 0.0
000060 00 00 00 00 00 00 00 00 00 00 00 00 00 00 00 00
       0.0 0.0 0.0 0.0
000070 00 00 00 00 00 00 00 00 00 00 00 00 00 00 00 00
       0.0 0.0 0.0 0.0
000080 00 00 00 00 00 00 00 00 00 00 00 00 00 00 00 00
       0.0 0.0 0.0 0.0
000090 00 00 00 00 00 00 00 00 00 00 00 00 00 00 00 00
       0.0 0.0 0.0 0.0
0000a0 00 00 00 00 00 00 00 00 00 00 00 00 00 00 00 00
       0.0 0.0 0.0 0.0
0000b0 00 00 00 00 00 00 00 00 00 00 00 00 00 00 00 00
       0.0 0.0 0.0 0.0
0000c0 00 00 00 00 00 00 00 00
       0.0 0.0

running_var f4 [50]
000000 00 00 80 3f 00 00 80 3f 00 00 80 3f 00 00 80 3f
       1.0 1.0 1.0 1.0
000010 00 00 80 3f 00 00 80 3f 00 00 80 3f 00 00 80 3f
       1.0 1.0 1.0 1.0
000020 00 00 80 3f 00 00 80 3f 00 00 80 3f 00 00 80 3f
       1.0 1.0 1.0 1.0
000030 00 00 80 3f 00 00 80 3f 00 00 80 3f 00 00 80 3f
       1.0 1.0 1.0 1.0
000040 00 00 80 3f 00 00 80 3f 00 00 80 3f 00 00 80 3f
       1.0 1.0 1.0 1.0
000050 00 00 80 3f 00 00 80 3f 00 00 80 3f 00 00 80 3f
       1.0 1.0 1.0 1.0
000060 00 00 80 3f 00 00 80 3f 00 00 80 3f 00 00 80 3f
       1.0 1.0 1.0 1.0
000070 00 00 80 3f 00 00 80 3f 00 00 80 3f 00 00 80 3f
       1.0 1.0 1.0 1.0
000080 00 00 80 3f 00 00 80 3f 00 00 80 3f 00 00 80 3f
       1.0 1.0 1.0 1.0
000090 00 00 80 3f 00 00 80 3f 00 00 80 3f 00 00 80 3f
       1.0 1.0 1.0 1.0
0000a0 00 00 80 3f 00 00 80 3f 00 00 80 3f 00 00 80 3f
       1.0 1.0 1.0 1.0
0000b0 00 00 80 3f 00 00 80 3f 00 00 80 3f 00 00 80 3f
       1.0 1.0 1.0 1.0
0000c0 00 00 80 3f 00 00 80 3f
       1.0 1.0

weight f4 [20, 100]
000000 c1 b8 16 3e f2 21 47 bc 12 ac 2c bc 24 70 5b bd
       0.14718916 -0.012154089 -0.010539072 -0.053573743
000010 84 68 10 3e 0a 4a fa 3d b5 7e a4 3e 18 b5 63 be
       0.1410237 0.12221153 0.3212792 -0.2223705
000020 3c 25 b8 3d 27 5a 8a be 7d 2d 84 3e 9a b9 3a 3e
       0.08991477 -0.27021906 0.25815955 0.18234864
000030 0d a4 73 bb 72 75 c9 3c 9f 15 1f 3d 7e a2 03 3d
       -0.003717664 0.024592135 0.03883898 0.032137387
000040 ae 3d b1 bd 1e 7c ee 3d 6e 1e 8a 3d b8 be 47 3d
       -0.086543426 0.11644767 0.06744085 0.048765868
000050 9a b0 67 3b f1 d1 17 3f f2 d7 38 3e 20 13 02 3d
       0.0035353065 0.5930472 0.18051127 0.03175652
000060 ce a3 28 3c 36 e5 77 3d 9e 7c 1a bd f3 0a 9d bd
       0.01029296 0.060521327 -0.0377165 -0.07668104
000070 26 37 bd bc ae 67 f6 3d d5 12 51 bb 13 8f a6 3e
       -0.023097586 0.12031494 -0.0031902094 0.32531032
000080 cf a1 da 3e ae 22 33 bd 3d c8 92 3d c9 65 d1 bd
       0.42701575 -0.043734245 0.07167099 -0.10224492
000090 78 ab ae bd 0f 61 81 3d b0 ce 26 be b2 36 ee 3d
       -0.08528799 0.063173406 -0.16289783 0.11631526
0000a0 29 4b 92 bd 98 6b 77 be 11 a7 b9 3e 4a 1b 9c 3e
       -0.07143242 -0.24162138 0.36260274 0.3048957
0000b0 e4 ca 51 bd c1 10 71 be 64 d0 5e be fe b7 f3 bd
       -0.051218882 -0.23541547 -0.21759182 -0.11900328
0000c0 a4 ee b9 bb 15 cb 1f 3c 29 c3 d6 bd a0 31 41 3d
       -0.0056742 0.009753008 -0.104864426 0.047166467
0000d0 96 d4 50 3b 2d 5e 36 bd d0 12 06 3e e8 26 44 be
       0.0031864992 -0.044523407 0.13093114 -0.19155467
0000e0 e5 ed e8 3c fe 8e 2f be 2b e2 12 3e dc b2 14 bd
       0.02843375 -0.17144391 0.14344089 -0.036303386
0000f0 b1 c9 1f 3d 5a f8 b4 be 25 d1 62 3e 8b ad 5d be
       0.039010707 -0.35345727 0.22150095 -0.21648233
000100 92 92 16 bd 92 7d 9e bd 44 7a 94 bc f5 2a 74 bd
       -0.036760874 -0.077387944 -0.018124707 -0.05961128
000110 11 82 89 be 89 62 3c be 5a 96 fc 3d 7b b0 c8 be
       -0.26857045 -0.18396963 0.12333365 -0.39197144
000120 20 64 a7 3d d1 62 4e bd 5e f7 7e bd 00 0a 43 3e
       0.08173394 -0.050387207 -0.062247626 0.19046783
000130 0f a2 4b 3d 72 6a 5b be c9 99 3f be d5 6c 37 bd
       0.049715098 -0.21427324 -0.18711008 -0.044781525
000140 37 fd 17 bd 4b 6d 34 3d d9 e9 90 3c cd 0a 80 bd
       -0.03710672 0.044049542 0.017689632 -0.0625206
000150 7d 83 89 bd c3 e0 2b 3e e9 69 fe 3c 79 f1 57 be
       -0.067145325 0.16784959 0.031056361 -0.21088208
000160 0b 1a 15 bc dc 1f 9f 3d 7e c4 07 3d 54 53 b6 bd
       -0.009100447 0.077697486 0.033146374 -0.08902612
000170 a3 c8 04 3e 42 27 9d bd 78 68 02 bc 28 89 c7 3d
       0.12967162 -0.076735035 -0.007959478 0.09742957
000180 ee 75 07 bc 0d df c2 3d 86 ad 6d 3d 4d 84 07 be
       -0.008267863 0.095152 0.058026813 -0.13234062
000190 d3 3b 55 3d 0c 9d 78 3d 7e 4c 05 3e 47 4d 0d be
       0.052059006 0.060696647 0.1301746 -0.1379901
0001a0 9a c3 30 be 2e f3 dd bd 28 da 09 bd 74 09 fb 3d
       -0.17262116 -0.108373985 -0.033655316 0.122576624
0001b0 b5 40 41 bd d4 22 19 bd ce ad 49 3d d3 3f bd 3e
       -0.04718085 -0.03738673 0.04923802 0.36962757
0001c0 d8 58 b3 3e 95 f0 8c bd 35 9e f9 3d 52 da cf 3a
       0.3502872 -0.06881825 0.12188379 0.0015857911
0001d0 2c dc a1 3d 1b e5 cb be bf 48 57 3b 94 2e 8d be
       0.079033226 -0.3982323 0.0032849757 -0.275746
0001e0 79 08 4e 3d 3a ff a0 3e 3e b5 5c bd bd 64 e5 3d
       0.05030105 0.31444722 -0.053883784 0.11200855
0001f0 b6 fd c3 3e d9 e8 eb 3e 48 5f a7 3e 79 c8 35 3d
       0.38279504 0.46076086 0.3268988 0.04438064
000200 7e b8 0d be e8 76 29 be 33 7b 97 3c 0e cd d3 3c
       -0.1383991 -0.16549265 0.018491363 0.025854614
000210 aa 7d 91 3e b8 04 8f bd 81 d8 d6 be 20 61 0a 3e
       0.28416187 -0.06983322 -0.41962054 0.13513613
000220 6e ed 74 3c 63 1a 82 3e f1 3b 57 be 20 b5 b2 3c
       0.014949186 0.25410756 -0.2101896 0.021814883
000230 d9 83 dc bd ea e6 87 3e bb 8d 6a 3d fd 1b 38 be
       -0.107673354 0.2654336 0.05726407 -0.17979427
000240 43 3f 95 3d a2 88 0f be 68 07 25 be 27 e0 e3 bd
       0.07287457 -0.14016965 -0.16116107 -0.11126738
000250 08 3c 5b be 92 a1 06 3d a6 f6 d7 3d 89 45 bf bd
       -0.21409619 0.03286893 0.10545091 -0.09339435
000260 b5 55 8a 3e 42 2e 72 3e 4b e8 b8 bd 5e e7 99 3d
       0.27018514 0.23650458 -0.09028681 0.07514833
000270 a8 be 89 3e 0c 41 af 3d d0 f2 4a 3e 82 da 84 bd
       0.26903272 0.085573286 0.19819188 -0.064869896
000280 33 ce ad bd 2a 90 42 3c 99 73 a8 bd 36 92 89 3c
       -0.08486595 0.011875192 -0.082251735 0.016793352
000290 3f ef 7f bd f5 79 e5 bd 13 a4 07 be 7c d9 d8 3d
       -0.062484022 -0.11204902 -0.13246183 0.10588357
0002a0 c2 94 f0 3d 22 89 ba be e9 8f 13 3e 1d b4 bf 3c
       0.11747123 -0.3643275 0.14410366 0.023401314
0002b0 58 35 3b 3e 43 e1 c2 bd a4 64 8e 3e 1e a6 5f 3d
       0.18282068 -0.095156215 0.27811158 0.05460178
0002c0 26 7b 47 3d 70 3d e3 3d b0 22 e7 3d 96 ee be bd
       0.048701428 0.11095703 0.11285913 -0.093228504
0002d0 e2 b5 bc 3b 9d 17 20 3e 01 c0 64 3e fb f1 b0 bd
       0.005758987 0.15634008 0.22338869 -0.08639904
0002e0 33 d4 86 3e a1 3b a3 3d dc 7f 19 bc 97 b5 ee 3d
       0.2633377 0.07970358 -0.009368863 0.11655729
0002f0 96 c6 e6 bd 7c 8d 0f 3e 12 79 3a 3e f4 72 8f 3d
       -0.11268346 0.14018816 0.18210247 0.070043474
000300 da b3 2a bd 16 e7 1a be b4 3c ca bd 65 cc fe 3d
       -0.041675426 -0.15127215 -0.098748595 0.12441329
000310 13 64 ae 3d da d2 e4 3d 6d 17 78 bc 7a 44 65 3e
       0.085151814 0.11173029 -0.015142304 0.22389403
000320 3b 3b 2e 3e 25 9f 37 3e 4b 2b a0 3d 60 c3 c9 3c
       0.17014782 0.17931803 0.078207575 0.024629295
000330 0a 51 00 3e ee 53 f5 3d a3 47 a4 bd 44 d9 84 3d
       0.12530914 0.11978899 -0.08021476 0.06486753
000340 cd df 02 3e 50 09 af 3d b0 96 46 bc 8c 25 7f be
       0.12780686 0.08546698 -0.012120888 -0.24916667
000350 ae 54 88 be 36 6d 1a 3e ca 9f 84 be 21 a3 45 3e
       -0.26627105 0.15080723 -0.2590316 0.1930051
000360 ff 04 c2 3d d4 56 bf bd b4 d1 26 bd 08 c3 6f 3d
       0.09473609 -0.09342733 -0.040727332 0.058535606
000370 50 ae 5c bc 38 d8 7d be d3 bc 2c 3d 6b ef 36 3e
       -0.013469294 -0.24789512 0.042172264 0.17864768
000380 89 16 57 bb 89 4a 53 bc 77 f6 4c 3c bf ba b8 3d
       -0.0032819828 -0.012896189 0.012509934 0.09019994
000390 06 89 27 3e 32 71 b4 3c 7e 13 fb 3d 4a 88 90 3d
       0.16360864 0.022026632 0.12259577 0.07057245
0003a0 38 c0 3d be 3c 92 cf 3c 65 93 fb bd df 68 81 bd
       -0.18530357 0.025338285 -0.12283973 -0.06318831
0003b0 b6 ba 07 3d 50 fe 32 3d e4 9d 8c bb 58 16 0c 3e
       0.033137046 0.043699563 -0.004291283 0.13680398
0003c0 5d af a3 3d 3d d8 38 be 1d 49 e5 bd 2f 8e 9c 3d
       0.07992432 -0.18051238 -0.11195586 0.07644307
0003d0 01 fa a0 3b 39 37 e1 3d fe 11 3b 3e f2 cd 53 be
       0.0049126153 0.10996861 0.18268582 -0.2068403
0003e0 a2 e3 c2 3d c7 94 ad 3d 85 cf 81 3d f3 b8 ab 3d
       0.09516074 0.08475643 0.06338409 0.08384886
0003f0 a0 91 6f bd 35 25 10 3d e5 fe e4 3c 3c a1 5b bd
       -0.05848849 0.035191733 0.027953574 -0.053620562

bias f4 [20]
000000 1c 50 a1 bd 3a dd fa bc 88 f9 65 3e 3d dd 8f 3e
       -0.07876608 -0.030623067 0.2245847 0.2809848
000010 fc 56 72 bd da ab 48 be 91 6e 6f 3e 89 f9 f3 3b
       -0.059164986 -0.19596806 0.23382021 0.0074455184
000020 53 a0 74 3e ef ae 57 bd b1 86 2e 3e 10 3a c2 bb
       0.23889284 -0.052657064 0.17043568 -0.0059273317
000030 0b 20 a1 3d 5e 5b b1 bc 24 f0 4d 3e 34 fe d6 3d
       0.0786744 -0.021650013 0.20111138 0.10497704
000040 75 eb 75 3e 6a ab 8d 3d 2f 64 23 be a9 e4 f0 3c
       0.24015601 0.0691746 -0.15956186 0.029405909

weight f4 [20]
000000 00 00 80 3f 00 00 80 3f 00 00 80 3f 00 00 80 3f
       1.0 1.0 1.0 1.0
000010 00 00 80 3f 00 00 80 3f 00 00 80 3f 00 00 80 3f
       1.0 1.0 1.0 1.0
000020 00 00 80 3f 00 00 80 3f 00 00 80 3f 00 00 80 3f
       1.0 1.0 1.0 1.0
000030 00 00 80 3f 00 00 80 3f 00 00 80 3f 00 00 80 3f
       1.0 1.0 1.0 1.0
000040 00 00 80 3f 00 00 80 3f 00 00 80 3f 00 00 80 3f
       1.0 1.0 1.0 1.0

bias f4 [20]
000000 00 00 00 00 00 00 00 00 00 00 00 00 00 00 00 00
       0.0 0.0 0.0 0.0
000010 00 00 00 00 00 00 00 00 00 00 00 00 00 00 00 00
       0.0 0.0 0.0 0.0
000020 00 00 00 00 00 00 00 00 00 00 00 00 00 00 00 00
       0.0 0.0 0.0 0.0
000030 00 00 00 00 00 00 00 00 00 00 00 00 00 00 00 00
       0.0 0.0 0.0 0.0
000040 00 00 00 00 00 00 00 00 00 00 00 00 00 00 00 00
       0.0 0.0 0.0 0.0

running_mean f4 [20]
000000 00 00 00 00 00 00 00 00 00 00 00 00 00 00 00 00
       0.0 0.0 0.0 0.0
000010 00 00 00 00 00 00 00 00 00 00 00 00 00 00 00 00
       0.0 0.0 0.0 0.0
000020 00 00 00 00 00 00 00 00 00 00 00 00 00 00 00 00
       0.0 0.0 0.0 0.0
000030 00 00 00 00 00 00 00 00 00 00 00 00 00 00 00 00
       0.0 0.0 0.0 0.0
000040 00 00 00 00 00 00 00 00 00 00 00 00 00 00 00 00
       0.0 0.0 0.0 0.0

running_var f4 [20]
000000 00 00 80 3f 00 00 80 3f 00 00 80 3f 00 00 80 3f
       1.0 1.0 1.0 1.0
000010 00 00 80 3f 00 00 80 3f 00 00 80 3f 00 00 80 3f
       1.0 1.0 1.0 1.0
000020 00 00 80 3f 00 00 80 3f 00 00 80 3f 00 00 80 3f
       1.0 1.0 1.0 1.0
000030 00 00 80 3f 00 00 80 3f 00 00 80 3f 00 00 80 3f
       1.0 1.0 1.0 1.0
000040 00 00 80 3f 00 00 80 3f 00 00 80 3f 00 00 80 3f
       1.0 1.0 1.0 1.0

weight f4 [1, 20]
000000 0d 03 02 bf 74 83 65 bf c4 d4 82 3e 7e dd a0 3e
       -0.50785905 -0.89653707 0.25552952 0.31418985
000010 ab 8d 04 bf 1f 0a 20 bf 79 a1 95 3e d6 81 82 bf
       -0.5177867 -0.62515444 0.29224756 -1.0195873
000020 38 78 29 3e 64 28 8f bf 19 c0 b2 3e e3 94 1a bf
       0.16549766 -1.1184201 0.34912184 -0.60383433
000030 75 9f 39 3e 9e 1d cd bd eb 6d 5b 3e ae 9b 41 3e
       0.18127234 -0.10015415 0.21428649 0.18907043
000040 46 59 e1 3d ad 46 3c be 7e 89 28 bf b8 10 6c bf
       0.11003356 -0.18386336 -0.65834796 -0.9221301
